Ibex/lstm_wgan/G.pt (torch, 410591 bytes, 17 tensors)

encoder.lstm.weight_ih_l0 f4 [256, 1]
00000000: ddbf e53d 1851 e33d 4ff2 dd3d 39c8 d2bb
00000010: 0f63 43be eaf7 af3d b153 f0bd 9d42 b1bd
00000020: 821a 1ebc eff9 c7bd f2b2 833d 8d87 18bd
00000030: ba08 d73c d4f2 9e3d 43ad 30be 425e c43c
00000040: 76c8 eabc 9325 debb be7c 35be dd56 d6bc
00000050: eac1 d0bd dbcc 873c 2d5e 13be 1020 0fbd
00000060: 7b5b ddbd e999 aa3d eda3 3abd 655d d2bd
00000070: aacd ac3d 6fec aabd f23e bd3c 3273 9d3c
00000080: 8061 d0bc 859b 1dbc 033a 5a3d 7967 14bd
00000090: ef46 fdbc acf3 1cbc 3c8a 423d fd30 f93d
000000a0: c007 593d b9e7 4dbc 224f 4dbc e983 19bd
000000b0: 76b5 7fbc b16a 41bd bf3b f23d 4596 9c3c
000000c0: 0a05 d8bc bb3c f93c a03f 9a3d 6b90 68bd
000000d0: b453 06be 3eeb 96bd 7f1b aa3d 2f4c 8b3d
000000e0: 6211 c23c bb7a f6bd c843 113e 1fe2 9abc
000000f0: 2b1b 123d 3a15 da3c 2e8c 243e feb6 bdbc
00000100: d649 e63d 3f2c 973d 9f1e d73d bfd7 283d
00000110: 3e4d 4dbe 5953 953d 4e1e 42be c546 09be
00000120: ed72 2bbe aab9 3dbe 0283 e2bd bbb8 1ebe
00000130: 0532 fc3d 1479 c9bc d459 bcbd e258 61bd
00000140: f270 99bd bc4e 00bb e5ee 70bc debc a53c
00000150: 6852 9bbd 32d3 5d3e 9353 dc3d a2fe d83d
00000160: 3808 09be 8f3c 933a 284b 1cbe aeb9 1bbe
00000170: c442 a73c ad2a 21be 4f5c dd3d 562b 29be
00000180: 69d9 c6bd e03f 0b3e 6b86 ab3c 67fd ad3b
00000190: ea00 b7bb 8b26 5cbe d691 a8bd 22db d63d
000001a0: 771d 9b3d 91f5 b9bd 2a2c 16be c550 99bd
000001b0: 3086 843c 5fcb 03bd a001 873d bbac 14be
000001c0: a78c da3d a298 ddbd cb6c c63d 09d2 12be
000001d0: 585a 15be 255c 5d3d b03a 8cbd ffda 8ebc
000001e0: a060 90bc 4daf b53d a1b8 953d 443d 36bd
000001f0: b293 2d3e b909 193e eb4c b33d 7ee3 a2bd
00000200: d069 3fbc b5b1 60bc 77fe f0bc 9c0d 8f3d
00000210: c897 c5bd 3427 0e3e 6387 313e 71be cabd
00000220: d435 b53d 6c18 103b fa05 0f3c 4239 0dbe
00000230: adad d9bd 74fb 32be d9e6 4d3e 4def 48be
00000240: 776b 683b 0259 bf3c 4ed7 e23d 8773 aa3d
00000250: 4671 0b3e ea03 3c3e 0570 42bc 55ce 003d
00000260: f31a 89bd 4b79 15be fa68 7e3d c4b5 313e
00000270: b376 143d 4445 8abd fa27 92bd 7108 f0bd
00000280: d385 493c 2170 80bd 3a6d 183e b82c 91bd
00000290: f7b0 90bc 5eb9 1b3e d551 4f3e f818 ad3d
000002a0: 5e3d dd3d 0ce3 dabd deb0 45be 4c4a 2cbe
000002b0: b486 a63d 7c3f b33d f7f4 ed3d 1a67 27bd
000002c0: d6ef d6bc 8733 2bbe 6b7e 9f3d 8d4b 7d3d
000002d0: 9b04 333d 6962 71bc 9691 e23d dcc5 9bbd
000002e0: dc3c 37be 1d8f 02be c54b 27be b02f 223e
000002f0: 1037 21be 094e 0a3e ae80 64bc 5787 893c
00000300: 0bd7 b93d 6525 9d3d b748 d5bc 5b14 efba
00000310: 3cfc 383d 791a bdbd e7df 33be a5dc ecbd
00000320: 47c7 f83c 346b 9abd 799b 9ebd 09f6 e0bc
00000330: 85bb 433e 3f2f 5cbc 342e 50bd 8fbd 1abe
00000340: f368 00be a2d7 74bd ffd9 64bd a2c6 07bd
00000350: 61d5 0fbe 395d 183e c59b aabd 69bb 263d
00000360: e718 04be 8d32 acbd f224 a4bd a98c 0dbe
00000370: 248a 2d3e c3bd 3cbe 41e0 f5bb f9e0 57be
00000380: e1d3 9f3d b342 063e fb75 37bd 9817 9e3c
00000390: 6dd6 a3bd be9a 513c 263e 00be accf 583b
000003a0: af23 673e 9af7 ebbd 2db3 8dbd 90a0 07be
000003b0: ba87 933d b9f9 f13d 1b15 2e3c 1db2 c03c
000003c0: 8a31 a7bc 3e3d 7dbd b1b1 d3bd 068b 42bd
000003d0: 0228 c6bc 5b47 d2bb 10ce 193c 598a b9bd
000003e0: 532f 933c 8a5d 6abd fe91 43bd 0797 083e
000003f0: c638 943d 2140 853d 370a 9c3d 5493 68bd
0.11218236 0.11099452 0.10837232 -0.00643256 -0.19080757 0.08592208 -0.11734713 -0.086552836
-0.009649875 -0.09764468 0.064306155 -0.037238646 0.026249278 0.077611595 -0.17253594 0.023970727
-0.02866004 -0.0067793815 -0.17723367 -0.026164467 -0.10193236 0.016577175 -0.14391394 -0.034942687
-0.10808464 0.08330137 -0.045566488 -0.1027172 0.08437665 -0.083458774 0.023101304 0.019219968
-0.025437117 -0.009619598 0.05327798 -0.03623149 -0.030917613 -0.00957958 0.04749511 0.12167547
0.052985907 -0.012567454 -0.012531074 -0.037479315 -0.0156072285 -0.04722089 0.11827802 0.019114623
-0.02636959 0.030424466 0.07531667 -0.056778353 -0.13117868 -0.07369088 0.08306026 0.0680164
0.02368993 -0.12035128 0.14186013 -0.018906651 0.03567044 0.02662145 0.160691 -0.023158547
0.11244552 0.07381486 0.105038874 0.041221377 -0.20048997 0.07291288 -0.18956873 -0.13405903
-0.1674306 -0.18527856 -0.11060144 -0.15500157 0.12314228 -0.024593867 -0.09196821 -0.055016406
-0.07492246 -0.001957818 -0.014705394 0.02023166 -0.07584077 0.21662596 0.10758128 0.10595442
-0.13382041 0.0011233258 -0.15263045 -0.1520755 0.020417579 -0.15738936 0.10808622 -0.16520438
-0.097094364 0.13598585 0.020938119 0.005309749 -0.0055848258 -0.21499078 -0.08230941 0.10491015
0.07573979 -0.09080041 -0.14665285 -0.07486109 0.016177267 -0.03217637 0.06592107 -0.14519016
0.106713586 -0.10820128 0.09688719 -0.14337935 -0.14585245 0.054042954 -0.06847131 -0.01743841
-0.0176242 0.088713266 0.07310606 -0.04449202 0.16950873 0.14945115 0.08754905 -0.07953547
-0.0116829425 -0.013714244 -0.029418213 0.06985018 -0.096480906 0.13882142 0.17336802 -0.09899605
0.088481575 0.0021987213 0.008729452 -0.13791373 -0.10628829 -0.17478734 0.20107593 -0.19622536
0.0035464445 0.023357872 0.11076222 0.08322816 0.13617429 0.18360868 -0.011867528 0.031446774
-0.06694593 -0.14597051 0.062111832 0.17354494 0.036246013 -0.067514926 -0.07136531 -0.1172036
0.012299973 -0.06271387 0.14885417 -0.070886075 -0.017662508 0.1520743 0.2024606 0.08452028
0.108027205 -0.10687837 -0.1930575 -0.16825217 0.08131161 0.08752343 0.11618989 -0.04086981
-0.02623741 -0.16718875 0.07787784 0.06183963 0.043705564 -0.0147329355 0.110629246 -0.07606098
-0.1789431 -0.12749906 -0.16337498 0.15838504 -0.15743661 0.1350633 -0.013946695 0.016788168
0.09074219 0.07673148 -0.02603565 -0.0018240319 0.045162424 -0.09233565 -0.1756588 -0.11565522
0.03036846 -0.075399786 -0.07744498 -0.027461069 0.19114502 -0.013438999 -0.050825313 -0.15111373
-0.12540035 -0.059775956 -0.05587196 -0.033148415 -0.14046241 0.14879312 -0.08330492 0.040706072
-0.12900124 -0.08408079 -0.08014859 -0.13823189 0.16947228 -0.18431763 -0.00750354 -0.21081914
0.078040846 0.13111381 -0.04479025 0.01929836 -0.07999883 0.012793241 -0.12523708 0.0033082766
0.22572206 -0.115218356 -0.06918941 -0.13244843 0.07203622 0.11815209 0.010625149 0.023522431
-0.020409364 -0.061825983 -0.10336626 -0.047495864 -0.024189 -0.0064171976 0.009387508 -0.09059591
0.017966902 -0.057218112 -0.04774665 0.13338862 0.07237391 0.06506372 0.07619136 -0.056781128

encoder.lstm.weight_hh_l0 f4 [256, 64]
00000000: 853d 2bbe a20f 443d 2018 293d 1799 323e
00000010: e553 bfbd dd56 4abb 29cd 253e b6da 1bbe
00000020: 7e83 b0bd b8d6 a23d ea55 46be 3c46 81be
00000030: 3cb2 f1bd 7d6c 29be ec92 2b3d 5695 a4bc
00000040: 186b 9d3c 5d81 ef3d f6ed 3e3d d906 82bd
00000050: 4239 96bc ea4b 693e db44 1a3e 2b40 b4bd
00000060: 0315 2fbd 1cf8 b9bd 303e 4c3d 31f5 1abd
00000070: a0cc 3bbd 11f5 b4bc 5b86 593d 9583 6fbd
00000080: 453e d53d 14bc eb3d ebb3 573d 8c5e df3b
00000090: a9ba 46bd 19d8 5e3d 9c96 0c3e fc86 bdbc
000000a0: b029 bd3d 0696 cbbc 839a 0abe 3559 26bd
000000b0: a071 65bb 217f cb3c b4da 273c 82e5 20be
000000c0: 8d6d 11bb 5ad8 b8bd a92f c6bd ead9 723c
000000d0: bb8f 67bd 83b0 b93d 3d78 3cbd 031e 303d
000000e0: 91d0 2dbe dbaf 13be 0c0e 4cbe c28b 473d
000000f0: d372 ffbc 734a 463d 71ce 473d 8de7 9dbd
00000100: 6918 dbbd cd4e f63c cf51 683b e6f8 a8bd
00000110: 8ca3 31be ba93 263e 9aec eb3d 3ae9 c03b
00000120: 740b 303d 3163 483d 06cc f2bd 8ac5 34bd
00000130: 2d71 08bd 09e4 a7bd ea57 0a3d d98e 2ebe
00000140: 3344 11be 9dc4 a23d 7613 b8ba 85ba a33d
00000150: 7268 073d f855 1ebd 1257 893d 525d 86bd
00000160: ebd1 babd c713 0b3d f5a4 a23c 425c 48bc
00000170: 0758 4cbd 2ebf 7fbb b9b3 2fbe ad53 91bd
00000180: 666a 51bd 1646 b7bd 7e88 94bc 7390 7a3c
00000190: 892f 273c cb22 323d e84d a83c 60a1 0bbc
000001a0: 76c8 3bbc 3cac 2c3d 8352 8c3d 7681 babd
000001b0: 5eec 65bd a45d 0a3b e820 1b3e 8f47 41be
000001c0: 90f7 be3c e054 9ebd ed6a 103c 8edc b53d
000001d0: 61d3 433d 6193 093e bc02 c83d 030f 04bd
000001e0: 16d9 7ebd 6313 533c ba50 1bbd 30b9 3a3e
000001f0: 6d69 43bc e4c0 5abd 9ea4 b93c 74b0 8c39
00000200: b2d4 3e3c 5d8d 1d3d b958 05be 032e 963d
00000210: 3071 49bc d686 c2bd fddd f73d a41c f0bd
00000220: 855e aebd 684e 08be 2f3e 1b3d 1bf6 39bd
00000230: 81d1 3ebd d7b3 c13c cb03 fd3c d3b6 97bd
00000240: 19dd 82bd 71ad 653d c0b4 02bd 07c9 0dbe
00000250: f73d e13d 0497 043e 622b f13d 0740 723d
00000260: 00bd 94bd 10c2 ac3c 727f 42bc 25d7 e03d
00000270: b80e 0ebe 893b 143d 6724 343c 89ef e93c
00000280: 78e6 a9bd ef35 80bd a32f 3b3b 887b 52bd
00000290: a0d2 2d3e ab97 36bd db00 f4bc 5b2b b7bc
000002a0: 33e8 b1bd 32ec c83b 2346 d93c 5631 eabd
000002b0: 13f9 c7bc 26a0 3e3e 187f 063d b972 b9bd
000002c0: e628 0bbe e1c9 4fbd 20ac 2abe 4f72 b3bb
000002d0: f9c9 8a3d d9f2 bfbd 8182 ba3d c5c1 4b3c
000002e0: 8f32 853d 62e4 08be ec25 113e 244d 73bd
000002f0: aaba b5bd c83b af3a e5cb 733a a261 ae3d
00000300: 1d5e 7bbc 686f f83d 9729 f93d 0b84 d13d
00000310: f183 783d dae3 5bbc bfa0 103e 1f73 0fbd
00000320: 518b 7a3d af6d a1bd f03e 42be 8ee1 85bc
00000330: 9509 41be 5e5b 08be 45e9 353e cbda 11be
00000340: f11d 543d 3a88 433d 36a9 933b 2556 28be
00000350: 1bab 84bc e2ad aa3d 155e 933d b5fe 7bbd
00000360: b60e 46bd 7621 e4bd b693 17bc 076d c1bc
00000370: 577f 723d c3f6 1cbd 2f21 09be 686e 60bd
00000380: 410a 1b3d 07d6 193e cf34 4cbd 78e7 c0bc
00000390: 8bf1 b73d 1009 043e 5b97 1439 97ba c43d
000003a0: 671b 293d 9247 11bd 1304 613d 09a8 743d
000003b0: 96c5 123e 24b6 8f3d 6d21 da3d 6661 80bd
000003c0: a985 e03d a82e cd3b 03a1 e9bc a0a9 1ebd
000003d0: 408e 32bd 289f 2d3e 1089 fe3d f79a a23d
000003e0: 7ff9 d2bd 0a67 133e 8c74 c5bd 9db3 263e
000003f0: a1f1 63bc 1fc0 f5bb 6847 e83c bf8a 2ebe
-0.16722687 0.04786647 0.041282773 0.17441212 -0.093421735 -0.0030874528 0.16191544 -0.1522015
-0.0861883 0.079511106 -0.19368711 -0.25248897 -0.11801574 -0.16545291 0.041888162 -0.02009074
0.019216105 0.11694596 0.046613656 -0.06348962 -0.01833785 0.22782865 0.15065329 -0.088013016
-0.042744648 -0.09080526 0.049863994 -0.03783149 -0.045849442 -0.022089513 0.053106647 -0.058475096
0.104122676 0.115104824 0.052661818 0.006816691 -0.048517857 0.054405306 0.13729328 -0.023135655
0.09236467 -0.02485181 -0.13535504 -0.04061242 -0.0035010353 0.024840893 0.010245014 -0.1571255
-0.0022190541 -0.09025641 -0.09677059 0.014822463 -0.056533556 0.0906687 -0.046013106 0.04299737
-0.16974093 -0.14422552 -0.19927233 0.048717268 -0.031182682 0.048410844 0.048780862 -0.077101804
-0.10698015 0.030066872 0.0035449152 -0.082505986 -0.17347544 0.1626729 0.115197375 0.005887178
0.042979673 0.04892272 -0.11855321 -0.0441337 -0.033311058 -0.08197791 0.033775248 -0.1704668
-0.14186172 0.07947657 -0.0014043886 0.0799456 0.03305859 -0.038656205 0.067060605 -0.06560768
-0.0912207 0.033954408 0.019854048 -0.012229027 -0.049888637 -0.0039023864 -0.17158403 -0.07096038
-0.05112686 -0.08948915 -0.01813149 0.015293228 0.010204204 0.043490212 0.020544961 -0.0085223615
-0.011461368 0.042156443 0.06851675 -0.09106724 -0.05613362 0.0021112943 0.15149271 -0.18874954
0.023311406 -0.07731032 0.008814556 0.08879958 0.04780901 0.13435127 0.097661465 -0.03224088
-0.062218748 0.01288304 -0.037918784 0.18234706 -0.011926991 -0.05340661 0.022661503 0.0002683435
0.01164739 0.038464893 -0.13022126 0.07332995 -0.012295052 -0.09498374 0.12102888 -0.11724213
-0.08514122 -0.1331116 0.0379011 -0.04540072 -0.046586517 0.023645325 0.030885598 -0.07407918
-0.06389827 0.05607361 -0.031910658 -0.13846217 0.10998147 0.12948233 0.11775853 0.059143092
-0.072626114 0.02108863 -0.011871206 0.109785356 -0.13872802 0.03618959 0.010995007 0.028556602
-0.082959116 -0.06260287 0.002856233 -0.05138734 0.16974878 -0.044578236 -0.029785564 -0.02235954
-0.086868666 0.0061316723 0.026522702 -0.11435191 -0.02441076 0.1861578 0.03283605 -0.09055085
-0.1358982 -0.050729636 -0.16667223 -0.005476273 0.067768045 -0.093724914 0.09106923 0.012436335
0.06503784 -0.13368371 0.14174622 -0.05939974 -0.08873494 0.0013369257 0.0009300097 0.08514716
-0.015342263 0.12130624 0.12166136 0.10230263 0.060672704 -0.013421023 0.1412382 -0.035021897
0.06116802 -0.078822486 -0.18969321 -0.016342904 -0.18851312 -0.13316104 0.17764767 -0.14243619
0.051786367 0.047737338 0.0045062555 -0.16439112 -0.01619487 0.08333947 0.07195679 -0.061522204
-0.048353873 -0.11139195 -0.009251526 -0.023611559 0.059203472 -0.038321268 -0.13391565 -0.05479279
0.037851576 0.15023051 -0.04985505 -0.023547873 0.089816175 0.12894082 0.00014170764 0.09605902
0.0412859 -0.035468645 0.054935526 0.059730563 0.14333186 0.070171624 0.10650907 -0.06268577
0.10962994 0.0062616654 -0.02851916 -0.038735986 -0.04359269 0.16955245 0.12428486 0.079397134
-0.10301494 0.14394775 -0.0964137 0.16279455 -0.013912589 -0.0074997093 0.028354362 -0.17045115

encoder.lstm.bias_ih_l0 f4 [256]
00000000: c3a8 543b 9aa0 98bd dbcc c83d 5ea2 283e
00000010: 19ad 2abc 7cb6 da3d ac95 1e3e 110c ecbd
00000020: e510 683d a013 ea3d 9c4a 7a3d e480 e0bd
00000030: 0a59 033d 8630 43bd 82f2 3bbd ec8a 503d
00000040: 162f bebd 5ba5 323e c7fd 03bd c658 0dbc
00000050: b7a2 983d b6fb a23c 7c03 71bc e480 2cbe
00000060: 3a74 783d 55ac ec3c 000d 043e b0ae 0a3d
00000070: c09c e5bd 254d b73d 48c4 c9bd ea6f cd3d
00000080: 58dc c1bd e2a8 923d 937e 3f3e 6e21 e4bd
00000090: f8dc f53c 932b a43b c72f ac3c a01f 8a3d
000000a0: b0f3 263e 0a80 a53d 27e5 253b 455e 45bd
000000b0: a4e5 ff3c 66f9 613c a917 173c c562 a23d
000000c0: c202 983d 8e94 333d e0a9 d5bd d453 703c
000000d0: 5e10 193e 1b17 833d 85a9 e5bd cc45 13be
000000e0: 0d3f 4ebc b7fe b23d d9c0 163e f14e b33c
000000f0: 7658 1ebd 0403 32bd d5a4 e3bc 0612 f9bc
00000100: 48fa 063d 0f96 72bd d550 f63d 3c04 de3d
00000110: 7db3 b03d e4c5 2c3e 2271 353c aebd 193e
00000120: bcae 34bb 8508 c13d fde0 87bd a1d1 ee3d
00000130: bb58 263d 1b4b 393b 22ce e33d bfc5 8cbb
00000140: 3d0d dd3d b1fd 043e 35c0 0cbd c701 02be
00000150: 185a 843c 8909 783d 56ef a53d 14d7 52bc
00000160: afab 323d 1eb0 0b3e d0a9 a939 bbcf b83d
00000170: d4f3 873d ed6b 8cbd f2fb e9bc a658 3f3d
00000180: 4c7a 8b3d d576 a2bd 16dc 2b3e db4e 4dbd
00000190: 4ab9 c43d 11b3 0dbd a353 25bd c722 dbbc
000001a0: d391 183d a75b 2dbd 35a8 d23d 3650 c23d
000001b0: 62d3 92bd 2fdd ab3d 6f15 9bbd e29a 5d3d
000001c0: 798d ef3d d1ab d23d 2e60 fbbc 2166 19be
000001d0: a59a 883d 3111 583e 3ed5 723d dda5 1dbe
000001e0: 6cc8 41bd 7f8e 13bd 86e7 153d 3dd9 b5bd
000001f0: 4fbd 5bbd f6b9 7fbd d532 89bd 133f 9cbd
00000200: 4e5e 9abd d27c 39bd cb29 90bd 0f6c 153e
00000210: e63f 993d f440 91bc 144f d9bc 7e9f d4b9
00000220: 7e4f 103d c22e cfbd 20a4 90bd 7d1f 98bd
00000230: ce2e b8bd 8a7d cd3c b691 9f3d 751f ff3d
00000240: 20db cd3d 3e2c 363c 73f5 13be ad97 01be
00000250: cd66 83bd fc32 45bd 5735 95bd c688 d63d
00000260: 4c37 913d 1bf2 c53d 1a58 f53c 0e15 cdbd
00000270: 9830 9e3d abca fd3c 4129 74bd 85f2 623b
00000280: 78f3 173e 290c 1abd 5525 d9bd e53e be3d
00000290: 272e 1c3d c35a f7bd 4450 bb3d 5d72 c43c
000002a0: 97c8 663d 27fa 003d 9cd4 20bd a3d6 3fbd
000002b0: 57ec c53d 7c20 11bd e7d4 1dbd bfad c7bc
000002c0: e738 ae3d de82 a6bd 46a2 10bd 5957 dbbb
000002d0: d0e3 163e e818 813d 7c28 80bd c7d7 b83d
000002e0: 34e2 eebc 3572 30bd a0f0 f7bc cce8 0f3d
000002f0: 0bab 8cbd a160 733d 2ac2 db3d 4061 27bd
00000300: f765 22bd 3423 6dbb bfb4 f5bd 8f2c 85bc
00000310: fde0 493d 5bdd 843d 9c53 8ebd ef73 8b3d
00000320: b649 773d fa68 c9bc 49e6 ea3d 40d2 dd3c
00000330: 423e 3cbc 8fa3 a63d 0ec0 1cbd 75f1 ba3c
00000340: 7e84 113d ce6d ab3c 9a57 abbd 6913 c6bd
00000350: 0747 b0bd e431 3cbd a022 1a3c 736e 27bd
00000360: 62cf 51bc 3db6 1dbd 0c5b 63bc bfc0 a33d
00000370: 0109 a7bd 50c9 09be 5968 98bd 20cb 0c3e
00000380: 78ec f13d de6f edbd 654c 153e 69cf 49be
00000390: 287f 063d 4200 063d 4951 693d 5428 2a3e
000003a0: bb41 ad3b 3efa f43d af71 1fbd 6c81 9b3b
000003b0: ce09 0abd c963 69bd db42 ad3d f737 f33c
000003c0: 8c8e cebd 8381 cd3d 4325 87bd 7be1 63bd
000003d0: 721f 383d 5b5b 923d 1c69 d0bd 833b 27be
000003e0: 2445 a23d 59be 8a3d 7d59 d53d b218 b9bd
000003f0: 3d9f 2a3e e6e6 e3bc 286f bfbd c1aa c63d
0.0032449223 -0.07452507 0.09804698 0.16468188 -0.010417246 0.106793374 0.15486783 -0.11525739
0.056656737 0.114295244 0.06110631 -0.10962084 0.032067336 -0.047653697 -0.04588557 0.050913736
-0.09286325 0.1744589 -0.032224443 -0.008627122 0.074529104 0.019895416 -0.014710303 -0.16846043
0.060657717 0.028890768 0.12895584 0.033858 -0.11211538 0.08950261 -0.09851891 0.100311115
-0.09465855 0.07161118 0.18700628 -0.11139189 0.030012593 0.0050100773 0.021018876 0.06744313
0.16303897 0.08081062 0.0025313587 -0.048185606 0.03123743 0.013792371 0.00922195 0.07928995
0.07422401 0.043842845 -0.10432792 0.014668424 0.1494765 0.064008914 -0.11213974 -0.14382094
-0.012588275 0.08739989 0.14722003 0.021888228 -0.03865858 -0.043459907 -0.027788559 -0.030404102
0.03295353 -0.05922514 0.12027136 0.108406514 0.08627985 0.16872364 0.011074336 0.15013763
-0.002756997 0.09425453 -0.0663471 0.11661077 0.040611964 0.0028273526 0.11123301 -0.004296034
0.107935406 0.129874 -0.03436299 -0.1269599 0.016156241 0.06055597 0.0810229 -0.012868661
0.04362076 0.13641402 0.00032360712 0.090239964 0.066383034 -0.06856523 -0.02856252 0.0467154
0.06810436 -0.07932822 0.16783175 -0.05012403 0.096056536 -0.0345946 -0.040362965 -0.026749982
0.037248444 -0.042323735 0.10285989 0.09487955 -0.07169224 0.08391797 -0.075724475 0.054102786
0.11696906 0.10286678 -0.03068551 -0.14980365 0.06670121 0.21100308 0.059285395 -0.15395303
-0.047310278 -0.036024567 0.03659775 -0.088793255 -0.053647336 -0.062433206 -0.066991486 -0.07629218
-0.075375184 -0.045285054 -0.070392214 0.14592002 0.07482891 -0.017731167 -0.026526965 -0.00040554622
0.03523206 -0.1011634 -0.07062554 -0.07427881 -0.08993302 0.025084276 0.07791464 0.12457172
0.100515604 0.011118947 -0.144491 -0.12655516 -0.06416092 -0.048144326 -0.072855644 0.10475306
0.07090625 0.096653186 0.029949237 -0.100137815 0.07724112 0.030980429 -0.059609655 0.0034629416
0.1483897 -0.037609253 -0.10602824 0.0928934 0.03812995 -0.12077858 0.09146169 0.023980314
0.05634364 0.031488564 -0.03926526 -0.046835553 0.09664219 -0.03543137 -0.038533118 -0.02437484
0.08506947 -0.0813043 -0.035311006 -0.0066937623 0.14735341 0.063035786 -0.06257722 0.09025531
-0.029160596 -0.043077666 -0.030266106 0.03513412 -0.06868561 0.059418324 0.10730393 -0.04086423
-0.039648023 -0.0036184313 -0.11997365 -0.016256599 0.04928683 0.06487533 -0.06949541 0.06809222
0.06037303 -0.02458619 0.11469705 0.027077794 -0.011489453 0.08136665 -0.038269095 0.022820214
0.035526745 0.020926382 -0.08366318 -0.09671671 -0.086072974 -0.045946017 0.009407669 -0.040876817
-0.012805792 -0.038503874 -0.013876688 0.07995748 -0.08156014 -0.13455701 -0.07441778 0.13749361
0.11812681 -0.115936026 0.14579923 -0.19708027 0.03283611 0.03271509 0.056962285 0.16616946
0.0052873767 0.119617924 -0.038926776 0.004745653 -0.033700757 -0.05697993 0.08460017 0.029689772
-0.100857824 0.10034468 -0.06598904 -0.055634957 0.044951864 0.07146331 -0.10176298 -0.16331296
0.07923344 0.06774587 0.10417459 -0.090379134 0.16662307 -0.027820062 -0.09347373 0.097005375

encoder.lstm.bias_hh_l0 f4 [256]
00000000: 8582 e23d 3540 23bc 4b1f 60bd 7163 f7bc
00000010: 228d 06be 6df2 523e 5921 93bc e319 67bd
00000020: 7237 20be 3f09 c33d 9a1d ee3d dd4b b9bd
00000030: 72f9 453c 951a 67bd 2329 813d 10c2 663d
00000040: 1528 c0bd 8227 153d a107 993c 2664 dcbd
00000050: c7ea 023e bdbc 5ebd 53c5 ebbb a0f4 20be
00000060: eb12 6bbd 5465 1abd 64c6 253e 3c1e d03d
00000070: f021 7b3d f23c 0b3d 9e8b 023e fe59 da3d
00000080: 4358 1dbb 0bf6 89bd ddfe 31bd 0724 39bd
00000090: 8993 8bbd 36da 97bd bae5 963c 1f37 03bd
000000a0: 0fe0 2fbc 320a 38bd 1751 a8bd 474c 683d
000000b0: 53ab c93d 0c39 1e3e 20ee 693b 5736 283e
000000c0: e140 34bd 32b5 d3bd 5e85 c6bd 35f6 e83b
000000d0: 2707 c43d 373b 023e 5282 bf3c b0cc 6cbd
000000e0: aa8d 5ebc 5fff 97bd 99b7 013e 802b 4e3d
000000f0: 7b48 8fbd 87ab 1dbe 07c6 87bd 352a a83d
00000100: 0c75 113e 250c 72bd deaa 1d3d b422 bf3d
00000110: b335 cabd b6b8 7eba b3b6 843d dd8a 563c
00000120: 8ea8 0abd 92ae c83d f3b8 2a3b 2c22 e53d
00000130: ffe0 8d3c f374 cdba da0a 093e 7222 453c
00000140: 6347 0c3e 2e23 573d 50ab f03c 1248 ae3c
00000150: 19b0 c03d b1bc 1b3e 42b3 f4bc 758a 26bc
00000160: 3457 b83d 63c4 f0bc ea35 123e 5ea1 26bd
00000170: c679 97bd bed5 ccbd 6c92 1fbd 4a63 bf3c
00000180: 21e2 7ebd 2e5d acbd 3bc2 d6bc fe72 aabd
00000190: 3969 debd 66fe 8e3c 27f5 7b3c 8918 4fbc
000001a0: f315 8a3d 42c8 cebc 827a 3f3d deb0 b33d
000001b0: 5f75 83bc 7ed8 28bd a51b 0d3e 6c2d a13c
000001c0: a868 10bc b895 38bd c87a 14bd 3a1b 28be
000001d0: f8ec 293c 822e 3b3d 5c57 883c 7c29 c4bd
000001e0: f7d8 dd3d e3cd c83d 3385 f23d 6ea5 0bbd
000001f0: f54a 703d 4e18 a73d 52be 8f3d d253 59bd
00000200: 8565 4b3b e83c ddbd 24a2 d2bd 28d4 a53d
00000210: 3b60 983d 1402 9abd e6d4 eebc 05c6 0bbd
00000220: c290 81bc dc91 46be da1b 16bd 70d2 c3bc
00000230: 1f31 04bc e211 42bd 8be6 2d3b aed7 0d3d
00000240: 5ea4 ff3d 528d f33d 7b72 2b3d 0782 963d
00000250: 815d 62bc 88cf d33c 5f9d a93c f625 7d3d
00000260: 2392 3bbd b1f3 29bd 3108 21be 9a5a 11bd
00000270: 4c17 cbbc 6b9c 27bd 0c27 23bd 04e8 203d
00000280: 18de 4fbb ee5f 9b3d 61df a43d bae7 d83d
00000290: b589 0dbb ef89 02bd 4e40 ed3c 0507 ea3c
000002a0: b140 f6bd 684e 213e 9c28 21bd cabf 833d
000002b0: 6522 9c3d c1d6 b1bd 4f55 8cbc 778f f03d
000002c0: e77b 70bd ed1a d9bd 9c39 833d 97ae bcbd
000002d0: 0e5b 1b3e 29e4 4b3d a3d3 d0bd 6981 03bd
000002e0: c37f e23d adaa 863d bc20 cf3c 0647 f03c
000002f0: dd50 f73c bf55 2e3c 5fd5 c43d ba7f fabd
00000300: 7fc7 a53d 02ba eabd 910a 433d 0ddd 82bd
00000310: a20d 5abd e832 c03d 4f2c 90bd d109 903d
00000320: 50c6 123d c38e 233e 8725 cbbd d285 96bc
00000330: 31d1 cabc 3567 8abd 72ad 36bd 1dc7 623d
00000340: 28a5 c8bc fc5d f93c 3135 a6bd 769f acbd
00000350: e3a9 b2bd c128 723c fe3e b9bb d49c acbc
00000360: 6828 e03d 0a40 8a3d 3c4a a1bc 19c8 c73d
00000370: 123b 863d 2742 aa3d 1229 b43d cc38 fc3d
00000380: f5e5 d73d d267 8b3d 05be 3b3e 65f6 3bbe
00000390: 04de 15bd 3478 9e3d 27bf 323e 2e80 1c3e
000003a0: 957b 2abd 92e0 493d e87b ca3d 1ae7 1a3e
000003b0: c793 c3bd dd62 d03d 9711 ac3d c321 4abd
000003c0: d973 0abd c464 783c 05a9 c53c 7e0b ffbd
000003d0: 8c45 d33d 3c8f 043e 5a64 03bd 5728 cbbc
000003e0: 6ad2 c03d 0fb5 f33d 9abe 84bc 0d4f d43d
000003f0: c496 af3d a500 7b3c e16a 9ebd eb4b d9bd
0.11060051 -0.009964039 -0.054717343 -0.030198785 -0.13139775 0.2060029 -0.017960237 -0.056421172
-0.1564615 0.09523248 0.1162674 -0.09047673 0.012083398 -0.056421835 0.06306674 0.056337416
-0.09382645 0.03641463 0.018680396 -0.10761289 0.12784873 -0.054379214 -0.0071951537 -0.15718317
-0.05739109 -0.03769429 0.16188961 0.10162017 0.061311662 0.03399367 0.12748572 0.10661696
-0.0024008907 -0.06736382 -0.043455947 -0.045200374 -0.068152495 -0.07414667 0.018420089 -0.03203499
-0.010734572 -0.044931598 -0.08218592 0.05671337 0.098471306 0.15451449 0.0035694912 0.16426979
-0.044007186 -0.10337295 -0.096934065 0.0071094283 0.09571677 0.12717901 0.023377571 -0.057812393
-0.01358358 -0.07421755 0.12667693 0.050334454 -0.069962464 -0.15397464 -0.066295676 0.08211175
0.14204806 -0.059093613 0.03849303 0.09332791 -0.098735236 -0.0009716855 0.064801596 0.013094631
-0.033852153 0.09798922 0.002605018 0.111881584 0.0173192 -0.0015675112 0.13383046 0.012032138
0.13699107 0.052523784 0.029378563 0.0212746 0.09408588 0.15208699 -0.029870633 -0.010164847
0.09001008 -0.02939052 0.14278379 -0.040681235 -0.07396273 -0.100017056 -0.038958 0.023362774
-0.062227372 -0.0841621 -0.026215663 -0.08322714 -0.108599134 0.017455291 0.015378273 -0.012640127
0.06742468 -0.025241975 0.046747692 0.08773969 -0.016047178 -0.041222088 0.13780077 0.01967498
-0.0088140145 -0.045064658 -0.036249906 -0.16416636 0.010371439 0.04569865 0.016643219 -0.09578225
0.108323984 0.09804895 0.11841812 -0.034093313 0.058665235 0.081589326 0.070187226 -0.053058453
0.0031035852 -0.108026326 -0.10284832 0.08097106 0.074402295 -0.075199276 -0.029154252 -0.034124393
-0.015816096 -0.19391578 -0.036647655 -0.023904055 -0.008068352 -0.047380336 0.002653512 0.034629516
0.124825224 0.11892189 0.041857224 0.073490195 -0.013816238 0.025855795 0.020704923 0.06180378
-0.045793664 -0.041492168 -0.15725781 -0.035486795 -0.024791382 -0.040920656 -0.03983216 0.039283767
-0.0031718072 0.075866565 0.08050419 0.10591073 -0.0021596972 -0.031869825 0.028961327 0.0285678
-0.12024058 0.15752566 -0.03934537 0.06433065 0.07623748 -0.08683539 -0.017130522 0.11746114
-0.058711912 -0.10600839 0.064074725 -0.09212988 0.15171453 0.049778137 -0.101966165 -0.032105837
0.11059525 0.065755226 0.025284164 0.029330742 0.030189926 0.010640561 0.0961101 -0.12231393
0.080946915 -0.114612594 0.0476175 -0.06389818 -0.053235658 0.093847096 -0.07039701 0.07033122
0.035833657 0.15972428 -0.09919267 -0.018374357 -0.024757953 -0.067579664 -0.044599004 0.05536567
-0.024492815 0.030440323 -0.08115614 -0.08428852 -0.087238096 0.014780224 -0.005653261 -0.021070875
0.10945207 0.06750496 -0.019688718 0.097549625 0.065542355 0.08313399 0.08796896 0.12315521
0.10541908 0.068069115 0.18334205 -0.18355711 -0.036588684 0.07737771 0.17455731 0.15283272
-0.041621763 0.049286433 0.098869145 0.15127221 -0.09549671 0.10175107 0.084017925 -0.049348604
-0.033801887 0.015160743 0.024128446 -0.12453364 0.103159994 0.12945265 -0.032078125 -0.024799509
0.09415133 0.118997686 -0.016204167 0.1036664 0.08573678 0.015319978 -0.07735229 -0.10610183

encoder.lstm.weight_ih_l1 f4 [256, 64]
00000000: 7d6f c8bc 224a 17bd 5ca0 04be 4acd d33d
00000010: 7b3b a73d e587 eb3d 3e09 a33d 4d2b 41bd
00000020: a7c9 f9bd 7634 80bd c8dd e3bd f457 90bd
00000030: 9311 6e3d 8471 073c 847f 113e a905 edbd
00000040: fd5a 8a3d 2a77 e13c 4cb4 17be 1cff 80bd
00000050: 776a 123d 8cee ab3d e5c2 913d 996c 80bc
00000060: 7de6 c3bd 9eb3 9e3d ddd2 133c a0db 9c3d
00000070: def3 323e 7558 ccbc 2a15 82bd 0bb8 c0bb
00000080: d058 1dbc b160 14bd aa4d b03d 6f2b 363d
00000090: a924 0b3e 6498 45bc 731d 373d 4862 df3d
000000a0: baa2 0dbd 72a1 d33c 2388 36bd 4fe3 83bc
000000b0: 5534 9c3d 0dae fc3d 47b3 d33c fde5 da3d
000000c0: 2fc6 b4bc 0bca d0bd bef3 a83d a8ad 92bd
000000d0: 300c f53b cc6e 54bd 8b4a 8c3d a8dd 4ebb
000000e0: fa85 bc3d 07d8 fd3c a02e d4bd e859 ce3c
000000f0: 7039 d43d b24f 9dbd f90c 4a3d 3660 17be
00000100: 7fbc 2dbe 2c20 86bd 898a a13d b00f b3bc
00000110: 9f27 29bd 6631 053e f371 88bd 34d8 28bd
00000120: 3e0e 81bd 9934 88bd 9f0e 78bd af93 41be
00000130: 6d71 4cbd 83e5 24bd 3de4 2f3e 294f 71bc
00000140: 227a 80bc 2e7b 193e dcca 303d ac25 1dbe
00000150: ad7c 2dbd 1ca2 8c3d c2df 493e 341d 0cbe
00000160: 8607 99bd 6682 403d cd45 d63d a1db 72bd
00000170: b6e6 3b3e de72 3abd 9f3a b7bd 5011 92bd
00000180: 8f04 9c3c 361e 633e 1019 1f3d 1b25 43bd
00000190: b068 5f3d d4cb 053e 9262 403e 96a9 7cbd
000001a0: 0dbd 223e c363 c6bd d2fe 7f3c 8acf aabc
000001b0: 29f1 003e a5b5 d0bd c82f 873d ad0e 3bbe
000001c0: db77 b8bc ef2b 2dbe 7b64 73be 1c5f b3bd
000001d0: c1e9 f53d 98ee 113e 178b 213e 1ffe 2f3d
000001e0: 0d22 ab3a d688 cb3d 1d94 0f3d e34e e63d
000001f0: 8974 eebd b205 e1bc 0643 173d ebaf 90bc
00000200: 3924 47bd 0366 46be 84c2 62be 94db 393d
00000210: 6dbb c83d 0170 f2bc 7c5a 65bc 17c7 24bd
00000220: b013 0e3e 8af1 81be 4843 1e3e 5ae0 8abb
00000230: 8f87 c43d 1203 483b 679b b73d d7e1 1b3d
00000240: 3ad8 203e c444 35bd 1d22 e8bd 69ac e1bc
00000250: bcc4 4bbe 04f2 fabd aeb5 0abe de33 713e
00000260: 7720 ed3c e83a 4abd 6505 22be 7b7e 13be
00000270: bc6e dc3d a20e 933c 1ce7 093e f623 67bc
00000280: 45ed 243e 81b5 e7bd ec27 52be 8e2c 103e
00000290: 5f69 bb3d 184a 7c3c 238a b53d 9ee9 333e
000002a0: c721 1dbe cb0b 3d3e 48b9 57bd 602d 093d
000002b0: 3b05 373d c0ab 9bbd faa9 58be 2286 8f3e
000002c0: 86b3 b2bd 9642 903d 99cd 6e3d 7284 d73b
000002d0: fa0d 2a3d 787c b53c 1143 d4bb 7da5 293d
000002e0: da01 633d bd30 703d dc1b d33c 5c90 f5bd
000002f0: 8e27 b93d 8a17 e13c c351 3e3d f1e4 143e
00000300: c0fb 31be 559b babd 61f3 213e 686a 043e
00000310: c9e6 c8bd d289 9a3d 1be8 c1bd 85fd c93d
00000320: 917e 0b3e 7a8a b3bd d967 d1bd 7b57 0dba
00000330: e435 61bd b117 b6bc d87d d73d 823b 04be
00000340: 3c5e 1cbe be48 463a 7d37 d13d 8990 2ebe
00000350: 41f9 413d 122a 1b3e b1ec 91bd b5a0 2fbd
00000360: 8176 0b3b 00ee a9bc 5802 9bbb 7fb4 f23c
00000370: de59 1f3e 2af0 b4bd 9322 9ebd 6082 b3bd
00000380: 45a3 013e a60b 7f3d 2915 d73c 57db afbd
00000390: dc6c 80bd c5f2 afbd 4672 0dbd 5702 c9bc
000003a0: 7c41 c13d 79df 463b 2148 97bc fe86 55bd
000003b0: e7ec 72bc ccb4 e43c fc64 2e3b 29a2 85bd
000003c0: 8c6b f2bd 6b47 253d e4ed ecbd 744c edbd
000003d0: ac19 e1bd 2e9a 443e c90d 28bd 6ee6 df3d
000003e0: 8ff8 70bd 34ae 8cbd dfbf 36be 15b9 723d
000003f0: 6fa4 14be 5a56 81bc 7996 ca3c af1a 3ebb
-0.024467224 -0.036935933 -0.12951797 0.1034189 0.08165642 0.11500529 0.07960747 -0.047160435
-0.12196665 -0.06260006 -0.11126286 -0.07048026 0.05812223 0.00826681 0.142088 -0.11573345
0.06755636 0.027522642 -0.14814872 -0.06298658 0.035746064 0.083951086 0.07117251 -0.015676783
-0.095654465 0.07749103 0.009022442 0.07659078 0.1747584 -0.024944523 -0.06351693 -0.0058813146
-0.009603694 -0.036225025 0.08608563 0.044475015 0.13588203 -0.012060259 0.04470582 0.109074175
-0.034579016 0.025833819 -0.044563424 -0.0160996 0.07627169 0.12337885 0.025842322 0.10688398
-0.022067158 -0.10194787 0.08249615 -0.071620286 0.0074782595 -0.051863477 0.068501554 -0.0031565223
0.092052415 0.030986799 -0.103604555 0.025189355 0.10362518 -0.07681216 0.049328778 -0.14782795
-0.16966437 -0.06549105 0.078877516 -0.021858066 -0.04129755 0.13007125 -0.06662359 -0.041221812
-0.063015446 -0.06650657 -0.06056082 -0.18903993 -0.04991286 -0.040257942 0.1717691 -0.014728346
-0.015683237 0.14988396 0.04316221 -0.15346402 -0.04235523 0.068668574 0.19714263 -0.13683015
-0.07472138 0.046999358 0.10462532 -0.059291486 0.18349728 -0.045519702 -0.08946728 -0.07132208
0.019045142 0.22179493 0.03884226 -0.04764281 0.054543197 0.13066036 0.18787602 -0.061685167
0.1589243 -0.09686997 0.015624719 -0.020850915 0.12591995 -0.10190896 0.066009104 -0.18267317
-0.022518089 -0.1691129 -0.23768799 -0.08758375 0.12007476 0.14251173 0.15775715 0.042966958
0.0013056413 0.09938209 0.03505336 0.11245515 -0.11643321 -0.027468536 0.036929153 -0.01766201
-0.04861853 -0.19374852 -0.22144514 0.04537542 0.09801374 -0.029594423 -0.013998624 -0.04022893
0.13874698 -0.25379592 0.15455353 -0.0042381706 0.09596168 0.0030519408 0.089651875 0.038057175
0.15707484 -0.044255033 -0.113346316 -0.027548032 -0.19899267 -0.12253192 -0.13545868 0.23554942
0.028946145 -0.049372584 -0.1582237 -0.14403717 0.107633084 0.017951313 0.13467067 -0.014107695
0.16106136 -0.11313916 -0.20523041 0.14079496 0.09150957 0.015398525 0.08864238 0.17569587
-0.15344916 0.1846153 -0.052666932 0.03349054 0.044682723 -0.07601118 -0.21158591 0.28032023
-0.08725648 0.0704395 0.058301542 0.006577068 0.041517235 0.022154078 -0.0064777215 0.041417588
0.055421688 0.05864023 0.02577012 -0.11990425 0.090407476 0.027477045 0.046464693 0.14540459
-0.17381191 -0.091116585 0.15815498 0.12931216 -0.09809644 0.075458184 -0.09468099 0.09862808
0.136225 -0.08766647 -0.102248855 -0.0005391759 -0.054983035 -0.022228094 0.1052205 -0.12913325
-0.15270323 0.000756394 0.10215662 -0.17047323 0.047356848 0.15152767 -0.071252234 -0.04287787
0.002128035 -0.02074337 -0.004730504 0.029627083 0.15561625 -0.0883487 -0.07721438 -0.087651014
0.12659939 0.06226697 0.026255207 -0.08586758 -0.06270763 -0.085912265 -0.034532808 -0.024537249
0.09436318 0.0030345602 -0.01846701 -0.05213069 -0.01482699 0.027918242 0.0026610484 -0.0652507
-0.11836919 0.040351313 -0.115688115 -0.11586848 -0.10991225 0.1919944 -0.04102877 0.10932623
-0.058830794 -0.06869164 -0.1784663 0.05925854 -0.14515851 -0.015788246 0.024729954 -0.0029007604

encoder.lstm.weight_hh_l1 f4 [256, 64]
00000000: 363b 1e3d 46ca 0c3d badc a63d f180 2ebe
00000010: 4235 90bd 3459 0dbd 1adb 923c 903c 12be
00000020: 25f8 ccbd 0181 9f3c 6f99 ac3c 1e7f 493e
00000030: a86d ee3c 0c7f dbbd 1759 37bd 379e ba3c
00000040: 49c0 8e3d f3f8 2e3e 87ef 1dbd 7ce6 8b3d
00000050: 80b5 ae3d 013b 7abd 1493 94bd eda1 5fbd
00000060: 1877 b0ba 610e 05be 4d00 debd f49d efbd
00000070: 7903 18be 525f c93d e380 e1bd 66d2 66bd
00000080: a1a1 c23d e95e fdbd b978 aabd fea0 ddbc
00000090: 20e1 8dbd e322 1d3c 7595 41bd 529e 283d
000000a0: 3329 bc3c 2030 a6bd 792d c93d ac83 01be
000000b0: 787b b63c 79ee cdb9 18d6 1e3e cd32 473d
000000c0: e017 b93c 3595 bf3d 81d7 00bd db35 febd
000000d0: 11f9 963d dbf4 a2bd ba85 eebd ba22 d1bc
000000e0: 9ff9 703d 7655 d0bd b549 f1bd 29a2 4fbc
000000f0: 4a18 b63d c478 78bd c5be e5bd b400 1abe
00000100: 3de0 d73d e88b 2bbe d49f 5d3d 1cd2 d33b
00000110: cc12 243e 141d 7d3d 5cf4 a63c 9929 67bd
00000120: ebab 5cbd 9c06 f5bd 3fc7 ecbd 4850 933c
00000130: fa14 3dbe 1a84 3fbc edfc 12be b1a7 a5bd
00000140: 6ad9 d4bc 37bd 383e 3d2e 5d3d ebf9 313e
00000150: 826b 8b3d dc57 bbbd d3d3 02be cc3b d73b
00000160: 1dcd 30be c74d 7cbd 7966 9dbb f291 373a
00000170: 19cb 223d a98d 103d bd55 4e3d 1645 623d
00000180: ca6c a33d d39c 623d 531a 24bd 1e63 50bc
00000190: 0011 553e e31b 50be ee18 003e 98ed 8ebd
000001a0: f1cd 84bd 6b01 88bd e2a5 57bd d2e5 84bd
000001b0: 9bc4 12be df5c afbd f089 cbbb a9c3 13bd
000001c0: 6308 d93d c56b 63bd 7ab6 1b3e 8ddd d8bd
000001d0: 382f bd3b ea7e 34be d7db 9f3c 0a71 7c3c
000001e0: 6f55 b4ba fb9f 933d 325a 6c3d 110e d9bc
000001f0: d883 173e aba6 16be ea1e 1cbe 7528 473d
00000200: 4094 283d d6cc e63c c819 3f3e 1e73 20be
00000210: be0f 643d 01b7 8a3d d752 84bd 0161 31be
00000220: 4723 a43d a9ae e7bd e6d3 8fbd 562d 133c
00000230: 6e28 9c3d a11f 6dbe b200 07be f2ac 983b
00000240: 8e50 393e aab6 673e 2db1 a83d 36d6 2b3b
00000250: 5cdb 3abe 05e5 1cbd 3365 43be fb9b 933c
00000260: 77a9 593c d331 c43d c4df 20be 6cfd c53a
00000270: a852 85bd b35d 543e c121 ecbd d7ad 4b3d
00000280: cbc4 d03d a708 25be 11c8 423c b108 07be
00000290: 74ae 2c3e 7541 53bd 11ce c83c 8e65 ecbb
000002a0: 74e0 603d 30c8 c23c f880 d0bd 4a60 b0bd
000002b0: 983d 433d fec4 6dbe 60a4 943e 142f 6c3e
000002c0: 868c 183e 63e9 a13d 81cc ed3d 12fe 1ebd
000002d0: aa55 1a3e 1d55 543c 5dde 4cbd 14d8 f2bd
000002e0: f9a6 b6bd d8ad d03c e0c4 39be edc4 2bbc
000002f0: 1e38 273e 5ada d0bd cffd 2dbe 3d0a 8cbd
00000300: a0a7 b43c 41bf b6bc 53f9 033e 6ce7 04be
00000310: 8844 5c3c 201e 173e 86e8 b4bd 5511 02bd
00000320: db20 2f3d 67ef 4ebb de4c 3bbd a6a8 f5bd
00000330: 335d bbbb 3db3 e83c acd3 843d c4e2 40bd
00000340: 416b 483d bf51 aabd 30d5 a0bc 7bd2 80bd
00000350: a5c4 ddbc 7127 a53d 02d6 dcbd 1be2 e4bd
00000360: f346 08be 0699 1fbd 7734 c3bd 51fd 7abc
00000370: 4aba 6d3b e3bf 93bd dac0 e13d 0544 5fbd
00000380: 0a45 9d3d c0c2 9d3d 1fc5 903d d144 45bd
00000390: 6d5f 243d 694a bc3d 308d 22bd 3579 873d
000003a0: a091 05bd 09bd bcbd f0cf ffbd ee46 1e3d
000003b0: eea8 fd3c b880 c6bb 9331 723d 0009 863c
000003c0: cf5a 363d 567a a2bc 277b 073e dd40 a8bd
000003d0: 19b7 13bd bf97 3d3b 7c6e 0a3d 1886 aa3c
000003e0: 7dbd 313e e16e 933d 8572 e0bc ee10 8f3d
000003f0: 208f 7c3d e178 9fbd 9b8a fabd 3f25 22be
0.038630687 0.03437259 0.08147569 -0.17041375 -0.07041408 -0.0345089 0.017926741 -0.14280915
-0.10008267 0.019470694 0.021069257 0.19677398 0.029105023 -0.10717592 -0.044762697 0.02278052
0.06970269 0.17087154 -0.03855851 0.06831071 0.08530712 -0.061091427 -0.072546154 -0.054597784
-0.0013463227 -0.12993766 -0.10839901 -0.11700049 -0.14845075 0.09832634 -0.11010911 -0.056352995
0.095034845 -0.12371618 -0.08323807 -0.027054306 -0.06927705 0.009590837 -0.047261674 0.04116661
0.022968864 -0.08114648 0.09823126 -0.12647885 0.022275671 -0.00039278323 0.15511358 0.04863243
0.022594392 0.09354631 -0.03145552 -0.12412616 0.073717244 -0.07956859 -0.116466 -0.025529254
0.058831807 -0.101725504 -0.117816366 -0.012672939 0.088913515 -0.060662046 -0.11218027 -0.1503933
0.10540817 -0.16752589 0.054107502 0.006464256 0.16022795 0.06179531 0.020380192 -0.056436155
-0.05387489 -0.11964151 -0.11561441 0.017982617 -0.18465033 -0.01168921 -0.14354296 -0.08088625
-0.025982577 0.1804093 0.053999174 0.17380492 0.06807615 -0.09147617 -0.12776117 0.0065684076
-0.17265745 -0.06159761 -0.0048034755 0.00070026435 0.03974447 0.035291348 0.050374735 0.055241667
0.07979734 0.05532534 -0.040064167 -0.012718944 0.20807266 -0.20323138 0.1250951 -0.06978911
-0.06484593 -0.066408955 -0.052648433 -0.06489147 -0.14332812 -0.08562636 -0.006211512 -0.036075268
0.10597303 -0.0555227 0.15206328 -0.105891325 0.005773451 -0.17626539 0.019514007 0.01540781
-0.0013758371 0.07208248 0.057703204 -0.026495965 0.14796388 -0.14712016 -0.15246168 0.048622567
0.041157007 0.028173845 0.18662179 -0.15668914 0.055679075 0.067731865 -0.06461113 -0.1732216
0.08014541 -0.11312611 -0.07022838 0.008982977 0.07624899 -0.23156597 -0.13183859 0.0046592886
0.18097135 0.22628275 0.082369186 0.002622021 -0.18247741 -0.038304348 -0.19081573 0.018018713
0.0132850325 0.09579816 -0.1571036 0.0015105433 -0.06509906 0.20738868 -0.115298755 0.049726333
0.10193785 -0.16116582 0.01188852 -0.1318691 0.16863424 -0.051576097 0.024512323 -0.0072142547
0.054901555 0.023777097 -0.10180849 -0.08612116 0.047666162 -0.23219678 0.29031658 0.23064834
0.14897355 0.07905843 0.11611272 -0.03881652 0.15071741 0.012959746 -0.05001675 -0.1185762
-0.08918566 0.02547352 -0.18141508 -0.0104839625 0.16330001 -0.10197897 -0.16991352 -0.0683789
0.022052586 -0.022307994 0.12888078 -0.12978905 0.0134440735 0.14757586 -0.08833413 -0.03175481
0.042755943 -0.00315758 -0.045727603 -0.11995058 -0.0057178973 0.02840578 0.06485686 -0.04709126
0.04893041 -0.08316373 -0.019632906 -0.06290146 -0.027071306 0.080641635 -0.10783006 -0.11175939
-0.13308315 -0.038964294 -0.09531491 -0.015319184 0.0036274367 -0.07214334 0.11023112 -0.054508228
0.07679184 0.07703161 0.07068848 -0.04816133 0.040130068 0.0919388 -0.03968543 0.06614915
-0.032609582 -0.09215743 -0.12490833 0.038641863 0.030964341 -0.006057825 0.05912931 0.016361713
0.044520196 -0.019833725 0.13230573 -0.08215497 -0.036063287 0.002892956 0.033796772 0.020815894
0.1735744 0.07198883 -0.027398357 0.06985651 0.061659932 -0.07786728 -0.12233468 -0.15834521

encoder.lstm.bias_ih_l1 f4 [256]
00000000: c8ce 66bd 030c c23a 4250 6e3e ca9f 35bd
00000010: ab5b 8c3d 23cf 1a3e 9a87 fbbc 8028 d4bd
00000020: e098 9bbd ed7e 90bc 26ff 4a3c a6c7 6a3d
00000030: e296 acbd 21a8 a73d 9ad3 efbc 94bf 94bd
00000040: 1bf6 63bd 3504 553d e9ce 143c 8185 6cbd
00000050: 4966 0ebd 8ff2 c33c d663 1b3d bf9b f8bc
00000060: 0e12 95bd 0962 39bd 3e7a 4d3d 0001 063d
00000070: a0ef a03d f332 953d 5689 c23c a608 3ebc
00000080: 9bf5 8b3d 0fbd 3cbd c9f3 b73d 78a6 d13c
00000090: f3b3 e33d 7de6 0b3e abfc 693c 188c d5bc
000000a0: 7d8f 4ebc 2777 353e 9515 873d 3a14 d5bd
000000b0: 6f6c 97bd 5312 b7bd 5916 0d3d 84f9 abbd
000000c0: 7c68 c3bd 1653 a13d 80b0 9cbd 740b a43c
000000d0: 9c00 f53b 44d4 423d dc2d 943c 3a11 06be
000000e0: 7691 333e aeef 35bd ab80 8dbd 1269 06bd
000000f0: 0e1c 8e3c bbf9 bdbc acce f23c 371d 63bd
00000100: c8fe 283e ebb9 143e 5052 823e 3e11 7d3c
00000110: 12d1 8a3d d43a 893e eaef d03d 1f5e 143e
00000120: b5ac f33d eab2 ad3d faef 31bd 25d1 fc3b
00000130: 3510 a13c 82f4 143d 4f47 973d f649 d93d
00000140: 340a 313d 192d 1c3d 9108 3dbc abb5 e1bd
00000150: ee36 183e 5f82 963d 51ad a63d 78a0 293d
00000160: 4fa2 033e ae79 98bc e66d 533c f028 513d
00000170: 353c e43d 1896 8d3d 5caa 84bd 6be5 39be
00000180: c01e ac3c e440 1a3d 5285 cc3c 4930 803d
00000190: 65d6 b63c 0923 12bc 98a8 2f3d 93dc 0abe
000001a0: 6a2d f5bd d25e a13d 9d60 6f3d 1078 7d3d
000001b0: 8ba8 7d3d 8572 033e ac3d 633c 356b 75bd
000001c0: 995a 9dbd 9c91 353e d464 06be 7298 1b3d
000001d0: 7045 ca3d ccc1 3a3e 98ce a43d 05ca 9d3d
000001e0: fceb 903c 5d0d a83d cfb8 f73d 14fe 9e3c
000001f0: 34eb 203c 7d6d 123e 1c5d 8f3d 7fc9 c5bd
00000200: 9d49 ac3d 67ad e73c c7c5 6f3d 962e 003e
00000210: e776 d73d aa59 b03d a70e c73d 4449 bbbd
00000220: 40d5 4fbc 3c77 403d 0994 e4bd d52f a4bc
00000230: 6df7 ca3b 033d e8bd 75b4 cf3d ce94 fa3d
00000240: 0389 0a3d bfc9 34bc dee1 723d 615e dc3d
00000250: b840 2fbd 9f8b 14be 4011 16bd d050 afbd
00000260: 6422 c13c 0b31 babc a3b2 cbbd 0b82 e23b
00000270: 5e39 a3bd fba2 96bc d1ce 0cbd 15c7 ce3d
00000280: fca1 8b3d d999 dcbd 5a3f 22bd ab73 e2bd
00000290: 4b45 903d 99e5 923d 969d d63d 0223 a03d
000002a0: 2f79 b73c 1398 4ebd b3be b6bd 6a50 06bc
000002b0: af33 823b 2629 59bd 8056 ad3c 3854 94bd
000002c0: 3378 c93d 1e74 e3bc 5c44 ef3c d06e 963d
000002d0: 5f6b 8ebd bcf1 183d 2f3d b03d f5ee 153d
000002e0: 9af0 05be d13f 3cbd 0e9c dabd 35e0 b83d
000002f0: 0af0 4d3d 78e6 07be f1b2 77bd af19 27bd
00000300: 1ae1 e53a d4be a63d 343f f63d 50c6 12bd
00000310: b081 3a3d 8349 343e eb32 863d 7865 a8bd
00000320: 640b 13bd 68e7 053e 36aa 61bd e140 1dbd
00000330: 85f5 9e3d 2d75 ac3d 0c73 313d 6a04 4cbd
00000340: 829f 303d 336d c03d 12d9 533d eaef 48ba
00000350: e843 1f3d 5ed5 c93d 2015 babc ec2a b7bd
00000360: 3cc7 42bd bf92 98bd c9c3 82bd 2920 bdbc
00000370: 7d0f 1bbe c5d3 be3d e23c 973d 6a61 893d
00000380: 77e7 b23c 6b45 2e3d 2819 c6bc 3892 da3d
00000390: c8b0 45bb ed31 ee3d 2249 77bd b67d b23c
000003a0: 9aff dc3c e322 163e 72ff aa3d 65d3 8abc
000003b0: 88b4 c5bd 39c4 873c 3ebf b33c f27d 05bd
000003c0: c801 49bd 3008 053e 3735 d53d f6c4 4dbd
000003d0: aa94 443e a9a2 0d3e 9ab3 6fbd 662b bd3d
000003e0: 7b20 433d e04a a43d 8469 ef3d 5eb9 863d
000003f0: 0788 033d 0c81 f33c e4a8 f3ba 7b99 833d
-0.056349546 0.0014804605 0.23272803 -0.04434184 0.06853422 0.15118079 -0.030704308 -0.10359287
-0.07597518 -0.017638648 0.012389934 0.057319306 -0.08427216 0.08186365 -0.029275704 -0.07263103
-0.055654626 0.052005965 0.009082534 -0.057744507 -0.034765515 0.023919372 0.037937008 -0.030347703
-0.07278834 -0.04525951 0.050165407 0.032715797 0.07858205 0.072851084 0.023747128 -0.011598742
0.06833955 -0.046078738 0.08982045 0.025592074 0.11118307 0.13662143 0.014281432 -0.026067778
-0.012607452 0.17721234 0.06595913 -0.104042485 -0.07393729 -0.08939042 0.03444514 -0.08397201
-0.09541413 0.078771755 -0.07650852 0.020024993 0.0074768793 0.047565714 0.018088274 -0.13092509
0.17535958 -0.04441803 -0.06909307 -0.032815047 0.017347362 -0.02319037 0.029639564 -0.055447783
0.16503441 0.14524047 0.25453424 0.015446005 0.06778158 0.26802695 0.1020201 0.1448903
0.118981756 0.08481391 -0.04344175 0.0077153617 0.019661048 0.036365993 0.07386648 0.1060981
0.04322262 0.038128946 -0.011537687 -0.110209785 0.14864704 0.07349085 0.08138526 0.0414128
0.12854885 -0.018612709 0.01290462 0.05106443 0.11144296 0.06913394 -0.06477806 -0.18153922
0.021010756 0.03765954 0.024965916 0.0625921 0.022319028 -0.008919486 0.042885393 -0.13560705
-0.11971553 0.07879414 0.058441747 0.06188208 0.061928313 0.12836654 0.013869684 -0.059916694
-0.07683296 0.17731327 -0.131244 0.03798718 0.098765254 0.1823799 0.08047217 0.07704548
0.017690651 0.08205674 0.12095796 0.019408263 0.009821702 0.14299579 0.07000181 -0.09657573
0.08412478 0.028280927 0.058538225 0.12517771 0.10520726 0.08610852 0.097195916 -0.09144834
-0.01268512 0.04698871 -0.11161048 -0.02004234 0.0061940462 -0.11339762 0.10141841 0.122354135
0.03382207 -0.011034428 0.059297435 0.10760189 -0.04278633 -0.14506386 -0.036637545 -0.08560336
0.023575969 -0.022728464 -0.099461816 0.006912475 -0.07969926 -0.018388262 -0.034376923 0.10096566
0.068180054 -0.107715316 -0.039611198 -0.11057218 0.070444666 0.071726985 0.10479276 0.07819177
0.022396652 -0.050437998 -0.08923092 -0.008197883 0.0039734463 -0.053017758 0.02115941 -0.07242626
0.09837379 -0.02776533 0.029207401 0.073453546 -0.06954073 0.03733991 0.0860542 0.03660484
-0.13080063 -0.045959298 -0.10674296 0.09027139 0.050277747 -0.1327151 -0.060473386 -0.04079598
0.0017538399 0.08141866 0.12023774 -0.035833657 0.045533836 0.17606167 0.065526806 -0.08222479
-0.035899535 0.13076556 -0.055093966 -0.03839195 0.07761673 0.08420787 0.043322608 -0.049808897
0.04312087 0.09395828 0.051720686 -0.00076651445 0.03888312 0.0985515 -0.022715151 -0.089437336
-0.047553286 -0.074498646 -0.06384999 -0.023086624 -0.15142627 0.093177356 0.07384659 0.067080334
0.021838887 0.04254667 -0.024181917 0.1067242 -0.0030165184 0.11630616 -0.06037248 0.02178846
0.02697735 0.14661746 0.083495036 -0.016946504 -0.09653574 0.016573058 0.021941777 -0.032590814
-0.049073964 0.12991405 0.104105406 -0.050236665 0.19197336 0.13831581 -0.05852089 0.09236793
0.047638398 0.08022094 0.116900474 0.06578325 0.032112148 0.02972462 -0.0018589762 0.064257585

encoder.lstm.bias_hh_l1 f4 [256]
00000000: edfe 85bd 0e0f c2bb 5679 093e f040 03bd
00000010: 2800 a8bd 8d33 503e 9d2b d6bd c8e3 89bd
00000020: c9a4 573d 49cf c43b b77a dcbd 7b03 953c
00000030: 4b0e feba 1c94 64bd 2936 57bd 9c9e 55bc
00000040: d79a a53d 01e0 40bd 43a3 efbd 98e1 a9bd
00000050: 8407 693c 9322 d73d b6e3 2a3d eeb3 94bd
00000060: d57f bf3c ff90 9f3d 8191 893d 3bab 01be
00000070: 8344 3cbd 215a a0bc b9b3 563c f2d7 88bd
00000080: d25c ae3c bc59 a2bd 99f7 a2bc f6e3 c3bd
00000090: 604d 223e 1036 7d3d f297 183d fefd 01bd
000000a0: e25a aebd 76f4 433d 9df4 c93d 5c43 db3c
000000b0: 7f0c 89bc b152 bf3c 97ad 463e 3013 553d
000000c0: 027c cb3d a77a 5ebd 41bf cabd f554 16bd
000000d0: 0112 aebc 56dd b83d ec63 783d 0138 94bc
000000e0: ba1b 163e 039f f9bb 8e52 2a3e c1bb 093d
000000f0: f863 f7bd 2f6b c83d b88c eb3c 9792 c3bd
00000100: 47cf bc3d 9817 f73d e857 033e 021c 54bd
00000110: 1295 b7bc de35 653e c35d e9bd 19bd 79bd
00000120: 9c43 6ebd 9812 98bb ce5b b13c f3fc 943d
00000130: 5eb8 b9bd 88a3 c53d 52a7 afbc f6af 7ebd
00000140: a542 393e d3c2 c0bb f14c f1bc 8d9a e2bd
00000150: c08f f5bc df64 92bd 1930 a63d 7c05 f43d
00000160: abd3 163e fe60 bbbd 6a85 1cbd e9f3 69bd
00000170: 027b a83d 8d53 b53c 9957 9dbc 7f20 56bc
00000180: beae f73d a42f 54bd beba 25bd 8540 f43d
00000190: c2c9 0d3e 82df ed3b 2b68 d5bd 82ab 533c
000001a0: 3fe8 6d3b 6ce2 353d 8f8a 0e3e 53a8 723d
000001b0: 6f7b b73d 04fd 993d f0e1 433e b036 a43d
000001c0: 1b89 d4bd 5fcd 293e f869 5d3d 6aa1 bcbd
000001d0: 0c2e 2c3e 83a1 b03d 0b7d 213c d5d7 2cbd
000001e0: 7bcf 1e3c e849 393e 5666 33bd 48a1 7b3d
000001f0: c7eb 723c a025 6b3d 6d60 e33c fb6f d4bd
00000200: f923 7b3d a1f6 b4bc bc08 b03d afd3 d7bd
00000210: 3a2c 8fbd 41e2 8a3d c814 0b3e 2c30 d53c
00000220: a7b9 183e 8141 8a3d 16f1 153c a384 a13d
00000230: 2ade ed3d e61d f7bd d162 b6bb 1c1e 6fbd
00000240: dd6b 833d 7bd5 083e ed77 283d 5a77 5cbd
00000250: ebd0 7a3c 38b2 5cbd cec5 903d 585d 063d
00000260: f18f 983d 92c7 8d3c ecbc 153e a582 aa3d
00000270: f47b d73d 2937 e23d f0a2 41bd ba24 1fbd
00000280: cc03 383d 1ff5 1f3d 05b9 cbbd 8353 dfbd
00000290: 1fd7 893c be82 04be 95d7 50bd 4961 8c3c
000002a0: 7626 0f3d 5fe3 52bd 6aeb ebbd 8f3d 72bd
000002b0: 0ddc 9d3d 7406 b9bd 3064 113e d257 573d
000002c0: 949a 733d d9fa 223e 620e 653d cfc9 e1bd
000002d0: d763 433b 8398 1f3d ddfb 983c 41ef 22bc
000002e0: 46b1 80bc edf7 673d 9f4c bc3d f2e0 863d
000002f0: 1711 853d e26d 973d b1b2 d53c c8af 69bd
00000300: 833a 103e dc04 bb3d 10e0 d93d e12d 82bb
00000310: e894 5d3d f224 813d d3f1 87bd 49cc 8d3d
00000320: ab14 083e 6b4d e53c f728 8a3d d020 e2bd
00000330: 5605 783d d22a bc3d d140 a53c 9a8a 1e3e
00000340: f209 073e 144e ce3c 3696 babd ac05 123e
00000350: 7156 82bd d11a 913d 5fe5 f5bd a789 b43c
00000360: d72f 463c a690 883d 4766 b7bc ff6b 42bd
00000370: fc7e 9dbd 181d 0d3d e8ab 98bc 9a63 f5bd
00000380: 56d8 97bc 1494 7f3c 0b58 273c 9829 f73c
00000390: f751 81bd 1de7 2dbc f469 f3bd 100c bb3d
000003a0: 3055 133d ecee 233d d72a 97bc 25da 4f3d
000003b0: d186 43bd 74ad f6bd e23e fbbd 7af0 06be
000003c0: 2fb9 a73c ca04 26bd 5aec a9bd b95a 8e3d
000003d0: b645 c93c 3e42 793d 528e 223e 6696 e23c
000003e0: e1d9 333e 10ad 93bd fd09 1c3e 21e1 87bd
000003f0: 9515 6dbd f896 a3bc 2488 10bd 964b 21bd
-0.06542764 -0.005922205 0.13425192 -0.03204435 -0.08203155 0.20332165 -0.10457537 -0.06732899
0.052647386 0.0060061556 -0.107655935 0.018190136 -0.0019382922 -0.05580531 -0.052541886 -0.013038304
0.08086174 -0.047088627 -0.117010616 -0.08294982 0.014222983 0.105046414 0.04172107 -0.07260881
0.023376385 0.07791328 0.06717206 -0.12662975 -0.045963775 -0.019574227 0.013104373 -0.06681813
0.021284495 -0.07927272 -0.019893454 -0.095649645 0.15849829 0.061819136 0.03725428 -0.031736366
-0.08513428 0.047840558 0.098611094 0.026765518 -0.016729591 0.02335486 0.19402157 0.05202025
0.09935762 -0.05431619 -0.0989976 -0.036702115 -0.02124882 0.090265915 0.060642168 -0.018093111
0.14659014 -0.0076178326 0.16633055 0.03362632 -0.120796144 0.09786069 0.028753623 -0.09549444
0.092192225 0.12065047 0.12826502 -0.051784523 -0.02240995 0.2238383 -0.11394837 -0.060971353
-0.058169946 -0.0046408884 0.021650221 0.07274809 -0.090683684 0.09650332 -0.02144209 -0.06217953
0.18091829 -0.0058826 -0.029455634 -0.110646345 -0.029975772 -0.07148146 0.08114643 0.119151086
0.14729182 -0.09149359 -0.03821317 -0.057117376 0.08226587 0.022134567 -0.019206809 -0.013069271
0.12093876 -0.051803246 -0.040461294 0.119263686 0.13846496 0.00725931 -0.10420259 0.012919309
0.003630176 0.044405386 0.13920043 0.059242558 0.0895909 0.07518962 0.19129157 0.08018243
-0.10377713 0.16582249 0.054056138 -0.09210475 0.1681444 0.08624556 0.009856473 -0.04219802
0.009693022 0.18094599 -0.043798767 0.061433107 0.0148267215 0.05740893 0.02775594 -0.10372921
0.061313603 -0.022090258 0.08595416 -0.10538422 -0.069908574 0.06781436 0.13582146 0.026023947
0.14914571 0.06750775 0.009151718 0.078866266 0.1161464 -0.120662495 -0.005565979 -0.058378324
0.06417058 0.13362686 0.041129995 -0.05382476 0.015308599 -0.0538809 0.07068978 0.032803863
0.0744933 0.017307077 0.14622849 0.083257 0.10521689 0.11045677 -0.04727453 -0.038853385
0.044925496 0.039052125 -0.09947399 -0.109046005 0.01682621 -0.12940499 -0.050986845 0.017136233
0.03494879 -0.05148637 -0.11519511 -0.059140738 0.07707987 -0.09034434 0.14198375 0.052573986
0.05947359 0.15916003 0.05592192 -0.1102482 0.0029814148 0.038963806 0.018674785 -0.009944738
-0.01570953 0.056632925 0.09194302 0.06585874 0.064974 0.07394005 0.026086183 -0.057052404
0.1408482 0.09131786 0.1063844 -0.0039727543 0.054097086 0.06305875 -0.06637921 0.0692373
0.13289134 0.027991017 0.06746095 -0.11041415 0.060551964 0.09187855 0.020172508 0.1548256
0.13187388 0.025183715 -0.09110682 0.14259976 -0.06364144 0.07085193 -0.1200664 0.022038294
0.012096367 0.066682145 -0.022387637 -0.047466274 -0.07690236 0.034451574 -0.018636659 -0.11981888
-0.018535774 0.015599269 0.010213862 0.0301712 -0.06314462 -0.010614184 -0.11885443 0.0913316
0.035969913 0.040022776 -0.018453045 0.05074515 -0.047735993 -0.12044802 -0.12267853 -0.13177672
0.020474045 -0.04053191 -0.082970336 0.06950898 0.024569374 0.06085419 0.15874603 0.027659606
0.17563583 -0.072107434 0.15238185 -0.06634737 -0.05788191 -0.019969448 -0.035286084 -0.039378725
