AR/nsde_sigwgan/G.pt (torch, 122485 bytes, 15 tensors)

_conditioner._linear.weight f4 [32, 363]
00000000: 2222 cabc 0c64 bd3c 2e66 b4bc 3153 22bc
00000010: 109e 31bd 8cc6 3d3d 7f9c aa3c 2f1c 3fbd
00000020: 1d1f 2cbd 8677 bcbc 1885 b0bc c86c babc
00000030: 9ecf d9bc 7753 293d 6d2e 36bd 6f4c 273d
00000040: b428 41bd d78e c93c 3a2a efbc 5630 41bd
00000050: 0fe4 f23c 3425 213d a179 c73c 1eec dd3c
00000060: e73f 5d3d e717 ebba fbba 05bd a65d 403b
00000070: 4f04 563d f531 803c 6958 fb3b 2f1a 97bc
00000080: ac55 e9bb c4fb cb3c c1dd 6f3c 3087 f1bb
00000090: 589a 173d 3985 13bb ed74 0cbd 3842 bfbc
000000a0: 5161 253d 7658 823b fc72 bb3c 9f11 b73c
000000b0: 7fec 01bc 3ead e63c 368b 1dbb 50a2 4c3d
000000c0: 5450 49bd bf69 b93c c60f 813c 5c15 043b
000000d0: 5b83 5ebd d850 273c 3dc3 6fbb 9c1c 22bd
000000e0: ce80 abbc aeb7 20bd e7a7 9bbc dee1 a93c
000000f0: d2c0 57bd 339b 5b3d 89aa 313d a556 2dbd
00000100: d29c 493c e292 a1bb b63d 84bb 9d71 2a3d
00000110: be0a 9dbb c38e 23bc 807c 17bd f7b1 09bd
00000120: fa90 38bd 05bd dc3c 675d 64bb ddb5 34bd
00000130: b130 ce3c 61e3 3f3d df12 383d bf7d a23d
00000140: 20a5 293d 8295 bbbc c47e a23b 48e4 d2bc
00000150: e646 bbbb 82cc e73c 613c 37bc 72a5 e0bc
00000160: e1b1 0cbd 6fe7 823b d4c0 583b 4e16 00bd
00000170: 4d10 2539 7ef0 113d aed5 5dbc 2ce3 11bd
00000180: 3bf7 06bd a846 383c 7fd2 87bb 0d8e 383d
00000190: c949 9b3c 0139 a83c 7b98 23ba 2311 e0bc
000001a0: 2a2a 16bd 6ec6 0abd f8e4 62bd 4e48 adbc
000001b0: 636a fcbc d279 303b 5978 0ebd 8b8f a03c
000001c0: acd1 7a3c 4464 34bd 398e 6c3c 6249 a73c
000001d0: 9504 35bd f23d 6ebc 9f4b 6abc 4b35 943c
000001e0: 626e c4bc 8d8f d438 8981 0abd b158 443d
000001f0: 9bb6 0dbd 8c7f 09bd 6ae4 323c 0c9e 2fbc
00000200: 3ea5 b9bc 590a 1d3d 433b ef3c 7997 0cbc
00000210: c1e1 d7bc 4ad9 08bd 95e0 ce3c f6f0 8bbc
00000220: 2695 40bc 4caf c33c da42 45bb 1cbc fdbc
00000230: 3241 833b ec05 fd3c da66 9ebc 6de8 d63c
00000240: 5f3d 06bd 291f 71bc 909b 873c a75c 00bc
00000250: aeae 65bc d97e 2f3c cfbe fabc 689c dc3c
00000260: bab2 2cbd e156 fdbb 8301 123d d04f 04bc
00000270: eaae e1bc 6611 96bc cfe9 e4bc 4646 203d
00000280: 6f02 923c e891 a9bc a595 463d 03d9 a63c
00000290: 7f9d 92bc ef13 c9bc f0fd cabc 5034 903c
000002a0: a647 653b faf2 1c3c 10c5 8cbc 2283 043d
000002b0: c059 21bc fd66 893b 5aa0 373b 14e2 cd3c
000002c0: f294 323d 6c83 313d e918 a7b9 c8b6 96bc
000002d0: 5d66 8b3c ae31 133d 3d9c 593d 1d2e 0ebc
000002e0: 66d8 9ebc 14a6 ea3c adfc 52bd b6a7 0f3d
000002f0: 2d99 1a3d 8eac 0bbd 4215 2fbd b14c 19bc
00000300: a3f9 633b 5772 003d a4a8 94bd 85e9 ad3c
00000310: 6523 493d c714 6b3c e524 563d 1e5c e1bc
00000320: 0d68 bcbc 6a94 1c3d a982 b83c 325d 0fbd
00000330: 6509 3f3b f503 89bd 7b3b d53c 654c 3dbc
00000340: 29e5 28bd 57cf b7bc 5c30 c83c f891 e83c
00000350: 5e2f 3ebb 8f07 a43d c059 90bb e76c 013d
00000360: 5389 443c b2f1 40bc 74e8 363d cc57 b23c
00000370: 9e5f 8bbc 2393 4b3d ea5e 343d 035a 9fbc
00000380: f059 be3c dcbc d2bc b195 19bd 7d00 0f3d
00000390: cbe3 093d f38e 603c 4a38 e53c d8f9 143c
000003a0: 0120 b33d ef34 3a3b 1772 8abc 9521 443d
000003b0: aadf 24bd 9373 1a3c ee54 74bc 0fd2 563d
000003c0: 38cf 653c 3cac af3c 894a 3e3c 1492 263c
000003d0: 1f91 15bd bad4 c3bc b720 8b3c e3d4 8dbc
000003e0: 0dcc 603c c80e dab9 36f1 1dbd 1405 103d
000003f0: 0915 35bd 4c21 3fbb ce13 5f3d e2df 603a
-0.024674479 0.023118995 -0.02202138 -0.00990753 -0.04336363 0.046331927 0.020826576 -0.046657737
-0.04202186 -0.023006212 -0.021547839 -0.022756949 -0.026588257 0.041339364 -0.04447787 0.040844377
-0.04715796 0.024604244 -0.02919494 -0.047165237 0.029649762 0.03934212 0.02434999 0.027090129
0.05401602 -0.0017936201 -0.03264902 0.0029352694 0.052250203 0.015648821 0.0076704514 -0.018445102
-0.0071208086 0.024900325 0.014640273 -0.007370852 0.037012428 -0.0022509827 -0.034291197 -0.023347005
0.04037601 0.0039778305 0.022881977 0.02234727 -0.00792992 0.02815878 -0.0024039275 0.04995948
-0.049148872 0.022633431 0.015754592 0.0020154333 -0.05432449 0.010212146 -0.0036584877 -0.039578065
-0.020935442 -0.03923767 -0.01900096 0.020737585 -0.052674122 0.053614806 0.043375526 -0.04231896
0.012305455 -0.00493084 -0.004035677 0.041612256 -0.0047925403 -0.0099827675 -0.036983967 -0.033616986
-0.045060135 0.0269456 -0.0034845711 -0.04411875 0.025169702 0.046847705 0.044939872 0.079341404
0.04141724 -0.02289844 0.0049589593 -0.025743619 -0.005715239 0.02829576 -0.011183829 -0.02742264
-0.034349326 0.003994874 0.003307392 -0.03127127 0.00015741699 0.03562974 -0.013539715 -0.03561704
-0.03295062 0.0112473145 -0.004144966 0.045057345 0.018956082 0.020534994 -0.0006240678 -0.027351921
-0.036661305 -0.033880644 -0.055394143 -0.021152642 -0.030812448 0.002692808 -0.03478274 0.019599697
0.015308779 -0.044040933 0.014438205 0.020420734 -0.044193823 -0.014541136 -0.014300256 0.018091818
-0.023978416 0.00010135686 -0.03381494 0.047936145 -0.034597974 -0.033568904 0.010918716 -0.010718834
-0.022661801 0.038339946 0.029203063 -0.008581036 -0.026352765 -0.033410348 0.025253573 -0.017082673
-0.01175431 0.023887299 -0.003009966 -0.030973487 0.0040055746 0.030886613 -0.019336153 0.026233876
-0.03277337 -0.014716902 0.01655367 -0.00783459 -0.014018698 0.010711395 -0.030608563 0.026930049
-0.042162634 -0.007731304 0.035645973 -0.008075669 -0.027549226 -0.018318843 -0.02794352 0.039129518
0.017823426 -0.020699456 0.048482556 0.020367151 -0.017897366 -0.024545638 -0.02477929 0.01760307
0.0034985333 0.0095794145 -0.01718381 0.03235162 -0.009848058 0.0041931854 0.002801916 0.025132217
0.043599077 0.043338224 -0.00031871282 -0.018397704 0.017016584 0.03593605 0.053127516 -0.008677986
-0.019390296 0.028643645 -0.0515105 0.03507205 0.037743736 -0.034100108 -0.042744882 -0.009356664
0.0034786246 0.031359043 -0.07258728 0.021229515 0.04910602 0.014348215 0.05228128 -0.027509745
-0.022998834 0.038227476 0.022523241 -0.035000987 0.0029149887 -0.06690208 0.026029339 -0.011553858
-0.04123417 -0.022437735 0.024437122 0.028389916 -0.0029019932 0.08009254 -0.0044052303 0.031597998
0.011995631 -0.011776375 0.04465528 0.02177038 -0.017013367 0.049700867 0.04403583 -0.0194521
0.023236245 -0.02572482 -0.037496272 0.034912575 0.033664506 0.013705957 0.027980942 0.0090927705
0.08746339 0.0028412899 -0.016900105 0.04788359 -0.040252365 0.009426969 -0.014912827 0.05244642
0.014026456 0.021444432 0.01161445 0.010166664 -0.03651535 -0.023905147 0.016983373 -0.017313426
0.0137205245 -0.00041591213 -0.038560115 0.035161093 -0.044209514 -0.0029164134 0.054462247 0.0008578283

_conditioner._linear.bias f4 [32]
00000000: f570 64bc ea88 67bb 393d eb3c dd31 4dbd
00000010: 0eae 823a f57f ea3c 91c9 b53c 04f3 71bd
00000020: 7b1b 2e3d 74ce e9bc 405e 00bd 2133 223c
00000030: d295 df3c 2a52 6a3d 2430 90bd 97fa 863c
00000040: 01a3 623d 26f5 49bd 782d 063c 6f4f 2a3d
00000050: 3f7e b93c 8ea0 433d 8ef3 96bd 8241 e4bc
00000060: a2a8 db3c 023f 283d 8654 80bc 7c40 af3c
00000070: 7ccf 513d dbee 373d 05bf a93d 0c93 b63c
-0.013942947 -0.003532941 0.028715717 -0.05009638 0.0009970085 0.028625468 0.02219084 -0.05906965
0.042506676 -0.028540827 -0.031339884 0.009899885 0.02729312 0.057207264 -0.07040432 0.016476912
0.055331234 -0.049306057 0.0081895515 0.04157966 0.022643207 0.04776054 -0.07370673 -0.027863268
0.026813809 0.041075714 -0.015665304 0.021393053 0.051223263 0.044905525 0.08288387 0.022286914

_conditioned._func._drift._model.0.weight f4 [84, 48]
00000000: 3175 7d3c a834 bfbd 93f4 d83d 596c f0bc
00000010: b745 9fbd 2ea9 0cbd 49fb 43bd 7936 89bd
00000020: 0675 c03c 4a82 e13c b21e 063d 4309 0e3b
00000030: 41b5 68bd 1a7a a8bd 932f 22bd d79d bc3d
00000040: 3e63 51bd 5928 663d 3088 a0bd 7ba1 d2bc
00000050: 0242 2f3c 069c 2bbd 8757 5b3d bffd 623c
00000060: 103b 713d b73b 45bd aa85 66bb 963c a93c
00000070: bbdb dcbd 5502 85bd 9649 663d 8f0d f43c
00000080: 0391 033d 3a0d d83c c74b e43c 5681 fa3c
00000090: 600a 023c e7dd a93d 98da c4bb 86d7 99bc
000000a0: 91da 9ebd 9477 abbc 0652 2a3b 06d1 fe3c
000000b0: ea07 403d 5e6e 663b 477b 19bd 25cc 20bc
000000c0: dc2d 76bc 7431 973d c178 74bd 6a7a a63c
000000d0: 647c 46bc 915f b33b 07ba aa3d 5845 cc3c
000000e0: d8a3 98bd c8bc afbc 678b b63c bf5d 88bb
000000f0: 8b9e 943d 8b2e 71bd c421 9ebc c389 aabd
00000100: 75ea 933d 079c dfbb fabb f9bc 3e77 81bd
00000110: 9af6 c83c 3f23 68bc 062e 283d 8f58 213d
00000120: 4e54 88bd ccd0 963c d246 19bd 19ed 243d
00000130: 958b 853c 8cf1 913c 7e59 56bd c9cb 70bd
00000140: df3a 64bc d4e3 35bd 32be a1bd 1f02 9f3c
00000150: ff87 f03b 815b 8d3d a54d 4fbe 05eb 0f3c
00000160: 4052 e2bc 8913 f9bc ccda 4d3d 22b3 853d
00000170: f981 6abd 6b48 f83b b775 a03d c44c 8bbb
00000180: 1afd 383d 7464 c0b9 c213 71bd fa9c 983a
00000190: 1bb6 413d b802 87bb ccea 743c d3f4 003d
000001a0: 77dd 89bd 9238 34b7 775e ab3b e636 8cbd
000001b0: c352 333d 40a7 a93d c7d2 93bc c8c9 b5bc
000001c0: 4214 51bb b13f 2a3c 39b0 e03c 3d90 ff3c
000001d0: 6a59 23bd 7b38 2dbd 2c39 963d 7d51 e6bc
000001e0: d08e 233d 5bbe 6a3c 208b 843d e576 443d
000001f0: 2848 32bd ec8c 5f3d 751d 7bbd bc22 103d
00000200: 4b19 50bd bc53 41bd 317b 13bd 947f 39bd
00000210: 5a74 da3c 97a5 f4bc aa7e ccbb f6c9 5bbc
00000220: 87b9 7f3d 0cf7 b4ba 2248 183d 61d9 babc
00000230: aa13 21bd c221 1cbd 31cd 78bd 5566 ae3c
00000240: d566 423d 3517 f2bc 988f fabc 6077 5e3d
00000250: ae1b f9bc 891d 77bd 27da 01bd eaa9 43bc
00000260: 720f 843c bd0a 253d 8fef c4bc ae8f 773d
00000270: c26a 0c3d c29b 053d 038a 24bc e871 63bd
00000280: 2288 563d bd45 003d 86ca 7fbd 3f58 643d
00000290: 348f f5bc 367f 48bd 6447 0f3d 51af 8d3b
000002a0: b30e 30bd 2500 d7bb ba7c 093d e3ca 593d
000002b0: d15c eebb deb7 a1bb cfe3 63bc b6b4 63bd
000002c0: 6411 fbbc cd5e b6bc b4c5 703c 0811 6abd
000002d0: 9bbd 163d 05e8 273d 7074 3cbd 3725 b73b
000002e0: 099b 90bd 5f81 993d 3967 ae3c b673 debc
000002f0: 0071 a63b b7c2 83bd 7926 90bd 063f 91bb
00000300: 7815 2cbd 3e38 afbb 4b2d 93bd 0b6c 3abd
00000310: dc9a 033c 29ef 303d 9c74 7e3d 235b fc3b
00000320: 57ae 363c 3aad 18bc 88eb b7bc 0e00 053d
00000330: 2430 003b fd2e b13c 0b0b 0b3d 323b 76bd
00000340: a5b1 7dbc c609 173d dc21 003c 0792 5bbd
00000350: 34b7 953c 4715 72bd d175 bf3c 6cf8 b43c
00000360: 53db 2b3d a7f1 203d b9c5 af3b 4395 70bd
00000370: d006 20bd 456f c23c e3f7 97bd e354 99bc
00000380: 2965 06bd 2fc0 77bc 85b9 43bd d357 343c
00000390: abb1 dcbb 06ee 153d 7979 35bd d3a3 06bd
000003a0: 5c75 f03d f921 2f3d cc61 23bd ac1c fa3c
000003b0: 16ec 093c b96d 143d 6e97 48bd 4b06 a7ba
000003c0: cc47 41bd d6bb b43d ad42 02bd 0653 ef3c
000003d0: 2370 523d ecc2 2d3d 7d74 843b 1f13 9ebc
000003e0: 90cf af3c 50a5 5b3c 96c4 123d c005 ae3c
000003f0: 4d57 4b3d e4b9 9bbc 1ada 8cbb 6831 22bb
0.015469835 -0.09336215 0.10593524 -0.02934854 -0.07776969 -0.03434103 -0.047847066 -0.06699843
0.023493301 0.027527947 0.032744117 0.0021673 -0.056813482 -0.08226414 -0.03959615 0.09209793
-0.051120035 0.056190822 -0.07838476 -0.025711766 0.01069689 -0.041896842 0.05355027 0.013854443
0.058894217 -0.04815265 -0.0035174885 0.020658772 -0.10784098 -0.064945854 0.05622252 0.029791621
0.032120716 0.026373494 0.027868165 0.03057925 0.007937044 0.08294278 -0.0060075037 -0.018779527
-0.07756532 -0.020931043 0.0025988831 0.03110553 0.046882547 0.0035160999 -0.037471082 -0.009814297
-0.015025582 0.07382479 -0.059685472 0.020322043 -0.012114618 0.005474039 0.08336263 0.02493541
-0.07453126 -0.021452323 0.02228327 -0.004161566 0.07256802 -0.058882277 -0.01930321 -0.08327057
0.072224535 -0.00682402 -0.030485142 -0.06321572 0.024531651 -0.01416856 0.041059516 0.039391097
-0.06656705 0.018410109 -0.037421055 0.040265176 0.01630191 0.017815374 -0.05233144 -0.058788095
-0.013930052 -0.044406727 -0.07897605 0.019410191 0.0073404307 0.069022186 -0.20244463 0.00878406
-0.02762711 -0.030404823 0.05025749 0.065283075 -0.057252858 0.0075769923 0.07834952 -0.0042510945
0.04516325 -0.00036695937 -0.058856733 0.0011643462 0.04729281 -0.004120197 0.014948558 0.031483483
-0.06731694 -1.0742007e-05 0.005229767 -0.068464085 0.0437801 0.082838535 -0.018044842 -0.022190943
-0.0031902944 0.010391162 0.02742778 0.031196708 -0.039880194 -0.042290192 0.073351234 -0.028115029
0.03993112 0.014327611 0.064718485 0.04796495 -0.043525845 0.054577753 -0.06130739 0.035189375
-0.05080537 -0.047198996 -0.036006156 -0.045287684 0.026666809 -0.029864116 -0.0062406855 -0.01341485
0.062432792 -0.0013806536 0.037178166 -0.022808732 -0.039325394 -0.03811813 -0.06074256 0.02128903
0.04746135 -0.029552082 -0.030586049 0.054313064 -0.030408707 -0.0603309 -0.031702187 -0.011942366
0.016120646 0.040293444 -0.024040012 0.060439758 0.0342815 0.032619245 -0.01004267 -0.05552855
0.05237592 0.031316508 -0.062449 0.05574822 -0.029975511 -0.048949443 0.034980193 0.004323878
-0.04298277 -0.0065612965 0.033566214 0.053172003 -0.007274248 -0.0049352488 -0.013909294 -0.05559226
-0.030647941 -0.022262001 0.014695574 -0.05714515 0.036801916 0.040992755 -0.04600948 0.005589153
-0.070608206 0.07495379 0.021289455 -0.027154785 0.0050793886 -0.06433623 -0.07038588 -0.004432562
-0.04201266 -0.0053472808 -0.07186373 -0.045513194 0.008032527 0.04319683 0.062122926 0.007701294
0.011149964 -0.009318644 -0.022451177 0.032470755 0.0019559944 0.021628851 0.03394608 -0.060115047
-0.015484248 0.036874555 0.007820573 -0.05360606 0.018275835 -0.059102323 0.023371609 0.022091113
0.04195721 0.039292958 0.0053641465 -0.058736097 -0.039068997 0.023734698 -0.074203275 -0.018717235
-0.032811318 -0.015121504 -0.047784347 0.011007267 -0.006735047 0.03660395 -0.0443053 -0.03287108
0.117411345 0.04275701 -0.03988819 0.03053125 0.008418104 0.036237452 -0.04897254 -0.0012742964
-0.04718761 0.08824889 -0.03180187 0.029214393 0.051376473 0.04242222 0.004042207 -0.019296227
0.021461278 0.013406113 0.03583201 0.021242976 0.049643803 -0.019009538 -0.0042984607 -0.0024748687

_conditioned._func._drift._model.0.bias f4 [84]
00000000: 6bef 773d da18 59bd 98d9 4f3d 459f 88bd
00000010: 5d5b eabc 7af3 09bc 1178 a63d 7b23 59bb
00000020: 2c89 b2bb 77a4 673d 3a8b 61bc a10a 4ebd
00000030: 2c76 113d 7fad 82bd c0a5 43bd 818b 24bd
00000040: f63e c6b6 6c04 593d bd8e 29bd 78fa 113d
00000050: bbed 32bd 0a9d 993c 1928 993a b892 513c
00000060: 6f5a 26bc 004f 8f3d 227e ca3b a06f 89bc
00000070: cd2f 9abd 5a9b 8e3d b72f 7b3d 6495 96bd
00000080: fe2e 1abd f49b 643d 0d92 f63c a125 2f3d
00000090: 43b0 a63d 651f 0ebd d0c9 25bd 05be 3fbc
000000a0: f8e9 4abd 8a4e f3bd 44af 00bd 57f1 963d
000000b0: 88bc 6f3c 42f3 bc3b c173 413c 7bd3 6ebb
000000c0: 9939 a8bc 292a dd3a 9c3f 14bd dfe7 023d
000000d0: 63cc ae3c 7f93 7bbd 09aa 733d 6427 8bbd
000000e0: 4570 9ebd 7553 96bd f176 b4bb 088f 7f3c
000000f0: 7189 8b3d 7970 35bd 97c9 243a 672d 06bd
00000100: 2ef7 39bd cf4d 883d b5da 37bd 377e 1b3d
00000110: 73fd 78bd e2bb 263d c3a8 8dbc 4953 f13c
00000120: 2c9f aebc dfd0 453d 5a76 703d 0ee2 f53c
00000130: 8cbb 743d a61b ee3a 8fac 70bd 59f4 5c3d
00000140: 9c7a e5bb a6df 28bd 182c 2ebd 754a 30bd
0.06053106 -0.053002216 0.050744623 -0.06671003 -0.028608019 -0.008419866 0.081283696 -0.003313272
-0.005448481 0.05655333 -0.013766104 -0.050303105 0.035513088 -0.06380748 -0.047765493 -0.040172104
-5.9081895e-06 0.052982733 -0.04139589 0.035639256 -0.04368375 0.01875164 0.0011684924 0.012791328
-0.010153397 0.0699749 0.006179587 -0.01677686 -0.075286485 0.06963225 0.0613248 -0.07352713
-0.03764247 0.05581279 0.03009894 0.042760495 0.08139088 -0.03469791 -0.040475667 -0.011703019
-0.049539536 -0.118802145 -0.031417146 0.07370251 0.014632352 0.0057663033 0.011807383 -0.003644197
-0.020535277 0.0016873527 -0.036193475 0.03195941 0.021337694 -0.06141996 0.05948833 -0.067946225
-0.077362575 -0.07340137 -0.005507343 0.015598066 0.06813324 -0.044296715 0.0006286143 -0.032758143
-0.045401745 0.06655466 -0.04488631 0.037962165 -0.060788583 0.040706523 -0.017292386 0.029458659
-0.021316133 0.048294898 0.05870662 0.030015018 0.05974917 0.0018166199 -0.058758315 0.053943966
-0.0070031416 -0.041228913 -0.04252252 -0.043039758

_conditioned._func._drift._model.2.weight f4 [48, 84]
00000000: a567 953d 89f6 c2b7 698f bdbd 25e3 4c3b
00000010: 0f18 1bbd 9926 5f3d 94e7 063b 7391 4a3c
00000020: 57d1 0d3d 41fd 01bc 4475 ba3c 8d1c 58ba
00000030: 22cb 3fbd bbbe a1bc 81a8 e0bb cfeb 6d3d
00000040: bf96 513d 32e9 d03d 42e1 4e3c b2ec 3bbb
00000050: ac7a abbc 4ea1 4bba da83 21be 8ec6 c2bc
00000060: 68a4 2cbd b9d7 bfbd 2adf b2bc 5f4c cebd
00000070: 72a9 adba d6c0 6fbd 5e95 17bc 0b8b 42bd
00000080: 0183 87bc 576f 1fbd 63b9 3c3d eab3 553d
00000090: 3420 ab3c de32 9b3d 3418 eb3b c753 c5bc
000000a0: f390 0ebc c9a6 d13c ed6c d9bb 9307 a3bc
000000b0: 8934 723d 6582 35bd a00f 52bd 4467 da3c
000000c0: 013c 50bd a03f c1bc f140 693c a118 423d
000000d0: 2df4 a03c 10ff 3dbd d221 393d d958 28bd
000000e0: d7a6 1f3d 261c d5bc a5fa 923c 8abf fb3d
000000f0: dffc 4e3d d595 a73c 5ce7 f03c 4167 5d3c
00000100: c96c fcbc 67b2 0bbd 61ef 1239 a5ce a3bc
00000110: d6f2 bfbc 385e cdbd 84d9 223d 55b1 0c3d
00000120: a584 003d 688a cfba 825c ed3c 70c4 363d
00000130: 8a4b 003d 869c 243d b1da 58bd 0f23 e3bb
00000140: 4ef7 763d 81d4 47bd fe06 593c 5947 8ebd
00000150: 280e 67bb 4eee ef3b f667 08bd 869f 1cbd
00000160: 66ae fb3c ec10 80bd 3786 eebb e639 37bd
00000170: 59e4 8c3d f1ce 133d 764d d1bc fc2b b73c
00000180: e825 9bbd dd73 07bc c56b 833c ce26 1dbd
00000190: fc95 223d 2e17 703b 0b52 b1bb 707e 08bc
000001a0: 37b2 2bbd 4363 e63d d17a 823d ac56 c3bc
000001b0: 0152 05bd 6e24 a4ba ee07 073d 0b90 29bd
000001c0: b98c 493d eda3 d93c 1a29 a23a f998 193d
000001d0: 55d8 41bd 0144 f93b 4967 72bd e8f8 91bd
000001e0: 22a1 903c 46bc 2e3d 8ded 5e3c cff2 06bd
000001f0: 5721 9a3b d5bd 1dbd e7d8 723d 000d 67bc
00000200: 8ad0 8b3d 5252 87bc e666 2ebd e4d9 ce3b
00000210: acd5 09bc 6b38 463c cffe 653d 3bc4 b9bc
00000220: d660 c6bc d14a 373c 3a68 d0bc eb28 5a3d
00000230: bbad 2dbd de02 b53d 70e5 f73c ddc7 36bd
00000240: 5e98 d5bb 4c8d 0c3d e512 693d aa56 933d
00000250: 91a8 18bd 94f1 60bb c1ce 09bd 6fdc a83c
00000260: fff6 2cbd b912 e7bc 139a 6cbd 7e04 2dbd
00000270: 888a 69bd 7fd2 43bd ec3d 2abd a7da 013d
00000280: b417 cb3d 8de2 d33c 573e 193c fb4a e3bc
00000290: 2101 70bd a41d ccba f2f8 97bc ab96 9fbd
000002a0: a700 59bc 5812 3c3d b8e5 20bd 1a1b f13c
000002b0: 530d 96bc 1161 ba3c cdb8 ff3c 8a52 7f3d
000002c0: 23f2 f5bc c52d 1a3d 95c4 d93b 1301 19bd
000002d0: 61b6 d93c 185d 61bd 3ae8 053c ee41 d63c
000002e0: 02af 5ebc 346a 453d 9345 e33b 7730 99bd
000002f0: 4e84 043d ab1a 7abd 0c76 5abc 3cfb 64bd
00000300: 837d c43c 7d0a 7abd 5756 2bbd 74df 113c
00000310: 5679 70bc 27d8 4c3d 8f5b bb3d a5fb dd3c
00000320: 7b33 5dbd 389c 49bd b1e0 413d 5b5c 7c3c
00000330: e7cb 0f3c a21b 98bb 64ef e8bb 418e 1abc
00000340: 84d5 b73c 3c25 dbbd ec1c 2cbd f227 babc
00000350: 2e84 383d 1493 8a3d 5d4c 06bc 8ada b03c
00000360: 677e 833d 3122 92bd 9193 64bd 70cc 2d3b
00000370: ab00 bdbb dc70 52bc 7704 e83c a458 07bd
00000380: defe 52bd fe88 1bbd 61f7 f53c 8e42 4a3d
00000390: 232a 07bd 028a 52bd 7411 93bd c05d bd3c
000003a0: 592f efbc 6a5a c53b 9208 393d 84e1 c53b
000003b0: 3525 9d3c 0745 89bb 76bc 04bd 340e 35bc
000003c0: 2fd0 41bd 2e91 cdbc 1a04 8e3c 7753 6b3d
000003d0: 271a 2bbd af1a 213d 56cc 00bd 37a2 f53b
000003e0: 67ac 03bc f630 90bc 9de6 7e3d b435 f63c
000003f0: 40a9 fdbc cbd0 f83c 0e03 17bd cc6c 2abb
0.07295159 -2.3241404e-05 -0.09255869 0.0031263318 -0.03786474 0.05448017 0.0020584809 0.012363779
0.03462347 -0.007933916 0.022760995 -0.00082440005 -0.046824582 -0.019744268 -0.0068560247 0.058086213
0.051169153 0.102007285 0.012626948 -0.0028675017 -0.020932518 -0.0007767872 -0.15772954 -0.023776319
-0.042148978 -0.09367318 -0.021834929 -0.100731604 -0.0013249351 -0.058533512 -0.0092519205 -0.047495883
-0.01654196 -0.03892454 0.046075236 0.052173533 0.02088938 0.075780615 0.007174516 -0.0240878
-0.008701551 0.025592225 -0.0066352994 -0.019901073 0.059132133 -0.044313807 -0.051284432 0.026660569
-0.050838474 -0.02358991 0.014236675 0.04738677 0.019647682 -0.046385825 0.04519827 -0.041100357
0.03897747 -0.026014399 0.017941782 0.122923926 0.050534125 0.020457188 0.029407196 0.013513387
-0.030813592 -0.034105685 0.0001401282 -0.019995997 -0.023431223 -0.100277364 0.03975822 0.034348805
0.0313765 -0.0015834095 0.028974775 0.04462093 0.03132204 0.040188335 -0.052942935 -0.0069316695
0.060294442 -0.048786644 0.013246296 -0.06947202 -0.003525624 0.0073221093 -0.03330227 -0.03823807
0.030722808 -0.062532276 -0.0072791832 -0.04473295 0.06879491 0.036086027 -0.025549632 0.02235984
-0.075755894 -0.00826737 0.0160426 -0.038367085 0.039693817 0.003663491 -0.0054113916 -0.008330926
-0.041918006 0.112494014 0.063710816 -0.02384504 -0.03254891 -0.0012523064 0.032966547 -0.041397136
0.04920647 0.026567424 0.0012371868 0.0374994 -0.04732545 0.0076069837 -0.05918053 -0.07127553
0.01765496 0.04266002 0.013606441 -0.032946404 0.0047036815 -0.038511116 0.059288885 -0.014102221
0.06826885 -0.016518746 -0.0425786 0.0063125957 -0.00841276 0.012098412 0.056151208 -0.022676578
-0.024216097 0.011187271 -0.025440324 0.05326168 -0.04240201 0.088384375 0.030260772 -0.0446242
-0.0065184077 0.03431444 0.056902785 0.07194264 -0.037270132 -0.003432368 -0.03364444 0.020612923
-0.04222774 -0.02820717 -0.057764124 -0.042240612 -0.05701688 -0.047808167 -0.04156296 0.031702664
0.099166304 0.025864864 0.009353242 -0.027745714 -0.058594827 -0.0015572798 -0.018551324 -0.077924095
-0.013244784 0.04591593 -0.039281577 0.029431868 -0.0183169 0.022751363 0.03121605 0.062334575
-0.030022686 0.037641305 0.006645749 -0.03735454 0.026576223 -0.05502042 0.008173043 0.026154485
-0.01359153 0.048196986 0.006935784 -0.07479947 0.032352738 -0.06106059 -0.013333809 -0.05590366
0.02398563 -0.06104516 -0.041830387 0.008903373 -0.014677366 0.050010826 0.09148323 0.027097533
-0.054004174 -0.049221247 0.047333423 0.015402879 0.008776641 -0.004641966 -0.0071086157 -0.00943333
0.02244068 -0.10700461 -0.04201977 -0.022724126 0.04504793 0.06766334 -0.008196917 0.021588583
0.06420594 -0.07135428 -0.055804793 0.002651956 -0.005767902 -0.012844291 0.028322442 -0.03304352
-0.05151259 -0.037972443 0.030025186 0.049379878 -0.03299917 -0.051401146 -0.07181063 0.023115993
-0.029197382 0.006022741 0.04517419 0.0060388464 0.01918278 -0.004189137 -0.032406293 -0.01105075
-0.04731768 -0.025093641 0.01733594 0.057452645 -0.041772988 0.039332088 -0.03144487 0.007496144
-0.008036709 -0.017601471 0.06223165 0.030054905 -0.030964494 0.030372998 -0.036868148 -0.002600479

_conditioned._func._drift._model.2.bias f4 [48]
00000000: 4361 a53c 4fa4 9dbc 7e30 a93c 2cec 803c
00000010: 0e22 8fbc 2736 0f3d 8d68 b43b e556 92bc
00000020: 4cf4 07bc 1cb0 0ebd 0880 7ebb 2956 40bd
00000030: d14c 133d cffd 25bc a579 d63b c98a 043d
00000040: e0a6 c0bc 9043 593c f7a8 97bb f6fa 993c
00000050: 5a93 2f3d 2e6b 25bd 2332 4fbb ade9 edbc
00000060: affd 583d 91d9 113c e908 d1bc 77ce c93c
00000070: f4fb 593d 0455 113d ce4d 863b 28aa c0bb
00000080: e174 d33c 859e 843c eb18 6bbd 13bd 2cbb
00000090: 7c5d 4abc 012d 663d 172e 103d c5de 943a
000000a0: 5e57 033c c42f ae3b 344c cabc 69be 14bd
000000b0: 9e8f d73c a939 b8bc a522 2abd 34a0 d83c
0.02018798 -0.019243388 0.020653006 0.015737616 -0.017472293 0.034963753 0.0055056275 -0.0178637
-0.008297991 -0.03483592 -0.0038833637 -0.04695717 0.03596193 -0.010131313 0.006545263 0.03235892
-0.023517072 0.013260737 -0.0046282965 0.018796425 0.042865135 -0.040385418 -0.0031615577 -0.02904209
0.052976307 0.0089019695 -0.025516944 0.024634583 0.053218797 0.035481468 0.0040986305 -0.005879659
0.025812568 0.01618887 -0.05739681 -0.0026357814 -0.01235139 0.056195263 0.035200205 0.0011357894
0.008016435 0.0053157527 -0.02469454 -0.0363144 0.0263136 -0.022488432 -0.041536946 0.026443578

_conditioned._func._diffusion._model.0.weight f4 [84, 48]
00000000: a635 73bd 2f3b c9bd 745d d4bd 90f7 bcbd
00000010: 144f 68bd 1730 d8bd 392a 9bbd d561 053d
00000020: 425b e8bb b648 cf3c 0090 57bd fad9 5fbd
00000030: fc3d b13c b581 0f3d 6cd7 bfbd cd3d 3bbc
00000040: 9cce e9bc cd0a 3c3c d431 77bd 8eac 9d3d
00000050: 9322 d03d fbf6 94bc 8ceb d73d eb2d b63d
00000060: 925e 413b 7371 ed3c e57c c6ba 940a 0a3d
00000070: ecc3 9e3d 3baf 7b3d 1f9c 973d 0fbc 97bd
00000080: 5a8d 8f3d 6ba2 8bbc bf3c 2ebd e3b3 5cbd
00000090: 07bb dfbc c5b7 873d 21f6 25bd f806 1d3d
000000a0: 0eac 2abd f449 9c3d c02a b33d e3b9 d33a
000000b0: 48c7 6e3d 9653 5a3c 0cf2 debc 769b 433d
000000c0: 4beb 90bd c935 c0bc 345d 09bc c89a 18bd
000000d0: dc82 49bd 3714 603d 9b2d 83bc df2e dfbd
000000e0: b5c9 5b3c 0399 8abd ebb7 583b d796 aa3d
000000f0: d33b b637 4792 66bd 4bbf a3bd e589 883c
00000100: 61e4 f5bd 3cda 05bd 1a52 55bc f027 cdbc
00000110: a41d 773d 5465 17bd a792 37bc 8514 c23d
00000120: d24a 293d ceda d53c d60c 4b3c 0d8a 183c
00000130: 9634 c73d 602f c63d cb4c cdbb aa90 6ebd
00000140: 4e32 94bb a41b f3bc 2c53 a53d 00aa 9a3c
00000150: 54ef bfbc 53bf 453d 7bed 593c cb83 aabd
00000160: 2846 c4bd 361a ffbd 4932 d23d 29ae a23d
00000170: 1f3f f73d 0443 133c fa3c a8bd ecc8 2f3d
00000180: e69c d5bd ae81 6a3c c516 b8bd a824 b3bd
00000190: c469 333d 3045 75bd 8e4a b0bb 304e 86bb
000001a0: 481d 9ebd 339d 56bd 0fb2 c23c 60d0 853d
000001b0: ca83 b73c 364c 6a3c 530c cdbd 2659 123d
000001c0: 446f afbd 6bcd 953d f647 6dbc 66a1 fd3c
000001d0: d341 89bd 9c23 af3d ff3a 00bd bb34 2ebd
000001e0: 8df6 4b3c 37e3 f23d 57b2 033d bd03 9dbd
000001f0: 3c26 db3d e0de 72bd cbb5 2fb9 0f9b 84bd
00000200: 4870 963d 22d6 883a 0757 f43c 07d6 003d
00000210: beb1 46bd 0b3d e6bd c94e d53d d839 ecbd
00000220: ea74 623d b35a c8bc 9cf0 1cbd c608 d8bd
00000230: 8752 9ebd cd67 8b3d 125c 46bd b8a7 7c3d
00000240: c9c2 d9bd a020 b6bd 12b7 c0bc 2f82 58bd
00000250: 3763 ad3d 2d22 ca3d a29e 933d 8802 bf3d
00000260: 6b37 2d3d ff5e 783d e6d3 9a3d b659 27bd
00000270: 69f0 64bd 96cd a6bd 760b d3bd 130d a8bc
00000280: 4ef2 9cbd 8e7a 9f3d 0541 813d 5cfe 063d
00000290: 22a3 f5bb 9f08 80bd c06a 5d3d 6f00 9a3d
000002a0: af86 e2bd c973 fabc ba4b 363d 8b7d 893d
000002b0: 71ec e5b9 bacd 973d c926 763d c5f7 2a3d
000002c0: c8cc 88bd 22fd e6bd f565 ba3d dedc 7f3d
000002d0: 32c5 4e3d c478 1dbc 3397 563d 775e b13d
000002e0: 5225 42bd 5f70 98bd 6333 93bd 4c56 c0bc
000002f0: 332e 1bbe 907f 3fbd d585 8a3d 3cd4 c5bd
00000300: 6856 323e c114 6e3c b48a 8a3c 031a 7cbd
00000310: ca70 f33b 566a b4bc f57c a4bc 8912 cc3d
00000320: 6532 50bc 3ee6 153c 490e b53d 001a 683d
00000330: da0c c23d 078b 9e3c bb2f 46bd 98e5 563c
00000340: 4e9b 9a3c 3193 d3bd 5794 36bd 57e7 0a3d
00000350: e57a 993c cf33 77bc 34b3 36bd 1a28 463d
00000360: 455b be3d d502 03bb 0948 5d3c de18 26be
00000370: 44c1 373c 162d e23b 2e7b 563b fc1d 4439
00000380: bb1a 183d fd2d 6e3d 3ae2 bdbd 4b3c 6cbd
00000390: d299 4a3d 5c7a a33d a1a8 39bc b3d7 53bd
000003a0: d1e0 66bc 9dd2 d93d 8339 503c 3159 ddbd
000003b0: 589d 753d 06ea 83bd b735 9b3c 3fe9 1c3e
000003c0: 974c 83bd b3a2 39bd 652c bcbd 9435 63bd
000003d0: df05 71ba 224d 89bd 2211 99bd ec46 b13c
000003e0: 44f6 e9bd 472e 7cbd fd3c 96bd 7bf6 a2bd
000003f0: b341 d23b 77be e9bd dd22 deb9 1652 24bc
-0.059377335 -0.098257415 -0.10369387 -0.09226906 -0.05671604 -0.105560474 -0.07576413 0.032564003
-0.007090957 0.025303226 -0.052627563 -0.054651238 0.021636002 0.035035808 -0.0936726 -0.011428309
-0.028540902 0.0114771845 -0.060350254 0.07698928 0.101628445 -0.018184176 0.10542974 0.08895477
0.0029505831 0.02898476 -0.0015143423 0.033701494 0.07752213 0.06144641 0.074028246 -0.07408916
0.070093825 -0.01704522 -0.0425384 -0.05388249 -0.027310861 0.06626848 -0.04051793 0.038336724
-0.04166799 0.07631293 0.08748388 0.0016153421 0.05829552 0.0133255925 -0.027215026 0.04775568
-0.070761286 -0.023463147 -0.008384038 -0.037256986 -0.049197063 0.05470678 -0.016012957 -0.10897612
0.01341479 -0.06767466 0.0033068608 0.08329552 2.1723949e-05 -0.056291845 -0.079954706 0.016667316
-0.120064504 -0.032678828 -0.013020063 -0.025043458 0.060331002 -0.03696187 -0.011204398 0.0947657
0.04133112 0.02610531 0.012393197 0.009310258 0.09726827 0.09677005 -0.006265258 -0.05824343
-0.0045225983 -0.029676266 0.080725044 0.01887989 -0.02342955 0.048278164 0.013301249 -0.08325919
-0.09583694 -0.12456171 0.102634974 0.07943375 0.12072586 0.008988146 -0.08214755 0.042916223
-0.104303166 0.014313145 -0.08988718 -0.08747226 0.043802038 -0.059880435 -0.0053799814 -0.004098676
-0.07720429 -0.05239601 0.023766546 0.06533885 0.02240171 0.014300397 -0.10012116 0.03572955
-0.08566144 0.07314571 -0.014482489 0.03096075 -0.06702008 0.08551714 -0.031306263 -0.042530756
0.012448919 0.11859744 0.0321525 -0.07666729 0.10700652 -0.05929458 -0.00016757024 -0.064748876
0.07345635 0.0010439793 0.029826654 0.031454112 -0.048509352 -0.11242112 0.10415418 -0.1153447
0.05528728 -0.024457311 -0.0383154 -0.105485484 -0.077305846 0.06806908 -0.04842765 0.061683387
-0.106328554 -0.088929415 -0.023524795 -0.052858528 0.08466189 0.098698 0.07207991 0.09326655
0.04228918 0.06063747 0.07559948 -0.04085704 -0.055893335 -0.08144681 -0.103049204 -0.020514047
-0.076634035 0.07787047 0.063112296 0.03295742 -0.0074962536 -0.06251644 0.054056883 0.07519614
-0.11060845 -0.030572789 0.044505812 0.067133985 -0.00043854446 0.07412286 0.060095582 0.041740198
-0.06679684 -0.1127875 0.09101478 0.062466495 0.05048103 -0.009611312 0.05239029 0.08660596
-0.047398873 -0.07443308 -0.071875356 -0.02347865 -0.15154342 -0.046752512 0.06763808 -0.09659621
0.17415774 0.014531315 0.016911842 -0.061548244 0.007429217 -0.022023361 -0.020079115 0.09964473
-0.0127073275 0.009149132 0.08840615 0.05666542 0.094751075 0.019353403 -0.048385363 0.013116263
0.018872883 -0.10330809 -0.04457506 0.03391203 0.018735358 -0.015088036 -0.044604495 0.048378088
0.09294752 -0.0019990702 0.013505944 -0.16220424 0.011215512 0.0069023473 0.003272723 0.00018703187
0.037134867 0.058149327 -0.09271665 -0.057674687 0.0494631 0.079823226 -0.011331708 -0.05171938
-0.014091686 0.106358744 0.012709024 -0.108080275 0.059964508 -0.06441121 0.018946512 0.15323351
-0.06411093 -0.045321178 -0.09188155 -0.055471018 -0.0009194295 -0.06704165 -0.07473971 0.021640263
-0.114239246 -0.06156757 -0.07335851 -0.07957169 0.0064165234 -0.114132814 -0.00042369115 -0.010029336

_conditioned._func._diffusion._model.0.bias f4 [84]
00000000: e48d b2bd d26b eb3d 8d32 e33d 42c7 92bd
00000010: 0e6d 9cbc a330 8f3d 6c08 cd3d 13d2 be3d
00000020: 06c4 59bd 3a1b 093d 3255 5bbd 17be 40bc
00000030: db4d 963d 52f7 03bd 72f5 7c3a 641c 69bd
00000040: 775c 01bd f5e1 033d 732d 2c3d def1 d73c
00000050: 371e 5f3d 89f2 9fbd 8ec7 d6bd bbfd 1e3d
00000060: e02d 87bd 2402 3ebc 9b41 32bd aee9 8bbd
00000070: 2361 74bd 2f5e aebc 5363 973c 034e 45bd
00000080: c178 d8bd 1abd 2abd 2995 9ebd 6515 19bd
00000090: 1f03 d93c 5472 eebb c972 313c ed14 11be
000000a0: 18d5 6f3d 9b19 b0bb 2b06 7a3d a37a 1b3d
000000b0: 648c 093d 6cb7 7b3d 4b58 5e3d a405 263e
000000c0: 4636 a3bd 3f54 bebd 0b9f 5eba e118 57bd
000000d0: f2e7 32bd 9b12 60bd 9e6f c13d 00e2 393d
000000e0: d4a2 24be 09b1 cf3d c426 853d 11bc debd
000000f0: fb32 d43d 0943 59ba dbcc 1fbd 6aa5 a1bd
00000100: 323f eebd 5064 5bbb 31af b1bd 1999 bfbd
00000110: 5cba af3c af55 75bc 5d01 b93d be7d 1b3e
00000120: a755 043c 7391 e3bd cabf 333d c8fa ef3d
00000130: 4651 0e3d 3993 04be d9ca 1fbd 60d9 babd
00000140: f013 e63d ccdc 7abd 2a5c 05be 7a2f b4bd
-0.0871847 0.114951745 0.11093626 -0.07166912 -0.01909497 0.069916986 0.10011372 0.09317412
-0.05316546 0.03347323 -0.053548045 -0.011764071 0.073390685 -0.032218285 0.00096496113 -0.05691184
-0.031582322 0.03219791 0.04203553 0.026360448 0.054472174 -0.07809932 -0.10487281 0.038816195
-0.06600547 -0.01159719 -0.043519598 -0.0683168 -0.05966295 -0.021285145 0.018479979 -0.0481701
-0.10569907 -0.041684248 -0.07743294 -0.03737392 0.026490746 -0.0072768126 0.01083059 -0.14168139
0.05855283 -0.005374146 0.06104104 0.037958752 0.033581153 0.06145422 0.05428342 0.16213089
-0.07969336 -0.092934124 -0.0008492327 -0.05251396 -0.04367823 -0.054705244 0.094451174 0.045381546
-0.16077739 0.10141189 0.065015346 -0.108757146 0.10361286 -0.0008287882 -0.039013725 -0.07892878
-0.11633147 -0.003347654 -0.08675993 -0.09355373 0.021451168 -0.014974042 0.09033463 0.15184686
0.008077062 -0.111117266 0.043884076 0.117177546 0.034745477 -0.12946786 -0.03901181 -0.09123492
0.112342715 -0.061245725 -0.13023439 -0.08798118

_conditioned._func._diffusion._model.2.weight f4 [48, 84]
00000000: 2bd1 76bd 8b5c 5c3d 6e02 2abc 6bed 443d
00000010: 9752 b9bc cd29 3cbc 89a5 6fbd 5fd0 b7bc
00000020: 6188 04bd d127 fe3b d72f 373d 8508 bebb
00000030: 1c13 01bd cf84 84bd 2b1b a1bd 072a 8ebd
00000040: 286c e3bc 4ee6 ef3a be0d 2f3d 7b26 b53a
00000050: 659c c2bd 0b56 d93c 7ec9 44bd 2fb2 25bc
00000060: 4ff8 8fbb 095c 92bd 35ad 7d3c d7e9 0b3d
00000070: 0484 84bd 433c 38bd 1ae9 2d3d a8ae 70bc
00000080: f687 503d 8eef 9a3d 6f91 0ebd 1395 84bd
00000090: e584 34bb a5f1 ffba ce4f 043d 2855 fabc
000000a0: d53d b7bc 8d05 23bd 016d 813d 443b 813d
000000b0: e5df 923d 4134 93bc f03e 03bc adb0 75bd
000000c0: 0f0a a73c fd34 9e3d 8bcb fc3c 1717 11bd
000000d0: f7c2 d73b c89b cfbc cddd d5ba 333c 57bd
000000e0: f66e 07bd 13ef 87bb 648d 7dbd ff13 afbc
000000f0: 2519 80bd 13cd 963c 4d08 553c 3984 d53b
00000100: 67a2 023c efcf cabc 0f0b 7f3d 340f 93bd
00000110: 610b adbc a194 63bb 25d8 adbc 7b38 cd3c
00000120: de3e b43d 7614 6d3b e66c 243d 1a9a 223c
00000130: 80ee ed3b 407d 3bbd f104 e9bc 41d3 db3c
00000140: 83e6 30bb df54 793c dd64 423d 4c4f 133c
00000150: 5f9e 523d 3d35 12bd 7280 90bd 4909 4abd
00000160: ae98 823d ced5 abbb e923 843d 5c74 bb3c
00000170: 87f4 4b3d b6c5 99bc 2a4f 993a 7d6a 853b
00000180: dd22 133d 2e9a 643d 9109 a5bd 16f0 1ebd
00000190: c55e 94bd db5a 693d d43f 0c3d ab7c b03c
000001a0: 7a10 593c 9fd1 543c 80d4 ba3d e66e 0b3d
000001b0: 3302 c6ba d3e0 dabc ea9e f5bc 88c7 ceb8
000001c0: b058 88bd 846c 7a3b 478e 2c3d 38a2 983d
000001d0: c9a9 2e3d b256 923d 6e21 8abb e32b af3b
000001e0: 56c0 0ebd 79d1 783d 3f2e a03d 2d75 f1bc
000001f0: 4e8e 8cbc 4d94 fa3c c18a e43b ea17 32bd
00000200: 4497 5fbd cfb7 6ebb 7841 8d3d 373b cbbc
00000210: cd5d 373d f7a5 bcbd b002 1a3e 3ad2 eabc
00000220: bcc2 af3c 3ac0 283d 2970 f8bc 39bb 463d
00000230: 8eb0 eb3c 5fa0 c03c 32bb 333d 73ca 9b3d
00000240: 7a09 953d 4755 bcbc 05d5 8ebd 9705 73bc
00000250: 7154 9abc cbc8 5b3c 8033 133d 6dad 333d
00000260: 3a99 93bd b3fd b8bc 6b46 e7bc a50b 3ebd
00000270: d97e 683d a040 233d f639 5dbd 7de9 83bd
00000280: 4817 81bd e222 3e3d bf64 703b 8374 27bc
00000290: ed85 5dba d064 a43b 1d2a ab3c d4ac 59bd
000002a0: 71e5 b0bd 8868 e6bd 7b1b 95bd 411b f63d
000002b0: ee3b a4bc 65b5 f6bd c8e1 9fbd d40f c4bd
000002c0: dd9c 71bc d4d7 dbbd 1c28 123e 9506 85be
000002d0: 1ab0 0cbc 40f4 35bd ea5b 9e3c 7d34 2bbc
000002e0: 8191 313e 7a07 02bc a071 043d 32df 14bd
000002f0: eef6 733d 3706 9fbc 9d07 b63d e21e 0fbd
00000300: 9468 963d 7fcb 3c3d 381b b63d 175c bfbd
00000310: b210 083c 02c3 73bd 01c8 c43c 90d4 373e
00000320: fb67 05bd ce2b 423d 680c 0f3d 7aa8 c3bd
00000330: 56db c43c 05d1 4c3d 6e77 f7bc 366c e43d
00000340: 7bc6 2f3e 2dc4 57bd 0e6a 71bd d95b 3e3c
00000350: cdde 093e 4602 b1bd 31ac 17bd b6de 9bbe
00000360: 0237 333e c1c3 d83d e9f4 0ebd 5254 07bc
00000370: 1ff0 38bd 32b0 fa3d 81cb 29be 03f1 57bd
00000380: 6d9a 633d e748 95bc 1b47 43bd f01b 873d
00000390: e997 67be 0eb1 d03b da04 cf3d 568c 063d
000003a0: 3dff 983c b6a3 a1bd 824b ee3c 17f3 d6bc
000003b0: 3fc0 133d 149e 893d e13b 77bb 3d61 dbbd
000003c0: f483 47bd 3ca4 593d 5beb bcbd 3625 b13d
000003d0: e2fd 0f3c e8f0 df3d 9625 083d 9e32 993c
000003e0: 10e0 a63c 1d65 21be 2810 e23d 27a3 0fbd
000003f0: c862 4cbd e781 c9bc 8419 a63b add0 3e3d
-0.060258072 0.053799193 -0.010376556 0.048077982 -0.02262239 -0.011484575 -0.058507476 -0.022438226
-0.032356624 0.0077562113 0.044723358 -0.0057993555 -0.031512365 -0.06470644 -0.0786651 -0.0694161
-0.027761534 0.0018302889 0.042737715 0.0013820672 -0.09502486 0.026530286 -0.04804372 -0.010113283
-0.0043936144 -0.071464606 0.01548319 0.034158554 -0.064704925 -0.044979345 0.04245863 -0.014690079
0.050910912 0.07565223 -0.034806665 -0.06473746 -0.0027545032 -0.0019526972 0.03230267 -0.030558184
-0.022368351 -0.039800216 0.06319619 0.06310132 0.07171611 -0.017969253 -0.008010611 -0.059982944
0.020390538 0.077249505 0.030858776 -0.03542241 0.006584521 -0.025342837 -0.0016316712 -0.052547645
-0.033064805 -0.004148373 -0.06190242 -0.02137184 -0.06254796 0.018408334 0.013002467 0.0065160063
0.00797329 -0.024757354 0.062266406 -0.07180634 -0.02112359 -0.003472604 -0.02122123 0.025051346
0.088010535 0.0036175526 0.040142916 0.009924436 0.0072610974 -0.045773745 -0.028444739 0.026834132
-0.0026992864 0.015217989 0.047459472 0.008991074 0.051420566 -0.035695303 -0.07055749 -0.04932526
0.063767776 -0.0052439934 0.06452162 0.022882633 0.049793746 -0.018771034 0.0011696566 0.0040715323
0.03592192 0.0558111 -0.08058465 -0.038803183 -0.07244638 0.056971412 0.03424056 0.021543821
0.013248557 0.012989431 0.091225624 0.034041308 -0.0015106857 -0.026718533 -0.029983003 -9.860011e-05
-0.06657541 0.0038211653 0.042127874 0.07452816 0.04264239 0.07145442 -0.004215411 0.005345808
-0.034851395 0.060746644 0.07821321 -0.02947482 -0.0171577 0.030588293 0.0069745486 -0.043479837
-0.054587618 -0.0036425476 0.06897253 -0.02480851 0.04476719 -0.09211343 0.15040088 -0.028664697
0.021455161 0.041198947 -0.03032692 0.048518393 0.028770711 0.02351397 0.043879695 0.076069735
0.07277198 -0.022989882 -0.06974224 -0.014832876 -0.018839093 0.013414572 0.035937786 0.043866564
-0.0720696 -0.02258191 -0.02823182 -0.046397824 0.056761596 0.039856553 -0.054010354 -0.06441019
-0.06303269 0.046419986 0.0036681143 -0.01022065 -0.00084504375 0.0050169006 0.020894105 -0.053143337
-0.086375125 -0.112504065 -0.07280632 0.12016917 -0.020048108 -0.12046317 -0.07806736 -0.095733315
-0.014746872 -0.10734525 0.14273113 -0.25981584 -0.008586908 -0.044422388 0.019330937 -0.010449526
0.17340662 -0.007936353 0.032334924 -0.036345668 0.059561662 -0.019412143 0.08888171 -0.03494156
0.073441654 0.046092506 0.0889191 -0.093437366 0.008304762 -0.059512146 0.02402115 0.1795218
-0.032569867 0.047405057 0.03492394 -0.09553619 0.024030369 0.050004024 -0.030208316 0.11153452
0.17165558 -0.052677322 -0.058939032 0.011618578 0.13463898 -0.08643012 -0.03702945 -0.30443352
0.17501453 0.10584212 -0.034901533 -0.00825985 -0.045150872 0.12240638 -0.16581537 -0.05272008
0.055567194 -0.01822324 -0.047675233 0.065971255 -0.22616543 0.006368763 0.10108347 0.03284868
0.018676395 -0.078925535 0.02908874 -0.026238961 0.036072012 0.06719604 -0.00377249 -0.10711906
-0.048709825 0.05313514 -0.09224578 0.086496755 0.008788558 0.10934621 0.03323897 0.018700894
0.020370513 -0.15761228 0.11038238 -0.035067704 -0.049898893 -0.024598075 0.0050689597 0.046585727

_conditioned._func._diffusion._model.2.bias f4 [48]
00000000: 831f ac3c 2adf a8bd 39bd 8bbd 0708 ddbc
00000010: 2703 26bd 034f dd3c 5908 3cbd 32b2 57bd
00000020: 78a3 983c 8449 213d 8ec9 87bb b35b 3fbd
00000030: 36bd 243c 864a 92bd 1b74 c83c aa58 663d
00000040: 6951 b8bc 0a1f 283c c4b9 7b3c cb53 84bd
00000050: 4be7 953b 7aa8 563b 4771 86bc d827 073d
00000060: 451f 47bd bd24 9d3d 766c 7dbd 70c6 9d3c
00000070: a582 c33b 0d6d ae3d 50d5 063d 9833 dd3c
00000080: 9d19 5e3d 931c cebc 755d 723a 8b6b 0dbd
00000090: 0509 ab3d 300f 863d b008 223c c475 4fbd
000000a0: aace 703d 55f6 fbbc 9600 59bc b316 9dbb
000000b0: 6db2 e7bc 4a31 d2bc f9b1 96ba 37d9 50bc
0.02101112 -0.0824569 -0.06823201 -0.026981367 -0.04053035 0.027015215 -0.0459064 -0.052660175
0.018632635 0.03937675 -0.0041439002 -0.04671831 0.010054877 -0.071431205 0.024469426 0.0562369
-0.022499757 0.010261307 0.015364114 -0.06461295 0.0045746914 0.0032754228 -0.016411437 0.032996982
-0.048613805 0.07673023 -0.061871015 0.019259661 0.005966502 0.085168935 0.032918274 0.02700214
0.054223645 -0.02516011 0.00092454936 -0.03452639 0.0835133 0.065458655 0.009889767 -0.05064942
0.05879084 -0.030757109 -0.013244769 -0.0047939657 -0.028283322 -0.025658268 -0.0011497132 -0.012747101

_conditioned._initial._model.0.weight f4 [32, 16]
00000000: c640 febc 27db fdbd f0fd 883d 92e1 bbbd
00000010: 473a 30be 25db e43d 789b 163d 9a0c a93d
00000020: 75c7 5a3e b56c 27be f00c 033e 85f4 da3c
00000030: 5f43 4dbe f2df 00be 3bb1 993d 1861 d7bd
00000040: 309a 253d 53c8 a43c 82b4 8dbd 4da3 f9bd
00000050: 27dd 8ebd 7e9c 46be 4dae 5fbe d2bd 953d
00000060: 3470 2abe 94ae c7bd 5162 0ebe a072 143e
00000070: b542 833d d2ca cfbd 9410 10be 8d0c 49be
00000080: 103a 04bf 79da 21be 9df6 3abe 44f4 95bb
00000090: d762 1cbe 5718 1cbd 936a 5c3d 72d3 adbd
000000a0: 03e2 75bd 195c 5dbe b849 62bc 1510 4fbe
000000b0: b19f 17ba 721c 18be de02 53be 087d 3ebd
000000c0: a2c2 413f d07b d93d 360b 393e 3526 19be
000000d0: 26f1 4f3e c5dc 873d 5778 45be 9e80 a23e
000000e0: 2638 94be 5f06 803b f835 573e ef55 7bbd
000000f0: eaaa 4cbe ab4e 043e ea3e 983d 4cda 9e3e
00000100: c288 5ebe 77ce d8bc ced4 693d b906 ef3d
00000110: 1612 7f3d 3823 d0bc 2696 a5bc a665 d33d
00000120: f5e7 e43c 0170 403e 143b 833d bfec 453d
00000130: 21a5 0b3d 7ed2 d6bd 2ebd d4bd 4883 40be
00000140: 012b 7c3c 9004 b53d 166f c2be dca2 fabc
00000150: 364f a2bd adc9 0f3e 5922 293e f62a 7abe
00000160: efe0 d0bd e156 d73d 6620 6fbe c047 4d3e
00000170: bdea 603e 7b1f b8bd 0c06 99bd 98e5 5ebe
00000180: 2c80 51be 0748 e03d cd97 1abe ec2a 1a3e
00000190: 2b86 bd3c 2382 3a3d 33c1 11bc 64ce 2abe
000001a0: 45f9 b83d 19ba 9c3c 2adb 2d3d 10e7 413e
000001b0: e8e5 853d 3f2a d63b 82e4 06bb 45b0 7cbe
000001c0: e125 efbd 1d96 1bbe 4f21 683e 51ed a83c
000001d0: 648c 2fbe b2e3 f3bd 718d 3cbc f9e8 6b3c
000001e0: e147 343e 7a70 013e 2919 81bd b259 0d3e
000001f0: cdd3 5cbe b739 4dbd aa74 eb3d ecbe cd3c
00000200: 7892 1f3e 8f26 f83d 0937 84bd 090b 4a3e
00000210: dd34 1f3d 5e89 32bd 3958 83bc 5dd6 b33d
00000220: 4c36 a8bd 8afd 1f3e 2555 063e c2a0 7ebe
00000230: b389 5ebd 6834 debd 3891 3bbe adff 9ebd
00000240: e376 293f 057d 08bc 7084 523e 7ebb 773c
00000250: ac50 62bc 5d87 683d a5b2 abbd e7c5 e73e
00000260: 440a b3be a0c4 bf3d 0a34 d93d 04b0 be3d
00000270: 3cd7 adbd d7c5 1d3e b38f 8cbc 77c1 c93e
00000280: 5c26 3b3e fc5c 99bd 71bc 023d 593e 053e
00000290: ad59 8fbd 2f1b 073d 5d6c 82be 6455 c13d
000002a0: f89b 293d 306b cabd a8e7 0c3c 3156 9ebd
000002b0: b749 81bc cb77 39be d89e 473e 5972 f13d
000002c0: e749 873d aea3 96bd 1a32 443e 1054 2bbe
000002d0: 08f0 0c3e e950 3a3d 5f1b b7bd 05ae a73e
000002e0: 7532 a4be 4f83 cb3c 929c 6d3e aaaf e43b
000002f0: bbdd 30be 982f 6b3e 04af 1a3e f0a2 a63e
00000300: a9ca 743e c87a 8d3d 7bb0 38be 35c5 09bd
00000310: 3411 23be 505e 953d d522 583d cc7b be3d
00000320: 94db e93b 990e f93d 0d2b 893b 27ac 243e
00000330: c4c3 01be 93c8 0ebe b612 4abe 1448 41be
00000340: 71bd 93be 3b72 4b3e e52d 80be c871 1fbe
00000350: bc20 1dbe 6171 b53d 6b73 f63d 8e9d 8ebe
00000360: ab51 823e b046 99be a6e7 95bd 030d 6e3d
00000370: 0041 843e 3b06 b2bd 2fec c63d 2944 a3be
00000380: 4d22 7dbe cbbf 88bc 9319 5e3e 841b 863d
00000390: e6db 1ebe 8a10 03be a1d2 40be e266 b63d
000003a0: f9f2 7c3e 21e6 37be f532 cebd 1b8f 9d3c
000003b0: 1364 5bbe b0c5 533c aaca 8c3d 7f7f 693e
000003c0: 1dcc d0bd a63b 08bd 2457 863e e629 84be
000003d0: c33b 6f3e d7f8 11bb 5d96 693e d357 4b3e
000003e0: 3d52 71bd 2705 69bd 71d9 793d 88e3 973d
000003f0: c4fa 5fbd 5c1d 543e bb81 603d 7ef3 c63d
-0.031036746 -0.123953156 0.0668906 -0.091738835 -0.17209731 0.11174611 0.03676936 0.08254357
0.2136515 -0.16350062 0.12797904 0.026727924 -0.20045231 -0.12585428 0.07504507 -0.10516566
0.040430248 0.020115053 -0.06919195 -0.1218935 -0.06975775 -0.19395635 -0.21843834 0.07311596
-0.16644365 -0.09750095 -0.13904692 0.14496851 0.06409208 -0.10146107 -0.14068824 -0.19633694
-0.51651096 -0.15805997 -0.18258138 -0.004576238 -0.1527208 -0.03810915 0.053812575 -0.084875956
-0.060029995 -0.21617164 -0.013811521 -0.20220979 -0.0005783989 -0.14854601 -0.20606562 -0.046505958
0.7568761 0.106193185 0.18070683 -0.14955981 0.20306835 0.06633905 -0.19284187 0.31738752
-0.28949088 0.0039070095 0.21016681 -0.06136125 -0.19987074 0.12920634 0.07433875 0.31025922
-0.21731856 -0.026465638 0.057087712 0.11671204 0.062273107 -0.025407419 -0.020213198 0.10322122
0.027942637 0.18792726 0.06407753 0.04832148 0.034093026 -0.10489367 -0.10387646 -0.1880008
0.015391112 0.08838761 -0.37975377 -0.030595236 -0.079252645 0.14041777 0.16517009 -0.24430451
-0.10199153 0.10514618 -0.23352203 0.20046902 0.21964546 -0.089903794 -0.074718565 -0.2176727
-0.2045905 0.10951238 -0.1509697 0.15055436 0.023135265 0.045534264 -0.00889616 -0.16680294
0.090319194 0.019131707 0.04244534 0.189358 0.06537992 0.006535798 -0.0020582979 -0.24676616
-0.11677147 -0.15193982 0.22668956 0.020620974 -0.17143399 -0.11908664 -0.011508332 0.014398807
0.17605545 0.12640563 -0.06303627 0.13803747 -0.2156517 -0.05010387 0.11496861 0.025115453
0.15583217 0.121167295 -0.064558096 0.19730772 0.038868774 -0.043588035 -0.016033279 0.08781121
-0.08213481 0.15624061 0.13118418 -0.24866012 -0.05433054 -0.108498394 -0.18317115 -0.0776361
0.6619703 -0.008330588 0.20558333 0.015120385 -0.013813179 0.056769717 -0.08383683 0.45268175
-0.3496877 0.09363675 0.10605629 0.09310916 -0.08488318 0.15407501 -0.017158365 0.39405414
0.18276352 -0.074884385 0.031917993 0.13012065 -0.06999526 0.03298491 -0.254733 0.09440115
0.04140851 -0.09883726 0.008600153 -0.077312835 -0.01578222 -0.18112104 0.19494188 0.11789388
0.06605893 -0.07355438 0.19159737 -0.16731286 0.1376344 0.04548732 -0.089407675 0.32749954
-0.32069746 0.024842886 0.23204258 0.0069789486 -0.17272083 0.22967374 0.15105826 0.32546186
0.23905434 0.06908184 -0.18036072 -0.033635337 -0.15924531 0.07293379 0.052767593 0.09300956
0.0071367715 0.121609874 0.0041860403 0.16081296 -0.12672335 -0.139437 -0.197337 -0.18875152
-0.2885547 0.19867794 -0.25035015 -0.15570748 -0.15344518 0.08859516 0.12033733 -0.2785458
0.25452933 -0.29936743 -0.07319574 0.058117878 0.2583084 -0.086925946 0.09713017 -0.3188794
-0.24720116 -0.016693017 0.21689443 0.06548217 -0.15513572 -0.12799278 -0.18830349 0.08906342
0.24702062 -0.17958881 -0.10068313 0.019233277 -0.21424894 0.01292555 0.068745926 0.22802542
-0.101951815 -0.03326001 0.26238358 -0.25813216 0.23362641 -0.0022273564 0.22811265 0.19857721
-0.05891632 -0.05688968 0.060998384 0.07416445 -0.054682508 0.20714325 0.05481122 0.09714411

_conditioned._initial._model.0.bias f4 [32]
00000000: 26f2 543e 0ac5 db3b 2276 543e af83 2abd
00000010: a05f 723b ba6e b3bc 3745 303e 9d97 32be
00000020: 4661 82bd 251b 1c3e badf 82be 89fb 3abe
00000030: 7779 4ebe 14b1 613e a08d 7bbd 3bbe 81bd
00000040: d9c5 bb3d e00c 26be 90f1 77ba f351 353d
00000050: 0b9e 2c3e d7de 77be 91b0 22be 156b 2b3e
00000060: c22b c53c 6897 e3bd 1d75 b8bd 08f7 e2bd
00000070: 2626 b33d 0623 ea3d 27ed b0bd f74b b8bd
0.20795497 0.0067068385 0.20748189 -0.04162949 0.0036983266 -0.021903384 0.17213903 -0.17440648
-0.0636621 0.1524473 -0.25561315 -0.18260016 -0.20163523 0.22040206 -0.06141436 -0.06335112
0.09168596 -0.16215849 -0.0009458298 0.044267606 0.16857164 -0.242061 -0.15887667 0.16740067
0.024068717 -0.11112863 -0.090067126 -0.11082274 0.087475106 0.114324614 -0.08638983 -0.08998864
