Stocks/lstm_wgan/G.pt (torch, 411871 bytes, 18 tensors)

encoder.lstm.weight_ih_l0 f4 [256, 2]
0	0xbdbb2e37	-0.09139674
1	0x3c5882a6	0.013214743
2	0xbd9393a3	-0.07205894
3	0xbd1ae018	-0.03781137
4	0x3d9255cb	0.0714527
5	0xbd9a78d0	-0.075425744
6	0xbd376191	-0.04477078
7	0xba1b439b	-0.0005922855
8	0xbd19f2ac	-0.037584946
9	0xbd00c7c8	-0.031440526
10	0xbd117663	-0.035513293
11	0x3dda28fd	0.10652349
12	0xbe08678e	-0.13320753
13	0xbd510f3f	-0.05103993
14	0x3ca74361	0.020417871
15	0xbda8a9ce	-0.08235513
16	0xbe581b9f	-0.21104287
17	0x3c672f0c	0.014110338
18	0x3e0869ce	0.13321611
19	0x3e22ab9c	0.15885776
20	0xbe0bddff	-0.13658904
21	0xbdfda1b1	-0.12384356
22	0x3c040e56	0.008060059
23	0x3b80e55f	0.003933593
24	0xbdcae4e6	-0.0990694
25	0x3d46a441	0.04849649
26	0x3e04f22f	0.1298301
27	0x3d83f564	0.06443289
28	0x3db55b01	0.08855248
29	0x3c9d7558	0.019220993
30	0xbd112bf4	-0.035442308
31	0x3dec8f0a	0.1155072
32	0x3cac3441	0.02102101
33	0xbe5102cc	-0.20411223
34	0xbe64bdf6	-0.2233809
35	0xbe145b93	-0.14488058
36	0x3c1cf371	0.009579525
37	0xbd82ae5b	-0.06380912
38	0xbe093338	-0.13398445
39	0x3e1bf47c	0.15229982
40	0x3dcc319b	0.09970399
41	0x3c53d4d1	0.012929157
42	0x3e2d7756	0.16940054
43	0xbda648fb	-0.08119389
44	0xbd80ec02	-0.06295015
45	0xbca2ca31	-0.019871803
46	0xbe0d3f26	-0.1379362
47	0xbe2351c6	-0.15949163
48	0x3d9cc510	0.07654774
49	0xbe80a031	-0.25122216
50	0x3c3d30c1	0.011547268
51	0xba9be001	-0.001189232
52	0xbdf1fc26	-0.118156716
53	0xbe22b662	-0.15889886
54	0x3dbd5a39	0.09245724
55	0xbdcb81ee	-0.099368915
56	0xbde94816	-0.113907024
57	0x3e4458f0	0.19174552
58	0xbdf73648	-0.120709
59	0xbe1e74cb	-0.1547424
60	0xbdde535e	-0.10855745
61	0x3d7ac8b2	0.061226554
62	0x3d2be547	0.041966703
63	0x3d90e4f3	0.070749186
64	0xbd0bde7d	-0.03414773
65	0x3da047ae	0.07826172
66	0xbe27d325	-0.16389139
67	0xbe365906	-0.17807397
68	0xbd42a8aa	-0.04752413
69	0x3c22be54	0.009933073
70	0xbdb96772	-0.09052934
71	0x3dedd8a0	0.116135836
72	0x3af028a9	0.0018322665
73	0xbe3f9aa7	-0.18711339
74	0x3db9dffd	0.090759255
75	0x3bdf01a4	0.0068056155
76	0xbbd2b99f	-0.006430819
77	0x3d74caec	0.059763834
78	0x3cf1862e	0.029482927
79	0xbe4e5d2f	-0.20152734
80	0x3d3cf68c	0.046133563
81	0x3d29f478	0.04149291
82	0x3c94a3e3	0.018144554
83	0x3a894775	0.0010473566
84	0x3d98fc2d	0.07469974
85	0x3e16dba7	0.14732228
86	0x3d76ac5b	0.060222965
87	0x3b88819d	0.0041658417
88	0x3c7d5931	0.015463159
89	0xbde5951e	-0.112100825
90	0xbd874f36	-0.06606905
91	0x3dc60e58	0.096707046
92	0xbdf1ed3f	-0.11812829
93	0x3e3f0460	0.18654013
94	0x3d304f57	0.043044414
95	0xbdecc306	-0.11560635
96	0x3e0b7e0f	0.13622306
97	0x3dbba3e2	0.091621175
98	0x3cd02538	0.025408372
99	0x3d153498	0.03642711
100	0x3dd6a891	0.1048137
101	0x3e12797a	0.14304152
102	0xbe0222b1	-0.12708546
103	0x3dca7153	0.09884896
104	0xbd4cacf0	-0.049969614
105	0x3e5b55ca	0.21419445
106	0xbe063173	-0.13104801
107	0x3da511ee	0.080600604
108	0xbd81be3d	-0.06335113
109	0x3d91c646	0.07117896
110	0x3d8bf616	0.068340465
111	0x3cade831	0.021228882
112	0xbe48591f	-0.19565247
113	0xbc4a622b	-0.012352507
114	0xbd4ce521	-0.0500232
115	0xbdc89886	-0.097947165
116	0x3d926bbd	0.07149456
117	0xbd6996e5	-0.05702867
118	0xbd17632c	-0.036959812
119	0xbd021b05	-0.03176405
120	0x3dc59975	0.0964841
121	0x3e12384e	0.14279291
122	0xbe5654e7	-0.20930825
123	0x3d4f707a	0.050644375
124	0x3e00433c	0.12525648
125	0x3c9d7a4e	0.019223358
126	0xbd98323a	-0.07431455
127	0xbd57bc27	-0.05266967
128	0xbe009222	-0.12555745
129	0x3e46e2ed	0.19422503
130	0xbcec949d	-0.028879458
131	0xbc80a19b	-0.01570206
132	0x3bb1406d	0.0054092915
133	0x3d51cc74	0.051220372
134	0xbe8b802c	-0.27246225
135	0x3d9f6eda	0.07784815
136	0x3d0f9588	0.035054713
137	0xbd10b8f0	-0.03533262
138	0x3d9eb531	0.07749403
139	0x3e6566ee	0.22402546
140	0x3dc95bec	0.09831986
141	0x3d95d198	0.073153675
142	0xbdb3bfc9	-0.087768145
143	0xbbfa4e6e	-0.007638744
144	0xbddd8abb	-0.10817476
145	0xbe07b4bd	-0.1325254
146	0xbc48eea1	-0.012263925
147	0xbcac7a9a	-0.021054555
148	0xbdb8554d	-0.09000645
149	0xbc4b856d	-0.012421948
150	0x3d05ad0f	0.032635745
151	0x3dafafe6	0.08578472
152	0x3d3c09c3	0.045907747
153	0x3c0e368e	0.008679999
154	0xbcd7bdfa	-0.026335705
155	0x3d7d15e9	0.061788473
156	0xbdca0a3b	-0.098652326
157	0x3c97fb6b	0.018552503
158	0xbcbe53a8	-0.02323325
159	0xbd82aa8e	-0.06380187
160	0xbe217ac5	-0.15769489
161	0xbd30e405	-0.043186206
162	0xbe54efb2	-0.20794562
163	0x3c89cdb5	0.016821722
164	0x3e1a4459	0.15065135
165	0xbdb68a3d	-0.089130856
166	0xbdb8890a	-0.09010513
167	0x3db36c7f	0.08760928
168	0x3da243ee	0.07923113
169	0x3dfb68ca	0.12275846
170	0x3caa0054	0.02075211
171	0x3c9f701c	0.019462638
172	0x3d702684	0.05863048
173	0xbce5f48a	-0.028070707
174	0xbd17f858	-0.037102073
175	0xbe0b7b91	-0.13621356
176	0x3a268ed5	0.0006353681
177	0xbe1101f1	-0.14160897
178	0xbda8e885	-0.082474746
179	0x3dceaa73	0.10091104
180	0xbe7640e9	-0.24048199
181	0xbda9f69a	-0.08298989
182	0x3d9c1044	0.0762029
183	0x3dc6994c	0.09697208
184	0xbbd214d7	-0.0064111757
185	0xbdac8c84	-0.08425239
186	0xbe2d63cb	-0.16932599
187	0xbd18e880	-0.037331104
188	0xbe0bb4ae	-0.13643143
189	0xbcc66b80	-0.024221182
190	0xbd2e42c9	-0.04254416
191	0x3dad2d41	0.08455897
192	0xbd13bab0	-0.03606671
193	0xbe1eac82	-0.15495494
194	0xbe835030	-0.25647116
195	0xbd7c5d30	-0.061612308
196	0xbd8b473b	-0.068006955
197	0x3db08dd0	0.086207986
198	0x3c87c7b7	0.016574724
199	0xbd5a2636	-0.053259097
200	0x3c6234a3	0.013806495
201	0x3c00f9af	0.007872029
202	0xbda5cfce	-0.08096276
203	0xbe2d823c	-0.16944212
204	0x3d9ce080	0.076600075
205	0x3de29fdc	0.11065647
206	0xbdefa035	-0.11700479
207	0xbe6df005	-0.23236091
208	0xbd0c9356	-0.034320198
209	0x3d516bb9	0.051128123
210	0xbdda269f	-0.10651898
211	0x3d2a4d7a	0.041577794
212	0xbd511b80	-0.051051617
213	0x3d7aab6a	0.06119863
214	0xbcfad702	-0.030620102
215	0xbd8edc75	-0.069756426
216	0xbe1d49cd	-0.15360184
217	0xbbb8ed40	-0.005643517
218	0xbd65a050	-0.05606109
219	0x3e1cf19a	0.15326539
220	0x3c8d3d4e	0.017241146
221	0x3c544759	0.012956464
222	0xbe40bf1f	-0.18822907
223	0x3d5e1d1a	0.054226972
224	0xbd973a0b	-0.07384118
225	0xbc36b8cc	-0.011152457
226	0x3dea5e15	0.11443726
227	0xbde44c22	-0.11147334
228	0x3dc47332	0.09592284
229	0x3db532d7	0.088475876
230	0xbde03d47	-0.10949188
231	0x3d8fd929	0.07023842
232	0xbd6f80fb	-0.058472615
233	0x3dd1cbff	0.10243987
234	0x3b0cf9ea	0.0021511265
235	0x3cc555b4	0.024088718
236	0xbe29ac25	-0.16569574
237	0xbde03c81	-0.1094904
238	0xbdb64e51	-0.089016564
239	0x3dae3f7e	0.08508204
240	0xbe85f9f3	-0.2616726
241	0xbdb7403b	-0.08947798
242	0xbdd58f9b	-0.10427781
243	0xbe0641e4	-0.13111073
244	0xbe21a182	-0.15784267
245	0x3d762e33	0.060102653
246	0xbdf6c6f4	-0.12049666
247	0x3e0ea5f0	0.13930488
248	0x3d956459	0.072945304
249	0x3db4d492	0.08829607
250	0xbcdefb3e	-0.027219411
251	0x3de89135	0.11355821
252	0x3d3647b2	0.044501968
253	0xbcff5629	-0.031169014
254	0xbd08e07e	-0.033417217
255	0x3dd92426	0.10602598

encoder.lstm.weight_hh_l0 f4 [256, 64]
0	0xbd7a73e1	-0.061145667
1	0xbb0f91c0	-0.0021906942
2	0x3d51f0ec	0.05125515
3	0x3d310e3c	0.043226466
4	0x3daeb96d	0.08531461
5	0xbd9daa57	-0.07698505
6	0x3cd2ac1f	0.02571684
7	0xbd6e6b29	-0.058207665
8	0xbb90c0e3	-0.004417525
9	0xbda962ab	-0.082707725
10	0x3d01cc64	0.031689063
11	0x3d3fd94a	0.046838082
12	0x3dd11655	0.102093376
13	0x3dc281e1	0.09497429
14	0xbd912fee	-0.0708922
15	0xbdc05934	-0.09392014
16	0x3d95f7cb	0.073226534
17	0xbcc211d5	-0.023690144
18	0x3d0e439b	0.034732442
19	0xbd3b8dbb	-0.04578946
20	0x3cc2d8bc	0.023784988
21	0x3d830c39	0.06398816
22	0x3d15dc81	0.036587242
23	0x3cd2a20d	0.025712037
24	0x3d490bae	0.049083404
25	0xbd571138	-0.052506655
26	0x3d455fcb	0.04818706
27	0x3de2e1f7	0.110782556
28	0x3d3b7260	0.045763373
29	0xbd010162	-0.03149546
30	0x3c029220	0.007969409
31	0xbd046164	-0.03231944
32	0xbcf618e5	-0.030041168
33	0xbdd7557f	-0.10514354
34	0xbcd34642	-0.025790337
35	0xbdf003a5	-0.11719445
36	0x3d67975c	0.056540832
37	0xbd8c200e	-0.068420514
38	0x3cc561fd	0.024094576
39	0xbd18c956	-0.037301384
40	0x3dc1f9be	0.09471463
41	0xbaca6300	-0.0015440881
42	0x3e4816d0	0.19539952
43	0xbda94a72	-0.082661524
44	0x3db057d7	0.08610504
45	0x3d5ff691	0.054678503
46	0x3dba5b12	0.090994015
47	0x3d1fcaf2	0.039011903
48	0xbca7968a	-0.020457525
49	0x3e162f7b	0.1466655
50	0xbc2740c1	-0.01020831
51	0x3d8ec750	0.069716096
52	0x3e124b5f	0.14286564
53	0xbd93507a	-0.07193084
54	0x3d4bfc6f	0.049801286
55	0xbdb95ed9	-0.09051294
56	0xbc0c5f2d	-0.008567614
57	0xbe16b923	-0.14719062
58	0xbd393500	-0.04521656
59	0x3dac69a5	0.084185876
60	0xbe0f3656	-0.13985571
61	0x3c00a33e	0.00785142
62	0x3d523512	0.051320143
63	0xbce6e7f4	-0.028186776
64	0x3dcf0074	0.10107508
65	0x3d5064ef	0.050877508
66	0xbd01f01c	-0.031723127
67	0x3d6985dc	0.057012424
68	0xbe30e71d	-0.17275663
69	0x3de5c091	0.1121837
70	0x3a9f6f1a	0.0012163848
71	0xbcd91e5e	-0.026503738
72	0xbd92d9c2	-0.0717044
73	0xbcc61acc	-0.0241827
74	0xbcfeea80	-0.031117678
75	0x3da11395	0.07865063
76	0x3d922e74	0.071377665
77	0x3dfae78c	0.12251195
78	0xbdb9de86	-0.09075646
79	0x3e137fa5	0.14404161
80	0xbe2da2f6	-0.16956696
81	0x3d48d6e4	0.04903306
82	0x3cc66a03	0.024220472
83	0x3c11401f	0.008865385
84	0x3d49e06d	0.049286295
85	0xbcb361f9	-0.021897303
86	0xbd823476	-0.063576624
87	0x3dfc21f8	0.123111665
88	0xbdc3fd50	-0.095698
89	0xbd575b54	-0.05257733
90	0x3e0250db	0.12726156
91	0xbe34cd24	-0.1765638
92	0x3cee6114	0.029099025
93	0x3dd47389	0.10373599
94	0x3c1b7801	0.00948906
95	0xbd4f85bb	-0.050664645
96	0x3e241149	0.16022219
97	0x3d9f2d5a	0.07772322
98	0x3e127b2d	0.143048
99	0x3dc86be2	0.09786202
100	0x3d9ccd33	0.07656326
101	0x3e1a724d	0.15082665
102	0x3d98b428	0.07456237
103	0xbdba70af	-0.09103524
104	0x3d9141b6	0.070926115
105	0xbb80ddc0	-0.0039326847
106	0xbda55361	-0.08072544
107	0x3cd38d63	0.025824254
108	0x3d140770	0.036139905
109	0x3e229cec	0.15880173
110	0x3d00e807	0.03147128
111	0xbe22d967	-0.15903245
112	0x3da5bd84	0.08092788
113	0xb8e38831	-0.00010849571
114	0xbcaee90a	-0.021351356
115	0x3d7af288	0.061266452
116	0xbdff614d	-0.124697305
117	0x3d5aa136	0.0533764
118	0xbe13768b	-0.1440069
119	0xbd5e8e82	-0.054335125
120	0x3df0e977	0.1176328
121	0x3d97d0c1	0.074128635
122	0xbd977285	-0.0739489
123	0x3dcf47ba	0.10121103
124	0xbd0a75a0	-0.033803582
125	0xbdd48f75	-0.10378925
126	0x3d8b2115	0.06793419
127	0xbd8813c2	-0.066443935
128	0xbdf75d7e	-0.12078379
129	0xbe266d0e	-0.16252539
130	0x3d032e70	0.032026708
131	0xbcef1a9c	-0.029187493
132	0x3de76357	0.112982444
133	0xbe14faa6	-0.1454874
134	0x3d210fff	0.039321896
135	0xbdb0ed89	-0.08639056
136	0x3d2de624	0.042455807
137	0x3e1dbf96	0.15405115
138	0x3c0e5440	0.008687079
139	0x3d88d130	0.06680524
140	0x3d5af065	0.053451914
141	0x3de80911	0.11329854
142	0x3da31877	0.07963651
143	0x3c7d7c23	0.015471491
144	0x3e0027d2	0.1251519
145	0xbdc3d72a	-0.09562524
146	0xbc324920	-0.010881692
147	0x3d87af2b	0.066252075
148	0xbcf4a40b	-0.029863378
149	0x3c6775d3	0.014127213
150	0xbd7f4223	-0.062318932
151	0xbd482e0e	-0.048872046
152	0x3e2dab58	0.16959894
153	0x3d6e8dd6	0.058240734
154	0x3cce573a	0.025188077
155	0xbd1b9fa3	-0.03799404
156	0xbd40daa1	-0.0470835
157	0xbdfdb982	-0.123888984
158	0x3cc2e578	0.02379106
159	0x3d96280c	0.07331857
160	0xbe0439ff	-0.12912749
161	0xbc86063e	-0.016360398
162	0xbdc327b3	-0.095290564
163	0xbe1205ae	-0.14259979
164	0x3e1bd029	0.15216126
165	0x3dfa0e31	0.12209738
166	0xbd4537cb	-0.04814891
167	0xbdcb0536	-0.09913103
168	0xbb28ed9c	-0.0025776392
169	0xbd79be9b	-0.06097279
170	0xbcf23ff8	-0.029571518
171	0xbde18cba	-0.110131696
172	0xbd22889b	-0.03968106
173	0xbe306f96	-0.17230067
174	0xbde666a4	-0.11250046
175	0x3daf7b96	0.08568494
176	0x3cde6ec3	0.027152425
177	0x3de539b4	0.111926466
178	0x3d624613	0.05524261
179	0xbe24f362	-0.16108468
180	0xbdd17733	-0.102278136
181	0x3d29fe69	0.04150239
182	0x3d062d4d	0.032758046
183	0xbd8c915f	-0.06863665
184	0xbc8b4100	-0.016998768
185	0x3cb86f12	0.0225139
186	0xbd6c744e	-0.057728104
187	0xbd566304	-0.052340522
188	0xbe07650b	-0.13222139
189	0xbc6b59e9	-0.014364698
190	0x3dbb7765	0.09153632
191	0xbdcaeb0b	-0.09908112
192	0xbb916155	-0.0044366517
193	0xbd92080a	-0.071304396
194	0xbcd5a443	-0.026079303
195	0xbda68da3	-0.08132484
196	0xbdab6cdb	-0.08370372
197	0x3d0c5fad	0.03427093
198	0x3e686335	0.22694094
199	0x3dc61bd8	0.096732795
200	0x3c8a0868	0.016849712
201	0x3ddd391d	0.10801909
202	0xbdffd84e	-0.12492429
203	0xbc264ad0	-0.010149673
204	0x3cb5ac2f	0.02217683
205	0x3dbf5561	0.093424566
206	0xbcec87c5	-0.028873334
207	0x3ba72fc2	0.0051021287
208	0x3dd5d8ee	0.10441767
209	0x3d98dc18	0.074638546
210	0x3c88f08c	0.016716264
211	0x3d6b6c65	0.05747642
212	0x3d430f4e	0.047622018
213	0xbda065c3	-0.078319095
214	0x3cd0f9f5	0.025509814
215	0x3d36cbf3	0.044628095
216	0x3da3e77b	0.08003136
217	0xbd128c6f	-0.03577846
218	0x3e096814	0.13418609
219	0xba2304e2	-0.0006218684
220	0x3dd17c7d	0.102288224
221	0x3d3106f9	0.04321954
222	0x3d87458e	0.066050634
223	0xbda3ed97	-0.08004301
224	0x3db587fa	0.08863826
225	0x3c951a4c	0.018201016
226	0x3e13408a	0.14380088
227	0xbcf6183f	-0.030040858
228	0xbd9f8b65	-0.07790259
229	0xbd15728d	-0.036486197
230	0xbd674107	-0.0564585
231	0x3d8ae894	0.06782642
232	0x3d5207de	0.051277034
233	0xbc327318	-0.010891698
234	0x3d82bf40	0.06384134
235	0xbd07087b	-0.032967072
236	0xbd8ac437	-0.06775706
237	0x3d84506d	0.064606525
238	0xbe4d8641	-0.20070745
239	0x3d00e3fb	0.03146742
240	0xbdb99ecd	-0.09063492
241	0x3dac3d19	0.08410091
242	0xbd83b3ca	-0.064307764
243	0xbdd07b16	-0.10179727
244	0x3cc78f1e	0.024360236
245	0xbd6e508b	-0.05818228
246	0xbdc75844	-0.09733632
247	0xbd9fd14f	-0.07803594
248	0x3dc3d8f4	0.09562865
249	0xbb3bfd3a	-0.002868487
250	0xbddc07df	-0.10743689
251	0x3e0e5933	0.13901214
252	0x3d17b969	0.037042055
253	0xbdd5b227	-0.104343705
254	0x3a98020a	0.0011597287
255	0x3cc69a45	0.024243483

encoder.lstm.bias_ih_l0 f4 [256]
0	0xbbbaedcb	-0.0057046167
1	0x3c736607	0.014855868
2	0x3e0017cc	0.12509078
3	0xbdd73151	-0.10507453
4	0x3d7d1fdb	0.061797958
5	0x3d4f6fa9	0.050643597
6	0x3e1891e9	0.1489941
7	0x3d062da9	0.03275839
8	0x3ca7a017	0.020462079
9	0x3d81deac	0.063412994
10	0xbdb22b21	-0.086996324
11	0x3dd92831	0.10603369
12	0xbd271304	-0.04078962
13	0x3de0753a	0.10959859
14	0xbdc9d76b	-0.09855541
15	0xbd1e8eb7	-0.038710322
16	0x3d98580c	0.074386686
17	0xbe0eaf0c	-0.13933963
18	0x3e08d111	0.13361003
19	0x3dcd27ec	0.1001738
20	0x3dbf7d3f	0.09350061
21	0x3d76e5c1	0.060277704
22	0x3d803063	0.06259229
23	0x3d6771a5	0.056504864
24	0x3dd34dcb	0.10317572
25	0x3c079131	0.008274362
26	0x3dff12a9	0.12454731
27	0xbd781233	-0.06056423
28	0x3df90d7d	0.12160776
29	0xbde62262	-0.11237027
30	0x3e8eac7b	0.27865967
31	0xbcc7238f	-0.024308948
32	0x3dba93ef	0.09110247
33	0x3dd008f8	0.10157961
34	0xbe2215be	-0.15828606
35	0xbc75dd66	-0.015006399
36	0xbd512c52	-0.051067658
37	0x3dfd27e7	0.123611264
38	0x3dad4764	0.08460882
39	0x3e220015	0.15820344
40	0x3ca827a2	0.02052671
41	0xbc83d368	-0.016092017
42	0xbda09903	-0.07841685
43	0xbe057d4b	-0.13036077
44	0x3d3d4952	0.0462125
45	0x3cf0cc7d	0.029394383
46	0xbe0cdb14	-0.13755447
47	0xbc8b2860	-0.016987026
48	0x3deff44a	0.11716516
49	0xbd3cbe5d	-0.046079982
50	0xbc9d4b25	-0.01920087
51	0xbdaa86ce	-0.08326493
52	0xbd849ac0	-0.06474829
53	0xbcaff8b4	-0.021480896
54	0xbd786236	-0.060640536
55	0x3c708966	0.014681196
56	0x3c4e27fc	0.012582775
57	0x3db01c82	0.085991874
58	0x3c7d4e01	0.015460492
59	0xbdc58f06	-0.0964642
60	0x3d0276f7	0.031851735
61	0x3d090e1e	0.03346073
62	0xbde86281	-0.11346913
63	0xbd490155	-0.049073536
64	0xbd3a98a5	-0.04555573
65	0x3d929cb9	0.07158799
66	0x3d83dcac	0.06438574
67	0xbd0df238	-0.034654826
68	0xbd985582	-0.07438184
69	0x3dbe79b7	0.09300559
70	0x3d183572	0.037160344
71	0x3cd855b4	0.026408054
72	0xbe122cd4	-0.14274913
73	0x3c6c8a29	0.014437237
74	0xbd6aab95	-0.05729254
75	0xbcb55db7	-0.022139413
76	0x3c923517	0.01784758
77	0xbc2c48e3	-0.010515424
78	0x3d86ff37	0.06591647
79	0x3e1cc7d8	0.1531061
80	0xbcc194b2	-0.023630474
81	0xbdfdf2bb	-0.12399813
82	0x3d954110	0.072878
83	0xbb9b2ca6	-0.004735547
84	0x3dc44b84	0.09584716
85	0x3db171b1	0.08664263
86	0x3dbb35e0	0.09141135
87	0xbd152adf	-0.03641784
88	0x3e1fd91e	0.15610167
89	0xbca1ddcc	-0.019759081
90	0x3dfa7cf2	0.12230863
91	0x3d5682f7	0.05237099
92	0x3d3318c1	0.04372478
93	0x3da469fa	0.08028026
94	0x3eaf5422	0.34243876
95	0x3e1e6162	0.15466836
96	0x3ccc18dc	0.024914198
97	0xbbe699af	-0.0070373635
98	0xbe0f2b61	-0.13981391
99	0x3d3ddc5b	0.046352725
100	0x3e22de94	0.1590522
101	0x3d3ea601	0.046545032
102	0x3dd8144e	0.10550748
103	0x3c85ed3b	0.016348472
104	0xbdfd677f	-0.12373256
105	0x3d41326e	0.047167234
106	0x3e07608b	0.13220422
107	0x3d44a53c	0.048009142
108	0x3c8b985a	0.01704042
109	0x3c833dd7	0.016020698
110	0xbdbe7d8b	-0.09301289
111	0x3c0bd518	0.008534692
112	0xbd60cd51	-0.054883305
113	0x3d8a44b6	0.06751387
114	0x3d6b91be	0.057512037
115	0x3dd3c144	0.10339597
116	0x3e0c87e5	0.13723715
117	0x3e34f096	0.17669901
118	0xbc599039	-0.013279014
119	0xbd8fdb2e	-0.07024227
120	0x3e0912b6	0.13386044
121	0x3d1f5e7d	0.03890847
122	0x3dc65dd6	0.096858665
123	0xbde57638	-0.11204189
124	0x3db3e18f	0.08783256
125	0x3dec0db7	0.115260534
126	0x3ddcbb34	0.10777894
127	0x3dc24494	0.094857365
128	0xbc7086e3	-0.014680597
129	0xbb08d8cb	-0.0020881172
130	0xbbf25e21	-0.007396475
131	0x3dcc846f	0.09986197
132	0x3e0c8ccd	0.13725586
133	0xbe375a0e	-0.17905447
134	0x3ddffa4d	0.10936413
135	0x3d204a06	0.039133094
136	0xbdc73e85	-0.097287215
137	0x3dcaf865	0.09910659
138	0xbd7ea01c	-0.06216441
139	0x3db07e49	0.08617837
140	0x3e11b688	0.14229786
141	0x3de2db0a	0.11076935
142	0x3d75ce4b	0.06001119
143	0x3d901a76	0.07036297
144	0x3df8a45f	0.12140726
145	0x3ca0f5c0	0.019648433
146	0xbc86cc49	-0.016454833
147	0x3b5560e7	0.003255898
148	0xbaab59e5	-0.0013073055
149	0xbcf55540	-0.029947877
150	0xbdda8735	-0.1067032
151	0xbd99dde6	-0.07513027
152	0x3e20a5f3	0.15688305
153	0xbd2d4609	-0.04230312
154	0x3d4de9e4	0.050271884
155	0x3d2642ba	0.04059098
156	0x3dae8183	0.08520796
157	0x3cd6085b	0.026127031
158	0x3dd2bd4e	0.10290013
159	0x3decd4ef	0.11564051
160	0xbe077846	-0.13229474
161	0xbd875279	-0.06607527
162	0x3dc08ad2	0.09401478
163	0xbd9bf4bf	-0.07615041
164	0x3de9719d	0.11398623
165	0x3d111121	0.035416726
166	0xbe0164eb	-0.12636153
167	0xbe1671d2	-0.14691857
168	0x3c55adb7	0.013041905
169	0xbd535d79	-0.051602814
170	0x3bc43eb2	0.005988919
171	0x3d836b02	0.064168945
172	0xbdf27bbf	-0.11840009
173	0xbd69dd7f	-0.057096
174	0xbd3a3b55	-0.04546674
175	0xbe076405	-0.13221748
176	0x3e0984f9	0.13429631
177	0xbd0e0d20	-0.034680486
178	0x3e2236fd	0.15841289
179	0xbe056946	-0.1302844
180	0x3de6f30d	0.11276827
181	0x3d4d0ff5	0.050064046
182	0xbd9cc6a7	-0.076550774
183	0xbe1a7481	-0.15083505
184	0x3d647ad0	0.055781186
185	0xbd94e8e4	-0.07270983
186	0x3e2d52a6	0.16926059
187	0x3dd2bf90	0.10290444
188	0xbe2236a6	-0.15841159
189	0x3d8e3c91	0.06945146
190	0x3e10f16f	0.141546
191	0xbd041a7d	-0.032251824
192	0xbc958b39	-0.018254863
193	0x3e0c945c	0.1372847
194	0x3d0ea888	0.034828693
195	0xbc271674	-0.010198224
196	0xbca965e7	-0.020678474
197	0xbdb6be2f	-0.089229934
198	0x3e0e4353	0.1389287
199	0xbc1f9960	-0.009741157
200	0xbe31df1d	-0.17370267
201	0x3e2a3def	0.16625188
202	0x3da603e7	0.08106213
203	0x3d9ad30c	0.07559785
204	0xbce5a2e0	-0.028031766
205	0x3e07bc8d	0.1325552
206	0xbdc5f0a5	-0.0966504
207	0x3d942af3	0.072347544
208	0xbd9c5d98	-0.07635039
209	0xbddc3d30	-0.10753858
210	0x3d0778b5	0.0330741
211	0x3e08b791	0.13351275
212	0x3b88bcc7	0.0041728946
213	0x3d73ee98	0.059553713
214	0x3cb09654	0.021556057
215	0xbd3f11aa	-0.046647705
216	0x3d2c985a	0.04213748
217	0xbd6b34b9	-0.057423327
218	0xbda3c4e5	-0.07996539
219	0x3e031f6c	0.12804955
220	0xbce66225	-0.02812297
221	0x3df4baab	0.119496666
222	0x3e09fd0d	0.13475437
223	0xbcc5af3f	-0.024131415
224	0x3daecb0b	0.08534821
225	0x3d92e8c3	0.07173302
226	0x3d9639ee	0.07335268
227	0x3d932405	0.071846046
228	0x3d8bafec	0.06820664
229	0x3e04c9f6	0.12967667
230	0x3dc6fedf	0.097165816
231	0x3e022c14	0.12712127
232	0xbd2d4b11	-0.042307917
233	0xbd702699	-0.05863056
234	0xbd26b7e5	-0.04070272
235	0xbe2cb2d3	-0.16865091
236	0xbca18152	-0.019714985
237	0x3dbb5cac	0.09148535
238	0x3cac8fce	0.021064665
239	0xbd96d0d2	-0.07364048
240	0x3d42a2ce	0.047518544
241	0x3d022506	0.03177359
242	0xbd7fc848	-0.062446862
243	0x3d3052d1	0.04304773
244	0xbd1d6d95	-0.038434584
245	0x3e4622ee	0.19349262
246	0xbda8f6dd	-0.082502104
247	0xbd282ee5	-0.041060347
248	0x3d45e55b	0.048314434
249	0x3d4f93a3	0.050677907
250	0x3d69cd09	0.057080302
251	0x3d932972	0.071856394
252	0x3e021cd6	0.12706313
253	0x3d000358	0.03125319
254	0xbd344d3c	-0.04401897
255	0x3d2d8a22	0.04236806

encoder.lstm.bias_hh_l0 f4 [256]
0	0xbd34426b	-0.044008654
1	0x3dc01acb	0.0938011
2	0x3e25e7c7	0.16201697
3	0x3df3d66a	0.119061306
4	0x3da76c56	0.0817496
5	0x3dbd786d	0.09251485
6	0xbcd29b0b	-0.025708696
7	0x3e16bc20	0.14720201
8	0xbe14ab85	-0.14518555
9	0x3e16ee0c	0.14739245
10	0x3d5f1001	0.054458622
11	0x3dcd1942	0.10014583
12	0x3de8c927	0.11366492
13	0x3e06cb80	0.13163567
14	0xbd34fde2	-0.044187434
15	0x3e04ddd3	0.12975244
16	0x3dc5aa84	0.09651664
17	0x3ce86d48	0.028372422
18	0xbd42f458	-0.047596306
19	0x3e073ee4	0.13207585
20	0x3cf6212a	0.03004511
21	0x3d85ae91	0.065274365
22	0x3de6f861	0.11277843
23	0x3e01087e	0.12600896
24	0xbd032ffb	-0.03202818
25	0x3db33fd3	0.08752408
26	0x3dd7efed	0.10543809
27	0x3e15f92f	0.14645837
28	0xbc911f61	-0.017715158
29	0xbd84d66e	-0.06486212
30	0x3df35019	0.11880512
31	0x3dabc26f	0.08386695
32	0x3e3cf2cd	0.18451996
33	0xbb574ad0	-0.0032850988
34	0xbc07286f	-0.008249386
35	0x3dc62047	0.09674125
36	0x3e1b7dfc	0.15184778
37	0x3dc8de6e	0.0980805
38	0x3e0b96c5	0.13631733
39	0x3dbceda2	0.09225012
40	0xbcff579d	-0.031169707
41	0x3d055a17	0.03255662
42	0x3e0f30ad	0.13983412
43	0x3c1b80c3	0.009491148
44	0x3d52998b	0.05141596
45	0x3dee89bc	0.116473645
46	0xbd56b95c	-0.052422866
47	0x3c8634da	0.016382623
48	0x3d6a7137	0.057236876
49	0xbde158a0	-0.11003232
50	0x3cd88853	0.026432192
51	0xbe0109c5	-0.12601383
52	0xbd2e8fc1	-0.042617563
53	0x3db9bce3	0.090692304
54	0x3c244a92	0.010027545
55	0x3c4bee29	0.0124469185
56	0x3d75d34f	0.060015973
57	0x3ddc7296	0.10764043
58	0x3dcf1313	0.1011106
59	0xbd8359eb	-0.06413635
60	0x3e0cbf6a	0.13744894
61	0x3de88478	0.113533914
62	0xbd9a6a0d	-0.07539759
63	0xbcda1209	-0.026619928
64	0x3dcb00ab	0.09912237
65	0x3d3e90e8	0.046524912
66	0x3c6c7902	0.014433147
67	0xbd19ed76	-0.037579976
68	0xbdf604db	-0.12012645
69	0x3e1774ea	0.14790693
70	0xbdbdb775	-0.09263507
71	0x3dbaf745	0.09129194
72	0xbe095f01	-0.13415147
73	0xbcd77f6e	-0.02630588
74	0x3db1223c	0.08649108
75	0x3babea2c	0.0052464213
76	0x3da90a76	0.082539484
77	0x3d1745c3	0.036931764
78	0x3d7caa2d	0.06168573
79	0x3d162449	0.036655698
80	0xbd2a34d8	-0.041554302
81	0xbcf9529c	-0.030434899
82	0x3cd8cdae	0.026465263
83	0x3dd8d714	0.10587898
84	0xbd634b79	-0.0554919
85	0x3d6c88eb	0.057747763
86	0xbcbc2b16	-0.022969764
87	0xbd0cf366	-0.03441181
88	0x3dc1a5ae	0.09455429
89	0x3e46cdda	0.19414464
90	0x3cf18cc1	0.029486062
91	0x3da02e9f	0.07821392
92	0xbd7e0416	-0.062015615
93	0x3c052f75	0.00812899
94	0x3e18fc23	0.14939933
95	0x3e293df9	0.16527547
96	0x3de319ee	0.1108893
97	0xbccb6382	-0.024827722
98	0xbdd1e578	-0.10248846
99	0x3c372674	0.0111786015
100	0x3e0d5f61	0.13805915
101	0x3dbcb4ea	0.09214194
102	0x3cf4c0ad	0.029877031
103	0x3c538ef4	0.012912501
104	0xbccda71e	-0.025104102
105	0xbcb3a4ad	-0.02192911
106	0x3e080985	0.13284881
107	0xbdda1c8b	-0.106499754
108	0x3d89fb4b	0.067373835
109	0x3d03d772	0.032187887
110	0xbdc854e5	-0.09781817
111	0x3d6fa35f	0.058505412
112	0x3d5e92ab	0.054339092
113	0x3d9b1a6d	0.075734
114	0x3d9e9710	0.07743657
115	0x3dd25861	0.10270763
116	0x3e634b86	0.22196779
117	0x3d0b2f22	0.033980496
118	0x3d8ffdf0	0.070308566
119	0x3d2f142c	0.042743847
120	0x3dd90061	0.105957754
121	0xbb8a84f6	-0.004227276
122	0x3e4148bc	0.18875402
123	0x3c1b9266	0.009495353
124	0x3aa10631	0.001228517
125	0xbaebf5b8	-0.0018002307
126	0xbcff9638	-0.03119956
127	0x3b9af43c	0.004728822
128	0xbdbf5a65	-0.09343413
129	0xbd543293	-0.051806044
130	0x3de8f2a8	0.11374408
131	0x3d93e2a6	0.07220964
132	0xbdafb474	-0.085793406
133	0xbe35df49	-0.17760958
134	0xbd1fac93	-0.03898294
135	0xbd7b80ac	-0.061402008
136	0xbd145e15	-0.036222536
137	0x3d69883d	0.057014693
138	0xbde6b858	-0.112656295
139	0x3d48d00a	0.049026527
140	0x3e089193	0.13336782
141	0x3e2c20c7	0.16809379
142	0x3dc2bd57	0.0950877
143	0xbdeeed35	-0.116663374
144	0x3dc423c7	0.095771365
145	0xbce57962	-0.028011981
146	0x3e21f400	0.15815735
147	0xbdc39fb7	-0.095519476
148	0xbe2169f3	-0.15763073
149	0xbcc3a839	-0.023883926
150	0x3bceb6cf	0.0063084136
151	0xbd107c22	-0.035274632
152	0x3d8e9e2a	0.06963761
153	0x3e32319e	0.1740174
154	0x3ddd9838	0.10820049
155	0xbdbb63de	-0.091499075
156	0x3d238f8d	0.039931823
157	0x3e020a1a	0.12699166
158	0x3d1137f5	0.035453755
159	0x3dc598ac	0.096482605
160	0xbc74bb2e	-0.014937205
161	0xbda9ce32	-0.08291282
162	0xbde4fc43	-0.111809276
163	0x3bf4d553	0.0074717193
164	0xbd3e281f	-0.04642498
165	0x3dd7f1e5	0.105441846
166	0xbdf7c3ba	-0.12097879
167	0xbe0d3c0c	-0.13792437
168	0xbcb0e990	-0.021595746
169	0x3da4df2b	0.080503784
170	0x3dfc89aa	0.12330945
171	0xbe0f26a2	-0.13979581
172	0xbdc4cdf2	-0.096095935
173	0x3d6cc4b8	0.057804793
174	0xbcf91d0e	-0.030409362
175	0xbde994da	-0.11405344
176	0x3d8daee5	0.06918124
177	0xbdd55df3	-0.1041831
178	0x3d1c63aa	0.038180985
179	0xbe016171	-0.12634827
180	0x3d874d98	0.06606597
181	0xbde02a77	-0.109455995
182	0x3cac651b	0.021044305
183	0x3d819360	0.06326938
184	0x3e0209b9	0.12699021
185	0x3cbeb00e	0.023277309
186	0xbd940a12	-0.07228483
187	0x3db06119	0.0861227
188	0xbe10b722	-0.1413236
189	0xbd6c993f	-0.057763334
190	0x3df8ea4e	0.12154065
191	0xbd82d356	-0.063879654
192	0xbdadd9a4	-0.08488777
193	0x3ddd8abd	0.10817478
194	0x3d16a36a	0.036776938
195	0x3e208ec8	0.15679467
196	0x3ce830e6	0.02834363
197	0xbdbfe1ab	-0.093692146
198	0x3d956440	0.07294512
199	0x3d0ddcb5	0.03463431
200	0xbe0375ec	-0.12837952
201	0x3ddd5c37	0.10808604
202	0x3de2fa9f	0.110829584
203	0x3dc4c017	0.09606951
204	0x3d8ee9b8	0.06978172
205	0x3df1e4da	0.11811228
206	0xbd5081ed	-0.050905157
207	0x3e5ebbe5	0.21751364
208	0x3dea87e7	0.114517026
209	0x3cbd0b8e	0.023076799
210	0x3d97f851	0.074204095
211	0x3d239ec6	0.03994634
212	0xbddde233	-0.1083416
213	0x3c6ee82f	0.014581724
214	0xbd547a1c	-0.051874265
215	0x3d63c952	0.055611916
216	0x3dbfad3b	0.09359213
217	0xbd1b30bc	-0.037888274
218	0x3dd9dd62	0.106379285
219	0x3dedeea5	0.116177835
220	0x3e083a28	0.13303435
221	0x3ca098cf	0.019604115
222	0x3c9585d6	0.018252295
223	0x3d24a3ee	0.040195398
224	0x3db30a5e	0.08742212
225	0xbdaf6835	-0.08564798
226	0xbe15c0b2	-0.14624289
227	0x3d7fdd29	0.062466774
228	0xbcb3d0c9	-0.021950142
229	0xbda4e72d	-0.08051906
230	0x3cdd8f70	0.027045935
231	0x3dfc6b9f	0.123252146
232	0xbd26904a	-0.04066495
233	0x3d9588c6	0.07301478
234	0x3d1f84dc	0.038945064
235	0xbd0be59f	-0.03415453
236	0x3ccace48	0.024756566
237	0xbcb6d318	-0.022317454
238	0x3de23779	0.11045737
239	0xbd54f44d	-0.051990796
240	0x3c3205dc	0.010865655
241	0xbcd911d2	-0.026497755
242	0x3e296cc5	0.16545399
243	0xbdd32bbc	-0.10311076
244	0x3c77bfda	0.015121425
245	0x3d927243	0.071507
246	0xbd6aef8f	-0.057357367
247	0x3d3ee74a	0.046607293
248	0x3e1967a9	0.1498095
249	0x3d936f02	0.071989074
250	0x3e4451f9	0.19171895
251	0x3d8e7004	0.06954959
252	0xbcf42e15	-0.02980713
253	0x3dc9d6da	0.09855433
254	0x3da5c1fc	0.0809364
255	0x3cbc4c00	0.022985458

encoder.lstm.weight_ih_l1 f4 [256, 64]
0	0x3cc9479f	0.024570284
1	0x3ca23718	0.019801661
2	0xbe132650	-0.14370084
3	0x3d9c6c2b	0.07637819
4	0xbdb64bb9	-0.08901162
5	0x3dd0b99e	0.10191654
6	0x3dc3effa	0.09567256
7	0xbd57bc63	-0.052669894
8	0x3dfc346a	0.12314685
9	0xbe238fd6	-0.15972838
10	0x3c0e19cf	0.008673145
11	0xbdba18e1	-0.090867765
12	0x3da525ab	0.08063825
13	0x3cc3b55c	0.02389019
14	0xbb35a00c	-0.0027713804
15	0x3d84f599	0.064921565
16	0xbe351cb1	-0.17686726
17	0xbd9937e3	-0.07481363
18	0x3d4f129b	0.050554853
19	0x3da53c66	0.08068161
20	0xbcfb4c60	-0.030676067
21	0x3b2311c8	0.0024882425
22	0xbdb4c5d2	-0.08826794
23	0x3a9ea8cf	0.0012104752
24	0x3c0956aa	0.008382479
25	0xbe0e0328	-0.13868392
26	0x3d00171d	0.031272043
27	0x3d94bbe6	0.07262401
28	0xbcbc08e3	-0.022953456
29	0x3e0f459e	0.139914
30	0xbdf3270e	-0.118726835
31	0x3d158030	0.036499202
32	0x3e109ef9	0.14123143
33	0xbcbc5bba	-0.022992957
34	0xbddd18f4	-0.10795775
35	0xbcb9f893	-0.022701537
36	0x3d068f51	0.03285152
37	0xbd4f864d	-0.05066519
38	0x3e019e8c	0.12658137
39	0x3c76ae77	0.015056244
40	0x3d868c0f	0.06569683
41	0xbe25535e	-0.16145083
42	0x3e0b85f9	0.13625325
43	0xbdcda2e3	-0.10040834
44	0x3dd31c46	0.10308127
45	0xbd20db38	-0.039271563
46	0xbde082ac	-0.10962424
47	0xbc9be212	-0.019028697
48	0x3c8aec97	0.016958518
49	0x3c943a56	0.018094223
50	0xbe1ded4f	-0.15422557
51	0x3dcf7b4a	0.101309374
52	0x3d3133b1	0.043262187
53	0xbd547b29	-0.051875267
54	0xbdbe836d	-0.09302411
55	0xbe1b633f	-0.15174578
56	0xbd7a2e7b	-0.061079483
57	0x3e37dbb3	0.17954902
58	0xbdd7de26	-0.10540418
59	0xbdc7b4da	-0.097512916
60	0x3b9c1d6b	0.004764249
61	0xbe19d5e1	-0.15022995
62	0xbbe415c3	-0.006960602
63	0x3e1e4ad6	0.15458235
64	0xbcfd45a9	-0.030917006
65	0x3b634eec	0.0034684492
66	0xbd4876c0	-0.048941374
67	0xbe07104b	-0.13189809
68	0xbe1cf3d8	-0.15327394
69	0x3e084cc9	0.13310541
70	0x3e4555f0	0.19271064
71	0x3e2ac6f6	0.1667746
72	0xbdc4cfc9	-0.096099444
73	0x3d73f95c	0.05956398
74	0x3dac1d59	0.08404035
75	0xbc8465a0	-0.01616174
76	0xbb0597b3	-0.002038461
77	0xbdc5e1e7	-0.09662228
78	0x3c592068	0.013252355
79	0x3dc266c7	0.094922595
80	0xbe0ab907	-0.13547145
81	0xbc5c4323	-0.013443741
82	0xbe08c6f9	-0.13357152
83	0x3e06e031	0.1317146
84	0x3db3c787	0.08778291
85	0x3cf03f2c	0.029326998
86	0x3c3ac631	0.011399792
87	0x3d52d93f	0.051476713
88	0xbbf20e5e	-0.0073869666
89	0xbe41b32d	-0.18916006
90	0xbda39135	-0.079866804
91	0xbe28a607	-0.16469584
92	0x3e5ac71d	0.21365018
93	0x39341284	0.00017173035
94	0x3d60f074	0.054916814
95	0x3cc7a97f	0.024372814
96	0xbd11ae53	-0.03556664
97	0x3e271cc1	0.16319562
98	0xbe131a37	-0.14365469
99	0x3a9d42b0	0.0011998024
100	0xbd30f23b	-0.04319976
101	0x3e0a1cea	0.13487592
102	0xbc52fa3f	-0.012877046
103	0x3dbedcf1	0.09319485
104	0xbd2298ca	-0.039696492
105	0xbe174621	-0.14772846
106	0x3cb43368	0.021997169
107	0xbc799230	-0.015232608
108	0x3dbdb063	0.09262159
109	0x3c18cfc9	0.009326884
110	0x3e0c655b	0.13710539
111	0xbdb90a54	-0.09035173
112	0xbc1e0e2c	-0.0096469335
113	0xbd088647	-0.03333118
114	0xbc840104	-0.016113766
115	0xbde317c7	-0.110885195
116	0x3c9fcaa3	0.019505804
117	0x3ce05370	0.027383536
118	0x3b3a2730	0.0028404705
119	0x3e1d0430	0.15333629
120	0x3cdb14b1	0.026743265
121	0x3e1ac718	0.1511501
122	0xbc866bbb	-0.016408792
123	0x3d5500dc	0.052002773
124	0x3e087b61	0.13328315
125	0xbe3e00d4	-0.18555003
126	0x3cc4730f	0.023980645
127	0x3df1aaee	0.118001804
128	0x3e5e4eb5	0.21709712
129	0xbd397268	-0.045275122
130	0xbdd85b9c	-0.10564348
131	0xbe2645c7	-0.16237555
132	0xbc678e07	-0.014132983
133	0x3da7fd32	0.0820259
134	0x3d6a5fb0	0.05722016
135	0x3e4de384	0.20106322
136	0x3d3f7765	0.046744723
137	0xbe3055ef	-0.17220281
138	0x3e31b9b7	0.17356001
139	0xbc411d48	-0.011786766
140	0x3c0cc7ff	0.008592605
141	0xbe118cb9	-0.14213838
142	0xbdf29d94	-0.11846462
143	0x3dc53eaf	0.096310966
144	0xbe177fea	-0.14794889
145	0x3c92b205	0.017907152
146	0x3d62f095	0.05540522
147	0xbca48479	-0.0200827
148	0x3c901086	0.017586004
149	0xbdcd020a	-0.100101545
150	0x3d127eed	0.035765577
151	0x3e3534d1	0.17695929
152	0x3d151b51	0.036403004
153	0xbd841806	-0.064498946
154	0xbd113f3e	-0.035460703
155	0xbdc2e375	-0.0951604
156	0x3d96086d	0.07325826
157	0x3dce19ae	0.10063492
158	0x3da2f352	0.07956566
159	0xbd3d8a7d	-0.04627465
160	0x3e1258b9	0.14291658
161	0x3e15673e	0.14590165
162	0xbc245f60	-0.010032505
163	0x3e1a81b2	0.15088537
164	0xbded391d	-0.11583159
165	0x3ddf1636	0.10892908
166	0x3bb3e5ce	0.0054900413
167	0x3def60cc	0.116883844
168	0x3d5bafc5	0.053634424
169	0xbe3456c4	-0.17611223
170	0x3c84fde5	0.016234348
171	0xbdb1760a	-0.08665092
172	0xbcc4cf0d	-0.02402451
173	0x3e323d40	0.17406178
174	0x3e1306ad	0.14358015
175	0x3e0dfb17	0.13865314
176	0xbbabcea0	-0.0052431375
177	0xbc150bcb	-0.00909705
178	0xbe250de5	-0.16118582
179	0x3d5c07be	0.05371832
180	0x3d31fd2f	0.043454345
181	0x3e512530	0.20424342
182	0xbd817d7d	-0.06322763
183	0x3db74107	0.0894795
184	0x3b85fc44	0.0040889103
185	0xbb8af960	-0.0042411536
186	0x3dc623d4	0.096748024
187	0xbdcdc9b5	-0.10048238
188	0x3e1af569	0.15132679
189	0xbd957601	-0.07297898
190	0xbd4e77eb	-0.05040733
191	0x3d8d91c1	0.06912566
192	0xbba99bd7	-0.0051760483
193	0xbdd93b6d	-0.10607038
194	0x3cd60505	0.02612544
195	0x3e136a8a	0.1439611
196	0x3d077289	0.033068214
197	0xbc37cd52	-0.011218386
198	0xbc96e0d0	-0.018417746
199	0x38dae3ed	0.000104375045
200	0xbdea09c8	-0.11427647
201	0x3e092ff0	0.13397193
202	0xbd01042d	-0.031498123
203	0x3d317060	0.04332006
204	0x3e52c07c	0.2058124
205	0xbc9583f2	-0.018251393
206	0x3dcdc9b3	0.10048237
207	0xbb5f91d8	-0.003411403
208	0x3d2fa7b7	0.042884555
209	0xbd58a7f4	-0.052894548
210	0x3d6c2a54	0.057657555
211	0xbe1722c9	-0.14759363
212	0xbd7b0b69	-0.06129018
213	0xbd9320ac	-0.07183966
214	0x3d3add5c	0.04562126
215	0x3d7e859b	0.062139135
216	0x3d3afe95	0.045652945
217	0x3e411996	0.18857417
218	0x3e22663a	0.15859309
219	0xbd9e86b4	-0.07740536
220	0x3d66e8f4	0.056374505
221	0x3c2df242	0.010616841
222	0xbdb09ec5	-0.08624033
223	0x3e6b1b93	0.22959737
224	0xbc89dbc5	-0.016828427
225	0xbddc8cbf	-0.10769033
226	0x3d4ea4d7	0.050450172
227	0xbd2d4cc1	-0.042309526
228	0x3e19b87a	0.15011778
229	0x3d9b7460	0.07590556
230	0xbe53f45b	-0.20698683
231	0xbdd58f68	-0.10427743
232	0x3cddb1c9	0.027062314
233	0x3d982515	0.07428948
234	0x3e317013	0.17327909
235	0x3d8eb96a	0.06968959
236	0xbc35dd2a	-0.011100093
237	0xbdd96f97	-0.10616987
238	0xbdade2b6	-0.08490507
239	0xbd15652f	-0.03647345
240	0x3dfb2c67	0.122643284
241	0x3d509184	0.050920025
242	0x3e165ee2	0.14684632
243	0xbd2a7675	-0.041616876
244	0x3d5d9e6d	0.054106165
245	0xbe0222f6	-0.12708649
246	0xbe3fbf72	-0.18725374
247	0xbd6c055c	-0.0576223
248	0xbb659485	-0.0035031151
249	0xbdcbc611	-0.099498875
250	0x3b9e6dc4	0.0048348624
251	0x3dc5bf99	0.09655685
252	0xbd5afd50	-0.053464234
253	0x3dd90f34	0.10598603
254	0x3dea598d	0.11442862
255	0xbc52d8a6	-0.012869036

encoder.lstm.weight_hh_l1 f4 [256, 64]
0	0x3e01dc5c	0.12681717
1	0xbda13424	-0.07871273
2	0xb9f1c2bb	-0.00046112188
3	0xbdd7f4d9	-0.10544748
4	0xbd324dfa	-0.043531395
5	0xbd5d7b08	-0.05407241
6	0xbc5c5ef3	-0.013450372
7	0x3d9b2d06	0.07576947
8	0xbe0346af	-0.12819932
9	0xbcad9e3c	-0.021193616
10	0x3e1709ca	0.14749828
11	0x3d5e4bd9	0.054271553
12	0x3d65b5ca	0.05608157
13	0x3d3b72a5	0.04576363
14	0xbcfd234a	-0.030900616
15	0x3dfad9f3	0.12248602
16	0xbca3a1d8	-0.019974634
17	0x3cdadb66	0.026715945
18	0xbdaa0a06	-0.08302693
19	0x3c51cccf	0.012805178
20	0xbe1dd237	-0.15412222
21	0xbd03a77d	-0.03214215
22	0x3dd0ea2a	0.10200913
23	0x3c64104d	0.013919902
24	0x3c3c94d5	0.011510094
25	0x3df9069f	0.12159466
26	0x3cc202ec	0.023683034
27	0xbd792feb	-0.060836714
28	0x3d8b3544	0.06797269
29	0xbc72c55b	-0.014817561
30	0xbe083f13	-0.13305311
31	0x3d63d32f	0.055621322
32	0x3cc2e1c6	0.023789298
33	0x3e199178	0.14996898
34	0x3c6889d5	0.014193018
35	0xbd0f9b18	-0.03506002
36	0xbdc760d5	-0.09735266
37	0xbcce5e49	-0.025191443
38	0xbd9adac0	-0.075612545
39	0x3b134a43	0.0022474683
40	0xbd009fde	-0.03140246
41	0x3d977c32	0.07396735
42	0x3dabc391	0.08386911
43	0xbd6755a8	-0.056478173
44	0x3de041bc	0.10950038
45	0x3dd7e4c9	0.10541684
46	0xbdffe9ea	-0.124957874
47	0xbcc8239b	-0.02443104
48	0x3cf5a9cb	0.02998819
49	0x3db2172b	0.08695825
50	0x3d92734a	0.07150896
51	0xbc35a926	-0.011087691
52	0x3e16467e	0.14675328
53	0x3d92bb22	0.07164599
54	0xbdb2a852	-0.08723511
55	0x3e0b163e	0.13582703
56	0xbe011e82	-0.12609294
57	0x3cd7d9c7	0.026348962
58	0xbd7ad1ef	-0.061235365
59	0xbd23bf2e	-0.039977245
60	0x3dbc192d	0.091844894
61	0x3dd22d45	0.10262541
62	0x3d902c3b	0.07039686
63	0x3d5be9e3	0.05368985
64	0x3c129a03	0.008947852
65	0xbde08bca	-0.10964163
66	0xbd1b635d	-0.037936557
67	0x3c3ab68b	0.011396061
68	0x3dae3ea3	0.08508041
69	0xbe18f468	-0.14936984
70	0x3d645992	0.055749483
71	0xbdad4f52	-0.08462395
72	0x3da2dd74	0.07952395
73	0xbd8da98d	-0.06917105
74	0x3de6b6c4	0.112653285
75	0xbcd4fc30	-0.025999159
76	0xbdf71bcd	-0.120658495
77	0xbd8e0249	-0.069340296
78	0xbd927632	-0.0715145
79	0x3d86acf9	0.06575961
80	0xbe040150	-0.12891126
81	0x3e226a91	0.15860964
82	0x3d776ee5	0.06040849
83	0xbd997b08	-0.074941695
84	0xbcc6fe19	-0.024291085
85	0xbd8c75b6	-0.06858389
86	0x3e1ee909	0.15518583
87	0x3de0942a	0.1096576
88	0x3a236175	0.0006232479
89	0x3d6bf38c	0.05760531
90	0x3c2dd5e7	0.01061008
91	0x3d0e3140	0.034714937
92	0x3de90cb6	0.113793775
93	0xbe167620	-0.14693499
94	0xbdd4f552	-0.10398354
95	0xbd46f82a	-0.04857651
96	0xbd46e291	-0.048555914
97	0x3d2353c1	0.039874796
98	0xbdf95bcb	-0.12175711
99	0xbd00a1a1	-0.03140414
100	0xbc2f047e	-0.010682223
101	0xbe1621a5	-0.14661272
102	0x3b12a0dc	0.0022373712
103	0xbe1c0433	-0.15235977
104	0x3cccbe67	0.024993135
105	0xbd17f913	-0.03710277
106	0x3d2e72d0	0.042589962
107	0xbd81ef4b	-0.0634447
108	0x3da46d97	0.08028715
109	0xbd4755ff	-0.048665997
110	0xbcf188b0	-0.029484123
111	0xbdb3e16e	-0.08783232
112	0x3d23077d	0.039802063
113	0x3d8c1c3e	0.06841324
114	0x3e01ba9d	0.12668844
115	0xbd0ba62d	-0.034094024
116	0x3ccb5efe	0.02482557
117	0xbd2e3d60	-0.042539
118	0xbb13f373	-0.0022575527
119	0x3d78077f	0.060554024
120	0x3c5fbeed	0.01365636
121	0xbd23ff01	-0.040038113
122	0x3d8b2a76	0.06795208
123	0x3cd6e43f	0.026231883
124	0x39604576	0.00021388181
125	0x3d5b8e0f	0.053602275
126	0x3ca3df7e	0.02000403
127	0x3d8a2923	0.067461275
128	0xbd6d9693	-0.058004927
129	0xbd4180a2	-0.047241814
130	0xbd155413	-0.036457133
131	0x3c803659	0.015650915
132	0x3e05b2b8	0.13056457
133	0xbc870241	-0.016480567
134	0x3e329bff	0.1744232
135	0xbe37944a	-0.17927662
136	0x3cf505ca	0.029909987
137	0x3cc8f194	0.024529256
138	0x3c013ea7	0.007888473
139	0x3d7d3cb4	0.06182547
140	0xbdbc9171	-0.09207428
141	0x3ddb0659	0.1069457
142	0xbdde2249	-0.10846383
143	0xbd068e37	-0.03285047
144	0xbd17e8eb	-0.037087362
145	0x3e0afd81	0.13573267
146	0xbe02976d	-0.12753077
147	0x3e0a5543	0.13509087
148	0xbcc0cd29	-0.023535328
149	0xbde772d3	-0.11301198
150	0x3e1f738f	0.15571426
151	0x3c46a6cf	0.012124731
152	0x3da1594c	0.0787836
153	0x3dbfe8f3	0.093706034
154	0xbdbc2cf8	-0.091882646
155	0xbc3f12db	-0.01166221
156	0xbcf22464	-0.029558368
157	0xbe1fcee1	-0.15606262
158	0xbd8ae78d	-0.06782446
159	0xbe13c9cc	-0.14432448
160	0x3cfb8d20	0.030706942
161	0x3cf06834	0.029346563
162	0xbe57492f	-0.21024011
163	0xbd03dd09	-0.032193217
164	0xbda93652	-0.08262314
165	0xbd851fd9	-0.06500215
166	0xbca3c581	-0.019991638
167	0xbe27b97b	-0.16379349
168	0x3ce3fa59	0.027829336
169	0x3e322fb6	0.17401013
170	0x3df0c891	0.11757005
171	0xbd61ad06	-0.05509665
172	0x3de5df50	0.11224234
173	0xbd3c1f52	-0.045928307
174	0x3d473430	0.048633754
175	0xbd8e96a8	-0.06962329
176	0xbe1a978b	-0.15096872
177	0xbb60e367	-0.003431523
178	0x3e47c6ff	0.19509505
179	0xbd20d083	-0.039261352
180	0xbcab8cc7	-0.020941151
181	0x3d579ae1	0.05263794
182	0xbd34a289	-0.044100318
183	0x3e38c4e6	0.18043861
184	0xbd40db94	-0.047084406
185	0x3e0e9972	0.13925722
186	0x3dd2ce65	0.10293273
187	0x3e10690c	0.14102572
188	0x3de7bcf1	0.113153346
189	0x3c036e65	0.008021926
190	0xbca490ad	-0.020088518
191	0xbd2b44be	-0.041813605
192	0xbd67f3bc	-0.056628928
193	0xbe0a8f9d	-0.13531347
194	0x3dd8ec20	0.10591912
195	0x3e3a597f	0.18198203
196	0xbe735474	-0.23762685
197	0xbbcb7050	-0.006208457
198	0xbe508696	-0.2036384
199	0x3c89cb83	0.016820675
200	0xbd048aca	-0.032358922
201	0xbd4dde65	-0.05026092
202	0x3dfd4112	0.12365927
203	0x3c45c88d	0.012071741
204	0xbe231dd6	-0.1592935
205	0x3df74668	0.12073976
206	0x3df720e5	0.12066821
207	0xbe598cc5	-0.21245106
208	0x3daadeb4	0.083432585
209	0xbd02a0c6	-0.031891607
210	0xbda20961	-0.07911945
211	0x3c9a565d	0.01884001
212	0xbd48697a	-0.048928715
213	0xbd6b1917	-0.057396974
214	0xbe008a13	-0.12552671
215	0xbd2affee	-0.04174798
216	0xbda3f89f	-0.08006405
217	0xbe0de6f1	-0.13857628
218	0x3e14772b	0.14498584
219	0x3d2c6501	0.042088512
220	0xbe2a1467	-0.16609345
221	0xbd46d779	-0.048545334
222	0x3e17b80c	0.14816302
223	0x3ceafa5e	0.028683838
224	0xbc021974	-0.007940639
225	0x3c01537c	0.007893439
226	0x3d8efbf2	0.069816485
227	0x3de99eba	0.11407228
228	0xbd8430b4	-0.06454602
229	0xbd404166	-0.04693737
230	0x3e557352	0.20844772
231	0xbce3d381	-0.027810814
232	0x3d13dc7e	0.03609895
233	0xbdad6691	-0.084668286
234	0x3d192d78	0.037396878
235	0xbdc5f35a	-0.09665556
236	0xbda573d2	-0.080787316
237	0xbbac1798	-0.005251836
238	0x3db88b5a	0.09010954
239	0xbdaebb70	-0.085318446
240	0x3d8abaca	0.067739084
241	0xbe0876b8	-0.13326538
242	0xbd5c3fc1	-0.053771738
243	0xbda5f8fc	-0.081041306
244	0x3c944920	0.018101275
245	0x3d0c4500	0.03424549
246	0xbbed66bb	-0.0072449124
247	0xbe27ac44	-0.16374308
248	0xbcc0fac1	-0.023557069
249	0x3e07926f	0.13239454
250	0x3c754e76	0.01497232
251	0xbcf3469d	-0.029696757
252	0xbcf54610	-0.029940635
253	0xbd9f6cde	-0.07784437
254	0x3d2a76cd	0.041617204
255	0x3d9be6f1	0.07612408

encoder.lstm.bias_ih_l1 f4 [256]
0	0x3db5c6b1	0.08875788
1	0x3d9d894a	0.076922014
2	0xbdc55ad7	-0.09636467
3	0x3d795a7b	0.060877305
4	0x3d9dc460	0.07703471
5	0x3d97c15d	0.07409928
6	0x3d2fa4eb	0.042881887
7	0xbc180d17	-0.009280465
8	0xbb8ecc8b	-0.0043578795
9	0xbc41ccf0	-0.011828646
10	0xbdac6ff9	-0.084197946
11	0xbe03a626	-0.1285635
12	0xbe29f27b	-0.16596405
13	0xbd7080ab	-0.058716457
14	0xbbf7d88f	-0.0075636576
15	0x3d706e8d	0.05869918
16	0x3b1f952e	0.0024350393
17	0x3dde3a7b	0.10850998
18	0xba032597	-0.0005002855
19	0x3dde872a	0.10865624
20	0xbe13e2b8	-0.14441955
21	0xbe10026d	-0.14063425
22	0x3dfd2a82	0.12361623
23	0x3d29deba	0.041472174
24	0xbd680cac	-0.05665271
25	0xbce7d901	-0.028301718
26	0x3e2f1760	0.1709876
27	0x3d05fd68	0.03271237
28	0xbd559628	-0.052145153
29	0xbd6fc407	-0.058536556
30	0x3c8a6a6f	0.016896455
31	0xbd232bab	-0.039836567
32	0x3dfea060	0.12432933
33	0x3e0b7c3b	0.13621609
34	0xbcd48cbf	-0.02594602
35	0x3ba1bc4d	0.0049357773
36	0x3de07d51	0.10961402
37	0xbd3f5be5	-0.046718497
38	0x3db00630	0.0859493
39	0xbc837694	-0.016047753
40	0x3e155bd2	0.14585808
41	0xbd17e28c	-0.037081286
42	0x3d92c20a	0.07165916
43	0x3ca1c119	0.019745396
44	0xbcc003c0	-0.023439288
45	0x3d9ac50c	0.07557115
46	0xbda78133	-0.0817894
47	0x3cc6dadb	0.02427428
48	0x3d7493d5	0.059711296
49	0x3daaac87	0.08333688
50	0x3d18edaf	0.037336048
51	0x3dc5846c	0.09644398
52	0xbded5c1f	-0.11589836
53	0xbcf1bdb2	-0.0295094
54	0x3e086150	0.13318372
55	0x3cbe328b	0.02321746
56	0xbcaba6b6	-0.020953517
57	0x3d95d7bb	0.07316538
58	0x3dd19e3e	0.102352604
59	0x3e523744	0.20528895
60	0xbd99e417	-0.07514208
61	0x3dbc7553	0.09202065
62	0x3b43520d	0.0029803545
63	0x3c969e64	0.018386073
64	0x3caedcfb	0.021345606
65	0x3d995dd1	0.07488597
66	0x3dcd8c14	0.100364834
67	0x3cd4d9af	0.025982706
68	0xbdab9077	-0.08377164
69	0xbd0ad429	-0.033893738
70	0xbd493552	-0.049123116
71	0xbc0dfef1	-0.00866674
72	0x3dbae22e	0.091251716
73	0x3d7894a4	0.06068863
74	0xbcddede3	-0.027090972
75	0xbc00f744	-0.007871453
76	0x3d090bbf	0.033458468
77	0x3e0db702	0.13839343
78	0xb8fc6851	-0.00012035727
79	0xbd7ff258	-0.062486976
80	0x3e25a37b	0.16175644
81	0xbc8c3a59	-0.017117666
82	0x3daaf591	0.08347619
83	0x3dfc911a	0.123323634
84	0xbdd8b749	-0.10581834
85	0xbd62d3d8	-0.05537781
86	0x3e074a0c	0.1321184
87	0xbdaca64e	-0.084301576
88	0xbca0ce72	-0.01962969
89	0x3d1637eb	0.03667442
90	0xbd445460	-0.04793203
91	0x3c9ad614	0.018900909
92	0xbdfa3084	-0.12216285
93	0xbb36f4eb	-0.0027916979
94	0x3dd6221e	0.10455726
95	0xbe0054cd	-0.12532349
96	0x3d9c6865	0.07637099
97	0xbd95c93a	-0.073137715
98	0x3c873068	0.016502574
99	0xbdd6619c	-0.10467836
100	0xbdb5cb05	-0.088766135
101	0xbd2bcf0c	-0.041945502
102	0xbd99233e	-0.07477425
103	0xbda2856b	-0.07935604
104	0x3dedf014	0.11618057
105	0x3dc5dd86	0.09661393
106	0xbdeb4f4a	-0.114897326
107	0xbd625cda	-0.05526433
108	0x3db2a760	0.087233305
109	0xbdd887bf	-0.105727665
110	0xbd82fcaa	-0.06395848
111	0xbca6294d	-0.020283366
112	0x3c8f8810	0.017520934
113	0x3ba9f127	0.0051862183
114	0x3e22de2f	0.15905069
115	0xbdb7f322	-0.08981921
116	0xbc14e43f	-0.009087621
117	0xbde7542f	-0.112953536
118	0x3dcbef8e	0.09957801
119	0xbd7e37c4	-0.0620649
120	0x3e1fb7f8	0.15597522
121	0xbdf8d8b9	-0.121507116
122	0xbd08d944	-0.033410326
123	0x3df38ce7	0.11892109
124	0xbd6dba15	-0.05803879
125	0xbe008986	-0.12552461
126	0xbcefa2a8	-0.029252365
127	0xbcec4543	-0.02884162
128	0xbe0bf01d	-0.13665815
129	0xbcfd8069	-0.03094502
130	0xbdb817b9	-0.089889
131	0x3b07a64a	0.0020698481
132	0xbde4e0c0	-0.1117568
133	0x3dc70256	0.097172424
134	0xbd114d89	-0.035474334
135	0x3d37c85b	0.04486881
136	0xbdb09f1a	-0.08624096
137	0xbbd259d3	-0.0064193993
138	0xbd8a075c	-0.06739685
139	0xbd4f69d5	-0.05063804
140	0x3d7b65bf	0.06137633
141	0x3cc8cc47	0.02451147
142	0x3d8dc2c8	0.06921917
143	0x3d76e557	0.06027731
144	0x3d6b22ea	0.057406344
145	0xbde29c83	-0.110650085
146	0xbe0ab999	-0.13547362
147	0xbdd2e738	-0.10298008
148	0x3db677a0	0.089095354
149	0x3de10992	0.109881535
150	0xbe1315b1	-0.14363743
151	0x3db586d9	0.08863611
152	0xbc82b034	-0.01595316
153	0xbd5836e8	-0.052786738
154	0x3e0f1a68	0.13974917
155	0xbc2e6a29	-0.010645428
156	0xbdf4d499	-0.11954612
157	0x3d02195f	0.031762477
158	0x3d37b6a8	0.04485193
159	0x3cc592e7	0.0241179
160	0xbd7ff45d	-0.062488902
161	0xbcebf899	-0.028805064
162	0xbc079e0e	-0.008277429
163	0x3dd976df	0.10618376
164	0xbc672e81	-0.0141102085
165	0xbdafe4ff	-0.085885994
166	0x3e0423c0	0.12904263
167	0xbdaa9a8d	-0.083302595
168	0xbd34ae53	-0.04411156
169	0x3cb78d16	0.022406142
170	0x3d172f2e	0.03691023
171	0xbd6af75c	-0.057364807
172	0xbe2da414	-0.16957122
173	0x3e09fe56	0.13475928
174	0xbd8ec3b6	-0.06970923
175	0xbdc30bae	-0.09523712
176	0xbca44304	-0.020051487
177	0xbafd5bd9	-0.0019329741
178	0x3c2f3f3f	0.010696231
179	0x3d35e5ff	0.044408794
180	0x3d5e3a3f	0.054254767
181	0xbcf37668	-0.029719546
182	0x3dcca114	0.09991661
183	0x3dbbeb5c	0.091757506
184	0xbbc5d818	-0.0060377233
185	0x3dc80c75	0.09768001
186	0x3c58dcb9	0.013236218
187	0xbe2f4b5e	-0.17118594
188	0xbde553dc	-0.111976355
189	0x3cdbdae0	0.026837766
190	0x3c64ab6c	0.013956886
191	0x3d36e8d3	0.044655632
192	0xbd76c3e5	-0.060245413
193	0xbd9cec08	-0.07662207
194	0x3dcd8174	0.10034457
195	0x3e1cdc54	0.15318424
196	0x3d7eb229	0.062181626
197	0xbe080f47	-0.13287078
198	0x3cfe80ef	0.03106734
199	0xbd2d9a6b	-0.042383593
200	0xbd3c7438	-0.046009272
201	0x3ceb5ad5	0.028729836
202	0xbcd91eab	-0.026503881
203	0xbe12f4da	-0.14351216
204	0xbdf416d8	-0.119184196
205	0xbd9156c0	-0.070966244
206	0x3d9575cc	0.072978586
207	0x3e0fba54	0.14035922
208	0x3d8089ec	0.062763065
209	0x3d6a2364	0.057162657
210	0x3c897b6f	0.01678249
211	0xb9e547cb	-0.00043731774
212	0xbc3664ed	-0.011132461
213	0x3dbb80fd	0.09155462
214	0xbcef3f1a	-0.029204894
215	0x3ce87dc2	0.028380278
216	0xbbf50895	-0.0074778297
217	0x3e01cb9c	0.12675327
218	0x3dc88cdc	0.09792492
219	0x3c588874	0.013216127
220	0xbdd8c64f	-0.10584699
221	0xbe0ccafb	-0.13749306
222	0xbd9e028a	-0.07715328
223	0xbe2db7bc	-0.1696462
224	0x3cdb78ee	0.026791062
225	0x3d8b1589	0.06791217
226	0x3d450331	0.048098747
227	0xbdf6067a	-0.12012954
228	0xbdfb5571	-0.12272156
229	0xbd19d003	-0.03755189
230	0x3e435568	0.19075549
231	0xbce1d65b	-0.027568033
232	0x3dc1476c	0.09437451
233	0x3e20cad7	0.15702377
234	0x3d94a3d2	0.07257809
235	0x3d953bb8	0.07286781
236	0x3e42a419	0.19007911
237	0x3dc065fc	0.09394452
238	0x3de1ba90	0.11021912
239	0x3e061ca5	0.13096865
240	0xbd57533f	-0.052569624
241	0x3e073c0d	0.13206501
242	0x3cf337fe	0.029689785
243	0xbd46138d	-0.04835849
244	0xbd749064	-0.059708014
245	0x3d84fc9d	0.06493495
246	0xbde0be62	-0.10973813
247	0xbcd2bc87	-0.025724662
248	0x3d82c4dd	0.06385205
249	0x3d861e61	0.06548763
250	0x3d4d681d	0.05014812
251	0x3e483f1e	0.19555327
252	0xbcab3f23	-0.02090413
253	0xbdbf2622	-0.09333445
254	0xbbee6bfa	-0.0072760554
255	0xbdcea2f3	-0.10089674
