AR/lstm_sigwgan/G.pt (torch, 313567 bytes, 41 tensors)

encoder.lstm.weight_ih_l0 f4 [128, 1]
000000 c1 67 64 bf 73 25 32 3f bb ae 59 bf cb 93 e4 3f
       -0.89220816 0.6958839 -0.8503224 1.7857603
000010 77 47 8f bd a8 ea 9d 3f d4 9c 99 3c 58 1f 08 3f
       -0.06996053 1.2337236 0.01875154 0.53172827
000020 72 2c c2 bf b3 51 a3 bf a0 e9 4a bf 67 bd 5d bd
       -1.5169814 -1.2759308 -0.79262733 -0.054135706
000030 20 24 4d 3f 13 e9 79 bf ce 8f 1b bf 22 92 b5 3f
       0.8013325 -0.9762127 -0.60766304 1.4185221
000040 e8 40 e7 3f b5 17 9e bf 9f 7f 52 bf f5 f9 d1 be
       1.8066683 -1.2350985 -0.82225984 -0.41011015
000050 b1 43 b4 be 8b 37 7c 3f 7b 6c 33 bf 7f 1c 27 3f
       -0.35207894 0.9852225 -0.70087403 0.65277857
000060 d1 0c 5e 3e 57 6d 44 bf 20 42 db 3f 6a f7 cc 3e
       0.21684577 -0.7672934 1.7129555 0.40032512
000070 a7 0d 08 bf f0 02 62 3f 1a 03 b0 bf 46 a8 ad 3f
       -0.5314583 0.8828573 -1.3750947 1.3566978
000080 ed f6 02 3f 36 37 2e 3f 78 3c d5 bf 8c 6e ab 3f
       0.5115803 0.68052995 -1.6659079 1.3393111
000090 c7 f5 39 bf 08 9c 94 bf e1 f1 3c bf 7d 99 16 bf
       -0.7264065 -1.1610117 -0.7380658 -0.58827955
0000a0 9b b3 5b bf 63 35 e6 3e 1d eb 97 bf c2 52 ae 3f
       -0.8582093 0.44962606 -1.1868626 1.3619006
0000b0 87 2c 60 3f e0 e6 e7 bf 2a b1 ea be d9 31 b5 3f
       0.87567943 -1.8117332 -0.4583829 1.4155837
0000c0 46 68 45 be 84 bf b3 bf fa aa 45 be 47 08 a6 3f
       -0.19278058 -1.4042821 -0.19303504 1.2971276
0000d0 4b 49 76 bf c3 71 78 3f 55 e6 af 3f 4d 45 fe 3d
       -0.96205586 0.97048587 1.3742167 0.12415562
0000e0 7b 78 48 bf 74 fc d9 bf 3e 84 b2 3f 62 f1 a8 3e
       -0.7830884 -1.7030168 1.3946607 0.3299666
0000f0 46 53 8d bf 4f 02 f4 be 82 29 cb 3f 93 66 0d bf
       -1.1041038 -0.4765801 1.5872042 -0.5523464
000100 18 c5 65 3f 69 e1 8e bf 3e 1f 5b 3f 41 52 c6 3d
       0.89753866 -1.116254 0.85594547 0.096836574
000110 30 a5 97 3f 0a 20 9f 3f ab b7 32 bf a5 79 eb 3f
       1.1847286 1.2431653 -0.69811505 1.8396498
000120 2f 43 61 3f 1e 79 ff be 6c 83 d7 3d 22 26 ae bf
       0.8799314 -0.49897093 0.105231136 -1.3605387
000130 87 f5 19 3f b1 1f 82 3f 40 1a 79 3e 21 2d 15 bf
       0.6014027 1.0165921 0.2432642 -0.58271986
000140 33 13 bc 3f 87 7e c9 3f 32 11 12 3f 22 a4 87 3f
       1.4693359 1.5741738 0.5705749 1.0596964
000150 f1 28 c6 3f d1 ba db bf e4 00 cf 3f 15 7e 86 3f
       1.5481244 -1.7166387 1.6172147 1.0507227
000160 be b7 dc bf 9c 2d ee bd 10 9d 69 3f 87 0e 8e bf
       -1.7243574 -0.11629793 0.91255283 -1.1098183
000170 50 43 ce bf 7a aa 81 3f 08 f5 78 3f 1a 03 96 3f
       -1.6114292 1.013015 0.9724889 1.1719697
000180 60 1d a5 3f e8 18 68 3f d4 5a 52 3e 70 98 7f 3f
       1.289959 0.90663004 0.2054246 0.99841976
000190 94 1e 40 3e 50 40 b5 3f 40 af fe 3e ea 81 52 be
       0.18761665 1.4160252 0.4974308 -0.20557371
0001a0 a0 ed a5 bf f9 a5 30 bf 4b 84 47 3f eb ab bb 3f
       -1.2963142 -0.69003254 0.7793624 1.466184
0001b0 1e 7a 01 bf 42 f1 ac 3e 97 3b 5a 3e 34 55 d1 3e
       -0.5057696 0.33777815 0.21311794 0.40885317
0001c0 43 8c 39 bf 68 92 1f bf 58 3e 08 bf 74 11 c5 bf
       -0.7247965 -0.62332773 -0.5322013 -1.5395951
0001d0 49 9a 98 bc 67 1b 32 3f 3c 97 11 3f 97 94 80 3e
       -0.018628256 0.6957306 0.5687139 0.25113365
0001e0 79 29 60 3f 91 d6 a8 bf 98 a0 c5 3f 26 81 8e 3f
       0.8756328 -1.319048 1.5439634 1.1133163
0001f0 dd 32 c7 bf 29 64 8a bf 79 30 d4 bf d7 03 a3 3f
       -1.5562397 -1.0811816 -1.6577293 1.2735547

encoder.lstm.weight_hh_l0 f4 [128, 32]
000000 0d 82 1c bf 2d ee c9 bf 53 8b ca bf bb 82 3b bf
       -0.6113594 -1.577581 -1.5823768 -0.73246354
000010 89 75 b5 bf 4c 9b 0b 3f 5c 39 79 bf f0 ca bd 3f
       -1.4176494 0.5453384 -0.9735315 1.4827557
000020 92 17 fa bd d1 ff 46 bf ab 62 7f 3f a2 84 ab 3f
       -0.12211527 -0.77734095 0.9975993 1.3399851
000030 7d 35 88 3f 9f a1 24 3f 00 28 0b 3f cd 62 b9 3e
       1.0641323 0.64309114 0.5435791 0.36208192
000040 42 74 86 be 28 df dc bd 4a 31 f3 3c a8 4c 7c 3f
       -0.26260573 -0.10784751 0.029686589 0.9855447
000050 83 f8 b9 bf 40 c9 c3 3f f6 9d be be 7b 98 17 bf
       -1.4528965 1.5295792 -0.3722989 -0.5921704
000060 d7 5d 3e bf a8 fe 6a 3f c4 5a d2 bd 2b 38 7a bf
       -0.7436194 0.91794825 -0.102712184 -0.97741956
000070 0e 19 7f 3f e1 64 bd 3c 8b af b5 3f e0 54 63 3f
       0.99647605 0.023119392 1.4194196 0.88801384
000080 e3 81 e0 3e c1 77 e3 be e1 e7 41 3f 40 2a 05 3e
       0.43849096 -0.44427302 0.75744444 0.13004398
000090 9f f8 18 bf 2d a7 90 3f 02 47 b2 3f 68 80 7f bf
       -0.59754366 1.1301018 1.392792 -0.9980531
0000a0 86 76 95 bd bc 8d 43 bf 66 63 94 3f 91 3b 1f 3f
       -0.07297997 -0.76388144 1.1592834 0.62200266
0000b0 82 bd e3 3f 2c a1 9b bf b0 3a d2 bf aa 67 23 bf
       1.7792208 -1.2158561 -1.642416 -0.63830054
0000c0 a7 f4 06 bf 6d b5 c6 bf 97 ad b6 3f cf fe 20 bf
       -0.5271706 -1.5524117 1.4271725 -0.6288881
0000d0 52 6e 9a 3f 9f ca ae be 93 2a eb 3f 39 60 63 3f
       1.2064917 -0.34138963 1.8372368 0.888187
0000e0 60 6f ac 3f 90 14 9a bf f1 e1 c4 bf 48 bc 79 3f
       1.3471489 -1.2037525 -1.5381452 0.9755292
0000f0 d9 53 e4 bf ba 7c db 3f 9f e2 ae 3f 80 4c 80 3e
       -1.7838088 1.7147439 1.3662909 0.25058365
000100 07 91 c9 3f 67 3d 95 be d8 1d 35 bd 23 6c 71 3d
       1.5747384 -0.2914841 -0.044217914 0.058941018
000110 af 49 89 3f 6d b9 be 3f df 2a d5 3f 68 69 ad bf
       1.0725611 1.4900337 1.6653708 -1.3547792
000120 61 12 bd 3f c6 55 55 3f 26 54 bd be 6a 7b ca bf
       1.4771234 0.83334005 -0.36978263 -1.5818913
000130 19 17 95 bf 79 22 b5 bf 80 fd 07 3e 12 c2 83 3e
       -1.1647674 -1.4151145 0.13280296 0.25734
000140 02 40 e7 be 2a 59 9d 3f 31 8b 9b bf 9b a7 e3 3f
       -0.45166022 1.2292836 -1.2151853 1.7785524
000150 59 33 c1 3f cf 40 0c bf 49 97 14 bf 90 91 8f bf
       1.5093795 -0.5478639 -0.5804334 -1.1216297
000160 7d d9 69 be 8f dd 02 3d 72 43 a8 3e 55 67 97 bf
       -0.22836871 0.031949576 0.32863957 -1.182841
000170 c7 ca 95 3f cd 33 03 3f 4d f5 b3 bf ed 6a c7 bf
       1.1702508 0.51250917 -1.4059235 -1.5579506
000180 6b 2a 8b 3e ed 60 ac 3d 43 40 ce bf a7 95 da bf
       0.271808 0.084169246 -1.6113361 -1.707692
000190 04 db fa be 3f 88 7f 3f 37 39 7d 3e e3 51 55 3f
       -0.4899522 0.9981727 0.24728857 0.83328074
0001a0 3e 67 89 bd bc f0 35 3f d4 9f b1 bf ff 2b 6f be
       -0.06709145 0.71070457 -1.3876901 -0.23356627
0001b0 1a 30 52 bf 44 00 02 bf fe f6 1d 3f 94 b2 ad bf
       -0.8210465 -0.50781655 0.61705005 -1.3570123
0001c0 f9 74 03 bf 60 ce 0b 3f 44 34 0f 3f 51 ee 17 3f
       -0.5135036 0.5461178 0.55939126 0.59348017
0001d0 26 e0 40 3d 29 89 b9 3e c4 af c4 bf 37 03 95 bf
       0.047088765 0.36237457 -1.536614 -1.1641606
0001e0 f0 33 8d be 50 52 c6 3f 2a 32 41 3f 3f b5 a5 3f
       -0.27578688 1.549387 0.7546717 1.2945937
0001f0 f5 2b 2e 3e e6 92 d8 bf cb 3f 8b 3f 7f 4a 86 bf
       0.17008956 -1.691983 1.0878843 -1.0491484
000200 81 fe b4 3f 58 f4 9f be 42 2f d3 bf 3a 15 90 3f
       1.4140168 -0.31241107 -1.6498797 1.1256478
000210 ce f4 94 3e bf 81 a0 3f 34 99 b9 3e 60 e4 7a bf
       0.2909302 1.2539595 0.36249697 -0.9800472
000220 f2 80 eb 3e d8 dc ce 3f ef bd 51 3e a8 67 cd bf
       0.45996815 1.6161146 0.2048261 -1.6047258
000230 04 dc 8c bf f6 0a 13 3e 21 70 bd 3e 9f 15 bd 3f
       -1.1004643 0.1435965 0.3699961 1.4772223
000240 8a 7e 5d 3f 2e 20 ac be 66 9b c7 bf 11 3f 3a bf
       0.8652121 -0.336183 -1.5594299 -0.7275248
000250 ec 9d 80 3f be d9 90 bf 45 65 ad 3e db 58 25 bf
       1.0048194 -1.131645 0.33866325 -0.6458871
000260 b9 dc a6 3f 4b be d9 bf ea f6 49 3f 17 83 3f be
       1.3036109 -1.7011198 0.78892386 -0.1870235
000270 fe 00 51 3e 63 5c 81 bf 66 ca 08 3f d3 e3 e6 be
       0.20410535 -1.0106319 0.53433836 -0.4509569
000280 27 8c 08 bd 9c 3c 12 3f 47 dd 63 bf 2e ba c8 bf
       -0.033336785 0.5712373 -0.8900952 -1.5681818
000290 21 43 60 be e9 6e 5c 3f df 3f c9 3f 72 75 20 3f
       -0.21900608 0.86106735 1.5722617 0.6267921
0002a0 3c 6d c6 3f b3 e3 fb be 97 7f cb be c0 ce b3 3e
       1.5502086 -0.49197158 -0.3974578 0.35118675
0002b0 59 47 e4 be e1 7b 85 bf 96 5c 0f bf 0d c5 8d bd
       -0.44585684 -1.042843 -0.5600065 -0.0692235
0002c0 8b bf a7 bf cd 6d 89 bf 64 ac ad bf 95 1b fd be
       -1.3105329 -1.0736634 -1.3568234 -0.49435106
0002d0 e6 65 2a 3f be d9 3b bf cd 8d 89 3f 41 38 a0 3e
       0.66561735 -0.73379123 1.0746399 0.31292918
0002e0 85 42 d4 3e 20 b9 f6 3e af a8 3c 3f f2 dd 1d 3e
       0.41457 0.48188114 0.7369489 0.15416697
0002f0 fd 82 9e 3e a9 af ad 3f bc e8 ae bc 1f 4a 8c 3f
       0.3095931 1.3569232 -0.02135121 1.096012
000300 84 24 f5 3e 1c 5a c4 bf e5 f8 be bf ee 6d cb 3e
       0.47879422 -1.5339999 -1.4919707 0.39732307
000310 c7 f3 6c bf c8 f2 92 3d 4d c7 e9 bf 84 14 9c 3f
       -0.92559475 0.07175213 -1.8263947 1.2193761
000320 9e 09 a7 3f b6 a6 4a be d7 f8 67 bf dc f0 3d 3f
       1.304981 -0.19790158 -0.90614074 0.7419565
000330 f5 1f 10 be 7e 92 56 3f f1 e8 97 bd 3a 1c 31 bf
       -0.1407469 0.8381728 -0.07417477 -0.69183695
000340 5c bb be 3f 84 97 c1 3f 9f 0b ad bf f2 9b c1 3e
       1.4900928 1.5124364 -1.3519171 0.3781429
000350 1f ef d8 bf 8b 76 33 bf 03 d5 a6 bf 0c 01 a0 3f
       -1.6947974 -0.7010276 -1.3033756 1.250032
000360 c3 93 95 bf f4 19 ae 3f 87 65 80 3e 4b 03 e2 3d
       -1.1685718 1.360167 0.2507746 0.11035784
000370 3c 7c eb 3d e9 84 73 bf 27 47 bf 3f db a7 21 3f
       0.11498305 -0.9512468 1.4943589 0.6314675
000380 2a 01 47 bf 3e 24 42 3f 00 60 01 bf fb f4 a7 3f
       -0.7773615 0.7583655 -0.5053711 1.3121637
000390 79 9a 53 be d9 9c b7 3f d3 2e d3 bf bf 17 c1 3f
       -0.20664395 1.4344741 -1.6498665 1.5085372
0003a0 20 59 c7 bf cd 3a 73 3f f5 66 94 bf 25 3e ae bf
       -1.5574074 0.950116 -1.159392 -1.3612715
0003b0 60 65 cc 3e b0 2e a4 bd cd 0c b5 3e e2 cf 8b 3f
       0.39921093 -0.080167174 0.3536133 1.0922816
0003c0 e4 37 07 bf 57 33 81 3e 4d 5e cd bf fd 08 0d be
       -0.5281966 0.25234482 -1.6044403 -0.1377296
0003d0 dd ed 9f 3e c1 eb 7d bf 9a 17 e7 3f 2b dc 95 be
       0.31236163 -0.99187857 1.8054078 -0.29269537
0003e0 86 0d aa 3f db 7e a2 bf 5d ca d2 bf 75 fa c8 be
       1.3285377 -1.2694963 -1.6468006 -0.39253584
0003f0 9c a0 4a 3f 91 35 8a 3f 14 27 15 be 42 80 9f 3c
       0.7915132 1.0797597 -0.14565688 0.019470338

encoder.lstm.bias_ih_l0 f4 [128]
000000 83 09 88 3f ba d8 0c bf e3 7a f8 3e f7 a7 3c 3f
       1.0627903 -0.550182 0.48531255 0.73693794
000010 65 73 d4 bf b3 c1 bb bf 6b fd 97 bf 8a c8 d4 3f
       -1.6597716 -1.4668487 -1.1874212 1.66237
000020 3c 30 43 bf b9 e4 dc bf 14 ba 61 3e ae 83 51 bf
       -0.76245475 -1.7257301 0.2204364 -0.8184155
000030 d7 51 ef be 2a 89 a8 3f 85 49 ad bd 35 7d 9d bf
       -0.46742126 1.3166859 -0.08461288 -1.2303835
000040 19 99 db 3f a4 4e b7 bd b4 4c 48 bf 49 58 b2 3f
       1.7156097 -0.089505464 -0.7824204 1.3933192
000050 36 5d 8e bf f8 3f 81 bd 1e 71 59 bf 9b 39 1b 3f
       -1.1122196 -0.06311029 -0.8493823 0.60634774
000060 99 92 83 3f 40 2f 48 bf bd b8 b2 bf 58 a6 0c bf
       1.0279113 -0.781971 -1.3962628 -0.5494132
000070 4a 9d c1 bf 80 3d 33 3f 37 7f b2 3f e9 d9 73 bf
       -1.5126126 0.70015717 1.3945073 -0.9525438
000080 7f 0a cd 3d 3e dd 91 3e 2b 45 c5 3f 93 d3 8a 3f
       0.100117676 0.28489107 1.5411733 1.0845817
000090 62 d3 29 3f 9c 94 d4 bf ff 15 97 3f e8 83 33 bf
       0.6633817 -1.6607852 1.1803588 -0.7012315
0000a0 6c 73 e2 3f b9 ee cf bd 68 10 c9 3f be 82 27 bf
       1.7691474 -0.101529546 1.5708132 -0.6543387
0000b0 8f df a0 bd f1 53 83 3e da dc b6 3f 6d c9 b1 3f
       -0.078551404 0.2564998 1.4286149 1.3889595
0000c0 fe ec a0 bf 79 de 9f 3f 26 2c b9 3f a8 3c 13 3f
       -1.2572324 1.2489768 1.4466598 0.5751443
0000d0 df b5 b3 bf 2c a3 58 be 1c bf 5d bf 3b 8d 35 bf
       -1.4039878 -0.21155995 -0.86619735 -0.70918626
0000e0 21 5f 00 3f 72 3a 92 bf e5 61 dc 3f 08 c3 02 3e
       0.50145155 -1.1424086 1.7217375 0.12769711
0000f0 f7 7e 52 3e bd 8c 3f bf 1e 1c c9 be 55 78 8e bf
       0.20556246 -0.74824125 -0.39279264 -1.1130472
000100 5c 21 10 3f 74 cf c7 3f b7 16 ae 3f 5e b5 56 3f
       0.563009 1.5610185 1.3600682 0.83870494
000110 3f 92 97 3f 48 54 c4 bf 13 6a 1b 3f ee 48 e1 3f
       1.1841506 -1.5338221 0.6070873 1.7600381
000120 64 3d 6e 3e c7 ae b6 bf a5 df 49 3f 42 09 e0 3d
       0.23265606 -1.4272088 0.7885688 0.10939266
000130 d7 0f b4 3f 0d 4d 77 3f 74 0e 24 3f 12 e3 d2 3f
       1.4067334 0.96601945 0.64084554 1.6475546
000140 bc 10 85 be e5 cf 67 3e 36 34 bd 3f f1 04 b5 bf
       -0.2598933 0.22637899 1.4781559 -1.4142133
000150 df 7e d6 3f ad 5f 99 bf 5f 1a 8f bf e4 57 c2 bf
       1.6757468 -1.1982323 -1.1179923 -1.5183072
000160 5c 55 80 bf a2 a3 36 3f 44 67 9d bf 3f 00 91 be
       -1.002605 0.71343434 -1.2297139 -0.283205
000170 b8 08 26 bc 98 1e a7 bf 1f fe e0 be b4 00 a0 3f
       -0.010133915 -1.3056211 -0.4394388 1.2500215
000180 15 3a c8 bf 5d ad 16 3f 25 be 13 3f 8f ff 2a bf
       -1.5642725 0.5885828 0.5771201 -0.667962
000190 18 89 80 3f 84 56 43 bf 50 9f 26 3e 4f 40 dd be
       1.0041838 -0.7630389 0.1627171 -0.43213126
0001a0 43 a4 90 bf 26 de 18 bf 67 f3 da bf a9 66 86 bf
       -1.1300129 -0.5971397 -1.710553 -1.0500079
0001b0 57 df 2b 3f 5c 2a c8 bf c8 a5 c9 3f 3f 76 b4 bf
       0.67137665 -1.5637927 1.5753717 -1.4098586
0001c0 62 ad da 3f 06 94 1d bf 74 fe 7a be 59 57 d3 be
       1.7084162 -0.6155399 -0.24511129 -0.41277578
0001d0 cd f1 b7 bf 96 f5 d8 3f 60 c9 af bf 12 06 b7 bf
       -1.4370667 1.6949947 -1.373333 -1.4298728
0001e0 cd dd 26 3e f6 55 50 3f 6a 29 87 bf a3 49 88 be
       0.16295548 0.81381166 -1.0559514 -0.2661868
0001f0 96 ea 2c bf 70 ba 19 bf db 2d a9 3f d4 56 31 bd
       -0.6754545 -0.60050106 1.3217119 -0.043295696

encoder.lstm.bias_hh_l0 f4 [128]
000000 b0 39 69 3f dc 6c 44 3e 2e 4f 77 bf a4 65 aa 3f
       0.9110365 0.19182152 -0.96605194 1.3312268
000010 6f bb 93 bd d3 09 e0 bf c8 00 95 3e db 46 86 bf
       -0.072134845 -1.7502998 0.2910216 -1.0490373
000020 56 91 a5 3f 65 14 9c bf 28 b9 74 3e 77 c3 74 3f
       1.2934978 -1.2193724 0.23898757 0.95610756
000030 3e 51 bc be 3a 97 99 3e 5e 97 a2 bf c2 98 76 3c
       -0.36780733 0.2999819 -1.2702444 0.015051069
000040 20 02 8d bf 4d 8a 55 3f 2f dd 98 3f 2e a0 60 3f
       -1.1016273 0.83414155 1.19425 0.87744415
000050 dd b9 ad be a0 05 4b bf b7 10 90 bf a7 8d ea bc
       -0.33930865 -0.7930546 -1.1255101 -0.028631998
000060 6f 17 85 3f e3 4d b2 bf dc d8 62 3f a7 88 bd 3f
       1.0397776 -1.3930019 0.8861215 1.4807328
000070 08 40 c2 be 4b b7 53 bf ed 9d 1b 3f 39 fd 72 bf
       -0.37939477 -0.8270156 0.6078785 -0.9491764
000080 bf e8 6f bf 83 5a 0b bf 34 cf a4 be 39 8e b6 3f
       -0.9371452 -0.54434985 -0.32189333 1.4262153
000090 21 cc 88 3f 3c bc d9 be fd 4e a1 3f f6 76 90 bf
       1.0687295 -0.42526424 1.260223 -1.1286304
0000a0 09 51 3e bf 54 65 5f bf 7c de 9e bf 09 db 5d bf
       -0.743424 -0.8726399 -1.2411647 -0.86662346
0000b0 58 59 d7 bf e0 ee 96 3f 9c f7 9d be a3 b9 a6 bf
       -1.682414 1.1791649 -0.30852973 -1.3025402
0000c0 47 b3 96 bf d2 3a d1 3f cb 07 4c bf 82 11 b4 3f
       -1.1773461 1.6346076 -0.7969939 1.4067843
0000d0 57 07 d4 be 68 9e d9 bf 46 3f 3c 3e 1b 79 a4 bf
       -0.4141185 -1.7001467 0.18383512 -1.2849458
0000e0 33 c5 d3 bf ec a1 9b bf 4a ea 54 3f 43 6c ad bf
       -1.6544555 -1.215879 0.83169997 -1.3548664
0000f0 3c bb b5 3f 2f b0 74 3f 24 1b a7 bf f2 85 fd be
       1.4197764 0.95581335 -1.3055158 -0.49516255
000100 0c ca e6 3f 3c c0 96 bf ca cf 49 3f 47 30 06 3f
       1.803041 -1.1777415 0.78832686 0.52417415
000110 da a0 d0 bf f5 80 31 3f d1 19 0f be 25 0b 0a be
       -1.6299088 0.693374 -0.13974692 -0.13480814
000120 7b cc e4 3e 49 1c b8 3e f9 31 ca 3f 51 5c 36 bf
       0.44687256 0.3595908 1.57965 -0.71234614
000130 1d a1 26 3f 1b c8 a7 3f 46 36 5c 3f 91 fb f2 bd
       0.6508959 1.3107942 0.86020315 -0.11864389
000140 b2 2f 5b bd 75 fc 20 bf 14 68 6c 3f 86 db 8a bf
       -0.053512283 -0.6288522 0.9234631 -1.0848243
000150 ff 74 1c 3f f6 02 5f bf 56 94 df 3f 35 fb 76 3e
       0.6111602 -0.87113893 1.7467144 0.24119265
000160 d8 22 db bf c7 a5 bb 3f 52 e1 3d 3f dd e2 ec bd
       -1.7120008 1.4659966 0.74171937 -0.11566708
000170 ab f5 27 bf f9 ca b5 3f bb 8d 73 3f c8 db 85 3e
       -0.65609235 1.4202567 0.9513814 0.26144242
000180 a3 4e af 3f 32 62 c5 3f 19 0f 82 3f 98 bf d7 3f
       1.3695873 1.5420592 1.0160857 1.6855345
000190 99 9d 9f be ea a9 8d 3f 26 69 83 bf 1d 46 9e 3f
       -0.31174925 1.1067479 -1.0266464 1.2365147
0001a0 26 11 87 be fa ad 4d 3e df 00 2d 3f a0 a6 06 bf
       -0.2638027 0.20085898 0.67579454 -0.52598
0001b0 22 20 cf 3e 62 3b a9 bf ec c3 11 bf 17 03 d1 3f
       0.40454203 -1.3221247 -0.5693958 1.6329068
0001c0 46 38 79 bf 20 c1 32 3f 34 f5 bb bf f9 9d 77 bf
       -0.9735149 0.69825935 -1.4684205 -0.9672542
0001d0 27 2a 18 3f 31 60 a1 3f 8d 1d a0 3e 6e eb 99 3f
       0.5943932 1.260748 0.31272545 1.2024972
0001e0 95 1b cd 3f a3 02 d1 bf 74 a6 84 bf 53 4f 5c bf
       1.6024042 -1.632893 -1.0363297 -0.8605854
0001f0 9a 64 9a 3f 1e 64 cc 3f 7e 16 93 bf 99 4a 85 bf
       1.2061951 1.5968053 -1.1491239 -1.041339

encoder.lstm.weight_ih_l1 f4 [128, 32]
000000 a2 6f 9b 3f 16 82 73 bd b2 d4 f9 3e 7d 17 9e bf
       1.2143443 -0.05945023 0.48795086 -1.2350918
000010 6d 80 9f 3f 2b 11 c7 be 1a 18 6c bf ee 7d e9 be
       1.2461067 -0.38880286 -0.92224276 -0.4560389
000020 a6 ae 1d 3f ae b6 e5 bf 3f 43 0e bd 59 14 2d 3e
       0.6159462 -1.7946374 -0.0347321 0.16902293
000030 dc 8e d9 bf 38 5f d2 3f 70 37 f1 be c1 26 c4 bf
       -1.6996722 1.6435308 -0.47112608 -1.5324327
000040 8f 1a 70 bf ac de 80 3e 0f 63 da 3f 2e 4a bb 3e
       -0.93790525 0.25169885 1.706148 0.36580032
000050 73 e6 0b bd 2d 63 1c 3e 89 d6 aa bd 47 db db 3f
       -0.03415532 0.15272208 -0.083417006 1.7176293
000060 37 67 6c be d8 77 d9 3f 75 38 ce be 0c 4a c0 bf
       -0.23086248 1.6989698 -0.40277448 -1.5022597
000070 12 64 af be ef 27 8c be d1 e7 19 be 71 51 a7 3f
       -0.34256035 -0.27374217 -0.15029837 1.3071729
000080 e2 c0 41 3f 31 d5 39 bf de de 9a 3f c4 53 7e bf
       0.7568494 -0.7259093 1.2099264 -0.99346566
000090 7e 99 44 3f 31 65 48 3e bb 85 c3 bf d2 88 29 bf
       0.7679671 0.19569851 -1.5275186 -0.66224396
0000a0 0c e2 9d 3f bf 38 ce bf a3 44 6b 3f e4 15 e9 be
       1.2334609 -1.6111068 0.91901606 -0.45524514
0000b0 c7 65 97 bf 7e 9f 80 be 9b 31 5c 3f 13 0a 19 3f
       -1.1827935 -0.25121683 0.8601319 0.59781
0000c0 85 b2 7a bf 0d 97 cc 3f e4 51 a3 bf cc ef 6e 3f
       -0.9792865 1.5983597 -1.2759366 0.9333465
0000d0 1d 3c 20 be d2 37 4a 3f 8c 13 c7 bf 34 96 f9 be
       -0.15647931 0.78991425 -1.555284 -0.48747408
0000e0 ee 8b 4b bf 84 78 db bf c1 4b 09 bf 09 15 cf 3e
       -0.7951039 -1.7146153 -0.53631216 0.40445736
0000f0 47 ec 2a 3f 0e 3c a3 3d 41 82 e4 bd 44 4b 9d 3f
       0.6676678 0.07970439 -0.111576565 1.2288594
000100 6b 6e e3 be 9b cb 29 3f 04 ab a3 bd 23 80 02 bf
       -0.4442018 0.663263 -0.07991603 -0.5097677
000110 2c 45 e0 3f 2e e7 03 3f 41 5a 82 be 6f 03 b0 bf
       1.752111 0.5152463 -0.25459483 -1.3751048
000120 07 7f 77 3f e7 0e 61 3f 82 f4 8b 3e ec 5e f5 be
       0.96678203 0.87913364 0.27334982 -0.47923982
000130 89 36 73 3e b3 6b 21 3f 19 60 95 bf 28 e7 b2 3f
       0.23751272 0.6305496 -1.1669952 1.3976793
000140 2f f7 97 bf 64 31 60 bf 52 c3 6a 3f 0a c9 d6 be
       -1.187231 -0.87575364 0.91704285 -0.41950256
000150 8c 90 6e bf d8 84 93 3e 69 2d 43 bf 96 8d d6 3f
       -0.9318931 0.2881229 -0.76241165 1.6761959
000160 3b a9 8f bf 07 e7 fe bd be e8 8f 3f 65 b1 e4 bf
       -1.122352 -0.12446409 1.1242902 -1.7866637
000170 91 bf 6c 3f d5 01 0d 3f 4f d6 56 be a9 5a 7d bf
       0.9247981 0.5508092 -0.2098019 -0.9896646
000180 74 e9 d0 3d 42 f7 a2 bf 64 8d 03 3f 1a 25 07 3f
       0.10200778 -1.2731707 0.5138762 0.5279099
000190 8e 0e 2f bf f9 b7 65 3f 4c dc 6b bd 10 cf bd be
       -0.68381584 0.89733845 -0.05758314 -0.3707204
0001a0 c5 de aa bd 14 45 03 bf bb fe d0 bf 15 3c 89 bf
       -0.08343271 -0.5127728 -1.6327738 -1.072146
0001b0 d9 61 8b bf 82 cb bd 3f eb 5c 0d bf 97 79 9b 3f
       -1.0889236 1.4827731 -0.55219907 1.2146481
0001c0 3c 59 8a bf 4e 16 c2 bf fe f8 db 3f 68 21 ce 3f
       -1.0808482 -1.5163057 1.7185361 1.6103945
0001d0 b1 8d 55 3e 56 b8 91 bf 90 d8 88 bf c7 09 3e 3f
       0.20854832 -1.138438 -1.069109 0.7423367
0001e0 73 51 83 bf 35 a8 99 bf c4 56 d5 3f be ba d3 3f
       -1.0259231 -1.2004458 1.6667104 1.6541364
0001f0 ba 3b 92 3f 0b cd 84 3f fe a1 c6 3f ae 95 cf bf
       1.1424477 1.0375074 1.5518186 -1.6217554
000200 33 83 6a bf f9 fc a2 3f 02 dd 33 bf 42 d3 a2 3f
       -0.91606444 1.2733451 -0.70259106 1.2720721
000210 87 f3 ad be 87 32 47 3f f0 5e 98 3f f8 db eb be
       -0.3397486 0.77811474 1.1903973 -0.4606626
000220 69 58 ff 3e 79 9f 9a 3f 6a 0a e1 3f f0 c6 4f bf
       0.4987214 1.2079917 1.7581303 -0.8116293
000230 0e 7f 0b be 2d 47 76 be c3 bc 43 bf 94 f1 27 3f
       -0.13622686 -0.24050589 -0.764599 0.65602994
000240 c2 fa ae 3f 12 9d e3 3e 6d 43 5e bf 42 48 b2 3d
       1.3670275 0.44455773 -0.86821634 0.08705188
000250 ac 89 47 bf 59 f5 ae bf dd e2 87 3e e4 52 85 bf
       -0.77944446 -1.3668624 0.2654027 -1.0415921
000260 50 db 96 3f f0 91 9e bd 80 2d 9d bf 89 5d 01 bd
       1.1785679 -0.07742679 -1.227951 -0.031583343
000270 21 42 ff be 4a 8b 4c bf 0e 95 be 3f 8f 71 b2 3f
       -0.4985514 -0.7990004 1.4889238 1.3940905
000280 0a 23 35 bf 4b 44 af bf 45 a3 21 3f f9 3d d2 3f
       -0.7075659 -1.3692716 0.63139755 1.6425163
000290 d8 48 2e 3f 3c c4 82 3e fb 4d e1 be d1 96 84 3f
       0.680799 0.2554034 -0.44004807 1.0358526
0002a0 ca 00 cf 3f 7d 48 88 bf ac 47 4d be d5 b9 9f 3f
       1.6172116 -1.0647122 -0.20046872 1.2478586
0002b0 10 25 02 bf 79 27 26 3f be 75 cd bf 71 3c 1a 3d
       -0.508378 0.6490398 -1.6051557 0.037655298
0002c0 25 ff ac 3f d4 fd 12 bf cc 9a 27 bf 84 00 69 3f
       1.3515364 -0.5741856 -0.65470576 0.9101641
0002d0 9e e5 d9 3e b4 6a 70 3f fb 1a bb bf 11 da 45 bf
       0.42557997 0.93912816 -1.4617609 -0.7728587
0002e0 63 27 bb 3f 5d c0 98 3f c3 40 4f 3f 0a 9b 0e bf
       1.4621395 1.1933705 0.80958194 -0.5570532
0002f0 82 8e 97 3f 17 43 43 bf 93 9b 28 3c 80 8b a2 be
       1.1840365 -0.76274246 0.010290998 -0.31747055
000300 7a cd db 3f 1b 60 37 3f 96 53 49 bf 38 e3 86 3e
       1.7172081 0.7163102 -0.78643167 0.2634523
000310 84 4a c5 3f 45 bb 69 bf 9a 73 a5 bf 21 fe cc bf
       1.5413365 -0.91301376 -1.2925904 -1.6015054
000320 ba 5e bc 3f 7f ce 68 3f 53 64 bf bf f7 5d 9a 3f
       1.4716408 0.9094009 -1.4952492 1.2059926
000330 da 1d c3 3f 25 c5 a2 3f 84 15 db 3f e8 0a 04 bf
       1.5243485 1.2716414 1.7115941 -0.5157914
000340 8a c9 58 bf 64 fa 01 3d a0 5b d3 3f 62 4e 3c bf
       -0.84682524 0.03173293 1.6512337 -0.735571
000350 3d 2e dd be 44 c7 0c 3f 7c d1 99 be 85 d3 83 3f
       -0.4319934 0.54991555 -0.30042636 1.0298926
000360 08 4a 95 bf 93 6e b5 3e 4e 42 4f bf d1 bb 44 3f
       -1.1663218 0.35435924 -0.8096055 0.76849085
000370 15 e5 61 bf 20 5d b3 3e ae b2 2e 3e 30 c2 31 3e
       -0.88240176 0.35031986 0.17060348 0.17359233
000380 95 49 6f 3f 32 ae d2 3e e7 f7 95 bf dd df 3d be
       0.9347165 0.41148525 -1.1716279 -0.18542428
000390 c3 83 75 3f 3d 65 99 3f 11 14 99 bf 3b e5 d9 be
       0.9590418 1.198402 -1.1959249 -0.425577
0003a0 d9 3a 88 bf e8 17 7d be b3 94 11 bf 73 7b b8 bf
       -1.0642959 -0.24716151 -0.5686752 -1.4412674
0003b0 99 0d d4 bc 8c 59 23 bf 72 ec 84 3f cf 0e 49 3f
       -0.02588539 -0.6380851 1.0384657 0.7853822
0003c0 7c 45 15 3f d9 e4 9a 3f 8b 35 67 3f 3f 5b 4d 3f
       0.5830915 1.2101089 0.90316075 0.80217355
0003d0 07 6a aa be 8c a4 e0 3f bb 9c d9 3f 79 16 f7 be
       -0.33284017 1.7550216 1.7000955 -0.48259333
0003e0 11 20 00 bf fe 92 72 3f fb 1b 11 3f cd 96 54 bf
       -0.5004893 0.9475554 0.5668332 -0.83042604
0003f0 eb 21 ab bf 7e 91 43 3f 16 87 c0 3e 81 a7 d8 bf
       -1.3369726 0.7639388 0.37603062 -1.6926118

encoder.lstm.weight_hh_l1 f4 [128, 32]
000000 a7 c9 60 3f ab 8f 95 bf 35 d9 38 bf 9f c8 8d be
       0.878077 -1.1684469 -0.7220643 -0.27692124
000010 e0 9b e6 3e 1b 09 d2 bf 53 ce b7 bf 21 c8 c4 3f
       0.45040798 -1.6409029 -1.435984 1.5373574
000020 9b 44 8d bd d5 9d a5 be 4e 0a b1 bf b9 76 a7 bf
       -0.06897851 -0.3234698 -1.383127 -1.3083106
000030 0f ac 52 bf 7b 19 58 3f 10 94 34 3e c2 08 00 bf
       -0.8229379 0.8441388 0.17634606 -0.50013363
000040 85 25 84 bf ca f0 67 bf 5d 6b ba bf 00 36 bc bf
       -1.032395 -0.9060179 -1.4564015 -1.470398
000050 d2 53 b0 bf 1e c6 8d 3e 2e 16 f0 be 1b cc a1 be
       -1.377558 0.27690214 -0.46891922 -0.31601033
000060 e7 f6 a7 bf d9 12 25 3f 9a 0b ac 3f 68 09 42 3e
       -1.3122224 0.64481884 1.344104 0.189489
000070 39 76 72 bd f3 a3 a6 bf ae b2 54 bf e7 72 8a bf
       -0.059194777 -1.3018783 -0.83085144 -1.0816315
000080 45 53 a4 3f 01 68 e6 3f 30 0e 0a 3f 03 02 53 bf
       1.2837912 1.800049 0.539279 -0.82424945
000090 bb c5 16 3f c0 65 09 3f e1 76 c0 3e 06 44 a0 3e
       0.5889546 0.53670883 0.37590697 0.31301898
0000a0 e7 f8 c2 bf 27 de 91 3f 26 61 96 be c6 b4 8d 3f
       -1.5232209 1.139592 -0.29370993 1.1070793
0000b0 b6 c7 60 3f cf cc d6 bf 39 4e 95 bf 22 f5 0b 3f
       0.87804735 -1.6781253 -1.1664497 0.5467092
0000c0 57 eb c5 3f 2f 64 bf 3f e9 13 aa 3f fc b6 b0 3e
       1.5462445 1.4952449 1.3287326 0.34514606
0000d0 c4 ea 61 bf 44 46 07 3f bf 7e 53 bf 3c eb 5b 3f
       -0.8824885 0.5284159 -0.82615274 0.85905814
0000e0 fd 0d e0 be e2 a9 de bf c5 cd 24 3f 6b ae 67 3f
       -0.43760672 -1.7395594 0.6437648 0.90500516
0000f0 d9 36 d7 be a7 8f c9 3f ed a3 b9 be 4f ba 9d 3f
       -0.42034033 1.5746964 -0.36257878 1.2322482
000100 81 d6 af 3f 47 8b 6e 3f 86 cf 11 bf d9 28 31 3f
       1.3737336 0.9318127 -0.5695728 0.69202954
000110 59 cc 07 bf d6 65 48 bf 03 a9 20 3f ba 26 3d be
       -0.53046185 -0.7828039 0.6275789 -0.18471804
000120 4b 20 86 be 74 5f e5 be 77 db 35 be ee af 93 3f
       -0.26196513 -0.44799387 -0.177595 1.1538064
000130 d4 7e 22 3e 2d 81 49 be 56 74 cc 3e a7 fc 5d 3f
       0.15868694 -0.19678183 0.39932507 0.8671364
000140 a2 21 f3 be 32 18 02 bf 7e c4 d9 3f a4 95 4c 3f
       -0.47486597 -0.5081817 1.701309 0.79915833
000150 2c 10 24 be 53 6b 45 be 72 20 a5 bf b1 0c 89 bf
       -0.16021794 -0.19279222 -1.2900527 -1.0706998
000160 06 bb b4 bf 8d e6 a3 3f f2 4c f7 be dc 75 5c be
       -1.4119575 1.2804734 -0.48300892 -0.21529335
000170 31 54 ed bf d3 d7 05 bf 3f 88 ce 3f 14 17 c0 3f
       -1.8541318 -0.52282447 1.6135329 1.5007043
000180 76 e2 14 bf e4 c8 75 3e e1 da c9 3f d0 91 2e be
       -0.5815805 0.24002415 1.5769922 -0.1704781
000190 71 75 52 bf 44 92 67 3f 16 ad d9 3f d4 00 64 3f
       -0.8221045 0.9045756 1.7005947 0.89063764
0001a0 df 34 86 3f ce d2 d3 bf bb 2c 7e 3f 3f 57 e6 bf
       1.0484885 -1.6548707 0.99287003 -1.7995375
0001b0 3b 7f 45 3f 58 40 cf bf f6 70 d9 3f 1e 4b 98 bf
       0.77147263 -1.6191511 1.6987598 -1.1897924
0001c0 63 f6 7b 3e d2 46 6e bf ac 79 67 bf cd 11 ba bd
       0.24605708 -0.93076813 -0.9042003 -0.090854265
0001d0 d5 cf 91 3e c6 6a 4e be 10 a6 e3 bf 9d 70 6e bf
       0.28478876 -0.20157918 -1.7785053 -0.93140584
0001e0 75 54 d3 3f 4a bf aa bf d9 29 06 bf 22 50 fe be
       1.6510149 -1.3339627 -0.52407604 -0.4967051
0001f0 22 5b be 3d 89 26 c2 3f e8 25 8b 3f 08 60 11 bf
       0.09294726 1.516801 1.0870943 -0.5678716
000200 ac de c5 bf a9 88 6d bf 53 37 c8 3d fc 1b b6 3e
       -1.5458579 -0.9278665 0.09776177 0.35568225
000210 b8 6d 1f bf 14 0a 99 bf e5 0c ac bf 83 c0 d9 bf
       -0.6227679 -1.1956201 -1.3441435 -1.7011875
000220 c1 79 e8 3e b9 f5 e0 bf 8f b5 8f 3e 96 b7 83 bf
       0.4540539 -1.7574989 0.28068206 -1.0290401
000230 6e f2 d0 be 2f ca 96 bf 30 c3 ee be 7c 8c 83 3e
       -0.4080996 -1.1780452 -0.4663329 0.2569312
000240 5c bc 31 bf fc 09 94 3f 78 52 a4 3f 39 43 18 bf
       -0.6942804 1.1565547 1.2837667 -0.59477574
000250 9c 92 05 bd 13 e4 ce 3f 78 55 e6 bf a5 e1 50 3f
       -0.03261052 1.6163353 -1.7994833 0.81594306
000260 c8 08 88 3e 9a 6a 60 bf 16 97 b3 bf 7d 32 a2 bf
       0.265692 -0.8766266 -1.4030483 -1.2671658
000270 9c d8 82 bf 96 c6 ab bf 99 b4 80 3f 5b ab dc 3f
       -1.0222354 -1.3419979 1.0055114 1.7239794
000280 d9 ab 39 3f bc ed 75 bd 26 47 d1 3f cd 8e dc 3f
       0.72527844 -0.060041174 1.6349838 1.7231079
000290 50 ef 87 bf 8c 16 00 3d 9b 40 8b bf 29 a4 95 bf
       -1.0619907 0.031271502 -1.0879091 -1.1690723
0002a0 7e 6a 30 3e 5b b0 2b 3e a7 19 66 3f 4b fd 89 bf
       0.17228124 0.16766493 0.8988289 -1.0780424
0002b0 0e d3 b7 3f f5 34 cc 3f 5c c6 2f be 74 e0 3a be
       1.4361284 1.5953661 -0.17165512 -0.18249685
0002c0 15 b8 b3 3f 64 5a 5c bf b9 fd cd 3f b0 90 82 3f
       1.4040552 -0.86075425 1.6093055 1.0200405
0002d0 c3 89 5f 3f ca c3 d4 bf ba d8 1f bf 75 58 d2 3f
       0.8731958 -1.662225 -0.62440073 1.6433245
0002e0 85 de 18 3f 47 08 91 bf 5b 4b 9b 3f c4 1e 4c 3f
       0.5971454 -1.1330651 1.2132372 0.79734445
0002f0 28 23 94 3f b0 88 27 3e a8 b8 35 3f b4 a5 03 3f
       1.1573229 0.16360736 0.7098489 0.5142472
000300 9a ec bd 3f 96 eb 96 3f 6a 20 a5 3f 13 2c ac 3f
       1.483783 1.1790645 1.2900517 1.345095
000310 dd dd 3b 3f 53 f2 66 3f bc 0f 23 bf d9 90 8c 3f
       0.7338541 0.9021351 -0.63695884 1.0981704
000320 c7 71 96 bf 9e e3 bf 3f 04 2e 30 bf b5 fd 60 bf
       -1.1753472 1.4991338 -0.68820214 -0.87887126
000330 ad 4f ba 3e b9 d9 ee 3e 16 61 9c 3f 2a 83 b5 3e
       0.36388913 0.46650484 1.2217128 0.35451633
000340 41 47 ce 3e b7 09 81 bf 88 e7 a1 3f 1f 58 f2 be
       0.40288737 -1.008109 1.2648783 -0.47332856
000350 c7 c3 83 bf 82 22 d2 be a6 50 be 3f 53 35 16 be
       -1.0294122 -0.41041952 1.4868362 -0.14668779
000360 b2 88 2f be 7c 92 bb 3d da 31 32 3e d3 74 b3 bf
       -0.17141989 0.09158799 0.1740183 -1.4020027
000370 7b ef af bf 17 c7 eb 3e c9 bd 5c 3f d0 ec c4 3f
       -1.3744959 0.4605033 0.8622709 1.538477
000380 6b 30 ee 3f df d2 76 bf 68 88 95 3f 7a bb 05 bf
       1.8608526 -0.96415514 1.1682253 -0.5223919
000390 09 80 09 3f d4 13 5a bf ce 79 5e bf a0 c5 91 be
       0.5371099 -0.85186505 -0.8690461 -0.28471088
0003a0 c4 d4 ad bd 82 39 2d 3e a1 2b 0c bf 41 55 a4 3f
       -0.084878474 0.16916469 -0.5475407 1.2838517
0003b0 f3 2c a9 bf 77 38 dd bf 6c 9f af bf 7a 42 28 bf
       -1.3216842 -1.7282857 -1.3720527 -0.65726435
0003c0 9a 3f bb bf fc 81 cb bf 39 cf e2 3f f6 61 a6 bf
       -1.4628785 -1.5899043 1.7719489 -1.2998645
0003d0 c3 13 8f be be ae 84 3f 20 42 ee be 92 39 8e be
       -0.27944764 1.0365827 -0.46534824 -0.27778298
0003e0 5d 2b 86 be 82 91 c7 bd d7 ca 20 bf 34 c5 a4 bf
       -0.2620496 -0.0974455 -0.6280951 -1.2872682
0003f0 c3 c7 bc bf 74 82 dd bd 30 a0 de 3f 46 52 af bf
       -1.4748462 -0.108158976 1.7392635 -1.3696983

encoder.lstm.bias_ih_l1 f4 [128]
000000 79 14 5e 3f 31 ad 30 3f 1c 99 a0 3f 82 6a 6b 3e
       0.8674999 0.6901427 1.2546725 0.22989848
000010 2b 32 bd bf e0 f1 b0 3f f5 80 59 3f f5 fe 6c 3f
       -1.4780935 1.3823814 0.849624 0.92576534
000020 85 b2 d3 bf 45 66 84 bf 6e f2 0b bd af d2 41 be
       -1.6538855 -1.034371 -0.034166746 -0.18928026
000030 f0 c6 9e bd 0a d7 2e bf 13 b0 44 bf f4 98 c4 3e
       -0.07752788 -0.68296874 -0.7683117 0.38397944
000040 af 6c 2b bf 2f 44 c3 bf b9 78 b7 bf 2c 47 c2 3e
       -0.66962713 -1.5255183 -1.4333717 0.37944925
000050 fa a9 51 3f 45 54 f0 3e 25 0b d1 bf 7c 17 52 be
       0.8189999 0.46939293 -1.6331526 -0.20516771
000060 ca 3d b7 bf 23 98 a7 3f 97 ed e0 bf ae bd 15 bf
       -1.4315732 1.3093303 -1.7572507 -0.58492553
000070 6e c0 c1 bf 07 72 d9 bf f1 ce a0 bf d3 1e 7a bf
       -1.513685 -1.6987923 -1.2563154 -0.97703284
000080 6e fd 1b bf d9 bd c2 bf 2c d6 a8 3f 20 ef 46 bd
       -0.6093358 -1.5214187 1.319036 -0.04856789
000090 53 74 ce bf a8 3c 09 bc ef d4 02 bf 80 b2 c8 be
       -1.6129249 -0.008376278 -0.5110616 -0.39198685
0000a0 30 64 81 3f 5e f6 5a bf 64 35 47 3f c5 d5 fa 3d
       1.01087 -0.85532176 0.7781584 0.122478046
0000b0 f4 42 48 3e cb 95 8c 3f 7b 39 3d 3e 40 7c c5 3e
       0.1955679 1.0983213 0.18478958 0.38571358
0000c0 f0 3a 11 bf bd e6 2a 3f 1f b2 65 3e 5a 61 81 3e
       -0.56730556 0.6675833 0.22431229 0.25269586
0000d0 b0 07 96 3f 0e 22 7e bf 3a 4b a1 3f 3f 85 86 bf
       1.1721096 -0.99270713 1.2601082 -1.0509413
0000e0 1a 04 5b 3f 37 ff 85 bf 55 04 86 3e 84 1b a7 3e
       0.85553133 -1.046851 0.2617518 0.3263818
0000f0 0b df 6b bf fb 31 86 3b 03 89 9d 3f 36 ee 40 bf
       -0.9213721 0.0040953136 1.2307438 -0.7536348
000100 20 37 b1 3f ef 5a 99 bf 7e 20 61 bf 48 b5 a0 3e
       1.3844948 -1.1980876 -0.87940204 0.31388307
000110 ca 3a c2 3f a0 df d3 3d 9a f1 bf 3f 17 2f 74 b8
       1.5174191 0.103453875 1.4995606 -5.821799e-05
000120 de 5f e3 be d0 4f db bf a6 dd d1 3f 54 71 48 3e
       -0.44409078 -1.7133732 1.6395767 0.19574481
000130 a0 e9 ce 3e 51 2b fd be e3 91 51 bf 2f 06 ad bf
       0.40412617 -0.4944711 -0.8186323 -1.3517512
000140 c2 07 41 bf 96 3a ed be 25 c7 7f 3f 2d 52 7b 3f
       -0.7540246 -0.4633376 0.99913245 0.98172265
000150 e5 ed d7 3f 46 da b8 bf 67 31 4b bf 02 70 67 3f
       1.6869475 -1.4441612 -0.79372257 0.90405285
000160 c7 88 2c bd b1 5c 84 3f 55 9f 3e 3e f7 de 86 3f
       -0.04212263 1.0340787 0.18615468 1.0536793
000170 94 67 8e be e7 df 5f be 07 2e 93 3f c0 dd 9c 3f
       -0.278134 -0.21862756 1.1498421 1.2255173
000180 2f 6e 96 bf f3 99 c5 3f 55 07 4c 3f d1 6d 97 3f
       -1.1752375 1.5437607 0.7969869 1.1830388
000190 46 2c 3a bf b2 be 36 3f b1 0c 80 bf ad fa be bf
       -0.72723806 0.7138473 -1.0003873 -1.492025
0001a0 39 78 53 bf a9 07 99 bf b0 02 a8 3f 57 f3 dd 3f
       -0.8260532 -1.1955463 1.312582 1.7339886
0001b0 e4 e9 9a 3f 89 15 8e bf 2c 76 da bf ae 72 ae bf
       1.2102628 -1.1100322 -1.7067313 -1.3628747
0001c0 21 e3 b3 bf 7c 59 6d 3f 19 0c 2a 3f 35 76 a0 bf
       -1.4053689 0.9271467 0.6642471 -1.2536074
0001d0 9d f5 f0 be 98 c5 bb 3f b0 70 4e bf ce 93 66 bf
       -0.47062388 1.4669676 -0.806407 -0.9006928
0001e0 15 ef af 3e c3 ff 50 bf 41 e4 88 3f df 62 1d 3f
       0.34362093 -0.8164026 1.0694658 0.6147899
0001f0 74 b3 a9 bf 85 d5 99 3f 33 7a 84 bc 50 4b 32 bf
       -1.325789 1.2018286 -0.01617155 -0.6964617

encoder.lstm.bias_hh_l1 f4 [128]
000000 88 e7 19 bf 1d b9 0a 3f 01 b0 9c 3f 01 ad 9f 3e
       -0.60118914 0.5418871 1.2241212 0.3118668
000010 dd 32 c8 bf fc ca d9 3e 07 76 05 3e 49 a9 2f bd
       -1.5640522 0.42537677 0.13033305 -0.042886052
000020 d4 13 48 3f b6 3b 8c 3f ea d7 c4 bf 50 23 97 bf
       0.78155255 1.0955722 -1.5378392 -1.1807652
000030 6c 25 b4 be 87 b7 b3 be 13 fa e5 bf 0e 6d 91 3f
       -0.351848 -0.35100958 -1.7966942 1.1361406
000040 91 4d aa 3f 02 ec ba bf 86 9c 15 bf 81 85 b8 be
       1.3304921 -1.4603274 -0.5844196 -0.36039355
000050 0d e7 46 be f3 9d 89 3e 41 25 3e be 11 76 42 3f
       -0.19424076 0.26878318 -0.18568899 0.75961405
000060 c4 9c 8c bf 72 82 3a bf 1d 11 3b 3d 61 02 70 be
       -1.0985341 -0.72855294 0.045670617 -0.23438407
000070 38 e2 b4 bf 2c 18 ae 3f ed 10 8f 3c 02 36 be 3f
       -1.4131536 1.3601127 0.017464126 1.4860232
000080 67 ef 99 be a9 ae a8 bf 02 70 cc bc b8 d6 8a 3f
       -0.30065462 -1.3178302 -0.024955753 1.0846777
000090 0f 13 10 3f 6f c7 83 3f 89 84 07 3f 9b 9e 50 bf
       0.5627908 1.0295237 0.5293661 -0.8149201
0000a0 61 d5 c6 bf 0a 82 32 3f d4 89 d4 bf 52 df 4e bf
       -1.5533868 0.69729674 -1.6604562 -0.8080951
0000b0 92 8e 20 3e ad 09 a1 bf 14 b9 21 bf 68 3d ac bf
       0.15679386 -1.2581078 -0.6317303 -1.345624
0000c0 86 3f 96 bf 94 ff ab 3f c6 fd a7 bf f5 9c 34 3e
       -1.1738136 1.3437371 -1.312432 0.17638
0000d0 83 8c b1 3f 50 cf b3 3e 5d 4d 5b bf 93 15 81 bf
       1.3871006 0.35119104 -0.8566492 -1.0084709
0000e0 9e f9 db 3f 09 66 cf be 82 6a 9d 3f 93 d6 49 3f
       1.7185552 -0.40507534 1.2298129 0.7884304
0000f0 26 3d 79 3f cd 7c 6d 3f e6 20 99 3f b3 ac dc 3e
       0.9735893 0.92768556 1.1963165 0.4310051
000100 00 a0 b4 bf a4 3a bf 3e f9 ca a5 3f 5b 58 99 bf
       -1.4111328 0.37349427 1.2952567 -1.1980089
000110 02 71 e2 bf 58 b8 c8 bf 03 5b 9b bf e1 c7 a1 3d
       -1.7690737 -1.5681257 -1.213715 0.07899452
000120 4e 51 4f 3e e2 93 b1 bf c7 43 c3 3f e1 b5 da bf
       0.20245859 -1.3873255 1.5255059 -1.7086755
000130 77 2e be 3f 3a b2 a4 3f 92 3c d6 bf e3 f4 d4 3f
       1.485793 1.286689 -1.6737235 1.6637233
000140 4e d1 d3 bd a6 3e 0c be ab a2 92 3e 4f 94 b5 bf
       -0.10342656 -0.13695773 0.2863973 -1.4185885
000150 31 c1 24 3f f0 3f ca bf cb 1d 95 bf 74 c0 d7 bf
       0.64357287 -1.5800762 -1.1649717 -1.6855607
000160 1f 75 89 3f 0f a9 e9 bd 1b 88 84 3f 58 5c 5d be
       1.0738868 -0.114091985 1.0354036 -0.21617258
000170 09 44 2d be a6 18 4e 3e 62 38 56 3e 2e 07 66 3d
       -0.16920485 0.2012659 0.20919946 0.05615919
000180 ad 25 0a 3e 9d 34 ae 3f 68 b8 a3 bf 7a b1 b9 3f
       0.13490935 1.3609806 -1.2790651 1.4507287
000190 62 56 cd bf 99 e6 b0 bf f8 ad 2d 3f ac 46 50 bf
       -1.6041987 -1.3820373 0.6784358 -0.81357837
0001a0 3b 0d ab be 2b 70 ed be 57 e2 63 bf 77 03 45 3f
       -0.33408532 -0.4637464 -0.8901724 0.7695841
0001b0 45 0f c3 bf e3 91 89 3f 6f c3 8a bd d5 8e 3b bf
       -1.5239035 1.0747646 -0.06775557 -0.7326482
0001c0 2e 98 c6 3f 3c 2c ce bf 6d 20 97 be 10 25 7f 3f
       1.5515192 -1.6107249 -0.29516926 0.9966593
0001d0 fa 03 55 3e e1 2e a0 3f 71 d0 d1 bf d9 f8 de bf
       0.20802298 1.2514306 -1.6391736 -1.7419692
0001e0 82 8f ad bf 26 9f 90 be d2 3b 76 bf c8 af a3 be
       -1.355942 -0.2824642 -0.9618503 -0.31970048
0001f0 14 7c 8c 3f b0 79 8e 3f a6 3b d0 bf 84 44 69 bf
       1.0975366 1.1130886 -1.6268203 -0.9112017

encoder.lstm.weight_ih_l2 f4 [128, 32]
000000 6b 0f 9d bf 25 a1 35 bd be 27 9a be 72 3b 90 be
       -1.227033 -0.044343133 -0.30108446 -0.28170353
000010 5b 7f d1 3c 08 5f c0 bf cf 57 35 3f 73 1a 67 bd
       0.025573423 -1.5029001 0.7083711 -0.05642171
000020 fa b9 99 be ea 42 5f 3f 30 02 c4 bf 1d c4 53 3c
       -0.300247 0.8721148 -1.5313168 0.012925175
000030 9a 85 00 bf 45 00 bd bf 4d c6 90 bf a9 69 53 bf
       -0.5020386 -1.4765707 -1.1310517 -0.825831
000040 d1 6a 9e bf 10 71 44 bf ec 36 af bf 42 f2 ae 3f
       -1.2376348 -0.7673502 -1.3688636 1.3667681
000050 69 67 d1 be 61 56 96 3f 7f 9d 55 bf 94 5f 9a 3f
       -0.40899208 1.1745111 -0.83443445 1.2060418
000060 83 69 85 3f 03 d7 0b 3f 98 ae c4 3d 03 18 83 bf
       1.0422825 0.54624957 0.096036136 -1.0241703
000070 f1 8c 19 bf 3d 78 71 be 4b ea b2 be 53 39 b8 be
       -0.59980685 -0.23581024 -0.34944376 -0.35981235
000080 8e 57 33 bd 1d 58 ef be 28 be c4 3f 8b f8 b3 3f
       -0.04378467 -0.46746913 1.5370531 1.4060224
000090 e6 cd 68 bf c8 eb e1 bc 2b 49 d4 3f b5 6e 00 3e
       -0.90939176 -0.02757825 1.6584829 0.12542231
0000a0 1a 1c c7 bf 21 16 9e 3f 3a 67 ae bf 6c 76 d2 3f
       -1.5555451 1.2350503 -1.3625252 1.644239
0000b0 ac 6c f1 be 48 f3 cd bf f4 57 39 bd 28 ec ce 3f
       -0.47153223 -1.6089869 -0.045249894 1.6165819
0000c0 a0 b2 d7 3d 1a 6d 57 3f 86 2f c4 bf 02 a3 51 bf
       0.10532117 0.8415085 -1.5327003 -0.81889355
0000d0 23 ef 4d 3e 83 f2 91 bf 5e 31 cb bf b7 cd 14 bd
       0.20110755 -1.1402134 -1.5874441 -0.036328997
0000e0 83 56 12 3f e4 d2 c8 be 02 9f d4 bf c8 5d 00 bc
       0.57163256 -0.39223397 -1.6611025 -0.007834859
0000f0 85 7d 64 bf 58 87 0c bf c3 f8 d3 bf a1 5b c0 3f
       -0.8925403 -0.5489402 -1.6560291 1.5027963
000100 70 83 5a 3d f0 94 cf bf 88 f1 89 bf 92 9e 09 3f
       0.053348005 -1.6217327 -1.0776834 0.53757584
000110 88 81 83 3f 88 21 6a bf 50 fa da 3f b9 ed 65 3f
       1.0273905 -0.91457415 1.7107639 0.8981586
000120 51 b1 2c bf 9e 7e 97 be 89 d3 fe be aa 66 38 bf
       -0.67458063 -0.2958879 -0.49770764 -0.7203165
000130 84 be e7 3f ff 67 a4 be 50 8c d6 bf 77 d9 47 bf
       1.8105016 -0.32110593 -1.676157 -0.780662
000140 3d 28 8c 3e 14 89 df 3f de 99 f6 3d f4 1d d2 bf
       0.2737445 1.7463708 0.120410666 -1.6415391
000150 fc 15 09 be 4e 8c b5 3d fb 19 c9 bf 6e cd 68 bf
       -0.13387293 0.088646516 -1.5711054 -0.9093846
000160 ff 87 3c 3e 10 5b 85 3f 25 c2 4c bd 48 40 3d 3f
       0.18411253 1.0418415 -0.04998984 0.7392621
000170 66 7c dd 3f 35 21 9a 3f 3e 96 d1 3f 11 92 af 3f
       1.7303588 1.2041384 1.6373975 1.3716451
000180 94 09 ad bf fc 1b ac 3e 49 74 55 3f 4c 0b a8 bf
       -1.3518548 0.336151 0.8338056 -1.3128448
000190 9f 0f 49 3f 45 4e 8c 3e 81 64 e6 3f d8 bb 5d 3e
       0.7853946 0.27403465 1.7999421 0.21653688
0001a0 53 6b cc 3d 31 e6 2a 3f 59 52 b6 3f b1 58 49 3f
       0.09981408 0.66757494 1.424388 0.7865096
0001b0 92 fc d3 bf b6 60 a5 be 5d d8 df 3f 11 ed 1c bf
       -1.6561453 -0.32300347 1.7487904 -0.61299235
0001c0 71 65 c8 bf 9e ee 9a 3e 14 e3 a9 3f 81 41 0b bf
       -1.5655957 0.30260175 1.3272424 -0.54396826
0001d0 7e ef bd 3e 9f f1 e4 bf 9f 03 d8 3e 68 a4 a4 3e
       0.3709678 -1.7886237 0.42190263 0.32156682
0001e0 29 6d b9 be 62 e7 c5 3f 09 ad a6 3e 32 dc 3d 3f
       -0.36216095 1.5461237 0.3255389 0.74164116
0001f0 6d 4c c3 bf 64 f5 f9 3d a5 a4 0c 3e 4a 1f 70 3f
       -1.5257698 0.12205008 0.13734682 0.93797743
000200 93 d3 32 3f 10 7f bb 3f fb 4e 09 3f 10 b3 a5 bf
       0.69854087 1.4648151 0.5363614 -1.294527
000210 a5 59 d1 3f 17 4f b8 3f 12 2b da 3f 49 16 44 3d
       1.6355482 1.4399136 1.7044394 0.047872815
000220 9a c3 8e 3f 0c d4 11 3e bf 7d 92 3f 63 2f 5b bf
       1.1153443 0.14241046 1.1444625 -0.8561918
000230 dd 51 94 3d d2 a2 c4 3f 97 01 e2 3f ba fc de bf
       0.07242177 1.5362189 1.7656735 -1.7420876
000240 b5 e6 39 be 47 34 94 3f 59 05 8d be 4f 4d 7a bf
       -0.18154414 1.1578454 -0.27543142 -0.97774214
000250 c8 6e 59 bf 71 01 d4 bf 37 aa 91 bf fb e8 a2 3f
       -0.84934664 -1.656294 -1.138007 1.272735
000260 56 e5 9f 3f 55 9f bf bf 52 50 a2 bf 78 46 94 be
       1.2491863 -1.4970499 -1.2680762 -0.28960013
000270 aa 85 99 bf a5 51 93 3e c5 28 68 3d c4 9c b9 bf
       -1.1993916 0.28773227 0.056679506 -1.4500966
000280 c4 83 73 3f 77 d8 75 bf 67 45 a5 3f fe 6f 78 3d
       0.95122933 -0.96033424 1.2911805 0.06065368
000290 73 63 63 be d9 05 62 be 4e d0 7d bd d1 2d ce bf
       -0.22205906 -0.22072543 -0.061966233 -1.6107732
0002a0 4b 06 43 3f ed 90 b3 3f b2 3c 98 bf b3 14 91 bf
       0.7618148 1.4028603 -1.1893523 -1.1334442
0002b0 76 b6 a4 be f6 74 c1 bf 66 2c 17 3f c9 c6 8c 3e
       -0.32170457 -1.5113819 0.5905212 0.2749541
0002c0 a8 c4 8a bf af 1b cb bf 00 07 fb be 08 91 86 3f
       -1.0841265 -1.5867823 -0.49028778 1.051301
0002d0 5f 3e 39 3e 1f 32 b5 3f d5 5b b3 3f f7 94 81 bf
       0.18090199 1.4155921 1.40124 -1.0123585
0002e0 5c 81 59 bf 17 ba bb be c6 78 32 be 84 8e 90 3f
       -0.8496301 -0.36665413 -0.17428884 1.1293492
0002f0 aa b4 8a bf 23 eb c1 be e2 71 4b be 55 f6 82 be
       -1.0836384 -0.37874708 -0.19867662 -0.2557856
000300 b0 63 90 bf a0 97 9f 3d f0 17 5c bf 57 d1 9b 3f
       -1.1280422 0.07792592 -0.85974026 1.217326
000310 90 ff bb 3f b0 00 91 bf d0 76 a5 bd fa 0c 84 bf
       1.4687366 -1.1328335 -0.08079302 -1.031646
000320 f3 e6 b3 3f c8 67 b8 3f 65 a8 3b be 90 71 f6 be
       1.4054855 1.4406672 -0.18325956 -0.48133516
000330 fe 76 73 bd d1 f1 a5 3f 45 15 9c bf 5c c2 31 bf
       -0.05943965 1.2964422 -1.2193991 -0.69437194
000340 dd b6 97 bf af 61 24 be 8f c9 b2 bf a3 3c e6 3f
       -1.185268 -0.16052888 -1.3967761 1.7987255
000350 4e b0 e4 be 0f b9 cc 3f 3c bb d1 bf 57 c0 46 be
       -0.4466576 1.5993975 -1.6385264 -0.1940931
000360 b0 bd bd 3f f0 fb 47 bf dd c5 de 3f 55 92 ac bf
       1.4823513 -0.781188 1.7404133 -1.3482157
000370 d1 2f 2f bf 34 c5 8a bf 22 aa f3 bd 14 b5 d5 bf
       -0.6843234 -1.0841432 -0.11897685 -1.6695886
000380 f6 56 c6 bf e3 36 ad 3e 77 37 d6 3f 29 9b 73 3c
       -1.5495288 0.33830938 1.6735677 0.014868536
000390 9c 52 c6 3f 39 09 ca 3f cf b8 9f 3f 28 75 a5 bf
       1.549396 1.5784065 1.2478274 -1.2926378
0003a0 1f 07 9d bf 7d e4 c9 3f 70 3a 50 bf 74 f0 61 bf
       -1.2267798 1.5772854 -0.8133917 -0.8825753
0003b0 8f 35 f3 be f1 42 f5 be 3b 92 c6 3f 61 6b e9 bf
       -0.475018 -0.47902635 1.5513376 -1.8235894
0003c0 ef 02 cc bf 00 5d 8b bf 09 f9 92 bd 90 a3 70 3f
       -1.5938395 -1.0887756 -0.07176406 0.93999577
0003d0 70 39 81 3f 26 08 ac 3e e1 55 0a 3f 4f 40 73 bd
       1.0095654 0.33599967 0.5403729 -0.0593875
0003e0 a6 27 94 3f b6 0c ac 3f 67 94 ab bf 62 36 03 3f
       1.15746 1.3441379 -1.3404664 0.51254857
0003f0 4b a1 53 bf eb 44 c6 3f dc c8 ef be 37 bc 57 bf
       -0.8266799 1.5489782 -0.4683293 -0.8427157
