Stocks/nsde_sigwgan/G.pt (torch, 406389 bytes, 15 tensors)

_conditioner._linear.weight f4 [64, 780]
000000 97 5a e7 38 fa 53 ac bc 26 cd 0b bd 9b c7 93 3c
       0.00011031812 -0.021036137 -0.03413119 0.018039515
000010 a3 40 35 bd 04 8f 2d 3b 71 94 c0 bb 1f 4d ca b9
       -0.044251096 0.002648295 -0.0058770706 -0.00038585902
000020 f8 65 c3 bc 88 f1 68 bc cc f1 25 3c 1f 18 fb bb
       -0.023852333 -0.014217742 0.01012845 -0.0076627876
000030 0e 12 95 3c d4 8b db bb 47 70 a0 3c 5a 0b b9 bc
       0.018197086 -0.0067000184 0.019584788 -0.02258842
000040 67 cf 23 bd bc c5 a9 bc 7b 8a 2a 3d 32 9e 49 bd
       -0.039992716 -0.02072417 0.04163597 -0.049223132
000050 c8 5a 75 3c 44 c2 d2 3a 8a 90 0a 3c 25 4d 02 3d
       0.014975257 0.0016079624 0.008457312 0.031811852
000060 9d b5 c8 3b ce 1d b9 bc 23 b0 52 3b 2a c5 be bc
       0.0061251656 -0.02259722 0.0032148443 -0.023287375
000070 a9 91 ed bc 2b 3a 14 3d 0a 33 a3 3c ec 81 e8 3c
       -0.02900012 0.036188286 0.019921798 0.028382264
000080 ef f2 83 3c a1 57 59 3c c6 96 ce 3c 17 2c f1 3c
       0.01610705 0.013265521 0.025218379 0.029439969
000090 fe fd 3a 3c 51 63 03 b8 0a fa e0 bc ef 21 d9 3c
       0.0114130955 -3.132533e-05 -0.027462978 0.026505439
0000a0 41 fa 90 bc d7 df 91 3c c5 df 5f 3c 44 f3 ad bc
       -0.017697455 0.01780693 0.013664191 -0.021234162
0000b0 f7 03 fd bc 01 09 3a bc 40 59 32 bb 78 b7 1d bb
       -0.03088568 -0.011354686 -0.0027213842 -0.0024065655
0000c0 c4 8c c8 3b b7 0d 4b 3c 7c 7e 8a bc 42 9b 59 ba
       0.006120296 0.012393407 -0.016906016 -0.0008301028
0000d0 6d 5a 6e bb 32 04 f4 3b 00 8e bf bc a6 cf ec 3b
       -0.0036369816 0.007446789 -0.02338314 0.007226902
0000e0 f8 73 d1 3c 23 7b ca bc bb 72 a9 3c e4 a3 06 3d
       0.025567994 -0.02471692 0.02068459 0.032871142
0000f0 24 83 ff 3c f0 b9 0d bd 52 fb 35 3c c8 c3 91 3c
       0.031190462 -0.034601152 0.011107283 0.017793551
000100 56 5b ba 3a 85 cc e3 3b 73 36 1d bc 31 f3 9c bc
       0.0014217894 0.006951871 -0.009595501 -0.019158931
000110 8a 68 d7 3c bc 74 b4 3c 5b f5 28 bd df d4 ca 3c
       0.026294965 0.02202832 -0.041249614 0.024759708
000120 ae 0a 91 bc c8 2c 69 bc 04 47 0c bb ab a2 de bc
       -0.017705288 -0.014231868 -0.0021404633 -0.027177176
000130 b4 83 8f bc 6a 53 9a 3b 98 b4 a5 3c 03 d1 28 bd
       -0.017518856 0.0047096508 0.020227715 -0.041214954
000140 65 a6 8d bc 8f b0 89 3c c7 3f 2b 3c c7 cf c2 bc
       -0.017291257 0.016807823 0.010452217 -0.023780717
000150 77 3f b3 bb 67 8d 07 3c fa c4 d1 3c c6 83 d7 3b
       -0.005470212 0.008273459 0.025606621 0.006576988
000160 1e d2 21 3b af 3b f4 bc eb 4f 15 3d 87 52 20 bd
       0.002469189 -0.029813616 0.03645317 -0.039141204
000170 50 a4 89 bb b2 ec 22 bd 02 97 60 bd ab b9 76 3c
       -0.004200496 -0.03977651 -0.054831512 0.015058915
000180 6f 2c 04 bd 7e bf 82 3d 4d 64 e1 3c 89 88 0f bd
       -0.032268938 0.063841805 0.027513647 -0.03504232
000190 7b e5 07 3c 0b ac 02 3d aa 7c 54 3b 39 ea 4a bd
       0.0082944585 0.031902354 0.0032422938 -0.04953978
0001a0 63 f5 3d 3d e5 f8 52 bc 1e c5 bf 3c 62 1f 0f 3c
       0.046376597 -0.012876724 0.023409422 0.00873551
0001b0 4f cb 3f bc 66 94 ff 3c 49 fe ae 3c 25 e0 f5 3c
       -0.011706187 0.031198692 0.021361487 0.030014107
0001c0 64 a1 76 3c 8f c8 15 3a e3 0d ca 3c 84 4d 03 3d
       0.015053127 0.00057137845 0.024664825 0.032056347
0001d0 39 0e ba bc 61 6b d2 bc 42 11 2d 3d ff f4 20 bc
       -0.02271186 -0.025685968 0.042252786 -0.009824037
0001e0 0f 81 c7 bb e8 08 10 3d d2 90 0a bd 26 10 88 3c
       -0.006088383 0.035164744 -0.033829518 0.016609263
0001f0 a4 fe cf 3c 9e 71 7b bc 65 30 be bc f5 49 e9 3c
       0.025389977 -0.015346913 -0.023216436 0.028477648
000200 99 68 4a bc 05 c9 85 3c 4f 2d ca 3c 9c fc e6 bc
       -0.01235404 0.016331205 0.024679808 -0.028196625
000210 03 07 d4 bb d2 81 dd 3c cd cb 10 bd ff b2 9e 3c
       -0.0064705624 0.027039442 -0.03535061 0.019372461
000220 81 31 ea bc 12 70 24 3c 3c 58 4a 3c 8c 71 fb bc
       -0.028588058 0.010036485 0.012350138 -0.030693792
000230 7d 4a 9e bc 7c 7f 65 bc 72 af ce 3c 69 31 e0 bb
       -0.019322628 -0.014007445 0.025230143 -0.0068418276
000240 2f d5 fa bc be 55 52 bc ee 70 a4 3c 5e 90 d3 3c
       -0.030619232 -0.012837825 0.02007338 0.025825676
000250 72 9e 99 3a 4f c5 22 bb 3f d7 f4 bb 5e f9 13 bd
       0.0011720194 -0.0024836843 -0.0074719484 -0.036126487
000260 9f 4e ff 3a 4a 62 93 3c b2 f9 fa 3c 00 81 ac 3c
       0.0019478387 0.017991204 0.030636642 0.021057606
000270 38 4d 6e bc c8 5a b8 bc 90 6d ac 3b e6 b1 4f bc
       -0.014544778 -0.022504225 0.0052620843 -0.012676692
000280 8f 96 78 3c 5c 0c 68 bc 21 14 f0 bc ac 13 35 3d
       0.015172615 -0.014163103 -0.029306473 0.044208214
000290 98 83 2d 3c 69 43 90 b7 ae cd f4 3c f7 14 a0 3c
       0.010590456 -1.7197528e-05 0.029883232 0.019541247
0002a0 2b 80 6c 3c d8 9c 15 bd 87 ad 9e 3b 68 67 04 3c
       0.0144348545 -0.03652653 0.0048424634 0.008081295
0002b0 d4 5e d6 bb dc 7e b7 bc 05 00 9e bd b2 c6 7d bd
       -0.006542066 -0.022399358 -0.077148475 -0.06195707
0002c0 a0 68 84 3c 63 11 ec 3c c5 91 bd bc 12 83 ea 3a
       0.01616317 0.028816884 -0.023140797 0.0017891845
0002d0 df dc 80 bc 38 3b d1 bc 51 00 c2 3b 41 a7 25 3d
       -0.01573032 -0.025540933 0.005920448 0.04044271
0002e0 98 58 dc bb c6 ad eb 3c d1 09 1a bd 61 30 42 3b
       -0.0067244284 0.028769385 -0.037607018 0.0029630887
0002f0 70 fd 93 3c b3 29 21 bb 22 ce 02 bd 2b 8d 3a 3b
       0.018065184 -0.0024591505 -0.031934865 0.002846549
000300 1b 35 f8 ba 0a 1f ce bc 6b 91 8f ba e9 c0 55 3d
       -0.0018936725 -0.025161285 -0.0010953372 0.052185927
000310 aa 9a c9 bb 68 b8 bc 3c 11 e6 be bc 1e 1e 4d bb
       -0.0061524706 0.02303715 -0.023303064 -0.0031298469
000320 d2 60 07 3d 35 aa bf 3c 36 53 e0 3c 53 62 e3 3c
       0.03305132 0.02339659 0.027383428 0.027756846
000330 c8 80 d2 ba 60 fa 12 3d 76 50 08 bd 09 2a ef bc
       -0.0016060108 0.035883307 -0.03327986 -0.029194849
000340 fe 9c 87 3c 3f 48 aa 38 05 73 19 3c 4d ac f6 3c
       0.016554352 8.1196886e-05 0.009365802 0.030111456
000350 ab 9c eb bc 98 ff e4 bc 09 ef e3 bb 4a 2c 6b bc
       -0.028761229 -0.027953908 -0.0069559854 -0.014353821
000360 fd 3f a0 3c ee fe d3 bc 97 7b 1f bc cf 86 25 3c
       0.019561762 -0.025878396 -0.009734056 0.010102942
000370 04 fd 36 3d 97 50 64 3d d0 e0 6f 3d bf 0a 75 3c
       0.04467489 0.05574092 0.058564007 0.014956175
000380 a2 40 2c 3d 2a 37 65 3d 19 7c c2 3c b9 9a f5 3b
       0.042053826 0.05596081 0.023740815 0.007495251
000390 cf 3e 2c 3c e7 a7 40 3b 95 b0 f0 3c 6d f3 3c 3c
       0.010513022 0.0029396953 0.029381076 0.011532647
0003a0 e9 b6 a7 3c 92 0e 9e bc 1b fc 91 bc a7 d8 a5 bc
       0.02047296 -0.019294057 -0.017820409 -0.02024491
0003b0 fb 1a ac 3a bf 43 33 bd 99 ad e6 3c 20 ac a8 bc
       0.0013130599 -0.04376578 0.02815895 -0.020589888
0003c0 8c 5c fd 3c 44 94 21 bc 37 cd 9f bc 50 87 4b 3c
       0.030927919 -0.009862009 -0.019507034 0.012422398
0003d0 b0 4a d8 bc 64 d1 76 bb 7d 54 27 3d a2 a7 18 3c
       -0.026402801 -0.0037661428 0.04085206 0.0093173105
0003e0 6e b0 98 3d 09 cb 20 3c 3f c8 3a 3c 36 c6 24 3b
       0.07455526 0.009814032 0.011400281 0.0025142557
0003f0 c3 2b 96 bc 92 43 66 3d d1 3c 1e bc 4a 7c 33 3a
       -0.018331414 0.056216784 -0.009658054 0.00068468286

_conditioner._linear.bias f4 [64]
000000 e7 3f 1e 3d 56 34 11 3c 37 12 1f 3c aa 3d 2b bc
       0.03863516 0.0088625755 0.009708933 -0.010451714
000010 5e fc e2 3c a1 73 3d 3d 57 51 ab bc 40 9f 58 3c
       0.027708229 0.04625285 -0.02091281 0.013221562
000020 75 67 88 bb e1 41 29 bd b3 59 cd bc 9d 2a 9d bc
       -0.0041627237 -0.041322593 -0.025067186 -0.019185359
000030 de 92 02 bb ab 29 b4 bc da fb ff bb 7b 78 3c 3d
       -0.0019923965 -0.021992525 -0.0078120055 0.046013337
000040 4a 10 2b bb a1 0e d4 3c 51 6a 29 3b 38 ea 6a 3c
       -0.0026102238 0.025885882 0.0025850723 0.014338069
000050 57 3c f3 ba 60 09 d2 bc 4c 72 0c 3d 4b 26 b8 3c
       -0.0018557411 -0.025639236 0.03428869 0.022479197
000060 46 38 d8 bc fe 3d 18 3d 7f dd 0c 3b e0 fd 34 bc
       -0.02639402 0.037168495 0.0021494327 -0.011046857
000070 13 b0 91 bc 20 b7 a5 3b 2d 5b e2 3c 9f 04 cf bc
       -0.017784154 0.0050572306 0.027631367 -0.025270758
000080 bc b9 dc bc 17 47 ca bb 41 13 17 bd 96 fa b1 3c
       -0.026944034 -0.0061730254 -0.036883596 0.021725934
000090 c1 4b 18 3c 2b 38 8d 3c a9 ee 48 bc 19 f8 50 bc
       0.009295405 0.017238697 -0.012263932 -0.012754464
0000a0 07 b6 b2 3c 58 78 93 ba ac 09 d3 bb 55 b0 9e 3c
       0.021815313 -0.0011251075 -0.006440362 0.019371191
0000b0 9c 98 b8 bc 6b 2d fd bc 2c 73 17 bd 4f ec 31 3c
       -0.022533707 -0.030905446 -0.03697507 0.010859563
0000c0 98 3e c6 3c fb 20 8c 3c 44 d8 c8 3c b7 8d c3 3c
       0.024199769 0.01710557 0.024517186 0.023871286
0000d0 b7 96 d2 bc e0 45 81 3b 21 87 cf 3c 97 62 71 3c
       -0.025706632 0.0039450973 0.02533299 0.014732978
0000e0 79 5b f0 ba ff 6f 1f 3d 92 ff 17 bc e1 2d fb 3b
       -0.0018337808 0.038925167 -0.009277241 0.0076653813
0000f0 58 c1 84 3c eb d7 e7 bc dd 83 12 bd 0d f9 cb bc
       0.016205475 -0.0283012 -0.035770286 -0.02489903

_conditioned._func._drift._model.0.weight f4 [96, 120]
000000 3d c0 d4 3b 09 01 20 bc 81 78 93 3c b0 7b 67 3c
       0.006492643 -0.009765872 0.018001797 0.0141286105
000010 d9 35 a1 bc cc ba 5d 3c fb dd 41 bb a9 56 6c 3b
       -0.019678997 0.013533305 -0.0029581774 0.0036062396
000020 e3 39 4f bc 28 80 97 3c 0e e3 72 bc ec 83 90 bc
       -0.012648079 0.018493727 -0.014824642 -0.01764103
000030 7d f9 53 bc a5 15 e9 3b dc d8 1c bc 47 2a c1 bb
       -0.012937901 0.007113176 -0.009573188 -0.0058949324
000040 17 13 1a bd 56 9f 7a bc 9d ee 0c bc 4c 37 fb bc
       -0.03761586 -0.015296778 -0.008601812 -0.030666016
000050 76 6a 87 3c 2f 66 36 3c 28 09 9a 3c 19 12 5a bc
       0.016530257 0.011132761 0.018803194 -0.013309979
000060 4c 2b c0 39 a4 5b 84 3c fd ea 31 bc f7 a9 3c 3b
       0.00036653352 0.016156979 -0.010859248 0.002878783
000070 8b 78 2c bd 2d 96 0b bd 14 31 44 bb 7a d5 8b bb
       -0.042107146 -0.034078766 -0.002993648 -0.0042673917
000080 c6 b2 eb bc c9 c4 68 3c 65 ed 0b bc 10 d7 49 bc
       -0.02877177 0.0142070735 -0.008540486 -0.012319341
000090 d2 15 a8 3c e3 e6 57 bc 72 c8 e5 bc ec ea e8 3a
       0.020518217 -0.013177606 -0.028049681 0.0017770207
0000a0 bd 28 21 3c ca ad 1e 3c 7a 70 1d 3c 07 97 e8 3a
       0.009836373 0.009684989 0.009609336 0.0017745205
0000b0 99 ed 3f 3c 77 8a 0a bd f7 7e 44 bc de 89 67 bc
       0.011714363 -0.033823457 -0.011993161 -0.014131991
0000c0 35 46 d7 3b 01 80 3e bb c2 ba 15 3b 4c f1 08 bc
       0.0065696486 -0.0029067995 0.0022846912 -0.008358311
0000d0 b7 12 4d 3b 7b 29 df 3b d2 70 8c bc 48 2c 6d bc
       0.0031291672 0.006810365 -0.01714364 -0.0144758895
0000e0 8d 14 48 3c 49 b4 99 bb 13 72 81 bc b2 93 15 bc
       0.012211931 -0.004690681 -0.015801465 -0.009129452
0000f0 d0 1e 05 3c ea 12 61 ba 1c da e2 bb 40 6f cb bb
       0.008125022 -0.0008585887 -0.0069229733 -0.0062083304
000100 c9 ac 67 3b c7 4e 8a bc c5 4f 7f bb cb 7c 2d 3b
       0.003535079 -0.016883267 -0.0038957458 0.0026472087
000110 18 dd 54 3c 54 75 94 3c 27 86 97 3c fb 01 2b 3c
       0.012992166 0.018122353 0.018496586 0.010437484
000120 a7 71 91 3b d1 05 6d 3b f3 c9 63 bc 18 df 03 3c
       0.0044385972 0.0036166797 -0.013903129 0.008048795
000130 3e df 69 3c 89 d5 e0 3b 6c 59 93 3c 0f 67 7a bc
       0.0142744165 0.006861393 0.017986976 -0.01528336
000140 0c 43 d4 3b 38 3b a7 3b 28 c9 97 bc 20 93 c5 ba
       0.006477719 0.005103495 -0.018528536 -0.0015073754
000150 cd b9 5e bc cf db 6b bb fb 73 79 3b 98 f0 5d 3a
       -0.013594103 -0.003598917 0.0038063515 0.0008466332
000160 1b 09 e3 bb 2d 71 ae ba 46 dd 29 3c f1 22 18 bb
       -0.0069285757 -0.0013308875 0.010367697 -0.0023214186
000170 3c b5 0f 3c d7 90 26 bc fe 1b a7 3b 75 3f 9a bc
       0.008771237 -0.010166368 0.0050997725 -0.018829087
000180 39 2a 6a 3c c1 26 b1 3b 58 66 c3 bc 5f b5 00 bc
       0.014292293 0.005406231 -0.023852512 -0.007855742
000190 c0 75 8d bc 7a ed 17 3c b3 d3 14 ba ec f6 51 bb
       -0.017268062 0.009272927 -0.00056772976 -0.0032038046
0001a0 7e 7c 4f 3c 9c 4b 70 bc 48 6c 90 3b 8e f8 89 bb
       0.012663959 -0.014666464 0.0044074394 -0.004210538
0001b0 67 bd 48 3c cb c0 18 3c 70 cf 84 bc ba a8 66 3b
       0.012252188 0.009323309 -0.016212195 0.0035195784
0001c0 e5 a0 a5 3b 8c 93 95 bb 6d 42 2a 3c 9a 05 03 bc
       0.0050545805 -0.004564708 0.010391814 -0.007996941
0001d0 4d 62 74 3c 00 d6 88 3c ea 8f 27 bc de 60 94 3c
       0.014916015 0.016703606 -0.010227183 0.018112596
0001e0 ec b0 99 bc 45 01 89 bc a9 48 0b 3d 62 0c c9 3c
       -0.01876112 -0.016724238 0.03400484 0.024542037
0001f0 a6 50 c6 3b 00 d2 2e 3d e7 ce fc bc e7 f9 a6 bb
       0.0060520945 0.04268074 -0.030860377 -0.0050957086
000200 64 ba bd bc 2e 1e fa 3b 94 d7 0b bc aa 91 b4 bc
       -0.023160167 0.007632992 -0.008535285 -0.022042114
000210 d3 b1 ea 3b 85 e3 2c bc cc 61 14 bc a8 94 ad bc
       0.0071623116 -0.010552292 -0.00905652 -0.021189049
000220 55 50 4f bd e6 c4 8a bc 4c 8c 85 bb 59 70 10 bd
       -0.05061372 -0.016939592 -0.0040755626 -0.035263393
000230 52 71 3c 3c 76 dc 97 bb db b8 de 3c c4 a9 d9 3c
       0.011501627 -0.0046344353 0.027187755 0.026570208
000240 35 7b 60 bc 71 22 de bb 6b fd a7 3c 9b c3 f9 ba
       -0.01370125 -0.006779008 0.020506581 -0.0019055487
000250 8c 6e 49 bd 25 ee b7 bc 7e b6 9d 3c 04 22 3e bd
       -0.04917769 -0.022452423 0.019252058 -0.04641916
000260 44 09 47 3b 17 76 40 3a 31 76 c1 bc 11 e3 dd 3c
       0.0030370513 0.00073418155 -0.023615928 0.027085813
000270 5e e6 36 3c d3 40 cf 3c 22 e1 4e bc 17 81 87 bb
       0.011163322 0.025299465 -0.012626918 -0.0041352618
000280 e7 04 90 3b 8b e4 be bc 0e 31 32 bd ad 4c 8c bc
       0.0043951157 -0.023302337 -0.043503813 -0.017126406
000290 36 f2 a2 3b a7 a6 0b bc f5 ad bb ba 8c 8d 07 ba
       0.0049727215 -0.00852362 -0.0014318811 -0.00051709334
0002a0 27 c3 97 bc 80 5e 8e bc 85 51 40 3a 21 4b 94 bc
       -0.018525673 -0.017379045 0.0007336366 -0.01810223
0002b0 c4 9d a5 3c 67 db 42 3c 0a 03 24 bc 46 41 26 3d
       0.02021683 0.01189313 -0.01001049 0.040589593
0002c0 53 59 4f bc 62 e3 2b 3c 8d a5 70 3c 68 a9 83 bc
       -0.012655574 0.010491224 0.014687908 -0.01607199
0002d0 43 54 1a bc a1 e0 50 bb f9 49 80 bb 32 82 0f bc
       -0.009419504 -0.003187217 -0.003915068 -0.008759068
0002e0 c1 9b 84 bb 21 0f 22 3a 0f d0 fd bb 48 7a 6f 3c
       -0.0040468876 0.0006182064 -0.00774575 0.014616556
0002f0 fb 29 d5 ba ea da 30 bb 6b 5a 22 bc b8 70 0e b9
       -0.0016263122 -0.0026985952 -0.009909253 -0.00013584166
000300 11 28 84 bb 6c 5c 49 3c 8c 35 ed 3b a1 46 2c bc
       -0.0040330966 0.0122901015 0.0072390493 -0.010514886
000310 d9 41 50 3c 5e d0 b9 bb 71 48 d9 bb 5c 14 b9 bc
       0.012711012 -0.0056705913 -0.00663095 -0.022592716
000320 6f 9c 40 bc bd cd be 3c f4 c4 31 bc 93 64 7a ba
       -0.011756047 0.023291463 -0.01085018 -0.000955173
000330 c7 b4 c9 bb f0 05 42 3c 4f 6d 4e bc 84 97 32 3b
       -0.0061555835 0.011842236 -0.012599303 0.0027250955
000340 e9 36 3c bc eb bc e6 3c 01 eb 8c bb 73 54 43 3c
       -0.011487701 0.028166255 -0.0043004756 0.01192199
000350 8a 02 6a bc cb a9 94 3c ef 89 32 3b f7 fc c0 39
       -0.014282832 0.01814737 0.002724286 0.00036809567
000360 45 e0 e4 3b e3 3c 74 3c cd 8a 7d bb b9 87 1d bc
       0.006984743 0.014907095 -0.0038687468 -0.009614878
000370 0c 54 28 bd 17 d0 68 3c 2f f7 62 bc 62 e4 12 3c
       -0.04109578 0.014209769 -0.0138528785 0.0089655835
000380 08 6b ac bb 3f 1b 02 3c f7 6e 91 3b 99 77 2f bb
       -0.0052617826 0.007941066 0.004438277 -0.0026774167
000390 24 7a 63 bc 2b dd 80 3c f1 65 bf bb 4d 0e b2 bc
       -0.013884101 0.015730461 -0.00584101 -0.021735335
0003a0 f0 78 02 3c bf d2 98 bc 58 a8 12 bc 80 07 d2 39
       0.007963404 -0.018655179 -0.008951269 0.0004005991
0003b0 c0 24 0b bc 36 af 09 bc 1e ba 88 39 86 26 37 3b
       -0.008492649 -0.00840359 0.0002607861 0.0027946546
0003c0 39 ef b3 bb 07 2e 92 bc e2 f6 0f 3b be c9 bf 3c
       -0.005491164 -0.017844213 0.0021967222 0.023411628
0003d0 64 39 23 bc 35 77 bf 3c 40 32 02 bc 44 32 61 bc
       -0.009962413 0.023372272 -0.007946551 -0.013744894
0003e0 90 f2 78 ba 7c 1c 3f bc f7 28 b1 bb 7d 1f 92 bc
       -0.0009496594 -0.011664506 -0.0054064947 -0.01783728
0003f0 2e fb 5b bb 1b e7 f6 3b c9 6e 3d 3c dd 33 a6 bc
       -0.0033566463 0.007534874 0.011562058 -0.020288402

_conditioned._func._drift._model.0.bias f4 [96]
000000 7d de 1e bc 93 8f 64 3c 08 0e 35 3c 34 9f 5e 3c
       -0.0096966 0.013950246 0.011050709 0.013587762
000010 be da 3a 3c 14 40 6e 3c db 74 c1 3a 81 a8 03 3c
       0.011404691 0.014541645 0.0014759557 0.00803578
000020 60 c3 0c bc 45 e9 55 bc e7 08 98 3c 67 ad 11 3b
       -0.008591503 -0.013056104 0.018558932 0.00222286
000030 21 ee e4 bb 55 69 7e 3c 15 34 10 bc 4c c3 75 bc
       -0.006986395 0.015528043 -0.00880148 -0.015000176
000040 05 41 fa bb 67 50 58 bc 50 11 f8 bb ab 9f 79 3c
       -0.0076371455 -0.013202763 -0.007570423 0.015235822
000050 e3 a1 73 3c 51 17 53 bc 1f 1f d7 bb 03 5d 01 3c
       0.01487014 -0.012883977 -0.006564989 0.007895711
000060 2c 52 e6 3b 33 57 a0 3c 9d 67 1c bb 67 a0 3b bc
       0.0070288386 0.01957283 -0.002386547 -0.011451817
000070 4e 01 60 bc 3c fb c1 3b 65 bd 1e 3c 5d dc 35 bb
       -0.013672186 0.005919842 0.00968871 -0.0027749755
000080 1d 28 02 bc 02 c5 24 3c 60 e9 f8 ba 0c fb ed 3b
       -0.007944134 0.010056736 -0.001899045 0.007262593
000090 2d 7d 13 bb 7d 5c cc 3b 64 38 2f ba 8b da 56 bc
       -0.002250503 0.0062366114 -0.0006684123 -0.013113628
0000a0 7b 88 4f bc ab 02 22 3c f9 0c 09 bc 00 d2 89 bc
       -0.012666817 0.009888331 -0.008364909 -0.016823769
0000b0 04 84 5f 3b 1c e3 f3 ba ae 26 20 3c b9 18 09 3c
       0.0034105787 -0.0018607113 0.009774847 0.008367711
0000c0 37 37 3c bb a9 b6 df 3b cd fd 3f bc 9e ba f1 bb
       -0.0028719434 0.0068271947 -0.011718226 -0.007376983
0000d0 ae ba 4a 3c 2c 37 44 3c 67 6b 1f 3c 97 8c 85 3b
       0.0123736095 0.011976045 0.009730197 0.0040755975
0000e0 cf 9f 81 3c a2 71 d2 3b ec 3c 0c bc 1a 8c b9 ba
       0.015823273 0.0064222375 -0.008559447 -0.0014156133
0000f0 1d cc a3 bb 53 c7 ee bb 36 6a bd 3b c2 95 14 bc
       -0.0049986974 -0.007286945 0.0057804836 -0.009068908
000100 30 d9 01 3a d2 21 3a bb 58 b3 33 3c 0a 97 da 3b
       0.0004953323 -0.0028401506 0.010968052 0.0066708373
000110 33 f2 03 bc 0f 63 15 bb 2d 1c 49 bc 56 b6 a3 3b
       -0.00805335 -0.002279464 -0.012274784 0.0049961014
000120 3e b2 01 bc 33 18 75 3c 74 ee 63 bb 17 d2 12 bb
       -0.007916031 0.014959383 -0.003477958 -0.0022403055
000130 74 8c e1 bb 85 a2 37 bc 62 ad 84 bc 01 8b 27 3c
       -0.0068831984 -0.011208181 -0.016195957 0.010226012
000140 64 84 78 bc b8 c9 44 bc 09 ee b2 b9 5b 8f 34 bc
       -0.015168283 -0.012010984 -0.00034128156 -0.011020507
000150 94 81 8d 3b 7a 4d 1c 3c 32 ff 6e 3b 3b 3a 1c 3c
       0.0043184254 0.009539956 0.0036468026 0.009535368
000160 b9 f2 47 ba 93 03 8c bc 67 db 6b 3c 6c be 26 ba
       -0.0007627416 -0.017091548 0.014395571 -0.00063607725
000170 94 00 fd bb 8a c9 3b 3c 24 fc 54 bc 6d 69 a6 bb
       -0.007721016 0.011461625 -0.012999568 -0.0050784857

_conditioned._func._drift._model.2.weight f4 [120, 96]
000000 7c 53 01 bd 65 a0 0d bc 02 e4 d4 3a 3d d3 83 bc
       -0.031573758 -0.008644198 0.0016242268 -0.016091937
000010 fb 81 85 3c 75 54 d0 3c f0 d0 e0 3c 02 f3 9d bc
       0.016297331 0.025430897 0.02744338 -0.019280914
000020 49 3b bd 3b 4b 2e e3 bc 06 0b 2e bc d2 0e f7 bb
       0.0057748896 -0.027732035 -0.010622745 -0.0075396085
000030 a6 5b 0c bc 3c e6 9b 3c 53 a0 ce bc e0 1e ee bc
       -0.008566773 0.019030683 -0.025222933 -0.029067457
000040 ae 02 a6 3c 80 94 bc 3c 66 0d 95 3c 8a 54 b1 3c
       0.02026495 0.023020029 0.018194865 0.021646757
000050 4c a3 af 3d ba 71 a3 3c af 23 b4 bc 4c 6f 73 bc
       0.08576068 0.01995169 -0.021989672 -0.014858078
000060 a5 7c 61 3c 72 db c0 bb 45 56 49 3a 22 2c 3e 3c
       0.013762628 -0.005885535 0.00076803967 0.011607202
000070 6d 57 9c bc 9b 38 8c 3c c6 c0 9a 3b 23 04 99 3c
       -0.019084657 0.017116835 0.0047226874 0.01867873
000080 ab f9 75 3c b0 55 65 bb 04 14 b5 3c 9e ef 37 3c
       0.015013139 -0.00349937 0.02210427 0.011226563
000090 91 cf 5d 3b dd 00 7c 3c 99 06 da bc e7 f0 1e bd
       0.0033845643 0.015381065 -0.026614474 -0.03880396
0000a0 9e 2e 5d 3c 76 6e 03 bb 3e e9 9d bc 19 40 16 bd
       0.013499884 -0.0020054854 -0.019276258 -0.036682222
0000b0 a3 40 a8 bc 1e 40 65 3c c7 a8 6e bc 09 ba 8d bc
       -0.020538634 0.0139923375 -0.014566607 -0.017300623
0000c0 a6 4b d8 bc 47 20 11 bc a1 8a 41 bd f9 a3 ba bc
       -0.02640326 -0.008857793 -0.047251347 -0.022783266
0000d0 86 de 5c bc d4 e7 43 3b 82 dc 89 bb c7 02 09 bc
       -0.013480788 0.002989282 -0.004207195 -0.008362479
0000e0 c6 08 a2 bb 1d a6 1b 3c b8 9c b6 bb 28 ee 0d bd
       -0.0049448935 0.009500054 -0.0055728815 -0.03465095
0000f0 36 3b 96 bc 49 74 eb bc 6c 49 b4 bb 2c ff 16 bd
       -0.01833878 -0.028741973 -0.0055019166 -0.036864445
000100 f2 ee c8 ba 84 76 22 bc 77 d2 71 bb f6 7c 9d bc
       -0.001533 -0.009915952 -0.0036899128 -0.019224625
000110 36 d3 57 3d 05 20 a7 bc 8e ee f4 3c 25 dd 3d bc
       0.05269166 -0.02040101 0.029898908 -0.0115883695
000120 57 03 d8 bb 06 5f 2b 3d 38 29 83 bc 5e 46 9c 3b
       -0.006592195 0.04183867 -0.016010866 0.0047691306
000130 c8 93 a2 ba 49 dd 3c bb e0 87 31 3c 8b 48 c8 bb
       -0.0012403661 -0.002881842 0.010835618 -0.0061121634
000140 84 76 dc bb 4f 9f 91 bc 2a dd 8d bb 8a 0f 87 bb
       -0.0067279954 -0.01777616 -0.0043293433 -0.0041217254
000150 d9 f0 c5 bb 9b 1f 8e ba b1 d3 b1 bc df f8 c9 3c
       -0.006040674 -0.0010843159 -0.021707388 0.024654804
000160 88 2d c5 ba b3 59 16 3a 07 36 02 3c db 4a 29 3c
       -0.0015043477 0.0005735412 0.007947451 0.010332788
000170 5a 49 c9 bc d0 61 89 bb 23 17 c3 3c 59 a5 23 bc
       -0.02457111 -0.0041925684 0.023814743 -0.009988152
000180 0a e8 59 bc cf 27 8d bc a5 bc bf 3b 91 2f 8b 39
       -0.013299951 -0.017230896 0.0058513456 0.00026547586
000190 4e 31 c1 bc 86 e5 a4 3c c7 97 51 bc 2c f3 0d bc
       -0.02358308 0.020128977 -0.012792534 -0.008663934
0001a0 4e 9b 16 3c 3d 2b 46 3c ac 03 f1 bb dc 57 83 3c
       0.009192301 0.01209527 -0.007355174 0.016033106
0001b0 f7 6f 96 bc 87 ef 1b 3c 7d 40 83 bc 2a c1 90 bc
       -0.018363936 0.009517557 -0.016021961 -0.017670233
0001c0 6b b1 8e 3b cc b0 88 bc 7c d0 ad bb fa 28 3c 3c
       0.004354646 -0.016685866 -0.0053043943 0.011484379
0001d0 bd ce 18 bb ea a1 06 3c a2 ef 8d bc 62 e2 08 bb
       -0.0023316585 0.008217314 -0.01732618 -0.0020886888
0001e0 a2 e5 7f bc 3f d9 7c bb 80 08 a2 bc 35 b6 44 3b
       -0.015618714 -0.0038581637 -0.019779444 0.003001583
0001f0 94 dc 6c bc ca 3b f1 bb 80 a1 d2 3c 0b 82 80 3c
       -0.014456887 -0.0073618637 0.025711775 0.01568701
000200 00 41 95 bc c8 34 ce bc 99 b0 72 3c 85 3e c7 3b
       -0.018219471 -0.025171652 0.014812612 0.006080451
000210 e5 84 f8 bb 15 09 c7 3b 1e dc 88 3c a7 8b 42 bc
       -0.0075842016 0.0060740807 0.016706523 -0.011874116
000220 80 7b ed 3b 73 0c 4b 3c ac 92 6b 3c 07 4b cd bc
       0.0072473884 0.012393105 0.014378231 -0.02506019
000230 a6 9e 10 bc 4c ab 63 bc 0c 93 c7 bb 36 c3 c7 3a
       -0.008826887 -0.013895821 -0.0060905274 0.0015240673
000240 ac ab 6a 3b 45 f3 52 3c 43 99 a4 bc 98 ea 85 3c
       0.003580789 0.012875383 -0.020092612 0.016347215
000250 5b de 7a 3c 91 16 ff bb de bd fb bb c4 5e 4b bc
       0.015311803 -0.0077846725 -0.007682546 -0.012412731
000260 b1 a4 43 bb 2c 06 b2 3c 69 18 21 3c d6 f9 83 3c
       -0.0029852802 0.021731459 0.00983248 0.016110342
000270 08 52 14 bc a5 2b 8a bc 73 ac 88 bb 27 37 10 3c
       -0.009052761 -0.016866514 -0.004170948 0.008802212
000280 18 39 38 bc 4d 14 1d bc 38 00 7f bc 51 c6 0a 3c
       -0.011244081 -0.00958736 -0.015564017 0.008470134
000290 d5 a1 21 3d a0 49 fb 3b e3 be 8d 3c db 27 79 bb
       0.039460976 0.007668689 0.017302936 -0.003801814
0002a0 15 af 5e bc b1 0b e0 bb d0 b4 d4 3b a9 c0 36 3c
       -0.0135915475 -0.006837331 0.006491281 0.011154332
0002b0 da 96 36 bc c0 e6 54 ba 38 71 b3 3b 55 50 1f 3c
       -0.011144364 -0.00081215426 0.005476143 0.0097237425
0002c0 3d 21 a4 bb 19 df 8c 3c fe 41 da 3a d0 03 67 bc
       -0.005008845 0.017196225 0.0016651747 -0.01410003
0002d0 92 a0 4a bc 1a 82 88 3c ec d8 1b 3a cb 2b 1d 38
       -0.0123673845 0.0166636 0.00059451046 3.7472502e-05
0002e0 f6 a0 7d bc 2c ae a8 3c b0 c7 d4 3c 89 f0 96 bc
       -0.015480271 0.020590864 0.025974125 -0.018425243
0002f0 6d 22 27 bc ab 81 5b bc 24 85 6a b9 d0 67 21 3c
       -0.010201079 -0.0133976145 -0.00022365578 0.009851411
000300 fe 8b bc 3c 52 f4 1d bc 2d 55 31 3c 97 45 9e 3c
       0.023015972 -0.00964077 0.01082353 0.019320292
000310 c0 35 04 3d 27 91 c5 bc 48 4a 5b 3c 4b a2 f8 b9
       0.032277822 -0.024117066 0.013384409 -0.00047423164
000320 0a 54 59 bc d8 f9 6a 3d 50 3c 15 bc 7b d5 07 3c
       -0.013264665 0.057367176 -0.009108618 0.008290644
000330 33 dd a0 3c 99 a0 f5 bc 78 e3 8e 3c 02 a5 28 3c
       0.019636726 -0.029983805 0.01744245 0.010293247
000340 40 d6 03 bd e7 c2 25 bd a2 c7 00 bd 98 95 15 3c
       -0.032186747 -0.040469076 -0.031440385 0.009129904
000350 70 0c 81 bd 25 15 77 3c 0b ae 28 3c 1d 08 03 bc
       -0.063012004 0.015080725 0.010295401 -0.00799754
000360 df cf 48 3c 61 c5 49 3c 58 15 d9 bb 96 ee ac 3c
       0.012256592 0.012315125 -0.006624859 0.02110986
000370 a8 f2 41 3d 59 e6 91 3c ae cf 04 bc 2a 5c e3 bc
       0.047350556 0.017810034 -0.008106155 -0.027753908
000380 18 ac 6e bc 00 1a 00 bd 4f 9d a1 bc 64 7c 40 bc
       -0.014567398 -0.031274796 -0.01972833 -0.011748407
000390 8c 5e ab bc de 76 24 3c 39 fa 9a bb 1d a0 31 bc
       -0.020919107 0.010038106 -0.004729536 -0.010841397
0003a0 98 f3 a7 bc 35 56 1e 3d 8a a9 91 3a 9d d2 16 3d
       -0.020501897 0.038656432 0.0011113149 0.03682195
0003b0 e9 9a cc ba c4 7d 13 bd fb 1f 68 3c 79 8a 99 bc
       -0.0015610132 -0.03600861 0.014167781 -0.018742787
0003c0 46 f7 7f 3c ce 01 4f bc 53 00 4c 3c f8 65 bf 3c
       0.015622919 -0.012634708 0.012451249 0.023364052
0003d0 5f 89 43 bd 03 1e 69 ba ca fd c2 bc bc 93 19 3d
       -0.04773843 -0.0008892717 -0.023802657 0.037494406
0003e0 1b 03 dc 3c 67 98 08 3b 53 0e 2d bc 11 d5 35 3d
       0.02685695 0.0020842792 -0.010562497 0.04439265
0003f0 4f 84 2d 3d f0 7b e2 3c a8 2a fd 3c 80 be ff 3c
       0.042362507 0.027646989 0.03090413 0.031218767

_conditioned._func._drift._model.2.bias f4 [120]
000000 5e a1 7a 3c 20 bc 37 3c 24 d2 07 3c 7f 9d 55 bc
       0.015297262 0.011214286 0.0082898475 -0.013038038
000010 2b 69 9a 3b 09 f3 77 3c cd 04 3b ba 29 ea f1 3a
       0.004712244 0.015133628 -0.0007134199 0.0018456626
000020 73 f2 c2 b9 d4 2a 5d 3c 0d 0d 58 3b 25 26 d8 bb
       -0.00037183202 0.013498981 0.0032966763 -0.006596344
000030 08 9e 8f 3c 84 73 4d bc 21 ed 30 3c 27 6e 80 bc
       0.01753141 -0.012539748 0.010798723 -0.015677525
000040 8d 96 81 bc 4d e1 26 3c 63 07 7a bc 33 16 1c 3a
       -0.015818859 0.010185552 -0.01526055 0.00059542357
000050 46 9f 76 3c 36 6b 2d ba bf af 6c bc b5 1a 76 3a
       0.015052622 -0.0006615402 -0.014446198 0.0009388135
000060 cb 3c 20 bb 64 b0 1c 3c 23 12 3e 3c e0 1a 98 bc
       -0.0024450298 0.009563539 0.011601004 -0.018567502
000070 a3 7e 62 bc bf de 09 3c 7c 06 58 bb c4 5c 86 bc
       -0.013824138 0.008414923 -0.003296285 -0.016401656
000080 a8 d6 80 bb 95 c5 43 3c f5 c0 ef ba b8 c0 8e 3b
       -0.003931839 0.011948963 -0.0018291759 0.00435647
000090 af df cc ba 58 dc 20 bb 69 5a 31 3c 53 d0 94 3c
       -0.0015630628 -0.0024545398 0.010824778 0.018165743
0000a0 7f 91 bf 3b 67 18 83 3c 10 a4 ed 3b 9d 61 30 3c
       0.005846202 0.016002847 0.007252224 0.01076546
0000b0 c6 dd f8 3b 25 9d 1a 3c 15 0e ed 3a d9 c9 60 bc
       0.007594797 0.00943688 0.0018085862 -0.013719999
0000c0 88 ef 79 bc a3 44 91 bc 0c 9d e1 bb 1b a7 01 3c
       -0.015254863 -0.017732924 -0.0068851765 0.007913376
0000d0 97 c1 27 bb fb f0 83 bb bd 50 a8 3b 16 50 d9 3a
       -0.0025597566 -0.00402653 0.005136578 0.0016579654
0000e0 bc fe 6a ba c5 13 8c bb 8b 0f 77 3c dd a2 c5 3b
       -0.000896435 -0.0042748176 0.015079389 0.0060313777
0000f0 f6 e7 33 ba 78 f6 16 b8 c4 eb af bb 59 5b 5f 3b
       -0.0006862873 -3.599233e-05 -0.0053686816 0.0034081547
000100 d5 49 95 ba ca 94 52 bc 06 98 b4 bb fd 5f 3a 3c
       -0.0011389802 -0.012852857 -0.0055112867 0.011375424
000110 c9 63 01 ba aa 7c e1 3b 54 ad 12 3c 84 e1 03 bc
       -0.00049358286 0.006881316 0.008952457 -0.008049373
000120 e5 5b 9a 3c dd 90 3f 3c c1 b3 de 38 85 4f c2 ba
       0.018842647 0.011692253 0.00010619267 -0.0014824724
000130 b2 7c 11 bb 30 2c e9 3b a6 45 85 3b c1 5f 0a bc
       -0.0022199568 0.0071158633 0.0040671406 -0.008445681
000140 8a 0f d4 3b 17 4a 87 bc dc c4 6b bc 5d 3b b9 3c
       0.006471579 -0.016514821 -0.014390197 0.022611314
000150 2c 9a 2e bc 30 45 ba 3a 77 6d 2f 3c cd c9 2a bc
       -0.010656875 0.0014211293 0.010707251 -0.01042409
000160 d1 f1 36 3c bd 19 f8 3b cf 04 26 ba fa 17 0b 3c
       0.011166052 0.0075714276 -0.0006333114 0.008489603
000170 7a b2 bb 39 cc 42 56 3c 3a 24 d1 3b 8c 6b 7f 3c
       0.00035800395 0.013077449 0.0063824924 0.015589606
000180 2f a0 59 bc 31 6c 48 3c d0 b5 7e bb 37 06 5a bb
       -0.01328282 0.012232826 -0.0038865693 -0.0033267864
000190 f8 7d 39 3b 63 48 1a bc 2b 02 45 bc 24 fb ae bb
       0.0028303843 -0.009416672 -0.012024443 -0.005339997
0001a0 82 d8 00 bc d9 4b 2e 3c 36 42 ff bb ed a4 07 3b
       -0.0078641195 0.010638201 -0.0077898754 0.0020697669
0001b0 98 10 07 bc 84 fa 6e bc ed a3 b5 bb 86 0b 86 3b
       -0.008243702 -0.014586095 -0.005543223 0.004090729
0001c0 22 ff 8e bc 1e 6b 8e 3b ee ab 50 bc a7 ba 3f 3c
       -0.017455641 0.0043462655 -0.012736304 0.011702216
0001d0 a4 e7 19 bc d4 0d 92 3b 30 d5 19 3b 01 f1 40 bc
       -0.009393606 0.004457215 0.0023473017 -0.01177621

_conditioned._func._diffusion._model.0.weight f4 [96, 120]
000000 b7 5d 58 bd d6 11 6a bd 3d ec 01 3d f2 8b 9f 3c
       -0.05282375 -0.057145916 0.031719435 0.01947591
000010 95 0c 04 3a 61 6c c1 bc cb 26 7c bc 44 49 3d bc
       0.0005037275 -0.02361125 -0.015390108 -0.011553112
000020 ee bd 48 3c 86 5b 84 bd 98 96 ab bc bb 8b 04 bd
       0.012252314 -0.06462769 -0.020945832 -0.03235982
000030 42 5b 83 bd 03 91 ed 3b 94 36 8c bd c8 56 4b bd
       -0.064138904 0.0072499528 -0.068463475 -0.049643308
000040 a7 9e 35 3c 91 38 46 bb d7 ec d7 3c 60 d0 b3 bc
       0.011085189 -0.0030246119 0.026358051 -0.021949947
000050 eb cf cf bc cf c2 24 bd cc da 61 3b 7b 59 8c 3d
       -0.025367698 -0.040224846 0.0034462688 0.068530045
000060 08 cd a4 bd 4b bf c1 bb cb cd da 3c 63 f2 d3 bc
       -0.08046919 -0.0059126965 0.026709458 -0.025872415
000070 4c 8d af bd 42 22 1b 3c 72 b1 ed 39 8e 75 4d 3d
       -0.08571872 0.009468617 0.0004533637 0.050160937
000080 ad 2e a4 bc f8 eb 0b bd 6a 6c 62 bd fa a6 62 bc
       -0.020041788 -0.034160584 -0.055279173 -0.013833756
000090 53 48 26 3c 76 7c 67 3d 8b a1 30 bd f3 d8 91 bc
       0.010149079 0.05651518 -0.04312281 -0.017803645
0000a0 36 d9 de 3c 71 02 f1 bc 30 e7 c4 3b d8 ea 88 bd
       0.027203184 -0.02942011 0.006009005 -0.06685418
0000b0 d7 78 92 bb 11 8d 86 3c de 4b d0 3a ea 10 7d 3b
       -0.0044699716 0.016424688 0.0015891751 0.0038614818
0000c0 5f fb 5d 3d dd dd 8b 3c 8f 75 fe 3b fb 67 8b bd
       0.054194804 0.017073566 0.007765479 -0.06806942
0000d0 b2 48 4f 3d db 4e 6b 3d ba 6d d1 3d 5c 92 72 bc
       0.050606437 0.05744825 0.10226007 -0.014805403
0000e0 08 d5 96 bd 15 32 64 3d 8d 6d a1 bd 42 7d 09 be
       -0.07364851 0.055711824 -0.07882223 -0.13426688
0000f0 64 ba 99 bd 5c c8 f3 bb 91 67 07 be a6 a6 5e bd
       -0.07506254 -0.007439656 -0.13223101 -0.054358147
000100 7f 21 6a 3d db 99 76 3d 87 16 9d 3d 6a b3 93 bd
       0.05716085 0.06020532 0.076703124 -0.07211955
000110 39 32 13 be b2 fc b2 bd e4 c6 d6 bd 73 34 ad 3c
       -0.14374627 -0.08739604 -0.10487154 0.021143174
000120 2c b2 f5 bc 1b 13 64 ba 53 5b b7 bc d4 dc 79 be
       -0.029992186 -0.00087003567 -0.022382414 -0.24400645
000130 fc ac bd 3c e9 77 19 3e de b6 31 bd 3a 4e 0f 3d
       0.023153774 0.14987148 -0.043387286 0.034986712
000140 b1 a2 f0 bd 46 10 18 3d dc 59 4e bd af be c2 bd
       -0.11749781 0.037124895 -0.050378665 -0.09509026
000150 d7 1b 5f bc 7e 47 11 bd 0e c3 08 be 0d 17 12 bd
       -0.013617477 -0.03546857 -0.13355657 -0.035666514
000160 8c 84 c7 3c 9c 38 95 3d 98 e9 00 3d 02 6a ec 3b
       0.024355195 0.07286188 0.031472772 0.0072147856
000170 5f fa d6 3c 06 74 0e 3e 65 2e 40 bd 76 bb da 3c
       0.026242433 0.13911447 -0.046919245 0.026700716
000180 0f c5 99 bc 5c 5c ad bd 47 5f 0e ba 27 91 23 bd
       -0.018770723 -0.08464882 -0.00054310675 -0.03993335
000190 fe d4 db bc 13 20 f9 bc 3a e7 cd 3d f9 78 bf bd
       -0.026834961 -0.030410802 0.100538686 -0.093492456
0001a0 ac 02 7c bd c6 0e 99 bc 5e 0b e0 3c 8a e0 78 bd
       -0.061525986 -0.018683802 0.02734917 -0.060761012
0001b0 34 c8 ac bc 1c d8 07 bd e0 3f 88 bc aa fe c3 bd
       -0.021091558 -0.033165082 -0.01663202 -0.09570058
0001c0 ac b8 7c 3c ac 65 bd 3c a9 55 9b 3d a9 87 47 bd
       0.015424889 0.02311977 0.07584698 -0.04871336
0001d0 11 a3 5f 3d da 39 86 bd 2d c3 42 3d 37 07 bb 3a
       0.05459887 -0.06554003 0.047549415 0.0014269118
0001e0 1d 3e 79 bb 0a 24 5b bb 11 93 00 3d 97 86 72 bd
       -0.0038031407 -0.003343823 0.031390253 -0.059210386
0001f0 27 38 86 3d 45 e3 7d 3c 0d 70 4c 3d 52 69 e1 bc
       0.06553679 0.01549608 0.049911547 -0.027516041
000200 bc be 0b bc bf 0b e1 3c ab 08 ab bc 76 85 5b 3c
       -0.008529361 0.027471421 -0.020878157 0.013398519
000210 43 7d d5 3c 1b d8 7a ba 8f cd 49 3d c6 f9 7c bb
       0.026060706 -0.00095689454 0.0492683 -0.0038601025
000220 0b 66 1e bc 57 34 38 bc ac 3f de bc f7 0a 73 bd
       -0.009667884 -0.011242948 -0.02712997 -0.05933663
000230 36 0a 4b 3c 25 30 ec bb fb a4 81 ba 21 8a 7f bc
       0.012392571 -0.0072078877 -0.0009891087 -0.015596897
000240 80 ff 2f bb 04 2c c6 3c b3 db 71 3c 3a b1 63 bc
       -0.002685517 0.02419091 0.014761853 -0.013897235
000250 b5 20 0a 3e df bf 1b 3d 95 6f 15 bc 41 7b fb 3c
       0.13489039 0.03802478 -0.0091208415 0.03069842
000260 f2 75 1f bc 83 91 3c 3d d7 54 39 3c 26 df 29 bd
       -0.00973271 0.04603721 0.011311731 -0.041472577
000270 19 21 bd bc 6a 21 fc bc 5c f4 b7 ba f1 d9 a4 3d
       -0.023087071 -0.030777652 -0.0014034617 0.080493815
000280 1a 29 20 bc 92 5e 2d 3d ef db 52 3d 99 b0 4e 3d
       -0.009775424 0.042326517 0.051479276 0.050461385
000290 3e 19 18 3d 4e c7 91 bc 42 8f 82 bc 32 94 f5 3c
       0.037133448 -0.017795231 -0.015937451 0.029977892
0002a0 b6 3a c1 bb 41 21 0c 3d fb ba 2c bd 6e 60 7a 3c
       -0.0058968915 0.0342114 -0.042170506 0.01528178
0002b0 63 20 9f bc 03 29 6a 3b ac 7a a9 bd 2a 41 74 3d
       -0.019424623 0.0035730011 -0.08275351 0.059632458
0002c0 31 b2 5d 3d aa 12 4d bc ee e1 d6 3c d0 8b 3b bd
       0.054125015 -0.012516657 0.026230779 -0.045787632
0002d0 f0 fc 0b 3d 3c 61 3b 3c 2a 1a 6c ba 54 c3 ac 3d
       0.034176767 0.011436757 -0.00090065843 0.084356934
0002e0 4d f0 2b bc b9 f1 16 3d a5 da a5 3d f4 55 e7 bb
       -0.010494304 0.03685162 0.08098344 -0.007059807
0002f0 3a ba 8c bd 01 3d dd 3c 78 2b 7d bc 71 96 61 3b
       -0.068714574 0.027006628 -0.015452258 0.0034421945
000300 5f 8d bc 3b 0c 24 a1 3c 02 da 45 3d f6 86 3b bd
       0.0057541574 0.019670509 0.04830361 -0.045783006
000310 ee ab 9f 3a c1 f8 cb 3c 22 f4 05 ba 63 01 5f 3d
       0.0012181976 0.024898889 -0.0005109926 0.05444468
000320 50 ee 05 3d 29 8a 48 bb 41 c1 0d bd 56 ab 6b 3b
       0.032697976 -0.0030599928 -0.03460813 0.0035960278
000330 b8 ba 36 3c df 67 2b 3b 46 ba 8d bc 40 a2 86 bd
       0.011152916 0.0026154441 -0.017300736 -0.065739155
000340 49 3e be 3c 8f ed 06 bd a4 2f 05 3d f9 80 3e 3d
       0.02322306 -0.032941397 0.032516137 0.046509717
000350 cd a3 3c 3c 0d e2 29 bd 3d 73 8f 3c cc b6 65 3d
       0.0115136625 -0.041475344 0.017511005 0.05608253
000360 08 72 4c 3c 3f f9 00 bd 48 9a b7 bc 68 a9 e3 bc
       0.012478359 -0.0314877 -0.022412434 -0.02779074
000370 7c 62 d3 3d 71 8a 46 bc 4e 73 d9 bb 5f 64 d2 3c
       0.10321519 -0.012117968 -0.00663606 0.025682626
000380 48 7d 63 bd 4c 2c 3c 3c f0 16 86 bc 8a 32 12 bd
       -0.0555394 0.011485171 -0.01636836 -0.03569273
000390 c4 3d 2b bd 1d 00 2e 3c 32 14 7a bc 74 ef 23 bc
       -0.04180695 0.010620144 -0.015263604 -0.010005821
0003a0 98 ac 58 bd 7b 0a 83 bc e3 ba 53 bd 12 f5 d9 bb
       -0.052898973 -0.015996208 -0.0516919 -0.006651529
0003b0 8b 7b aa 3b 47 b4 89 bc 13 31 fd 3b 16 f1 39 3c
       0.0052027158 -0.016809596 0.0077267974 0.011348983
0003c0 4e 38 78 3b e3 9c 2c 3d 82 d4 dc 39 d7 33 25 bc
       0.0037875357 0.042141806 0.0004212 -0.01008316
0003d0 40 5c 18 bd 5f 16 61 3b 72 31 c0 bc 9f 90 e1 3c
       -0.03719735 0.003434561 -0.023461077 0.027534781
0003e0 2c 20 ce 3c 42 4a 82 3c d1 cd c5 bc 27 1e d7 3c
       0.025161825 0.01590455 -0.024145992 0.026259495
0003f0 6e 4c bf bb e8 33 a0 bb c8 78 96 3b 94 80 95 bd
       -0.0058379686 -0.004889 0.004592035 -0.07299915

_conditioned._func._diffusion._model.0.bias f4 [96]
000000 91 59 88 bd ac 5c ec bc ea 6b a4 bc bc 3c 5c bd
       -0.066577084 -0.028852783 -0.020070989 -0.05376886
000010 43 5a f7 3b c4 c1 26 3c 56 dd a0 bd c7 e3 59 bc
       0.007548602 0.010178033 -0.078547165 -0.013298935
000020 20 ec 2c bc 4d fa a0 bb a9 35 61 3d 55 e4 4a bc
       -0.010554343 -0.0049126507 0.054982815 -0.01238354
000030 46 6b de 3c 66 3f 17 ba e7 69 23 bd a2 bc 0c 3d
       0.027150761 -0.000576964 -0.03989592 0.03435958
000040 91 7d 84 3c cd f6 8d bd 2c 7d 23 bd dc ee fc bb
       0.016173156 -0.06931839 -0.039914295 -0.007718904
000050 36 9f 9c bc 3e ee 1a 3c 90 3d 63 bc ee 0d e1 3c
       -0.019118886 0.009456215 -0.013869658 0.027472463
000060 31 62 5d bc c0 51 d1 3b 6b 56 72 bd fa d6 56 bc
       -0.01351218 0.006387919 -0.059164446 -0.013112778
000070 4b 72 1b 3d 3a 21 34 3d 89 a4 c2 bc 8c e4 0f bd
       0.037950795 0.043977 -0.023760097 -0.03513007
000080 db b6 7f bc 17 4f f7 3a 9e 39 2b 3c 9a 4e d8 3c
       -0.015607561 0.0018868175 0.010450749 0.026404668
000090 c3 08 66 3c 61 9a b1 3c 03 37 67 bb 00 1d 45 bc
       0.014040175 0.021680059 -0.0035280592 -0.01203084
0000a0 66 3a 10 bd 58 96 91 ba 53 ba e2 3c f2 0b ab 3c
       -0.035211943 -0.0011107428 0.027676737 0.02087972
0000b0 23 f0 1f bb ed 8d 6a 3b 6e 46 2b 3d 0a 4a ce bc
       -0.0024404607 0.003579016 0.041815214 -0.025181789
0000c0 03 ce 4b b9 7e f9 a6 3c 66 98 08 3d 66 f1 00 3d
       -0.00019436334 0.020382639 0.033348463 0.031480215
0000d0 10 79 08 bd cc bf 8d bc cc 4d 10 bd 7a 76 4a bc
       -0.03331858 -0.01730337 -0.035230443 -0.012357349
0000e0 83 e5 32 bc c7 ad e8 bc 4e fc 9f 3c d2 4c 4a 3d
       -0.010918978 -0.028403176 0.019529488 0.049389668
0000f0 ec 20 9b 3b 91 e5 e6 bb 7b 00 38 3d de 80 13 bd
       0.004734149 -0.0070464094 0.044922333 -0.03601157
000100 82 31 a7 3b 15 d7 05 bc 5f 1a 35 bd e4 e4 1d bd
       0.0051023373 -0.008168955 -0.044214603 -0.038548365
000110 45 d4 a9 bc 95 4b c6 3a f4 a0 1f 3d 99 57 9d 3c
       -0.0207311 0.0015128726 0.038971856 0.019206809
000120 f4 30 f1 3b 76 2a 48 bd 01 30 18 bc 0c cd 1d ba
       0.007360572 -0.04886862 -0.009288789 -0.0006019629
000130 47 6c 86 bd 2c f6 2f 3c 67 3a 76 3c 04 b1 99 3c
       -0.06563621 0.010739844 0.015028573 0.018761165
000140 64 c9 95 bc ff 26 aa bc 0e da 0b 3d 17 fe 6f 3c
       -0.018284507 -0.020770548 0.0341435 0.014647982
000150 b0 71 b3 3c f7 fe 89 bd 9d df 0a 3c a6 46 ab 3c
       0.021904796 -0.06738084 0.008476165 0.020907711
000160 0b ce 72 bb df a2 0a bc 29 b5 94 bd 17 73 13 bd
       -0.003704908 -0.008461683 -0.07261116 -0.03599843
000170 01 4e 49 3b 33 01 ab 3c e5 de bd 3c fe 79 82 bd
       0.003071666 0.020874595 0.023177573 -0.063709244

_conditioned._func._diffusion._model.2.weight f4 [120, 96]
000000 e7 5a a1 3c 37 e8 b5 bc 49 64 07 3d c1 90 3b bc
       0.019696666 -0.022205455 0.033054624 -0.011448086
000010 98 6c 01 3c 5b 95 8f 3c ae de 8d 3d 62 d0 b5 bc
       0.007899426 0.017527273 0.069272384 -0.022194091
000020 a3 b9 ff 3c 0c 4f c5 bc 21 a2 6b 3d f4 63 34 3d
       0.031216448 -0.024085544 0.057527665 0.044040635
000030 fb ff 2b 3d 0e bf db 3d 0b 17 6b bd 2c 31 04 bc
       0.04199217 0.107298 -0.057395022 -0.008068364
000040 53 4e 38 bd 4b 6b 42 bc 1b 3b e2 3c aa ce 9d bd
       -0.04499657 -0.011866401 0.027616074 -0.07705434
000050 cd ea 2d bd b0 38 b1 bd 2f 5e 72 bd 00 06 d7 bc
       -0.04246025 -0.086533904 -0.05917185 -0.026247978
000060 0c 0e 1c 3d c0 91 86 bc b9 78 8b bd d5 9f d7 bd
       0.038099334 -0.01642692 -0.068101354 -0.105285324
000070 2b 91 28 3d 1c ba cd 3c f0 e9 60 3b fe c6 22 bd
       0.041154068 0.025113158 0.0034319125 -0.039740555
000080 62 af ba 3c 09 8a 39 bd d2 21 b5 3c a0 2e 9e bc
       0.022788707 -0.045297656 0.022110853 -0.019309342
000090 24 cf 47 3d c7 1f 6a 3d c2 98 c8 3c 89 61 8c bd
       0.04878153 0.05715921 0.024486903 -0.06854541
0000a0 10 35 5c bd aa 65 54 3d 13 6d 08 bd 2a 36 c0 3a
       -0.05376154 0.051854767 -0.033307146 0.001466458
0000b0 07 7d 6f bc 83 b9 1d bd e4 3a 82 3d 4d c1 e8 3b
       -0.014617211 -0.038506996 0.06358889 0.0071031214
0000c0 7f 3f ae bd 23 17 1a 3d 5c a1 17 3c 62 72 03 3d
       -0.08508205 0.03761972 0.00925478 0.032091506
0000d0 12 d9 a1 bd 1a 0f a6 bd 8c 8f 8e bc a3 e1 b3 3b
       -0.07902731 -0.08108349 -0.017402433 0.0054895445
0000e0 09 6a b5 bd 9d d8 97 bd 9e a5 e1 bc 37 f4 97 3c
       -0.08858115 -0.074143626 -0.027544793 0.018549068
0000f0 2b 7a af bc e6 d4 dd bc 4f 04 e2 3b 24 41 e7 bc
       -0.021420559 -0.027079057 0.0068974863 -0.028229304
000100 1e 15 f9 3c 13 4a d0 3c 09 c9 97 bc 2c ba 82 3c
       0.030405577 0.025425946 -0.018528478 0.015957914
000110 cc 63 bb 3d 53 db d5 bb e1 e8 0f 3d ed 4e 32 3d
       0.09149894 -0.0065263896 0.0351342 0.0435323
000120 34 a6 3a 3d 8b 44 d7 3b ce 75 4b 3c a4 72 27 3d
       0.04556866 0.0065694503 0.012418224 0.040880814
000130 89 47 ae bd 97 d1 08 bd bb 23 3b bd ac fc 3b bc
       -0.08509738 -0.033403005 -0.045688372 -0.011473816
000140 68 81 62 bd df 4f e4 bc 49 d6 6a bd 98 f8 77 bd
       -0.055299193 -0.027870117 -0.057333264 -0.06053981
000150 b7 de 17 bc b8 ce f0 bc 05 6c 01 be 03 96 b9 bc
       -0.009269408 -0.029395446 -0.12638862 -0.022654539
000160 4c 18 8f 3c 0d 42 82 bd b0 ce 88 3c b5 d0 fc bc
       0.01746764 -0.063602544 0.016700119 -0.030861238
000170 de 9d 9e 3c 17 a7 59 bb 52 b5 d3 3c b7 90 38 3d
       0.019362386 -0.0033211166 0.025843296 0.045059886
000180 fb 0f 2b bc d5 3f 1b 3b 39 48 ef 3b e9 ed 67 3c
       -0.010440822 0.002368917 0.007302311 0.014155843
000190 d4 2a 37 3b c4 10 72 bc 21 03 91 bc 42 5a da bc
       0.0027949112 -0.014774505 -0.017701687 -0.026654366
0001a0 97 27 4b 3c 4a 04 de 3c 1e dc 37 bc ea f3 89 bc
       0.012399576 0.027101655 -0.011221914 -0.01683994
0001b0 82 5b 80 bc b9 e9 d9 3b d0 bb 24 bd d1 16 0f bd
       -0.015668634 0.0066501764 -0.040218174 -0.03493387
0001c0 2e a3 36 bc c4 f5 45 3c 64 c7 84 bb bf a3 65 ba
       -0.0111473035 0.012082521 -0.0040520895 -0.0008760057
0001d0 f1 c4 e7 3c b5 dd d8 3b 83 30 84 3c 0a 1c 7f bc
       0.028292151 0.0066182264 0.016136413 -0.01557065
0001e0 3d ce 04 3d 2e 84 ad 3a 8c 3a e1 3c 15 db 3b bd
       0.032423247 0.0013238245 0.027493738 -0.04586323
0001f0 92 a5 e7 3c 4d 32 ff bc 98 0b 5e b9 bd 6d 15 3c
       0.028277192 -0.031151915 -0.00021175889 0.009120402
000200 7e 17 58 3c 72 51 04 bb ed 40 1d bd 6a 8f ea bc
       0.013189195 -0.0020190147 -0.038391996 -0.028632838
000210 0b 92 81 ba 47 b4 01 3b ac e0 10 bc 0b 17 6d bc
       -0.0009885443 0.0019791292 -0.008842628 -0.014470826
000220 c9 e1 4d 3d 16 0e 77 3c 41 82 03 bc 67 90 a0 bc
       0.050264154 0.015079042 -0.00802666 -0.019600106
000230 26 2a e2 bb a7 91 1b 3d 9b b9 79 ba 1d 8a 23 bc
       -0.006901997 0.0379807 -0.00095262536 -0.009981659
000240 c0 c3 df bb 8e 4e 35 bc 3f 53 af bc de a4 a6 bc
       -0.006828755 -0.011066092 -0.021402 -0.020342287
000250 8d 2f 2b bc 64 57 0e 3b a7 d9 bf 3c 62 bb 0d 3b
       -0.010448349 0.002171957 0.023419214 0.0021626581
000260 22 2c 21 bc 95 da 38 3b 59 cf 04 bc e7 da 34 39
       -0.009837182 0.0028206457 -0.008106076 0.00017247685
000270 e4 ec 5a 3b df eb 37 3c 61 56 51 bc 4d f4 46 bc
       0.0033405358 0.01122567 -0.012776942 -0.012143207
000280 cc c6 db 3c 8e e8 28 bc 89 6a e3 bb 2b 19 91 bc
       0.026828192 -0.010309352 -0.00694019 -0.017712196
000290 39 74 dd 3b c6 4c fe bb 1d 09 45 3c fa 28 78 3c
       0.0067582396 -0.007760617 0.012026099 0.015146488
0002a0 84 2c 11 3c 15 41 c6 3b e8 24 98 bc 67 85 ef bb
       0.008860711 0.006050239 -0.018572286 -0.007309604
0002b0 33 c5 80 3c f3 f7 8d bc f9 c3 37 3b 6a 4a 99 bb
       0.015719032 -0.017330145 0.0028040393 -0.0046780603
0002c0 34 29 06 bc c8 42 fc 3c f9 34 e9 3c 09 e9 bb bc
       -0.0081885345 0.030793563 0.028467642 -0.022938268
0002d0 04 b2 07 bc 7c ab 49 bc df 73 b8 3b c4 24 8b bb
       -0.008282188 -0.0123089515 0.0056290473 -0.004246326
0002e0 73 3d ad b9 1d f4 27 3c 0e 98 ed bc 39 02 a8 bb
       -0.00033042915 0.010251072 -0.02900317 -0.005127218
0002f0 26 98 70 3c bb f6 92 bc d2 f4 5a 3b 28 6f ee 3b
       0.0146847125 -0.017939916 0.0033410084 0.0072764345
000300 3c ee a7 bb b0 eb cf bb c7 39 cf 3c 82 21 6c 3c
       -0.0051248353 -0.006345235 0.025296105 0.014412286
000310 98 c2 81 3c cb 26 8c 3c 66 7d e4 bb 24 2c a6 bb
       0.01583986 0.017108342 -0.0069729565 -0.00507118
000320 ee a7 f3 bb dd d1 03 bd 68 75 b1 3c 8e cd 14 3c
       -0.0074357903 -0.032182563 0.021662429 0.009082211
000330 92 8e 0e 3c 9f 18 5a 3c b7 cc 95 3b 7c 50 88 bc
       0.008700984 0.013311534 0.004571523 -0.01663994
000340 b6 58 22 3b 30 6f 2b 3c 68 f5 b5 3b 37 0f be bc
       0.0024772114 0.010463521 0.0055529363 -0.023200614
000350 21 2c f9 bb 15 6f da bc 52 ab 73 bc d1 8f 94 bc
       -0.0076041375 -0.026664296 -0.014872389 -0.018134983
000360 ef 99 d5 3c f0 57 f9 3b cc 65 48 3c 11 5c c6 bb
       0.026074378 0.00760936 0.0122313015 -0.0060534556
000370 54 9b bf 3b bc 6a 08 3c b0 a6 8f bc 35 ca b1 bc
       0.005847374 0.008326229 -0.017535537 -0.021702865
000380 09 2b 53 3a 72 37 58 ba 6d 52 d9 bc 47 e2 67 bb
       0.0008055424 -0.0008248008 -0.026528561 -0.0035382675
000390 d6 96 92 bc 0f 9d b0 bc 72 96 fc 3c 8c ca 6f 3c
       -0.01789419 -0.021559266 0.030833457 0.014635693
0003a0 3e 1e c0 bc d5 45 88 3c 51 be bd 3c 1c ab 94 3c
       -0.02345192 0.016634861 0.023162039 0.018147998
0003b0 05 4c 99 bb c4 f8 8f bc 4d 7f 23 bc 9e 45 d9 bb
       -0.0046782517 -0.017574675 -0.009979081 -0.0066306135
0003c0 2f de c3 bc 08 99 8d bc dd 1d 8c 3b 7d 20 9f 3c
       -0.023909656 -0.017284885 0.004276021 0.019424671
0003d0 12 56 55 bb 67 80 a0 3c 6d 91 26 bb db d1 ce 3b
       -0.0032552523 0.019592477 -0.002541627 0.006311638
0003e0 17 94 33 bc 59 cb 60 bc 81 35 b8 ba ca 65 0d 3d
       -0.0109606 -0.013720357 -0.0014054031 0.0345209
0003f0 6b 04 cf bc e4 7c d5 bc df e3 9b ba 08 b2 b1 3c
       -0.025270661 -0.026060529 -0.0011893472 0.021691337

_conditioned._func._diffusion._model.2.bias f4 [120]
000000 22 a8 44 3d 58 e8 e5 3b d5 0b ca bb d3 f6 ea ba
       0.048011906 0.007016223 -0.0061659613 -0.0017926343
000010 6d aa 35 bc c5 79 db bb 65 04 7e bd 17 0c 29 bd
       -0.011087996 -0.0066978657 -0.06201591 -0.041271295
000020 d0 c2 01 bd d9 4d 0b 3d 36 94 3d bb 0d 7f 7b 3b
       -0.03167993 0.03400979 -0.0028927452 0.0038375289
000030 1b e1 f3 bb 87 f9 d8 bb 40 bd 0d bc 50 04 ac ba
       -0.007442606 -0.006621543 -0.008651078 -0.0013123844
000040 e1 58 68 3b 79 05 90 3d ba 70 56 3b 0e 07 2d 3c
       0.0035453367 0.07032294 0.0032721 0.010560764
000050 c0 c7 f3 bc b0 54 bf 3b 65 c0 79 3b 56 6e 50 bc
       -0.029758334 0.005838953 0.003810906 -0.012721619
000060 e4 ce 68 bc 3d 52 cc ba df a3 44 bd 05 2f 26 ba
       -0.014209483 -0.0015588474 -0.048007842 -0.0006339404
000070 72 1a 93 bd 32 b3 96 3d 67 77 a5 bc 0d b4 bf 3b
       -0.071827784 0.073583975 -0.020198537 0.005850321
000080 d3 dc 75 3b 8a 13 38 3d 49 73 50 3b 79 2b 63 3c
       0.0037515655 0.04494051 0.0031806997 0.013865345
000090 ac 22 59 3b 1c 0b d4 bb d6 76 b5 3b b4 ed 7e 3b
       0.0033132238 -0.006471051 0.005537848 0.0038899006
0000a0 7f c4 2c bb b7 26 0f bc 44 33 76 3d d8 fd 6d 3c
       -0.0026362238 -0.008737258 0.060107484 0.014525853
0000b0 53 7d 26 3c 23 7e e7 3b b1 1a 1c 3c 05 ed ef b9
       0.010161716 0.007064597 0.009527848 -0.00045762226
0000c0 97 4b 4d bc 3c b1 87 3d 1b cf 8f 3c 86 5e fa 3b
       -0.012530229 0.06625602 0.01755481 0.0076406626
0000d0 69 52 e6 3b f1 b7 01 bc 92 47 73 3d 6e cc 61 3b
       0.007028867 -0.00791739 0.059394427 0.0034454125
0000e0 46 86 1d bc ed 28 b9 3a 86 ec 4d bb 3c c5 9e 3c
       -0.009614533 0.0014126577 -0.0031421497 0.019381158
0000f0 87 3c 2f bc 42 02 e7 bb 7e 02 98 3b 8e 5e dd 39
       -0.010695583 -0.0070498297 0.004638969 0.00042222854
000100 8d 5c b9 bb e2 1e 1b bb 48 03 c9 bc 80 d5 76 bc
       -0.005656785 -0.002366953 -0.024537697 -0.015065551
000110 e8 a4 3d 3d 08 ee 65 bc 2d 05 f9 bc 1c 78 37 bb
       0.046299845 -0.014033802 -0.030397976 -0.0027995175
000120 5b 53 09 3d d7 8f 6a bb ce 28 16 bb 22 78 11 bc
       0.03352676 -0.0035791302 -0.0022912505 -0.00887874
000130 ba 92 fd 3b 16 00 fd bb 76 0a f4 bb 23 6b 00 bd
       0.0077384384 -0.0077209575 -0.007447536 -0.031352174
000140 8f 00 e0 3c 36 c6 4f 3c d4 40 d2 3c 09 17 41 b9
       0.027344016 0.0126815345 0.025665678 -0.00018414496
000150 c6 a0 b3 bb 05 2f 2b 3c bd 8a 6a 3a 8e 5a 58 3c
       -0.005481812 0.010448222 0.0008947065 0.013205184
000160 89 02 a1 3a 13 73 a5 bb fe cf 26 bc 52 ea 79 bb
       0.0012284081 -0.0050491183 -0.010181425 -0.003813405
000170 d4 0c 33 bc 93 4d a5 3a 8e 85 0f 3c 9b 67 03 3d
       -0.010928351 0.001261162 0.008759869 0.032081228
000180 92 07 0f bc 33 11 b1 3c c8 d0 72 3b b3 70 7b 3a
       -0.008729832 0.021614647 0.0037050713 0.00095916836
000190 2b fc 89 bb 2c d8 e2 3a c2 a6 87 3c 18 e1 e9 3a
       -0.004210969 0.0017306856 0.016559009 0.0017843572
0001a0 4a 2f 3b 3d a8 f8 3a 3a 35 d7 5a 3b 4e c2 d3 bb
       0.045699395 0.00071323896 0.0033392434 -0.006462372
0001b0 8b 15 82 3c 3e bf 2c 3d 9b de b1 bd b0 70 58 3b
       0.015879413 0.04217457 -0.08685037 0.0033026151
0001c0 d6 9f be bb 09 24 1c 3c c8 da 99 bb bb 9e 62 3c
       -0.005817394 0.009530076 -0.00469527 0.01383179
0001d0 34 9c b1 3b f7 3b 5f bb f4 c4 83 ba 3b 84 0c bc
       0.005420232 -0.0034062841 -0.0010053203 -0.008576448
