Stocks/lstm_sigwgan/G.pt (torch, 411871 bytes, 18 tensors)

encoder.lstm.weight_ih_l0 f4 [256, 2]
-0.17142333 -0.03375613 0.038570262 0.2548653 -0.060414393 0.19077054 -0.02538181 -0.121208355
-0.084825344 0.043934993 -0.027941408 -0.15602317 0.15777181 0.007916358 -0.14882855 0.10306381
-0.04631593 -0.20951162 0.088389166 0.03778638 0.03754415 -0.042330164 -0.05154181 0.04747831
0.19885862 0.030798458 0.0816275 0.25606018 -0.027302125 -0.06341171 -0.23414268 -0.13205594
0.17127693 -0.0973416 0.030572752 0.038785268 0.19922957 0.061197992 -0.021418791 -0.09194525
-0.08280368 -0.10195654 0.3353789 0.15917757 0.07710052 -0.0051757926 -0.07569155 -0.009505767
-0.073597156 0.081031054 0.06663754 0.016371453 0.12758623 0.08606191 0.20503736 0.024030771
-0.14325629 0.07427664 -0.019513957 -0.20467064 -0.17894496 -0.1462226 0.13981561 -0.11563474
0.17937674 0.18678516 -0.102217644 0.25908494 0.23401971 0.33410704 0.20911388 -0.027119776
0.15676421 0.34437498 0.17002007 0.18290652 0.09776425 0.05515018 0.08162727 -0.019031629
-0.4989242 0.0007097451 0.115966834 -0.2500809 -0.02738657 0.033419378 0.2842925 0.032310277
-0.048012983 -0.2655511 -0.013850341 0.055304345 -0.063631915 -0.15749715 -0.09594075 -0.2443512
-0.058647826 -0.28444627 -0.052360244 -0.19700865 -0.16411829 -0.38580653 -0.026542388 0.20107374
0.06538621 0.13896793 0.0056331553 -0.14532511 -0.047591306 -0.046227187 0.12496297 -0.0627152
-0.09304798 -0.18458042 -0.082442075 0.0056065633 -0.14954703 0.12365229 -0.20011662 0.10903717
0.046748664 0.019975597 0.45793903 0.25158438 0.115214586 0.078987256 0.061619613 0.12578037
-0.007278937 -0.09360168 0.07965431 0.058118884 -0.12764278 0.10008902 -0.13492785 -0.07544384
-0.01765249 0.12836315 0.023850176 -0.19136113 0.024691366 -0.14167641 -0.06251629 0.23993194
-0.10837234 -0.35265273 0.12510583 -0.09056355 0.025090238 0.08623142 -0.09601572 -0.098318264
0.02333716 -0.14123566 0.18811578 0.1444831 -0.081318244 -0.19476803 -0.04911681 0.064137496
0.16666141 -0.054122727 0.059609078 0.050796796 0.27556476 0.18023224 0.12080423 0.025865886
0.019822292 -0.26097816 0.032951687 0.11848084 0.062950075 0.024810012 0.09043963 0.10632978
-0.21163297 -0.22062774 0.11897695 0.08998844 0.2529762 0.015739799 0.121015705 -0.016003856
-0.18659902 -0.11671481 0.114176475 -0.11029195 -0.20902681 -0.0029057115 -0.05301468 0.030869873
0.066696815 0.14651468 -0.17430314 0.028672228 0.19302177 0.100021504 0.17083879 0.06475637
0.071818754 0.12616353 0.1848947 0.018019557 -0.009587043 -0.17239004 0.13484621 -0.045631744
-0.10848322 0.005219161 -0.12988186 -0.14525701 -0.027580626 -0.0990534 0.26454327 0.1713938
-0.13858746 -0.2250833 -0.13008305 0.07526877 -0.029286606 -0.091164865 -0.23292018 -0.23374861
-0.11912331 -0.2861366 -0.040156383 -0.0648474 -0.02655885 -0.12263695 -0.0786143 -0.1389038
-0.030952025 -0.009183584 -0.054428298 -0.06735584 0.101578124 0.06040855 0.23823453 0.021370808
-0.12147569 -0.09503545 -0.22226252 0.06540159 -0.035023496 0.19440284 -0.14619532 0.13727288
-0.020527858 -0.30379233 0.1468836 -0.01284132 0.17417717 0.22586346 0.15174238 0.15579113
00000000: 9989 2fbe de43 0abd dafb 1d3d b47d 823e
00000010: 1575 77bd 5a59 433e 83ed cfbc 163c f8bd
00000020: e9b8 adbd 2ef5 333d 61e5 e4bc 8ac4 1fbe
00000030: ef8e 213e 9db3 013c 8366 18be 1e13 d33d
00000040: c6b5 3dbd 378a 56be 6105 b53d e4c5 1a3d
00000050: e5c7 193d 6562 2dbd 811d 53bd 9e78 423d
00000060: 98a1 4b3e 0c4d fc3c 522c a73d 521a 833e
00000070: b5a8 dfbc 00de 81bd 19c3 6fbe ac39 07be
00000080: 3863 2f3e 085b c7bd b573 fa3c 4ddd 1e3d
00000090: d602 4c3e bfaa 7a3d 7676 afbc cb4d bcbd
000000a0: fa94 a9bd 97ce d0bd c8b6 ab3e 72ff 223e
000000b0: e1e6 9d3d b299 a9bb 2c04 9bbd 14be 1bbc
000000c0: 1bba 96bd 9cf3 a53d 4379 883d 6d1d 863c
000000d0: f7a5 023e 3a41 b03d 50f5 513e 2edc c43c
000000e0: c7b1 12be 5a1e 983d bcdb 9fbc 2e95 51be
000000f0: 593d 37be 61bb 15be d32b 0f3e e8d1 ecbd
00000100: 89ae 373e 9c44 3f3e 7c57 d1bd c8a6 843e
00000110: dda2 6f3e 1410 ab3e f321 563e 4b2a debc
00000120: cc86 203e eb51 b03e be19 2e3e d94b 3b3e
00000130: a038 c83d 28e5 613d 332c a73d 38e8 9bbc
00000140: fe72 ffbe 300e 3a3a 0580 ed3d 9b0a 80be
00000150: cd59 e0bc c2e2 083d c98e 913e c857 043d
00000160: 43a9 44bd 50f6 87be 8aec 62bc cf86 623d
00000170: 7351 82bd ef46 21be 957c c4bd 3337 7abe
00000180: b438 70bd f1a2 91be b277 56bd a3bc 49be
00000190: a00e 28be 6f88 c5be 6c6f d9bc 46e6 4d3e
000001a0: 35e9 853d 9c4d 0e3e 5596 b83b 1bd0 14be
000001b0: 1aef 42bd b858 3dbd 96ec ff3d d470 80bd
000001c0: f08f bebd a602 3dbe 64d7 a8bd 43b7 b73b
000001d0: db22 19be 693d fd3d 5feb 4cbe e14e df3d
000001e0: 877b 3f3d dda3 a33c fc76 ea3e abcf 803e
000001f0: a0f5 eb3d 12c4 a13d d964 7c3d 92cc 003e
00000200: 2684 eebb 3db2 bfbd cd21 a33d 110e 6e3d
00000210: cab4 02be 79fb cc3d 872a 0abe 4d82 9abd
00000220: f49b 90bc a171 033e 7261 c33c 2cf4 43be
00000230: 8c45 ca3c 9f13 11be 8a08 80bd b8b0 753e
00000240: 51f2 ddbd e68e b4be be1b 003e 6279 b9bd
00000250: 0b8a cd3c 199a b03d e4a3 c4bd 165b c9bd
00000260: 922d bf3c 15a0 10be 6ca1 403e 61f3 133e
00000270: 2e8a a6bd 4571 47be b52e 49bd 855a 833d
00000280: 4aa9 2a3e cbaf 5dbd a628 743d 4d10 503d
00000290: d316 8d3e cd8e 383e 3568 f73d b2e4 d33c
000002a0: 5c62 a23c ee9e 85be 59f8 063d 15a6 f23d
000002b0: f8eb 803d 5e3e cb3c 6a38 b93d 6dc3 d93d
000002c0: 50b6 58be 3dec 61be 30aa f33d dc4b b83d
000002d0: 1986 813e c0f0 803c 15d7 f73d 851a 83bc
000002e0: d013 3fbe 2d08 efbd 5bd5 e93d bfe0 e1bd
000002f0: 200b 56be c06d 3ebb ec25 59bd d1e2 fc3c
00000300: 5798 883d f207 163e 867c 32be 05e2 ea3c
00000310: 80a7 453e 13d8 cc3d 5df0 2e3e fd9e 843d
00000320: b615 933d 0331 013e 0955 3d3e c09d 933c
00000330: f912 1dbc 0487 30be 2015 0a3e 5ae8 3abd
00000340: 732c debd 7f05 ab3b c0ff 04be 41be 14be
00000350: c4f0 e1bc 82dc cabd 3772 873e db81 2f3e
00000360: dfe9 0dbe 3d7c 66be 7e34 05be 8326 9a3d
00000370: 77ea efbc a5b4 babd a182 6ebe cc5b 6fbe
00000380: ecf6 f3bd 7f80 92be 057b 24bd b7ce 84bd
00000390: f291 d9bc 1529 fbbd 8900 a1bd cc3c 0ebe
000003a0: 1a8f fdbc be76 16bc 35f0 5ebd dcf1 89bd
000003b0: 3108 d03d f56e 773d c1f3 733e d511 af3c
000003c0: 3fc8 f8bd f2a1 c2bd c998 63be 45f1 853d
000003d0: cc74 0fbd 8a11 473e 3ab4 15be 4391 0c3e
000003e0: 0a2a a8bc ab8a 9bbe a868 163e 6664 52bc
000003f0: 805b 323e c048 673e 5b62 1b3e b687 1f3e

encoder.lstm.weight_hh_l0 f4 [256, 64]
-0.08210634 -0.18102427 -0.029122667 0.042092454 -0.12617871 0.05909974 -0.09218058 -0.030632269
-0.26303595 0.058552522 0.14944056 0.14622512 -0.11453263 0.04315112 0.07243701 0.08775249
-0.22330771 0.0141642615 -0.07345072 0.053688724 -0.0053764223 -0.040262036 0.26642835 -0.06408065
-0.26976454 0.12965515 0.15491328 -0.00470102 0.015477621 0.30751264 -0.064335234 0.017492281
-0.046993032 0.095020235 -0.22628117 -0.22941187 -0.028452957 -0.119692065 -0.27285329 0.044967584
-0.087168135 0.04515947 -0.11740468 -0.012359934 0.046419315 -0.010323238 -0.21495749 -0.05323002
-0.01061709 0.20118196 -0.15988505 0.32753676 -0.09842338 0.02529086 0.08374294 0.15031986
-0.013722055 0.12615956 -0.06344144 0.10280427 0.14148024 0.13540784 -0.052405596 -0.22445399
0.080813915 -0.022989256 -0.08282637 -0.035195068 -0.084425576 0.071003005 0.13075085 0.025610544
-0.20536423 0.1020972 -0.08780896 -0.029424867 -0.1067127 0.26700082 0.05679034 0.030138984
-0.0055412916 0.09057994 0.17390785 -0.21668197 -0.06764742 0.0039927512 -0.06335284 -0.077446505
-0.24583693 -0.14725816 -0.20242019 0.061034936 0.05319129 0.06714534 -0.04542313 0.055236954
-0.19672719 -0.10596561 -0.22248997 -0.099503346 0.0031230417 -0.09635413 -0.0039636604 0.042068735
-0.019383175 0.24652559 0.17695938 -0.06478561 0.2569084 -0.07526068 -0.116735056 -0.038786676
0.12638667 0.19333926 -0.23993511 0.03632775 -0.035109024 0.089548066 -0.12760197 -0.1801225
-0.008725539 0.0050055874 0.017683556 -0.06527002 0.05905559 -0.009356149 -0.03017239 -0.12664495
0.3061676 -0.022157364 0.0065245978 0.0811072 -0.24118222 0.03227343 0.06560283 0.15586475
0.022761436 0.24043107 -0.12629367 0.1276507 -0.28343666 0.14498834 0.07790839 0.13693465
-0.16630283 0.07910728 0.04543194 0.016091539 0.19822235 -0.16015907 -0.039149743 0.084855944
-0.13994327 -0.17507035 -0.15066738 0.23087163 0.014156438 -0.003720136 -0.36380306 -0.12507242
0.16318515 -0.11411557 0.0025450261 -0.089779474 -0.023537016 -0.18390186 0.043173358 0.11867358
-0.1351437 -0.038789134 0.23012008 -0.08635002 0.051189 -0.09446266 -0.016777305 -0.011153848
0.2396108 0.13237837 -0.15220259 -0.11452275 -0.12927088 -0.1300973 -0.2543528 -0.233823
-0.14787431 0.062124908 -0.048836898 0.06681023 0.096199535 0.0004480284 -0.06979878 0.26305804
-0.1150317 0.19238584 -0.03332171 0.004300028 0.04765779 -0.13835126 -0.08703363 0.017807156
0.009276249 0.08591719 0.17071752 -0.18566233 0.225295 -0.117462315 -0.0024678838 0.013392934
0.06914977 -0.26464817 -0.07167226 -0.10344451 -0.053120285 0.21232943 0.21802007 -0.0068296785
0.1290946 0.18090524 -0.0011286039 -0.09012472 0.059431702 -0.058166783 0.061295934 0.09439256
0.032738872 -0.10754138 0.31535548 -0.0003789678 -0.30140805 0.11436281 -0.006421855 -0.17791472
0.11977772 -0.2758821 0.03616667 0.03298485 -0.10435295 -0.056303203 -0.27429873 -0.3103959
-0.048885435 0.072011426 0.0646077 -0.09242136 -0.12393082 -0.09897945 0.0731201 0.29060805
-0.09204278 -0.06239658 0.076310955 0.060679834 -0.03582875 0.18705069 0.23858951 -0.22866186
00000000: 5e27 a8bd 6d5e 39be a992 eebc 2369 2c3d
00000010: fe34 01be 9212 723d 2cc9 bcbd 86f0 fabc
00000020: a6ac 86be c5d4 6f3d f206 193e 0abc 153e
00000030: 1590 eabd 3bbf 303d db59 943d 94b7 b33d
00000040: c7aa 64be 3811 683c 556d 96bd b5e8 5b3d
00000050: b32c b0bb cee9 24bd 4c69 883e b73c 83bd
00000060: 941e 8abe 52c4 043e 96a1 1e3e 040b 9abb
00000070: d995 7d3c 4c72 9d3e 31c2 83bd f94b 8f3c
00000080: c47b 40bd f899 c23d 40b6 67be f2ea 6abe
00000090: 2d16 e9bc 1d21 f5bd 6db3 8bbe ee2f 383d
000000a0: 3585 b2bd 23f9 383d dd71 f0bd 5281 4abc
000000b0: 2e22 3e3d cc22 29bc d11d 5cbe b907 5abd
000000c0: 4ef3 2dbc a502 4e3e e8b8 23be e6b2 a73e
000000d0: 3292 c9bd c72e cf3c 6b81 ab3d 73ed 193e
000000e0: 78d2 60bc f92f 013e 96ed 81bd 0c8b d23d
000000f0: 32e0 103e 5aa8 0a3e 40a7 56bd 44d7 65be
00000100: c481 a53d f753 bcbc dfa0 a9bd b428 10bd
00000110: 51e7 acbd 066a 913d 8de3 053e 34cd d13c
00000120: 004b 52be 5618 d13d 2fd5 b3bd 6b0c f1bc
00000130: 308c dabd 55b4 883e fd9c 683d 08e6 f63c
00000140: b993 b5bb fa81 b93d e614 323e e1e1 5dbe
00000150: bb8a 8abd a0d5 823b 22bf 81bd 469c 9ebd
00000160: adbc 7bbe d8ca 16be 3d47 4fbe c5ff 793d
00000170: 1cdf 593d 7f83 893d 9b0d 3abd 2540 623d
00000180: da72 49be 7f04 d9bd 69d4 63be 69c8 cbbd
00000190: f2ab 4c3b 5055 c5bd 98e1 81bb 4450 2c3d
000001a0: 77c9 9ebc 3471 7c3e d734 353e 51ae 84bd
000001b0: 7f89 833e 4522 9abd ca12 efbd c7de 1ebd
000001c0: 826b 013e bafa 453e 8db1 75be 68cc 143d
000001d0: 7bce 0fbd fa64 b73d 17aa 02be 0872 38be
000001e0: 90f5 0ebc e905 a43b 1bdd 903c 4aac 85bd
000001f0: 46e4 713d 884a 19bc 172c f7bc 37af 01be
00000200: 00c2 9c3e 5c83 b5bc 4bcc d53b 881b a63d
00000210: 79f8 76be 2531 043d c75a 863d 029b 1f3e
00000220: 3176 ba3c 9033 763e 2153 01be ddb6 023e
00000230: 9c1e 91be d377 143e 6f8e 9f3d 9938 0c3e
00000240: 4a4b 2abe ff02 a23d d816 3a3d 67d2 833c
00000250: cdfa 4a3e bd00 24be 7b5b 20bd f4c8 ad3d
00000260: 4a4d 0fbe a445 33be 8d48 1abe 9d69 6c3e
00000270: 68f0 673c 86cd 73bb 6544 babe fc12 00be
00000280: 021a 273e 6db5 e9bd 74ca 263b 4dde b7bd
00000290: b3d0 c0bc c550 3cbe 8cd6 303d 220b f33d
000002a0: 1c63 0abe 5be1 1ebd 99a4 6b3e 47d8 b0bd
000002b0: 8fab 513d a475 c1bd 8f70 89bc a1be 36bc
000002c0: 895c 753e 328e 073e ffda 1bbe e78a eabd
000002d0: 965f 04be 3a38 05be 883a 82be 4c6f 6fbe
000002e0: 5d6c 17be b076 7e3d 3309 48bd cdd3 883d
000002f0: 4304 c53d 5be5 ea39 aaf2 8ebd 8baf 863e
00000300: bd95 ebbd cb00 453e 587c 08bd 40e7 8c3b
00000310: d134 433d f4ab 0dbe b03e b2bd 50e0 913c
00000320: 69fb 173c 5af5 af3d 93d0 2e3e 441e 3ebe
00000330: bcb3 663e 1590 f0bd 38bc 21bb 096e 5b3c
00000340: 659e 8d3d f77f 87be e8c8 92bd b7da d3bd
00000350: a894 59bd e36c 593e a740 5f3e 7fcb dfbb
00000360: 6031 043e 393f 393e aaed 93ba 4f93 b8bd
00000370: a86e 733d 4b40 6ebd 7211 7b3d e350 c13d
00000380: 3219 063d a83e dcbd 4676 a13e 32b0 c6b9
00000390: 2852 9abe 0d37 ea3d 6d6e d2bb 472f 36be
000003a0: 054e f53d 6b40 8dbe 8123 143d 1f1b 073d
000003b0: 00b7 d5bd 309e 66bd e270 8cbe 36ec 9ebe
000003c0: 183c 48bd ba7a 933d 0b51 843d 6947 bdbd
000003d0: 71cf fdbd bdb5 cabd febf 953d 94ca 943e
000003e0: ed80 bcbd 8e93 7fbd eb48 9c3d 6b8b 783d
000003f0: 2bc1 12bd 378a 3f3e cf50 743e 5626 6abe

encoder.lstm.bias_ih_l0 f4 [256]
-0.097492024 -0.13281432 -0.07732587 0.109729834 -0.030069204 -0.13339992 0.07465832 0.0043967753
0.008637076 0.0060028466 0.019050024 -0.25509396 0.033330765 0.1999746 0.13850006 -0.008725074
0.013767234 0.2569589 0.10697 -0.102678455 0.15881549 0.17878579 -0.20248656 0.022061188
-0.050306138 -0.024155846 -0.11463229 -0.13357233 -0.057211082 0.058644246 0.15053818 0.03596691
-0.086953536 0.05798342 0.14457804 -0.001460136 0.14184017 -0.09973467 -0.12585816 -0.029770646
-0.139379 0.16859573 0.12777029 -0.050180737 0.06498384 0.12972753 -0.0068081394 -0.08018534
-0.079643086 0.24798143 -0.07907805 0.27403188 0.14597476 -0.07367393 -0.16162054 0.052650638
-0.0057359743 0.02691391 -0.07875684 0.031776257 0.49584356 0.5340784 -0.06367605 0.1432622
0.016276462 0.06584949 0.03631577 -0.055858914 0.049833324 -0.06491107 0.053127486 -0.056774087
0.08562134 0.03887866 -0.08982229 -0.1887293 -0.040664278 0.1905529 0.19518773 0.079429
0.15979128 0.00034232615 0.03943142 0.028704556 0.038150206 -0.077314354 -0.06972961 0.0983465
0.0711356 0.13155319 0.110026024 -0.028592447 -0.07115599 -0.013147656 -0.12347681 -0.07374377
0.08950762 -0.08329288 -0.14525746 -0.024954448 -0.091516554 -0.026584538 -0.0624882 -0.016033709
-0.03211591 -0.24050711 0.22331393 0.044413198 -0.16961192 0.012849041 0.08421088 0.1967508
-0.11801291 0.15026426 -0.121399224 0.087897316 -0.12973468 0.064040415 -0.07612337 0.08245116
-0.067347676 0.07143237 -0.028758215 -0.08302695 0.020466782 -0.18216543 -0.09778687 0.032089707
0.064642265 0.027792275 0.053413324 0.028156746 0.11026679 -0.14598335 -0.13755582 -0.009245756
-0.0027963968 -0.012959585 0.13377762 -0.09458019 0.008132502 -0.22428454 -0.2068692 0.025143085
0.13564217 -0.031022059 -0.10642056 0.024496023 -0.04294871 0.13962212 0.055858012 -0.011343664
0.03462181 0.20097531 0.17714137 -0.16505024 -0.007169628 -0.10944531 0.11068303 0.118232936
0.13906577 0.00040896636 0.1588097 -0.020499498 -0.16582546 0.111534595 -0.08634312 -0.0176726
-0.12393863 -0.047395404 -0.035619944 -0.15788679 -0.09117784 -0.08950449 0.08221079 0.16059911
-0.13661917 -0.13040096 0.060531367 -0.14200905 -0.0920435 -0.008536312 0.0059535066 0.08556592
0.123701066 0.020520374 0.14690511 0.13152577 -0.11952396 0.25866243 -0.008788862 -0.11577804
-0.010771558 -0.17405781 0.019690495 0.033037618 -0.09299873 -0.03745051 0.03572667 0.020917477
0.055458717 -0.0052627246 0.01643509 -0.3551379 0.14865763 0.08441717 0.059759643 -0.029854788
0.027133098 0.1962367 0.11305887 -0.029384399 0.03188089 -0.009932684 -0.12219438 0.1538143
0.01308386 0.13326351 0.049903013 -0.08829166 0.08062726 0.112458974 0.054508615 -0.059682254
-0.090107866 0.0232621 0.14041707 0.013768723 0.2015125 -0.085847355 -0.07491074 -0.05322232
0.06444892 -0.13091159 0.17876208 0.14673565 -0.03828772 -0.019475816 -0.11343136 -0.039957453
-0.092601895 0.19097124 -0.15099807 0.4009504 0.27405512 0.026515026 -0.089655474 0.02182142
0.050852995 0.09265246 0.14429654 0.10581048 -0.006632512 0.4235654 0.025067428 0.054374866
00000000: e6a9 c7bd 7a00 08be 075d 9ebd 09ba e03d
00000010: b153 f6bc fd99 08be 76e6 983d d312 903b
00000020: 8682 0d3c 87b3 c43b cc0e 9c3c ad9b 82be
00000030: d785 083d 24c6 4c3e f6d2 0d3e 9df3 0ebc
00000040: f78f 613c 1e90 833e 1613 db3d 1549 d2bd
00000050: 87a0 223e 9f13 373e a358 4fbe aab9 b43c
00000060: cf0d 4ebd 7be2 c5bc 56c4 eabd 2fc7 08be
00000070: 2b56 6abd f334 703d ae26 1a3e 0a52 133d
00000080: b214 b2bd 0680 6d3d 440c 143e 0962 bfba
00000090: 8d3e 113e b141 ccbd f6e0 00be 92e1 f3bc
000000a0: 5eb9 0ebe 5ca4 2c3e 37d6 023e 518a 4dbd
000000b0: 3f16 853d 4bd7 043e d016 dfbb 3638 a4bd
000000c0: ea1b a3bd d8ee 7d3e acf3 a1bd e84d 8c3e
000000d0: 687a 153e 5be2 96bd db7f 25be 32a8 573d
000000e0: d7f4 bbbb 8f7a dc3c 444b a1bd d227 023d
000000f0: 35df fd3e 5db9 083f 9768 82bd 53b3 123e
00000100: 3756 853c 19dc 863d d8bf 143d 51cc 64bd
00000110: 071e 4c3d 18f0 84bd 359c 593d f28b 68bd
00000120: 3e5a af3d 3b3f 1f3d c0f4 b7bd 4142 41be
00000130: 968f 26bd 4d20 433e 4bdf 473e acab a23d
00000140: 53a0 233e 3d7a b339 d782 213d d125 eb3c
00000150: 6443 1c3d fd56 9ebd 66ce 8ebd e469 c93d
00000160: 8baf 913d e1b5 063e 5355 e13d b53a eabc
00000170: 3bba 91bd 4469 57bc 69e1 fcbd f906 97bd
00000180: c54f b73d 7595 aabd 5fbe 14be 456d ccbc
00000190: 086d bbbd d1c7 d9bc a0f3 7fbd 2059 83bc
000001a0: f98b 03bd 7f47 76be 68ac 643e 9dea 353d
000001b0: bfae 2dbe c984 523c c176 ac3d 0b79 493e
000001c0: c1b0 f1bd e0de 193e 28a0 f8bd 8203 b43d
000001d0: 2bd9 04be 9f27 833d 92e6 9bbd 27dc a83d
000001e0: 94ed 89bd 224b 923d 5996 ebbc 090a aabd
000001f0: f4a9 a73c 9389 3abe 7c44 c8bd 7f70 033d
00000200: 2a63 843d a0ac e33c eec7 5a3d faa8 e63c
00000210: 8ed3 e13d a97c 15be 6fdb 0cbe 837b 17bc
00000220: c143 37bb 7054 54bc 00fd 083e 42b3 c1bd
00000230: 303e 053c d9aa 65be 85d5 53be dff8 cd3c
00000240: c8e5 0a3e f921 febc 06f3 d9bd e2ab c83c
00000250: fdea 2fbd 1af9 0e3e 5fcb 643d c6da 39bc
00000260: 99cf 0d3d 79cc 4d3e 8c64 353e ee02 29be
00000270: 33ef eabb dd24 e0bd c9ad e23d 1c24 f23d
00000280: 4267 0e3e 896a d639 039f 223e 90ee a7bc
00000290: 26ce 29be 406c e43d a9d4 b0bd 21c6 90bc
000002a0: 89d3 fdbd af21 42bd 38e6 11bd 13ad 21be
000002b0: 73bb babd 214e b7bd 215e a83d 1874 243e
000002c0: e5e5 0bbe d487 05be bdef 773d d26a 11be
000002d0: 4d81 bcbd e3db 0bbc a215 c33b 2f3d af3d
000002e0: fc56 fd3d 581a a83c 4b6e 163e b1ae 063e
000002f0: fac8 f4bd 676f 843e 29ff 0fbc 091d edbd
00000300: 307b 30bc 363c 32be f64d a13c 7452 073d
00000310: 1e76 bebd b565 19bd 2156 123d 215b ab3c
00000320: ae28 633d ef72 acbb e2a2 863c a3d4 b5be
00000330: b539 183e e9e2 ac3d 87c6 743d 0792 f4bc
00000340: 3b46 de3c 46f2 483e 698b e73d 8db7 f0bc
00000350: 8995 023d b2bc 22bc 0c41 fabd 7f81 1d3e
00000360: b05d 563c 3b76 083e 1a67 4c3d 42d2 b4bd
00000370: e81f a53d e450 e63d 6d44 5f3d 6175 74bd
00000380: 798a b8bd 2990 be3c 7ec9 0f3e 3696 613c
00000390: 4b59 4e3e bdd0 afbd cd6a 99bd a6ff 59bd
000003a0: ccfd 833d b00d 06be 680d 373e df41 163e
000003b0: 96d3 1cbd bf8b 9fbc b34e e8bd 6daa 23bd
000003c0: 10a6 bdbd f78d 433e 3d9f 1abe 5f49 cd3e
000003d0: f450 8c3e 0a36 d93c 4a9d b7bd d6c2 b23c
000003e0: 3b4b 503d 93c0 bd3d 79c2 133e 2ab3 d83d
000003f0: 8b55 d9bb 90dd d83e 355a cd3c 2eb8 5e3d

encoder.lstm.bias_hh_l0 f4 [256]
0.005632328 -0.06285791 0.0013287148 -0.10670457 -0.0772186 0.08067283 0.09190175 -0.1713274
0.13902113 0.11908975 0.06140229 -0.33890477 0.12492608 0.18403244 0.15532513 -0.051215693
0.029656895 0.18372437 0.27430138 -0.012875338 0.1335368 -0.023674326 -0.023367746 0.21300776
-0.13719791 -0.022244548 0.077314034 -0.043089576 -0.06410206 0.101387255 0.1299886 -0.08223419
-0.094553985 0.031616062 0.2626274 0.19437289 0.20936318 -0.1334907 -0.028557854 -0.116642274
-0.022784205 0.026037395 0.023594914 0.11077128 -0.1262323 -0.010990862 -0.045598842 0.03402864
0.063099355 0.099721745 -0.0982209 0.42826095 0.16136098 0.037930463 -0.19165492 -0.010467833
0.05910415 0.14002231 0.072192684 -0.027236247 0.5179896 0.48609787 -0.11635526 -0.06026187
-0.044553712 -0.16861182 0.12510507 0.06643714 0.0446691 0.032040928 0.0399983 0.02482398
-0.009257046 -0.059240192 -0.050669014 -0.24475548 0.07466323 0.046911154 0.15574545 0.09639997
0.11141863 0.108189695 0.041418135 -0.115787216 0.08123169 -0.16633236 0.0027031705 0.07430397
0.14464594 -0.004388957 0.026125198 0.09937513 -0.13334511 -0.07401162 0.0028928008 -0.09106906
0.08959349 0.08952867 -0.18881148 0.08687498 -0.23360738 -0.096367985 0.060811434 -0.03832689
0.05555754 -0.09256704 0.18273537 0.2546816 -0.076981574 0.074141234 0.11269479 0.13949414
-0.12326552 0.055788197 -0.12458887 -0.14059547 -0.094022386 0.051746067 -0.07418751 0.03375343
0.048068676 0.18257014 -0.08618991 0.091253445 -0.013400419 -0.27555332 0.09249222 0.12282861
-0.07861743 0.06921852 0.1189987 0.021297734 0.19755228 -0.012161953 -0.08340657 0.14541776
0.14143443 -0.10766209 -0.03707873 0.040614646 0.13466695 -0.2320144 -0.20093112 0.053796597
-0.001342325 0.04326579 -0.15632233 0.18854995 -0.031848736 0.18093112 -0.0034461406 0.0075960006
0.014574922 -0.022129035 0.08389692 -0.016244894 0.062038664 0.04228354 -0.06798462 -0.004158637
0.027322073 -0.13036615 0.11564038 0.0860517 -0.11869454 0.0889066 -0.057945397 -0.12807986
-0.0721152 -0.14106588 -0.050560635 -0.16203916 -0.11108991 -0.017096616 0.1174602 0.035906043
-0.11542042 0.06651716 0.069482364 -0.05249678 -0.20183744 0.13055691 0.14987543 0.115330234
-0.02957554 0.044810437 0.046778705 0.049289677 -0.09185261 0.04857577 0.04994736 -0.09348582
-0.003889918 0.012760947 -0.03689371 -0.027655521 0.096694164 -0.060415924 -0.09360906 -0.2174711
0.03542821 0.055272084 0.0067987894 -0.2996044 0.07657883 -0.006652133 0.055061657 -0.11384885
0.11613512 0.026332356 -0.0021460508 0.05762069 0.066135265 0.007980889 -0.025616072 0.013670029
-0.055494152 -0.10295278 0.035174794 -0.015831402 -0.038363427 -0.04838136 0.117392875 0.13209024
-0.031338595 -0.07687233 0.3035291 0.1093742 0.17885324 -0.2419526 -0.014667434 -0.08687387
-0.020392964 -0.03849651 0.12854856 -0.03130432 -0.18409505 -0.03343039 -0.007572239 0.048114374
0.088365406 0.04773123 -0.12698855 0.36040893 0.23283818 -0.08799055 -0.20099886 0.0050625443
0.20128514 -0.0076139206 0.04208635 0.07088978 0.13545065 0.36722237 0.03597168 0.0112853125
00000000: 648f b83b a6bb 80bd 4528 ae3a ed87 dabd
00000010: c924 9ebd cc37 a53d fc36 bc3d 7370 2fbe
00000020: 8e5b 0e3e 54e5 f33d f880 7b3d ed84 adbe
00000030: 3fd9 ff3d 0073 3c3e 8d0d 1f3e 8cc7 51bd
00000040: 04f3 f23c 3e22 3c3e 3b71 8c3e 15f3 52bc
00000050: dfbd 083e a9f0 c1bc b76d bfbc b51e 5a3e
00000060: 9c7d 0cbe 333a b6bc d256 9e3d b27e 30bd
00000070: f147 83bd 1fa4 cf3d bb1b 053e 666a a8bd
00000080: 85a5 c1bd d87f 013d 1977 863e b009 473e
00000090: 4d63 563e c9b1 08be 29f2 e9bc 25e2 eebd
000000a0: f1a5 babc 604c d53c 1f4a c13c 0edc e23d
000000b0: 0a43 01be 0413 34bc dac5 3abd 9d61 0b3d
000000c0: 3c3a 813d ea3a cc3d 0a28 c9bd 0545 db3e
000000d0: d03b 253e f95c 1b3d 3041 44be 4681 2bbc
000000e0: 3117 723d 0262 0f3e c2d9 933d 8d1e dfbc
000000f0: f79a 043f d2e1 f83e ab4b eebd 27d5 76bd
00000100: f47d 36bd 94a8 2cbe 8b1b 003e 3210 883d
00000110: f2f6 363d 593d 033d 42d5 233d a95b cb3c
00000120: ddaa 17bc d8a5 72bd 508a 4fbd 2ea1 7abe
00000130: 09e9 983d e925 403d bc7b 1f3e 596d c53d
00000140: 732f e43d 8f92 dd3d 10a6 293d d921 edbd
00000150: cd5c a63d 0853 2abe ad27 313b ae2c 983d
00000160: 111e 143e 3dd1 8fbb 8304 d63c 3085 cb3d
00000170: 9f8b 08be 6793 97bd 2595 3d3b 6a82 babd
00000180: cb7c b73d cf5a b73d cc57 41be 82eb b13d
00000190: c636 6fbe 945c c5bd 6915 793d a8fc 1cbd
000001a0: 4e90 633d ca93 bdbd fb1e 3b3e a065 823e
000001b0: 84a8 9dbd 5cd7 973d 87cc e63d 8dd7 0e3e
000001c0: a272 fcbd 2a82 643d 7328 ffbd 42f8 0fbe
000001d0: cf8e c0bd aff3 533d 9fef 97bd 0941 0a3d
000001e0: a9e3 443d abf3 3a3e 5684 b0bd 16e3 ba3d
000001f0: 6e8d 5bbc 5315 8dbe 906c bd3d 918d fb3d
00000200: 2d02 a1bd 70c2 8d3d 97b5 f33d 9678 ae3c
00000210: 254b 4a3e ee42 47bc 10d1 aabd 65e8 143e
00000220: 30d4 103e f17d dcbd dedf 17bd 8b5b 263d
00000230: 22e6 093e 2f95 6dbe e3c0 4dbe d259 5c3d
00000240: f4f0 afba 7837 313d f612 20be 3d13 413e
00000250: d273 02bd 0246 393e a5d8 61bb dfe7 f83b
00000260: a7cb 6e3c f347 b5bc 26d2 ab3d 0314 85bc
00000270: 411c 7e3d 8131 2d3d 853b 8bbd 2d45 88bb
00000280: 8ad2 df3c b47e 05be ddd4 ec3d e03b b03d
00000290: 1f16 f3bd aa14 b63d 2758 6dbd 5e27 03be
000002a0: 22b1 93bd 9373 10be ab18 4fbd 98ed 25be
000002b0: 1b83 e3bd 340e 8cbc f98e f03d 3712 133d
000002c0: 8b61 ecbd 263a 883d c54c 8e3d dd06 57bd
000002d0: 79ae 4ebe b6b0 053e f278 193e 4232 ec3d
000002e0: 6748 f2bc 268b 373d 079b 3f3d f9e3 493d
000002f0: 391d bcbd 63f7 463d 9a95 4c3d 7e75 bfbd
00000300: ffed 7ebb 4b13 513c dc1d 17bd d58d e2bc
00000310: 9707 c63d b076 77bd 1bb6 bfbd beb0 5ebe
00000320: 2c1d 113d fb64 623d 61c8 de3b bf65 99be
00000330: 5dd5 9c3d 23fa d9bb 5588 613d 9629 e9bd
00000340: 40d8 ed3d f4b6 d73c c2a4 0cbb ac03 6c3d
00000350: ed71 873d 46c2 023c ccd8 d1bc 42f8 5f3c
00000360: d64d 63bd e8d8 d2bd 7213 103d dbb0 81bc
00000370: f822 1dbd 882b 46bd ad6b f03d aa42 073e
00000380: e65c 00bd 3d6f 9dbd 2b68 9b3e 95ff df3d
00000390: 4e25 373e 6cc2 77be ad4f 70bc edea b1bd
000003a0: 250f a7bc 84ae 1dbd 3ca2 033e f538 00bd
000003b0: 6a83 3cbe 4eee 08bd 8b20 f8bb 9413 453d
000003c0: ecf8 b43d d281 433d 4909 02be 8587 b83e
000003d0: 226d 6e3e 6434 b4bd a5d2 4dbe b3e3 a53b
000003e0: b11d 4e3e 327e f9bb bd62 2c3d a92e 913d
000003f0: 93b3 0a3e 9204 bc3e 0a57 133d 08e6 383c

encoder.lstm.weight_ih_l1 f4 [256, 64]
0.004615486 0.0358409 -0.015367002 -0.19828567 0.08513922 -0.028318059 -0.27333888 -0.029455358
-0.19965853 -0.008378273 0.033525266 -0.0005849366 0.2172913 -0.40522927 -0.13608626 -0.0018478697
0.123952016 0.30145475 -0.3420295 0.19237699 -0.060703676 0.025104076 0.18236929 0.19929351
-0.12896374 0.2990486 0.22161162 0.0012217421 0.120094344 0.11214835 -0.29817182 0.06006489
0.21272235 0.052621655 0.1350302 0.28277767 -0.060812425 -0.016928848 -0.07561976 0.10265413
-0.11582287 -0.031604603 0.038449585 -0.0359346 -0.13887826 -0.3897712 -0.23678978 -0.07918922
0.12993744 -0.13453536 0.1784669 0.37371668 -0.084928796 0.08912914 0.13380925 0.32571453
0.24719879 0.11266689 -0.06231899 0.21021383 0.2949629 0.029936237 0.020087948 -0.22821312
0.014564198 0.11134205 0.09374513 -0.09400143 -0.017541973 0.16455004 -0.022352466 -0.06877401
-0.16507275 -0.0693933 -0.074045196 0.011192272 -0.04589136 0.31512523 -0.0015696097 0.009039468
-0.13961324 0.042223945 0.021048961 -0.12827104 0.4873419 -0.15058735 -0.13304162 0.07297502
0.29126018 -0.08722918 -0.038698085 0.042361774 -0.035005465 -0.23554349 0.10226093 -0.18684474
-0.19427074 0.085256554 0.070156775 -0.0530134 -0.040956352 0.003990445 0.20161724 0.08418932
-0.05432811 -0.26736763 -0.072451144 0.27039048 0.010899771 0.22307572 0.13342962 0.33415106
0.037000757 0.023357734 0.024865013 -0.16808279 0.3254546 0.056933578 0.14654048 -0.04871576
-0.07454087 0.14875066 0.038805086 -0.03616982 -0.088531904 -0.13128075 -0.10023277 0.2628807
-0.008128125 -0.033345386 0.26722497 -0.02352652 0.09792401 -0.14430015 0.15683877 0.015299379
0.26199576 0.19247828 0.11906582 -0.058401726 -0.18370833 -0.009354672 0.10293911 0.10721844
-0.113190114 0.1222481 -0.014175276 0.18252361 0.020172067 0.08959847 -0.025998477 0.19437364
-0.108558916 0.0077862977 0.07029697 0.13768443 0.123772226 0.31904906 -0.16619256 -0.10222024
0.039374474 -0.24011144 0.23887964 -0.25655925 -0.18658015 0.058548056 -0.03443562 0.05936231
0.02324443 -0.12826753 0.07502119 -0.085760005 0.11206297 -0.2149518 -0.15114829 0.16600336
-0.16777869 0.04870389 0.13172284 -0.12505679 -0.18834414 -0.061110307 -0.003563241 0.043402594
-0.33315054 0.29636455 0.03803283 0.047838733 -0.2290171 0.19996524 -0.11131135 0.05799504
-0.011123835 0.27107427 -0.047373254 -0.012483495 0.09562825 0.013387338 -0.08413239 -0.22675541
0.08177607 -0.008940328 0.15482776 -0.076877736 -0.08984965 0.10416503 0.017821997 -0.2837688
0.008970876 -0.15480205 0.030323531 0.14655478 0.06961324 0.27546033 0.3005453 -0.13519558
0.08783098 0.010714184 -0.021746304 -0.14486067 -0.12554483 0.06603569 0.26539364 -0.09858266
-0.15673721 0.14192085 0.21475358 -0.054688163 -0.22852257 0.18496548 -0.007223615 -0.30433065
0.11391272 -0.26404223 -0.22093397 0.058316804 -0.07008292 0.13711129 0.11415009 0.2088285
0.02974478 -0.06636485 -0.022629336 -0.13252744 0.0039831176 -0.030081293 0.025401598 0.0023172
-0.12991843 -0.0032973632 0.16687551 -0.20050338 -0.0044201277 0.28618884 0.029323323 -0.20390357
00000000: 813d 973b e8cd 123d e1c5 7bbc 660b 4bbe
00000010: 795d ae3d 46fb e7bc 13f3 8bbe 5d4c f1bc
00000020: 4973 4cbe 0645 09bc ca51 093d 6e56 19ba
00000030: 9c81 5e3e 367a cfbe 325a 0bbe 3834 f2ba
00000040: 8eda fd3d 4758 9a3e 7e1e afbe 79fe 443e
00000050: 6ba4 78bd 10a7 cd3c 04bf 3a3e 9913 4c3e
00000060: 120f 04be e61c 993e 28ee 623e dd22 a03a
00000070: 06f4 f53d 09ae e53d faa9 98be 9a06 763d
00000080: e3d3 593e ce89 573d 5b45 0a3e 3cc8 903e
00000090: 7316 79bd 5eae 8abc 88de 9abd 543c d23d
000000a0: 8a34 edbd d473 01bd 507d 1d3d 2930 13bd
000000b0: 1a36 0ebe 1790 c7be 0579 72be f52d a2bd
000000c0: 520e 053e a3c3 09be 07c0 363e cb57 bf3e
000000d0: 26ef adbd 5789 b63d 4b05 093e 0ec4 a63e
000000e0: ae21 7d3e e6bd e63d 3242 7fbd 4b42 573e
000000f0: 6105 973e d73c f53c 7b8f a43c b3b0 69be
00000100: ad9e 6e3c 4d07 e43d 72fd bf3d d283 c0bd
00000110: 2fb4 8fbc ce7f 283e 851c b7bc 63d9 8cbd
00000120: d508 29be 131e 8ebd 02a5 97bd cb5f 373c
00000130: 94f8 3bbd 1858 a13e 5dbb cdba 471a 143c
00000140: c6f6 0ebe 04f3 2c3d df6e ac3c 7c59 03be
00000150: e184 f93e 9233 1abe 103c 08be ed73 953d
00000160: 0e20 953e 36a5 b2bd e281 1ebd 8a83 2d3d
00000170: e461 0fbd 5032 71be 2e6e d13d 3a54 3fbe
00000180: e9ee 46be fd9a ae3d 5bae 8f3d 9424 59bd
00000190: d9c1 27bd 47c2 823b c074 4e3e 736b ac3d
000001a0: 2787 5ebd 69e4 88be 4461 94bd 9f70 8a3e
000001b0: f494 323c f66d 643e c6a1 083e d915 ab3e
000001c0: 1b8e 173d b858 bf3c b6b1 cb3c e51d 2cbe
000001d0: fca1 a63e 2f33 693d b50e 163e 2d8a 47bd
000001e0: e2a8 98bd 1852 183e 15f2 1e3d ce26 14bd
000001f0: 3750 b5bd 766e 06be d746 cdbd 4d98 863e
00000200: d42b 05bc 2c95 08bd b6d1 883e b0ba c0bc
00000210: 628c c83d 6bc3 13be 589a 203e 3faa 7a3c
00000220: 4f24 863e 0719 453e c8d8 f33d a636 6fbd
00000230: 091e 3cbe 5744 19bc bdd1 d23d 5795 db3d
00000240: 38d0 e7bd 365d fa3d 6b3f 68bc 78e7 3a3e
00000250: e43f a53c 677f b73d c2fa d4bc e209 473e
00000260: 2354 debd 3324 ff3b dcf7 8f3d 26fd 0c3e
00000270: 4b7c fd3d 665a a33e 622e 2abe d858 d1bd
00000280: 2147 213d c6df 75be dd9c 743e bc5b 83be
00000290: de0e 3fbe 16d0 6f3d 5d0c 0dbd e525 733d
000002a0: 1a6b be3c 9058 03be b6a4 993d f1a2 afbd
000002b0: 4581 e53d 531c 5cbe 9ec6 1abe c9fc 293e
000002c0: 2dce 2bbe bb7d 473d 5ae2 063e e30e 00be
000002d0: 49dd 40be cd4e 7abd 4485 69bb ebc6 313d
000002e0: b592 aabe 18bd 973e 50c8 1b3d 8cf2 433d
000002f0: 7583 6abe b0c3 4c3e 34f7 e3bd 358c 6d3d
00000300: bf40 36bc 3fca 8a3e 750a 42bd 9387 4cbc
00000310: bed8 c33d 9156 5b3c 9a4d acbd 9232 68be
00000320: 367a a73d 747a 12bc 2b8b 1e3e 1372 9dbd
00000330: 1803 b8bd 7a54 d53d 70ff 913c 254a 91be
00000340: 95fa 123c 6e84 1ebe 0e69 f83c 7512 163e
00000350: 6391 8e3d 2309 8d3e 13e1 993e b670 0abe
00000360: bbe0 b33d 8b8a 2f3c 4e25 b2bc 5b56 14be
00000370: d38e 00be b83d 873d ade1 873e b5e5 c9bd
00000380: b87f 20be b353 113e 5de8 5b3e b200 60bd
00000390: d201 6abe 9767 3d3e 13b4 ecbb 3ad1 9bbe
000003a0: 124b e93d 8b30 87be 843c 62be 9add 6e3d
000003b0: a287 8fbd e766 0c3e 86c7 e93d 23d7 553e
000003c0: 53ab f33c 4bea 87bd 2861 b9bc 46b5 07be
000003d0: d084 823b 0b6d f6bc 0317 d03c 2adc 173b
000003e0: 5609 05be 9318 58bb 6ae1 2a3e c250 4dbe
000003f0: b8d6 90bb 5887 923e 7737 f03c 19cc 50be

encoder.lstm.weight_hh_l1 f4 [256, 64]
0.3499052 -0.16722146 -0.07799065 0.020316048 -0.24283652 0.52245474 0.31380522 0.2096843
-0.16706206 -0.065305196 -0.008423342 0.15860313 -0.046548374 0.07453002 0.056659017 -0.27706775
0.40212813 0.016841598 -0.3042828 0.16580407 -0.03027253 -0.3496812 -0.6507169 0.21135944
-0.114193924 -0.32568008 -0.21415494 0.10055308 -0.44205236 -0.10302839 0.036966544 0.28759757
0.17788696 0.07160459 0.10461466 -0.078895874 0.19274543 0.34899294 0.18686907 -0.34027496
-0.42121762 -0.047014873 0.13112661 -0.25508526 -0.08844073 -0.3200543 0.25275785 0.03254541
-0.025225969 0.3962536 -0.17438298 -0.19598517 -0.107912935 0.09333269 0.0015467094 0.38944697
-0.07875977 0.08876114 -0.042356372 0.10149318 -0.0433234 -0.33265778 0.45688656 0.1312282
0.13630432 -0.0033595369 -0.100955874 0.14255029 -0.022878826 -0.053638913 0.20282876 -0.06848918
0.098796695 0.15197971 0.17574485 -0.139308 0.112935334 0.06042508 0.017917886 -0.18820874
0.101215385 0.043849356 0.107409544 0.32995063 0.07061319 -0.14001712 0.12788987 0.30249327
0.03876723 -0.058909915 -0.07504949 0.06488929 -0.04848078 0.010541519 -0.23133993 -0.0047644107
-0.08871132 -0.0365998 -0.061211374 -0.23191488 -0.032221526 -0.08566303 -0.035089433 0.03494646
-0.04681569 0.07740667 -0.21508092 -0.25234067 0.06038196 0.07232582 0.0102632 -0.2393203
0.058659907 -0.039270565 -0.24003056 -0.12336707 -0.0046838787 0.047239095 0.03393255 -0.12353063
0.3027004 -0.007935308 -0.12824698 -0.20725946 0.042599156 -0.11690982 -0.06326152 0.29090202
-0.047730867 -0.028625833 -0.08982629 -0.0028960933 0.3116962 0.03888356 -0.07960616 0.08465735
-0.03332498 0.071059816 0.07790716 -0.040608082 -0.19249985 0.113870434 -0.1836165 -0.16024329
0.03285847 0.14763978 0.12825225 -0.02870802 0.34009093 -0.12515643 0.0013989921 -0.11351286
-0.35329184 -0.053101394 0.10194647 -0.08696234 -0.031233216 0.36210984 0.006465644 0.16832979
0.2857316 -0.20588782 0.007866265 0.08419795 0.24293725 0.101090975 0.06576714 -0.19429599
0.051209506 -0.25169197 -0.2153318 0.20087801 -0.26828983 -0.012302188 -0.046189733 0.09460697
-0.07659218 0.0058136517 -0.3124243 -0.08852902 -0.2876945 -0.3797683 0.09214023 -0.26416373
0.07248067 -0.034160446 0.052994926 -0.0618662 0.02692148 0.22047418 -0.024425024 -0.0023852275
-0.023334548 -0.03630966 -0.0065721506 0.09743156 0.018484065 0.07743015 -0.0753395 0.18607597
0.24992606 0.035248023 0.40792817 0.103698984 -0.022808814 -0.14766552 -0.17997783 0.31556275
-0.106958754 -0.3080856 0.24380606 0.083286405 -0.11555224 0.15191299 0.32536754 -0.2947258
-0.085036136 0.20188323 0.058756635 0.06298012 0.22400333 -0.003718469 0.21919446 -0.10151255
0.028331127 0.19351183 0.15084201 -0.030988108 -0.20890707 -0.28033867 0.015889604 0.34463292
-0.17633912 0.04877147 -0.003261902 0.19677323 0.1693039 0.02063441 -0.103206724 -0.35859078
-0.027809046 -0.14626704 -0.20180057 0.13095777 -0.047187425 -0.1166448 -0.18375607 -0.061331186
-0.1395619 0.09062192 -0.13286655 -0.27202958 -0.29624262 -0.073609464 -0.18469144 0.10593316
00000000: c626 b33e 1a3c 2bbe 90b9 9fbd d76d a63c
00000010: 23aa 78be 98bf 053f 14ab a03e 7bb7 563e
00000020: 5112 2bbe bbbe 85bd 0f02 0abc dc68 223e
00000030: 82a9 3ebd 32a3 983d 4913 683d d3db 8dbe
00000040: bde3 cd3e 64f7 893c f5ca 9bbe 8bc8 293e
00000050: 19fe f7bc 6a09 b3be 6295 26bf 9c6e 583e
00000060: 81de e9bd 8abf a6be 6f4b 5bbe c6ee cd3d
00000070: b054 e2be 8c00 d3bd 3b6a 173d fd3f 933e
00000080: 0028 363e 6da5 923d 3640 d63d 2994 a1bd
00000090: 0f5f 453e 34af b23e 9b5a 3f3e 8538 aebe
000000a0: d6a9 d7be ab92 40bd 0e46 063e 899a 82be
000000b0: 6a20 b5bd 28de a3be 7a69 813e 564e 053d
000000c0: b1a6 cebc c0e1 ca3e 7491 32be 56b0 48be
000000d0: 7501 ddbd 3625 bf3d f5ba ca3a 9865 c73e
000000e0: cd4c a1bd 67c8 b53d e07d 2dbd a8db cf3d
000000f0: e173 31bd 1f52 aabe 09ed e93e af60 063e
00000100: 5c93 0b3e ad2b 5cbb f4c1 cebd b4f8 113e
00000110: 606c bbbc 7ab4 5bbd 58b2 4f3e 0e44 8cbd
00000120: ec55 ca3d 92a0 1b3e 75f6 333e c2a6 0ebe
00000130: a44a e73d 4a80 773d 88c8 923c cbb9 40be
00000140: 034a cf3d 629b 333d 89f9 db3d 4aef a83e
00000150: a69d 903d a660 0fbe 90f5 023e 66e0 9a3e
00000160: 63ca 1e3d 864b 71bd 8cb3 99bd ade4 843d
00000170: c893 46bd 56b6 2c3c 60e4 6cbe c61e 9cbb
00000180: 48ae b5bd ace9 15bd c7b8 7abd 187b 6dbe
00000190: b8fa 03bd 1970 afbd f0b9 0fbd 0524 0f3d
000001a0: cfc1 3fbd 6387 9e3d 2c3e 5cbe cc32 81be
000001b0: 1353 773d 8f1f 943d fb26 283c 6110 75be
000001c0: 5f45 703d 2cda 20bd 92ca 75be e0a7 fcbd
000001d0: 397b 99bb c87d 413d dcfc 0a3d a0fd fcbd
000001e0: 8cfb 9a3e 1803 02bc 2d53 03be d33b 54be
000001f0: 747c 2e3d 6a6e efbd 418f 81bd 1cf1 943e
00000200: 7181 43bd b980 eabc d9f6 b7bd 62cc 3dbb
00000210: a596 9f3e 5e44 1f3d 8e08 a3bd d560 ad3d
00000220: c67f 08bd cf87 913d ca8d 9f3d a954 26bd
00000230: ae1e 45be e734 e93d f705 3cbe d116 24be
00000240: 9a96 063d e22e 173e 8f54 033e 152d ebbc
00000250: 6620 ae3e 0229 00be 635e b73a 6e79 e8bd
00000260: abe2 b4be d980 59bd 50c9 d03d 5019 b2bd
00000270: cddc ffbc 7666 b93e c1dd d33b a55e 2c3e
00000280: 6a4b 923e 42d4 52be 82e1 003c fa6f ac3d
00000290: 8bc4 783e c908 cf3d ecb0 863d 87f5 46be
000002a0: 0fc1 513d c5dd 80be f07f 5cbe f7b2 4d3e
000002b0: 495d 89be 1e8f 49bc 7231 3dbd 4dc1 c13d
000002c0: 5cdc 9cbd 7280 be3b 14f6 9fbe b44e b5bd
000002d0: b24c 93be fe70 c2be 04b4 bc3d 7840 87be
000002e0: bf70 943d d3eb 0bbd 3511 593d 6a67 7dbd
000002f0: 708a dc3c fcc3 613e fd16 c8bc 7a51 1cbb
00000300: 1828 bfbc 70b9 14bd 325b d7bb 338a c73d
00000310: e56b 973c b393 9e3d 994b 9abd b38a 3e3e
00000320: 9eec 7f3e 3b60 103d f6db d03e 2260 d43d
00000330: 8dd9 babc a135 17be 1c4c 38be 7191 a13e
00000340: 310d dbbd 65bd 9dbe 4ca8 793e 1092 aa3d
00000350: a7a6 ecbd 148f 1b3e 9396 a63e 4de6 96be
00000360: 6d27 aebd 7aba 4e3e ccaa 703d b9fb 803d
00000370: 2161 653e 8fb1 73bb 8374 603e d0e5 cfbd
00000380: ae16 e83c f727 463e 5476 1a3e c6da fdbc
00000390: bceb 55be 8d88 8fbe ea2a 823c ba73 b03e
000003a0: 3e92 34be 98c4 473d a2c5 55bb ec7e 493e
000003b0: 005e 2d3e 7f09 a93c 0c5e d3bd 3699 b7be
000003c0: cccf e3bc 07c7 15be cfa4 4ebe cb19 063e
000003d0: 9a47 41bd 78e3 eebd 8d2a 3cbe 6936 7bbd
000003e0: 51e9 0ebe fc97 b93d 2b0e 08be 7647 8bbe
000003f0: 1dad 97be 8fc0 96bd c11f 3dbe 7cf3 d83d

encoder.lstm.bias_ih_l1 f4 [256]
0.20916556 -0.047273174 0.08793294 -0.056644157 0.0166162 0.09906499 -0.19218835 0.15135975
0.097016275 -0.19438496 0.003366759 -0.09085027 0.30544603 0.03241816 0.17531043 0.19118159
-0.11707701 0.054845627 0.0027931267 0.09459441 -0.13386664 -0.092951365 -0.019472849 -0.08191568
-0.022784695 -0.10720201 0.023933183 -0.11572581 -0.01949731 -0.08085952 0.0018374906 -0.12664616
0.09741195 0.018513711 -0.037379198 0.08237339 -0.03716766 0.08734779 -0.12948316 -0.13523613
-0.06911358 0.16195177 -0.15227072 0.067840986 -0.12798454 0.051992442 0.018871842 0.07046467
-0.038246613 0.006048366 0.12486549 0.14272927 0.19600964 -0.097140834 0.02562847 -0.050885323
-0.10716144 -0.05721705 -0.037531048 0.10414609 0.055901326 -0.16860108 -0.1503067 0.30521286
0.116375946 0.08664755 0.11880549 0.13471135 0.24045354 0.019417103 -0.01419037 -0.11544427
0.030590428 0.04454699 0.0075216107 0.07230113 -0.10680785 0.15324487 0.05545974 -0.0443585
-0.0396152 0.089086406 -0.030849911 -0.05223089 0.15495388 0.24757278 -0.08378085 0.12640096
0.07248582 0.27503946 -0.019121956 0.024959588 -0.1550121 -0.085827656 0.06904216 0.05868391
0.1107465 0.0043670917 0.044423953 0.04866679 0.05479342 0.09567281 0.3635422 0.27016157
0.14339171 0.0703865 0.063555524 0.08922282 0.13276532 -0.001310126 -0.04272718 0.056109063
0.06699652 -0.0013773363 0.13002159 0.17312965 -0.064929426 -0.07692025 0.09566635 0.25815365
0.2509675 0.09350837 0.004761629 0.10636258 0.10393762 -0.057391427 -0.022887459 -0.24686323
0.022215344 -0.048874293 -0.12878041 0.06967759 0.08763058 0.09754308 -0.029357035 0.07845028
0.11389003 -0.028688047 0.055768 0.05243978 -0.09291762 -0.05820672 -0.096182324 -0.03297654
-0.08029142 -0.055095296 0.03497487 0.08069324 -0.015597498 -0.10233434 -0.11572685 -0.04336393
-0.035620317 -0.08566731 0.13359667 -0.12786634 0.04057726 -0.04775727 0.014815521 -0.1279527
0.13897069 0.121678114 0.093964435 -0.057738956 0.1093002 0.05631356 0.10509863 -0.03857034
0.11965647 -0.06359587 0.10875474 -0.033413913 -0.057164628 0.015600882 0.1027201 -0.027294546
-0.12511931 -0.0036011918 -0.06284888 0.07139864 0.015575144 0.09390497 0.03465715 0.036980342
0.095120676 0.104935266 -0.056426678 0.022360066 0.0464186 -0.049863778 -0.10132658 -0.13177606
0.21458405 0.06512454 0.07062303 0.074150585 0.049245212 -0.040871896 -0.06071179 -0.11665801
0.09532251 -0.17528838 0.13878681 -0.050081737 0.17446654 0.104737855 -0.02570243 0.17575139
0.01709047 0.09146646 0.06935438 0.29158404 0.13201234 0.04916015 -0.06352527 0.04275734
0.00087893964 -0.007704511 -0.011736181 0.028278904 0.12514754 0.073778 -0.037553653 -0.10208206
0.15398891 0.051061682 -0.014226946 -0.05549895 0.19042173 -0.17776881 0.15637697 0.0720963
0.08682768 0.007311217 0.065653905 0.02200299 -0.055942323 -0.017027622 -0.11264891 -0.09249484
0.12295197 0.07534383 0.18074585 0.30735517 0.02034128 -0.13390121 0.015705487 0.07249951
0.11855419 0.05490555 0.06164011 0.14211415 -0.026544314 0.032831643 0.05368041 0.18469515
00000000: 7f2f 563e 84a1 41bd 2f16 b43d b403 68bd
00000010: b21e 883c 96e2 ca3d 06cd 44be 0dfe 1a3e
00000020: 78b0 c63d da0c 47be d8a4 5c3b b50f babd
00000030: 6c63 9c3e e8c8 043d 9484 333e 1bc5 433e
00000040: 12c6 efbd cfa5 603d e40c 373b b7ba c13d
00000050: 5614 09be 495d bebd 8685 9fbc 68c3 a7bd
00000060: f8a6 babc ba8c dbbd 860f c43c a701 edbd
00000070: d3b8 9fbc ad99 a5bd f4d7 f03a 88af 01be
00000080: eb7f c73d 11aa 973c ee1a 19bd 61b3 a83d
00000090: 1e3d 18bd 66e3 b23d 3c97 04be 577b 0abe
000000a0: 6c8b 8dbd afd6 253e dbec 1bbe 37f0 8a3d
000000b0: 610e 03be 07f6 543d 1f99 9a3c c84f 903d
000000c0: 7ba8 1cbd 5f31 c63b 7ab9 ff3d 9f27 123e
000000d0: c0b6 483e c6f1 c6bd ccf2 d13c 216d 50bd
000000e0: 7577 dbbd 6d5c 6abd 28ba 19bd 8c4a d53d
000000f0: caf8 643d c3a5 2cbe 00ea 19be dc44 9c3e
00000100: 8356 ee3d 4574 b13d 4b50 f33d c6f1 093e
00000110: 7439 763e 9e10 9f3c ba7e 68bc 0c6e ecbd
00000120: c798 fa3c e876 363d d877 f63b 9d12 943d
00000130: 13be dabd 39ec 1c3e c129 633d 42b1 35bd
00000140: 8c43 22bd ef72 b63d f4b8 fcbc 0ff0 55bd
00000150: 3bac 1e3e b883 7d3e 4b95 abbd 416f 013e
00000160: 7273 943d f9d1 8c3e a6a5 9cbc 0d78 cc3c
00000170: 7ebb 1ebe 69c6 afbd fa65 8d3d 8a5e 703d
00000180: 10cf e23d d219 8f3b e4f5 353d d456 473d
00000190: 116f 603d 1bf0 c33d 3422 ba3e 9e52 8a3e
000001a0: 47d5 123e cc26 903d 6629 823d 74ba b63d
000001b0: a2f3 073e 89b8 abba b202 2fbd 9ed2 653d
000001c0: 7935 893d bd87 b4ba 6124 053e e648 313e
000001d0: b8f9 84bd 5d88 9dbd b8ec c33d b72c 843e
000001e0: d07e 803e 5181 bf3d 7007 9c3b a0d4 d93d
000001f0: 3fdd d43d 4613 6bbd 7b7e bbbc b7c9 7cbe
00000200: f4fc b53c 6930 48bd 03df 03be 20b3 8e3d
00000210: a977 b33d abc4 c73d 2a7e f0bc 8aaa a03d
00000220: 2d3f e93d 3203 ebbc fd6c 643d 18cb 563d
00000230: 984b bebd 2b6a 6ebd 3dfb c4bd 6912 07bd
00000240: d46f a4bd 9bab 61bd cf41 0f3d 7f42 a53d
00000250: a68c 7fbc ab94 d1bd 3302 edbd 609e 31bd
00000260: 9ce6 11bd 5872 afbd 91cd 083e 65ef 02be
00000270: 5734 263d 219d 43bd cdbc 723c 0806 03be
00000280: 554e 0e3e 6032 f93d 6d70 c03d af7f 6cbd
00000290: c9d8 df3d 0ca9 663d f33d d73d effb 1dbd
000002a0: 740e f53d 8d3e 82bd ceba de3d 07dd 08bd
000002b0: 7525 6abd d79a 7f3c ea5e d23d d098 dfbc
000002c0: 471f 00be f901 6cbb eab6 80bd 7339 923d
000002d0: e42e 7f3c 4051 c03d a8f4 0d3d b378 173d
000002e0: a1ce c23d 4de8 d63d a91f 67bd 752c b73c
000002f0: 6e21 3e3d f63d 4cbd 4f84 cfbd 4ef0 06be
00000300: ecbb 5b3e 0460 853d cfa2 903d 43dc 973d
00000310: 59b5 493d 4a69 27bd edac 78bd 65ea eebd
00000320: 7338 c33d cc7e 33be 211e 0e3e 8222 4dbd
00000330: 5ba7 323e cd80 d63d e78d d2bc 2cf8 333e
00000340: 5001 8c3c c452 bb3d ab09 8e3d 814a 953e
00000350: 3e2e 073e 275c 493d 8919 82bd 5222 2f3d
00000360: a468 663a 1f76 fcbb 1c49 40bc 29a9 e73c
00000370: ad26 003e ec18 973d dcd1 19bd 6610 d1bd
00000380: 45af 1d3e 0e26 513d 2318 69bc de52 63bd
00000390: eafd 423e 0709 36be 4921 203e 3aa7 933d
000003a0: b6d2 b13d ef92 ef3b 8e75 863d 9d3f b43c
000003b0: c723 65bd 837d 8bbc 79b4 e6bd ef6d bdbd
000003c0: 3ece fb3d de4d 9a3d 7115 393e a85d 9d3e
000003d0: c2a2 a63c 661d 09be cba8 803c a07a 943d
000003e0: 8acc f23d a4e4 603d 577a 7c3d 5f86 113e
000003f0: 7673 d9bc 797a 063d fddf 5b3d ba20 3d3e

encoder.lstm.bias_hh_l1 f4 [256]
0.17547546 0.10260674 0.14595075 0.046170697 -0.16830577 0.00878597 -0.01961377 0.12005023
0.019399375 -0.14252867 0.17961052 -0.13365409 0.23173696 0.23582904 0.045456115 0.2700649
0.07134588 0.06261313 0.09607516 0.26525742 -0.10061877 -0.14778936 0.096933596 -0.012079873
0.101643324 0.106565595 -0.08366621 0.02746567 -0.07558305 0.0060423086 0.11701598 -0.16240676
0.16863257 -0.017060876 -0.01133494 -0.023717081 0.038577758 -0.016909322 0.06273413 -0.09135442
0.008143032 -0.01270824 -0.17479515 -0.0034837911 0.027525622 -0.023360884 0.1879579 0.011585462
0.066796206 0.07734188 0.14188094 0.021901373 0.022359382 -0.10962574 0.07670074 0.0031543884
0.031854324 -0.12693967 0.0063601835 0.081110924 -0.0097947605 -0.1474324 -0.22789149 0.19532037
0.2553051 0.018387575 0.022939168 -0.037205525 0.19382095 0.01699387 0.07049795 -0.10501692
-0.009237666 0.06925654 0.00996209 0.21079578 -0.01660549 0.28055 0.14895914 -0.109737135
-0.10509765 0.17727499 0.1360316 -0.020469056 0.110363364 0.25856793 0.017466048 0.091494344
-0.010890977 0.15591961 0.17515066 0.19187742 0.0062565487 0.05174841 0.051308602 0.06092811
-0.0065042726 -0.08288449 0.18793249 0.08170545 0.033933394 0.14055605 0.14385724 0.15381634
0.011179115 -0.07221887 0.12642117 0.04832564 0.15025876 0.057957206 -0.046227902 -0.08231363
0.045657035 -0.116219714 0.048835408 0.13703594 0.045078862 0.05830209 0.15306717 0.13344121
0.08042796 -0.1396794 -0.017552134 0.05220275 0.10151678 0.09976352 -0.07362614 -0.14300013
0.16151561 -0.16069262 -0.16386564 -0.009667229 0.083223835 0.0014142735 -0.104433484 0.058173656
-0.0034599458 -0.07869551 0.12814467 0.10703439 0.05574112 -0.09007167 0.020871812 0.0694305
0.077411726 -0.07898794 -0.027888073 -0.033019688 -0.062291883 0.023021739 -0.050833005 -0.0112579465
-0.014319704 -0.1145479 -0.02139429 -0.015022412 0.05258629 -0.14349309 -0.13077639 0.044969935
0.11989346 0.11993128 0.043555878 0.004282704 -0.06702611 0.012555749 -0.028151823 -0.03866073
-0.09529588 -0.10639375 -0.1314773 0.051084384 -0.062279146 0.027091222 0.088657685 0.09257498
-0.08419633 0.023944492 -0.022112072 -0.11768212 0.12500297 0.056133166 0.1226889 -0.07811769
0.07803773 0.024206346 -0.15985392 0.13852006 -0.06232417 0.05542305 0.022137832 0.032564323
0.21655649 0.110943705 0.10415689 -0.07526968 0.123837024 0.16826129 0.006969924 -0.066726506
-0.020487305 -0.10125421 0.015561794 -0.13549618 0.3099381 -0.09160458 -0.04945782 0.3774554
0.10253159 0.17531356 0.019552404 0.09655651 -0.040573683 0.049174085 -0.17829917 -0.050343826
-0.14481655 0.1208718 0.024353424 0.0330976 0.003532758 0.093426876 0.08786797 0.046308883
0.15658683 -0.04823655 0.10203016 -0.11254824 0.19102173 -0.07524288 0.10180347 0.2676638
0.08887627 0.25304496 -0.011201205 0.08236348 0.10117851 0.02575916 -0.018848462 0.046151906
0.114131294 -0.024451936 0.1926384 0.27955276 0.05428991 -0.08301131 0.12124685 0.24987045
0.116411656 -0.02729842 -0.047912676 0.02854435 0.056290973 0.14901772 -0.094295986 0.0795757
00000000: d7af 333e 7c23 d23d 1d74 153e 7c1d 3d3d
00000010: 5958 2cbe 07f3 0f3c 0fad a0bc e5dc f53d
00000020: 70eb 9e3c 09f3 11be d2eb 373e 9edc 08be
00000030: 744c 6d3e 2b7d 713e 3130 3a3d f245 8a3e
00000040: ca1d 923d 503b 803d 0ec3 c43d d2cf 873e
00000050: 3711 cebd 1856 17be 1f85 c63d a9ea 45bc
00000060: 602a d03d 103f da3d 3159 abbd afff e03c
00000070: 49cb 9abd 8ffe c53b 13a6 ef3d f54d 26be
00000080: 04ae 2c3e 40c3 8bbc 2fb6 39bc 534a c2bc
00000090: b603 1e3d 6b85 8abc c07a 803d 0718 bbbd
000000a0: 5a6a 053c 3936 50bc 80fd 32be 5150 64bb
000000b0: 6a7d e13c 535f bfbc 0978 403e f3d0 3d3c
000000c0: 73cc 883d 6b65 9e3d 3d49 113e 826a b33c
000000d0: 062b b73c 7683 e0bd 4715 9d3d dbb9 4e3b
000000e0: ae79 023d 79fc 01be 1669 d03b 7c1d a63d
000000f0: 347a 20bc 85f8 16be 635c 69be 1002 483e
00000100: 5ab7 823e 8aa1 963c ecea bb3c d264 18bd
00000110: 0079 463e ba36 8b3c 3b61 903d 1c13 d7bd
00000120: 9459 17bc 5fd6 8d3d 0938 233c d9da 573e
00000130: 3d08 88bc 40a4 8f3e bf88 183e ddbd e0bd
00000140: 703d d7bd 9387 353e de4b 0b3e b9ae a7bc
00000150: 3006 e23d 0463 843e f514 8f3c 6361 bb3d
00000160: 1270 32bc 64a9 1f3e b25a 333e 847b 443e
00000170: bc03 cd3b 24f6 533d f828 523d c18f 793d
00000180: cb21 d5bb 58bf a9bd 6071 403e 3055 a73d
00000190: befd 0a3d eded 0f3e 504f 133e 0882 1d3e
000001a0: 9b28 373c 7de7 93bd 8d74 013e 1bf1 453d
000001b0: 6fdd 193e 8964 6d3d 7859 3dbd 0c94 a8bd
000001c0: df02 3b3d 9a04 eebd a307 483d 2653 0c3e
000001d0: 9da4 383d 2cce 6e3d a4bd 1c3e d0a4 083e
000001e0: 6ab7 a43d 1e08 0fbe 7ec9 8fbc 8dd2 553d
000001f0: 08e8 cf3d d150 cc3d 4dc9 96bd a06e 12be
00000200: 5964 253e 9b8c 24be 65cc 27be 4c63 1ebc
00000210: 4271 aa3d 255f b93a 39e1 d5bd 8047 6e3d
00000220: 42c0 62bb 1d2b a1bd 5b38 033e d934 db3d
00000230: cd50 643d 7f77 b8bd 5dfb aa3c 9431 8e3d
00000240: 0a8a 9e3d 6ec4 a1bd 8775 e4bc a73f 07bd
00000250: c625 7fbd 1698 bc3c 4536 50bd 4073 38bc
00000260: 319d 6abc 1798 eabd 1443 afbc 9020 76bc
00000270: b964 573d daef 12be 3fea 05be 6532 383d
00000280: b48a f53d 889e f53d a667 323d ed55 8c3b
00000290: fc44 89bd a1b6 4d3c a79e e6bc b75a 1ebd
000002a0: 7d2a c3bd f7e4 d9bd fca1 06be dc3d 513d
000002b0: 6b18 7fbd 69ee dd3c 2992 b53d f397 bd3d
000002c0: 206f acbd 3d27 c43c 6024 b5bc 5303 f1bd
000002d0: c700 003e e4eb 653d 5144 fb3d 2bfc 9fbd
000002e0: 3fd2 9f3d 634c c63c bfb0 23be 34d8 0d3e
000002f0: a147 7fbd 4803 633d 665a b53c 2b62 053d
00000300: fcc0 5d3e 7436 e33d 3550 d53d fd26 9abd
00000310: 449e fd3d b04c 2c3e f663 e43b e8a7 88bd
00000320: fed4 a7bc 5e5e cfbd e5f6 7e3c 83bf 0abe
00000330: 35b0 9e3e 2f9b bbbd 4894 4abd d641 c13e
00000340: 15fc d13d 6685 333e 5d2c a03c 6bbf c53d
00000350: 9730 26bd c46a 493d 0f94 36be 5435 4ebd
00000360: ca4a 14be a28b f73d d580 c73c 5991 073d
00000370: d885 673b 9756 bf3d 1ff4 b33d 62ae 3d3d
00000380: 4c58 203e b093 45bd 30f5 d03d b17f e6bd
00000390: 339b 433e f018 9abd 567e d03d 3b0b 893e
000003a0: c304 b63d 1c8f 813e 4285 37bc 2fae a83d
000003b0: ae36 cf3d e004 d33c 1768 9abc c809 3d3d
000003c0: abbd e93d 6d4f c8bc 0043 453e 8a21 8f3e
000003d0: 195f 5e3d d501 aabd 4550 f83d 0ade 7f3e
000003e0: 3c69 ee3d f0a0 dfbc 1540 44bd d7d5 e93c
000003f0: 5d91 663d 1a98 183e 411e c1bd 96f8 a23d
