Seattle Weather/nsde_sigwgan/G.pt (torch, 146293 bytes, 15 tensors)

_conditioner._linear.weight f4 [32, 363]
0.031708974 0.03345669 0.0343237 0.034152232 -0.030608142 -0.043835424 0.015778018 -0.0011023022
0.06454633 0.029054819 -0.022623414 0.06503482 0.04177045 0.05019036 -0.03540814 -0.03656588
0.031399075 0.010306559 -0.009616263 -0.039319266 0.049208738 0.0650346 -0.0028191034 0.0024759779
-0.02126646 -0.040844392 0.02845493 0.07188246 -0.052981537 0.0046045217 0.024086423 0.00161305
0.014179412 0.00452824 -0.0049241562 0.00030833407 -0.053174086 0.04725347 0.039468173 0.021623705
0.040201128 -0.0021652167 0.030481076 0.037652142 0.023584003 -0.018521719 0.024827333 0.0069747977
0.011804203 -0.017909044 0.045729004 0.02786784 0.04992827 -0.06377332 0.02650367 -0.028576694
0.009219995 -0.0070951115 -0.031512376 0.027865317 -0.06230313 0.0041779373 0.019239685 -0.0745171
0.021684168 -0.061658192 -0.06758052 0.0545823 0.04222833 0.02048659 0.02870712 -0.008628229
-0.006742592 0.01581869 0.030255895 0.036122892 -0.012165254 -0.014030136 -0.02337654 0.038350254
0.004632697 0.094705164 -0.08996063 0.0048925583 0.079850726 0.070514776 -0.026092783 0.06040796
0.0222435 0.011654323 -0.04218186 -0.017572714 0.011815368 -0.047236033 0.011909725 0.031119788
-0.03111953 0.07276935 0.062099576 0.008734735 -0.029183228 0.046119165 -0.010688385 -0.031782113
-0.020015499 0.023277376 0.03651644 -0.013245139 0.05105999 -0.008258212 -0.00015345878 0.020021722
-0.011339113 0.042121742 -0.054941352 -0.054107916 0.02063216 -0.026071452 -0.022754608 0.05177909
0.02489818 0.038906183 -0.008340787 -0.03904945 -0.0059884004 -0.019250125 -0.015448554 0.028010052
-0.010094615 0.030947229 0.03987534 -0.0533835 0.03725268 0.015566993 0.020596715 -0.058087844
0.08443778 0.013641746 0.029405931 0.03866923 -0.017067738 -0.051885262 -0.108521745 0.00208066
-0.041086733 0.021045258 -0.0313957 0.044915006 -0.005585397 0.0025508394 -0.056170076 -0.066778034
-0.011952943 0.055387247 0.051166948 -0.021363575 0.038078737 0.03193971 0.005119855 -0.03766652
0.05639228 -0.0042927903 0.068405055 0.0076652025 0.014691324 -0.005292376 -0.007500303 0.079859175
-0.15939343 -0.09995931 0.027016472 0.013978575 -0.008503108 -0.044609573 -0.040178817 -0.00013666775
-0.07204366 0.04824557 -0.046011522 -0.03750388 -0.05187742 0.04948911 0.002784355 0.07732486
0.03731784 -0.0019704392 -0.04847659 -0.0710814 0.021924442 0.0036945755 0.05429997 0.038959805
-0.0010802856 -0.029135339 0.006196188 -0.038924176 0.006379122 -0.057641346 3.9754417e-05 0.049002606
0.008028289 -0.044422198 -0.027186409 0.034370117 -0.029796978 -0.032026727 0.038023386 -0.13247865
-0.027152829 -0.043573845 0.0014435872 -0.0073950784 0.08845116 0.050192583 0.034396384 0.022780351
0.009840683 -0.004733391 -0.002475515 -0.10051993 -0.029315278 0.03818451 0.048147757 0.047788616
0.054716647 -0.07441177 0.034012187 0.038010564 -0.00969548 0.029249253 -0.049640268 -0.022660526
-0.029587042 -0.006860454 0.029461136 -0.090597786 0.013298838 0.06847206 -0.0022599616 0.028890593
-0.018856501 0.036338322 0.04020287 0.038252745 -0.064235374 0.0069152117 0.137182 0.07039887
0.011915166 0.15865952 -0.007669659 -0.013386119 0.0012561075 0.06041766 -0.026052043 0.03357845
00000000: 45e1 013d e209 093d 0297 0c3d 36e3 0b3d
00000010: edbd fabc c68c 33bd e740 813c 207b 90ba
00000020: de30 843d 5f04 ee3c bd54 b9bc fa30 853d
00000030: 7e17 2b3d 6894 4d3d 2008 11bd 1bc6 15bd
00000040: 519c 003d d7dc 283c 888d 1dbc 3d0d 21bd
00000050: 1a8f 493d dc30 853d b5c0 38bb 0444 223b
00000060: 0037 aebc 734c 27bd 501a e93c 1c37 933d
00000070: 2b03 59bd 87e1 963b e450 c53c fa6c d33a
00000080: c450 683c a161 943b d15a a1bb e6a7 a139
00000090: 12cd 59bd db8c 413d 61a9 213d 3224 b13c
000000a0: f0a9 243d 4fe6 0dbb 73b3 f93c 2239 1a3d
000000b0: 3d33 c13c dcba 97bc b162 cb3c d88c e43b
000000c0: 6a66 413c fdb5 92bc 564e 3b3d 194b e43c
000000d0: 9681 4c3d 969b 82bd 391e d93c ac19 eabc
000000e0: 760f 173c 1c7e e8bb 1f13 01bd ce45 e43c
000000f0: 9131 7fbd 14e7 883b 8b9c 9d3c 6c9c 98bd
00000100: ffa2 b13c 4d8d 7cbd a867 8abd b191 5f3d
00000110: 9df7 2c3d 7ed3 a73c 322b eb3c 6a5d 0dbc
00000120: f6f0 dcbb 3396 813c 36db f73c 99f5 133d
00000130: c650 47bc a8de 65bc 2880 bfbc 2815 1d3d
00000140: e1cd 973b c8f4 c13d 473d b8bd c151 a03b
00000150: c788 a33d 0d6a 903d 88c0 d5bc 566e 773d
00000160: 0038 b63c c6f1 3e3c e3c6 2cbd a7f4 8fbc
00000170: 3f95 413c 927a 41bd 0221 433c edee fe3c
00000180: 62ee febc 1908 953d 205c 7e3d 221c 0f3c
00000190: aa11 efbc 73e7 3c3d 561e 2fbc f62d 02bd
000001a0: 8bf7 a3bc 32b0 be3c 4392 153d 2402 59bc
000001b0: 4824 513d 744d 07bc c7e9 20b9 9804 a43c
000001c0: b0c7 39bc d987 2c3d 2f0a 61bd 43a0 5dbd
000001d0: c704 a93c cc93 d5bc df67 babc 5016 543d
000001e0: 45f7 cb3c 175c 1f3d cca7 08bc 51f2 1fbd
000001f0: 583a c4bb 70b2 9dbc ef1b 7dbc 5675 e53c
00000200: e263 25bc 0b85 fd3c 5354 233d a8a8 5abd
00000210: 4496 183d b30c 7f3c 71ba a83c 85ed 6dbd
00000220: b7ed ac3d a181 5f3c b5e4 f03c a063 1e3d
00000230: a4d1 8bbc a485 54bd a640 debd af5b 083b
00000240: 904a 28bd 1b67 ac3c c798 00bd ccf8 373d
00000250: b505 b7bb fc2b 273b 9812 66bd ecc2 88bd
00000260: 47d6 43bc bddd 623d 6f94 513d aa02 afbc
00000270: 73f8 1b3d 37d3 023d 75c4 a73b 3548 1abd
00000280: 97fb 663d 89aa 8cbb f317 8c3d 612c fb3b
00000290: e1b3 703c ab6b adbb 1ac5 f5bb 358d a33d
000002a0: 0838 23be 77b7 ccbd a651 dd3c 6506 653c
000002b0: 9f50 0bbc 87b8 36bd 8b92 24bd 784e 0fb9
000002c0: a08b 93bd 269d 453d 9476 3cbd ab9d 19bd
000002d0: 6b7d 54bd 18b5 4a3d ba79 363b 7f5c 9e3d
000002e0: 97da 183d 7c22 01bb 648f 46bd 2093 91bd
000002f0: e39a b33c b120 723b a569 5e3d 5194 1f3d
00000300: 5f98 8dba 3cad eebc 6409 cb3b f56e 1fbd
00000310: f407 d13b 5519 6cbd fbbd 2638 f5b6 483d
00000320: 1689 033c 0df4 35bd 08b6 debc aec7 0c3d
00000330: cb18 f4bc 752e 03bd 69be 1b3d 7ca8 07be
00000340: 9c6f debc 7d7a 32bd c036 bd3a 6a52 f2bb
00000350: e225 b53d bd96 4d3d 39e3 0c3d dc9d ba3c
00000360: d13a 213c 901a 9bbb 403c 22bb 65dd cdbd
00000370: 9826 f0bc 5c67 1c3d 9536 453d ffbd 433d
00000380: 901e 603d 3365 98bd 5d50 0b3d f7b0 1b3d
00000390: cad9 1ebc 219c ef3c 9853 4bbd 91a2 b9bc
000003a0: 8660 f2bc a9cd e0bb 7b58 f13c 558b b9bd
000003b0: 5fe3 593c 143b 8c3d dd1b 14bb f7ab ec3c
000003c0: f378 9abc 7ed7 143d c4ab 243d e9ae 1c3d
000003d0: d68d 83bd 0099 e23b 7079 0c3e 482d 903d
000003e0: d437 433c a477 223e c351 fbbb 7451 5bbc
000003f0: f9a3 a43a 8278 773d 186b d5bc 8f89 093d

_conditioner._linear.bias f4 [32]
0.017180549 0.0047890088 0.053032815 -0.037025355 -0.025652064 0.0062331073 -0.015275519 0.0053133084
0.06716083 0.0010303801 -0.033702817 -0.027496358 -0.044195995 0.01905955 0.022149164 -0.016941505
0.058923677 0.048519846 0.018797295 -0.024820354 0.06708067 0.0074796476 0.057467956 0.046232183
0.05444144 0.04451078 -0.016094225 -0.01468341 -0.022730703 -0.061165538 0.047746662 0.011600193
00000000: 39be 8c3c 1eed 9c3b f038 593d e6a7 17bd
00000010: 4724 d2bc 183f cc3b 2c46 7abc 431b ae3b
00000020: 9e8b 893d d20d 873a f70b 0abd 0b40 e1bc
00000030: dc06 35bd c622 9c3c 2a72 b53c e9c8 8abc
00000040: f459 713d bfbc 463d c9fc 993c 0e54 cbbc
00000050: 9761 893d d517 f53b 8563 6b3d f55d 3d3d
00000060: fdfd 5e3d f050 363d 09d8 83bc af92 70bc
00000070: bd35 babc b788 7abd 0192 433d bc0e 3e3c

_conditioned._func._drift._model.0.weight f4 [84, 64]
0.02508924 0.043460358 0.022953134 -0.00073535106 -0.030064031 0.028494122 0.028524067 -0.05215802
-0.03972959 0.018340765 -0.042964596 -0.061164837 -0.01390096 0.025686476 -0.0042645237 -0.06725482
-0.022326566 0.035266023 -0.017575635 0.059351843 0.0061432994 -0.0669584 -0.038465895 0.026981048
-0.01331503 -0.05261311 0.044974905 -0.034810543 -0.0022967325 0.04893211 0.035847608 -0.029450146
-0.031371024 0.051654037 0.0062324824 0.0760326 0.05854265 -0.05815653 0.0032078647 0.03464005
-0.061782952 0.0319913 -0.057851516 -0.0054204357 -0.03432391 -0.034045715 -0.046945907 -0.062858164
0.030317325 -0.05044334 0.014486288 -0.07838864 0.024179738 -0.0071206694 0.03952462 -0.029723385
-0.018963484 -0.023715204 0.059447292 0.037878484 -0.028379282 0.00012632344 -0.018930512 0.03745633
-0.0911328 0.026099365 -0.01158535 -0.080747016 -0.0067131217 -0.006355168 0.034007773 -0.03572552
0.019118901 -0.029641898 -0.059048425 -0.011883501 0.0051498963 -0.0018288036 0.048760034 -0.022684634
-0.03497325 -0.045665212 -0.0060651586 -0.013742879 0.031391222 0.04503402 -0.008400571 -0.025743129
-0.017115915 0.06751091 -0.007461231 0.053147115 -0.07390572 0.049751695 -0.046577822 -0.062552325
0.06889974 0.009559615 -0.07671082 0.055244867 -0.046910267 -0.028947059 -0.021781439 0.009977241
0.051025786 0.029507397 -0.04721626 0.053052723 0.027010722 0.07399422 -0.008472951 0.07562106
0.016435059 0.0015841831 -0.0012144755 0.014457866 0.04794197 0.05259834 -0.02481892 -0.012728732
0.014079415 -0.0032525219 -0.056476396 -0.017225666 -0.009169146 -0.04762652 0.027748814 -0.008148489
-0.025626907 0.0620156 0.034683995 -0.058910176 -0.0070486213 -0.0072633484 -0.01537233 -0.003680378
-0.012847757 0.04927567 0.034780238 0.01868911 -0.014380438 0.0046217754 0.027771795 0.020127269
-0.04998284 0.03524208 -0.026569536 -0.030969918 -0.027075563 -0.010773776 0.035315074 -0.001955717
0.044725414 0.033263966 -0.04898167 -0.0055173417 0.032183573 0.018661812 -0.030311145 -0.0055747363
-0.0465786 0.053559996 0.021145066 0.04098565 0.0016499008 -0.035887018 -0.08114207 0.06695286
0.012181921 -0.015204187 -0.06470734 0.061322384 -0.04902256 0.017865153 -0.051530138 -0.018198298
-0.006578338 -0.017762665 0.02160237 0.03540185 0.007918869 -0.033284172 0.027046263 -0.032217704
0.0029456746 0.025493776 -0.024727385 -0.036325827 0.007323 0.023277495 -0.05451571 -0.01592588
0.041722093 -0.0188046 0.054377474 0.019783026 0.04429489 0.0161721 0.03991821 -0.024047768
-0.011811616 -0.008597831 -0.0391937 0.015258009 0.06708353 -0.030002527 0.06504949 0.0350363
-0.035431813 0.061748676 0.051991183 0.009439257 -0.01214726 -0.0132840155 -0.040715456 0.01751522
0.04753488 -0.018514846 -0.060871866 -0.016583847 -0.023589948 0.026156344 0.06540079 0.042863946
0.011658579 0.03207997 -0.049371716 -0.039454762 0.0293031 0.07679182 0.03461763 -0.032568514
-0.0639301 0.06348958 -0.0183802 0.031625547 -0.042786475 -0.024911415 -0.004329792 0.03171092
-0.07450241 0.0047397213 0.00092868676 0.031740613 -0.019394787 0.038239334 -0.014985011 -0.030371333
0.03904309 0.0016335623 0.000865289 -0.029912673 0.044458568 -0.012763739 -0.017807111 -0.05199326
00000000: f387 cd3c 7d03 323d 3608 bc3c 93c4 40ba
00000010: d848 f6bc 816c e93c 4eab e93c a6a3 55bd
00000020: 7fbb 22bd 5f3f 963c a5fb 2fbd fb87 7abd
00000030: dac0 63bc 726c d23c 6bbd 8bbb e5bc 89bd
00000040: 34e6 b6bc 1b73 103d c7fa 8fbc eb1a 733d
00000050: bb4d c93b 7c21 89bd 6a8e 1dbd 5c07 dd3c
00000060: 4927 5abc d880 57bd 9b37 383d 8095 0ebd
00000070: c784 16bb 096d 483d f1d4 123d 6f41 f1bc
00000080: e77e 00bd 2f93 533d da39 cc3b fbb6 9b3d
00000090: 6bca 6f3d 8b35 6ebd 0a3b 523b bae2 0d3d
000000a0: 1f10 7dbd 4f09 033d b6f5 6cbd e99d b1bb
000000b0: 3a97 0cbd 8573 0bbd 5a4a 40bd c8bb 80bd
000000c0: 0a5c f83c ad9d 4ebd e557 6d3c 398a a0bd
000000d0: 9614 c63c 8154 e9bb 91e4 213d 757e f3bc
000000e0: 4f59 9bbc 6346 c2bc 017f 733d 7826 1b3d
000000f0: ab7b e8bc b175 0439 2914 9bbc cf6b 193d
00000100: d5a3 babd 56ce d53c 7bd0 3dbc b15e a5bd
00000110: bff9 dbbb 033f d0bb bc4b 0b3d ec54 12bd
00000120: 3e9f 9c3c 91d3 f2bc c3dc 71bd 04b3 42bc
00000130: 76c0 a83b 77b4 efba 9ab8 473d 20d5 b9bc
00000140: 1c40 0fbd 720b 3bbd 3dbe c6bb d029 61bc
00000150: 1594 003d 9875 383d 8ca2 09bc 41e3 d2bc
00000160: ad36 8cbc 2943 8a3d 587d f4bb cab0 593d
00000170: e25b 97bd 6fc8 4b3d 63c8 3ebd 6f1b 80bd
00000180: 4f1b 8d3d ee9f 1c3c 901a 9dbd 7148 623d
00000190: fb24 40bd 6222 edbc fd6e b2bc 9577 233c
000001a0: 6a00 513d 7fb9 f13c d665 41bd d04d 593d
000001b0: 9745 dd3c 488a 973d 22d2 0abc 37df 9a3d
000001c0: d1a2 863c 5da4 cf3a 092f 9fba afe0 6c3c
000001d0: cd5e 443d 5b71 573d 0c51 cbbc 2c8c 50bc
000001e0: 59ad 663c 4328 55bb cb53 67bd d71c 8dbc
000001f0: 303a 16bc 0714 43bd 7b51 e33c 3d81 05bc
00000200: 85ef d1bc 1204 7e3d ce10 0e3d cc4b 71bd
00000210: 1ff8 e6bb 6201 eebb 3adc 7bbc 7f32 71bb
00000220: 667f 52bc 49d5 493d b975 0e3d e819 993c
00000230: ee9b 6bbc 4372 973b ad81 e33c f1e1 a43c
00000240: ceba 4cbd 005a 103d 5ba8 d9bc a0b4 fdbc
00000250: 92cd ddbc 7e84 30bc 8aa6 103d 7d2b 00bb
00000260: ff31 373d cc3f 083d 01a1 48bd d1ca b4bb
00000270: ecd2 033d a8e0 983c 144f f8bc 47ac b6bb
00000280: 34c9 3ebd ba61 5b3d 6b38 ad3c 92e0 273d
00000290: 7c41 d83a 44fe 12bd d02d a6bd 951e 893d
000002a0: ae96 473c fb1a 79bc 4885 84bd 2e2d 7b3d
000002b0: e1cb 48bd f159 923c 4411 53bd 9914 95bc
000002c0: 198f d7bb 0283 91bc 74f7 b03c 8801 113d
000002d0: 25be 013c fc54 08bd 2090 dd3c b6f6 03bd
000002e0: 380c 413b 53d8 d03c 1691 cabc 64ca 14bd
000002f0: c7f5 ef3b 72b0 be3c dd4b 5fbd fe76 82bc
00000300: c9e4 2a3d 1b0c 9abc eaba 5e3d 0310 a23c
00000310: 8f6e 353d 5a7b 843c 4781 233d d3ff c4bc
00000320: 8285 41bc ebdd 0cbc 9389 20bd bafc 793c
00000330: 1763 893d dcc7 f5bc ab38 853d 3982 0f3d
00000340: f320 11bd 2eec 7c3d b5f4 543d 1da7 1a3c
00000350: 4d05 47bc 33a5 59bc 40c5 26bd 147c 8f3c
00000360: efb3 423d 72ac 97bc c754 79bd d9da 87bc
00000370: b53f c1bc d445 d63c d9f0 853d 1b92 2f3d
00000380: a003 3f3c 4966 033d ff39 4abd 519b 21bd
00000390: 0e0d f03c 0845 9d3d 37cb 0d3d 9066 05bd
000003a0: c9ed 82bd d306 823d 1392 96bc ca89 013d
000003b0: df40 2fbd 0613 ccbc eee0 8dbb 4fe3 013d
000003c0: b894 98bd aa4f 9b3b 1d73 733a 7202 023d
000003d0: d1e1 9ebc d9a0 1c3d b183 75bc 4dcd f8bc
000003e0: a6eb 1f3d 411d d63a 90d4 623a 6c0b f5bc
000003f0: 301a 363d 001f 51bc 38e0 91bc e2f6 54bd

_conditioned._func._drift._model.0.bias f4 [84]
-0.028590905 0.006064548 0.05748546 -0.020482102 0.008389373 -0.029317698 0.0121578835 0.008464093
0.023461098 0.017413149 0.0074064806 -0.02550907 -0.015021822 0.071748056 0.03402827 -0.046096362
-0.0121631 0.017254489 0.015499361 0.036711376 -0.026410783 -0.048818063 0.035236973 -0.013109845
0.03105154 -0.03469918 0.05528508 0.012716542 -0.05154232 -0.031071886 -0.0062462483 -0.05245781
-0.004201951 0.017857173 0.012812296 -0.023148075 -0.0312775 0.032798953 -0.087035984 0.057257727
-0.030719278 -0.056968756 -0.022471828 0.053058974 0.011035337 0.01256209 -0.045828618 -0.010826847
-0.0368817 0.013882911 0.05106334 0.05522179 -0.043068692 -0.04605539 -0.002167588 0.05028573
0.0070641385 -0.039144605 0.028000124 -0.0028523009 -0.028057773 0.04910192 -0.0022525422 0.039155014
-0.020703109 0.021759864 0.019965209 0.023710243 -0.0015227096 0.03809872 0.0016273503 0.015739901
0.033952348 0.0347873 -0.02337651 -0.060503375 -0.053092364 -0.029846996 -0.032203592 0.04834681
0.056846958 -0.051246054 -0.06331947 0.039130304
00000000: 7937 eabc 1eb9 c63b e075 6b3d 15ca a7bc
00000010: 9573 093c ab2b f0bc dc31 473c fbac 0a3c
00000020: 7d31 c03c 05a6 8e3c 10b2 f23b 66f8 d0bc
00000030: 171e 76bc a5f0 923d 3a61 0b3d 8acf 3cbd
00000040: bd47 47bc 4959 8d3c 08f1 7d3c ab5e 163d
00000050: 6d5b d8bc 73f5 47bd a554 103d adca 56bc
00000060: cd5f fe3c ba20 0ebd 9c72 623d 0b59 503c
00000070: 0a1e 53bd 788a febc 54ad ccbb 00de 56bd
00000080: 85b0 89bb 3549 923c aaea 513c 08a1 bdbc
00000090: d61c 00bd 3258 063d ec3f b2bd 1487 6a3d
000000a0: ffa6 fbbc 1258 69bd d716 b8bc 5e54 593d
000000b0: 8fcd 343c 39d1 4d3c cab6 3bbd 1663 31bc
000000c0: 4411 17bd 2675 633c cb27 513d 3e30 623d
000000d0: cc68 30bd 94a4 3cbd 180e 0ebb 69f8 4d3d
000000e0: 4a7a e73b 1856 20bd 8460 e53c abed 3abb
000000f0: 6ad9 e5bc 181f 493d 639f 13bb 0261 203d
00000100: 9199 a9bc be41 b23c 148e a33c fc3b c23c
00000110: a895 c7ba 670d 1c3d d14c d53a f7f0 803c
00000120: 9e11 0b3d 217d 0e3d 1880 bfbc 63d2 77bd
00000130: 6177 59bd b081 f4bc eae7 03bd 4e07 463d
00000140: 5bd8 683d 62e7 51bd a3ad 81bd 1947 203d

_conditioned._func._drift._model.2.weight f4 [64, 84]
0.0761026 -0.0616882 0.051496156 -0.048311405 -0.023584329 0.03433596 -0.025427235 -0.026221309
0.03598573 0.00989786 0.0050682314 -0.031305265 0.06005091 -0.03504086 0.10548104 0.028439205
-0.014723458 0.040135454 0.06874954 -0.020622967 -0.056605674 -0.017403988 -0.047186483 -0.05526992
0.0024269114 -0.009794212 -0.02603639 0.016575152 -0.020714553 -0.04852658 -0.042238217 -0.102072515
-0.011962537 -0.02632631 0.119347475 -0.06649321 -0.015388462 -0.017649405 -0.03146024 -0.010002216
-0.022620719 -0.056477282 -0.045034423 0.014331274 -0.01951691 -0.021415157 0.0031731953 0.01827694
0.012270724 0.028786665 -0.0348223 0.014664683 0.078455776 -0.041932285 0.006920637 0.030753992
-0.013509082 -0.0043726536 -0.043039978 -0.037438057 0.052560326 -0.0021812269 0.048126407 0.06977671
0.009434358 0.011345456 0.011684783 0.0364887 0.09189012 0.026977632 0.028909765 0.030713696
-0.018316265 0.0070633083 -0.009552589 0.0062894183 -0.039113566 -0.06216653 0.011635644 0.07049455
-0.024325456 -0.037171654 -0.009722383 0.06097917 -0.010720908 -0.038316168 -0.018318402 -0.04980186
-0.053567786 0.00024396143 -0.015982343 0.046886407 -0.043729134 0.015735615 -0.0061991424 0.01678479
0.013357295 0.041919384 0.0021437285 0.017743478 -0.008246486 -0.07702998 0.030206509 -0.049008366
-0.028165381 -0.062520795 -0.004678597 0.033906166 0.02548343 -0.043298636 0.01582277 -0.044449486
0.05167117 0.03676226 -0.007567639 0.030704834 -0.0496504 -0.03168686 -0.044268243 0.043687023
0.019568557 0.07010725 -0.06016579 -0.032478314 -0.038186423 -0.046282914 0.003716987 0.0063145454
-0.036426786 0.01983102 -0.02568956 -0.029931486 0.04120753 0.017493227 -0.04817088 -0.007953223
-0.051646993 -0.009564064 -0.008446303 0.001298445 -0.03137424 -0.056415252 0.010340666 -0.063571185
0.04397687 -0.061932374 0.007647238 -0.031259134 -0.044929285 0.03701924 0.041426096 -0.046982333
-0.066846475 0.03699126 -0.023792747 -0.0071443724 0.018615143 0.032843545 0.08193728 -0.019317823
-0.03408689 -0.013436431 -0.051260862 0.02229207 0.022394637 0.028094335 0.044312693 -0.023537641
-0.030268727 -0.020840904 -0.03712735 -0.01683753 0.036334652 0.027141627 -0.033910617 -0.010165328
0.010574255 -0.01545568 -0.019162087 -0.05835336 -0.022067618 -0.056999166 -0.010392376 -0.0032477472
0.01859599 -0.05830602 0.010298156 0.034437142 0.028607234 -0.02509463 0.061272226 0.030175868
0.0232152 -0.013924004 -0.04465253 0.059193265 0.04752279 0.035943676 0.001599235 -0.023540847
-0.06251081 0.03519257 0.004979351 0.015648007 0.03971311 0.00069618894 -0.010030007 -0.02509809
0.05734837 -0.049569216 0.015354457 0.032866795 0.057965267 -0.020194985 -0.016237164 0.024256727
0.03615269 -0.047208052 -0.019581197 -0.020783804 0.05161976 0.01744374 0.013602576 0.023330472
0.023428971 -0.016593477 -0.0059719654 0.08303045 -0.06369573 0.0069414764 -0.0008225039 0.052812096
0.020362332 0.049662698 -0.03860461 0.019997098 0.03167994 0.015480692 -0.019662825 -0.04272842
0.05355591 0.0061245933 -0.06641921 0.011337664 -0.042054158 0.034973994 0.075802304 -0.00443245
-0.042429954 -0.05629629 -0.05378993 0.014751187 -0.017279796 -0.015706986 0.029718366 0.017335247
00000000: aedb 9b3d c4ac 7cbd a2ed 523d 2ee2 45bd
00000010: ec33 c1bc dda3 0c3d c74c d0bc 12ce d6bc
00000020: c665 133d a22a 223c 6813 a63b f339 00bd
00000030: f1f7 753d 0187 0fbd 7206 d83d 56f9 e83c
00000040: a93a 71bc 1365 243d 8fcc 8c3d 7ff1 a8bc
00000050: 5adb 67bd cf92 8ebc 9d46 41bd b662 62bd
00000060: d10c 1f3b e777 20bc 444a d5bc 9dc8 873c
00000070: 91b1 a9bc cfc3 46bd fb01 2dbd 650b d1bd
00000080: 84fe 43bc 46aa d7bc 736c f43d 982d 88bd
00000090: e31f 7cbc 7c95 90bc 74dc 00bd 56e0 23bc
000000a0: 164f b9bc b954 67bd 0476 38bd b8cd 6a3c
000000b0: ede1 9fbc d76e afbc 62f5 4f3b 85b9 953c
000000c0: 260b 493c 03d2 eb3c d4a1 0ebd 2344 703c
000000d0: 6cad a03d 30c1 2bbd 83c6 e23b ccef fb3c
000000e0: 3255 5dbc 7a48 8fbb b04a 30bd a658 19bd
000000f0: 7f49 573d eaf2 0ebb 3220 453d 17e7 8e3d
00000100: 9192 1a3c 4be2 393c 8871 3f3c 2d75 153d
00000110: e330 bc3d 3200 dd3c 2cd4 ec3c 4a9b fb3c
00000120: fe0b 96bc 5373 e73b 7682 1cbc 7717 ce3b
00000130: 8c35 20bd 55a2 7ebd 6ea3 3e3c 725f 903d
00000140: 2e46 c7bc 4e41 18bd a14a 1fbc 4bc5 793d
00000150: bfa6 2fbc 6af1 1cbd 7910 96bc 09fd 4bbd
00000160: e569 5bbd e6cf 7f39 67ed 82bc f60b 403d
00000170: 521d 33bd fae7 803c 2d22 cbbb 4280 893c
00000180: 8ed8 5a3c a9b3 2b3d cc7d 0c3b c55a 913c
00000190: 451c 07bc e5c1 9dbd a473 f73c ffbc 48bd
000001a0: 16bb e6bc e70a 80bd eb4e 99bb 31e1 0a3d
000001b0: a0c2 d03c e959 31bd c19e 813c aa10 36bd
000001c0: 26a5 533d 0694 163d f5f9 f7bb b488 fb3c
000001d0: 385e 4bbd 15ca 01bd 9e52 35bd 2af1 323d
000001e0: 3d4e a03c 6494 8f3d 6770 76bd fb07 05bd
000001f0: 5e69 1cbd 2793 3dbd b298 733b 3fea ce3b
00000200: 4134 15bd aa74 a23c ea72 d2bc e032 f5bc
00000210: 3ac9 283d f54d 8f3c d44e 45bd 3c4e 02bc
00000220: cc8b 53bd 98b2 1cbc 5d62 0abc 9630 aa3a
00000230: 4682 00bd ae13 67bd e66b 293c 9c31 82bd
00000240: 1721 343d cdac 7dbd af95 fa3b 9409 00bd
00000250: c507 38bd 7da1 173d 69ae 293d 8c70 40bd
00000260: cee6 88bd 2684 173d 02e9 c2bc 571b eabb
00000270: c97e 983c f486 063d bcce a73d 6940 9ebc
00000280: b29e 0bbd 7a24 5cbc e9f6 51bd dc9d b63c
00000290: f574 b73c 1726 e63c 3a81 353d 03d2 c0bc
000002a0: 1ff6 f7bc 8bba aabc d912 18bd dcee 89bc
000002b0: a5d3 143d 1e58 de3c dce5 0abd 7a8c 26bc
000002c0: a43f 2d3c d239 7dbc cff9 9cbc ef03 6fbd
000002d0: 26c7 b4bc f577 69bd c944 2abc 28d8 54bb
000002e0: 9e56 983c 4bd2 6ebd 99b9 283c f60d 0d3d
000002f0: b859 ea3c 4193 cdbc 96f8 7a3d 6233 f73c
00000300: ce2d be3c 8121 64bc 92e5 36bd a374 723d
00000310: 42a7 423d ad39 133d 6c9d d13a bcd8 c0bc
00000320: ab05 80bd 1626 103d d329 a33b 4030 803c
00000330: 37aa 223d 7380 363a e654 24bc 829a cdbc
00000340: 20e6 6a3d 1709 4bbd 4391 7b3c 559f 063d
00000350: fd6c 6d3d f46f a5bc cd03 85bc 0bb6 c63c
00000360: d814 143d 3b5d 41bd bf68 a0bc cc42 aabc
00000370: 3e6f 533d 2de6 8e3c 57dd 5e3c 8c1f bf3c
00000380: 1dee bf3c 0bef 87bc 7ab0 c3bb de0b aa3d
00000390: e872 82bd 5375 e33b 4d9d 57ba 7f51 583d
000003a0: e8ce a63c 1d6b 4b3d de1f 1ebd f4d0 a33c
000003b0: d3c2 013d baa2 7d3c ef13 a1bc ff03 2fbd
000003c0: 715d 5b3d d0b0 c83b cb06 88bd 9cc1 393c
000003d0: fb40 2cbd e440 0f3d 3d3e 9b3d 163e 91bb
000003e0: 08cb 2dbd f096 66bd d452 5cbd f6ae 713c
000003f0: 5c8e 8dbc f0ab 80bc ee73 f33c a602 8e3c

_conditioned._func._drift._model.2.bias f4 [64]
0.039091986 0.008268811 -0.036611043 -0.062516674 0.039803833 0.047798436 0.032738376 0.045556724
0.040994987 -0.02196947 -0.0508115 0.0315104 0.0010391027 -0.015779996 -0.03993335 0.060436796
-0.009043426 0.005495974 -0.016164333 0.01048505 -0.0026738471 0.0023354506 -0.019161684 -0.048976235
-0.00038915456 -0.038647436 0.054579724 0.009708711 -0.0066938447 0.019814294 -0.027674567 -0.030320896
0.003241925 -0.025199564 -0.028902737 -0.03550033 -0.028556949 -0.03263693 0.031805277 0.047424335
0.024885837 0.034218043 -0.05356364 -0.02659804 -0.04693214 -0.021181185 -0.021914512 -0.053870294
0.011893333 0.01992632 0.0476648 0.036493238 -0.009297163 -0.020724151 0.014612378 0.032874912
-0.03893702 -0.038001586 0.026119987 -0.03282611 -0.024795294 -0.045307342 0.04030001 -0.0036546262
00000000: eb1e 203d e879 073c 76f5 15bd be08 80bd
00000010: 5809 233d 4bc8 433d ad18 063d b099 3a3d
00000020: 5cea 273d 51f9 b3bc b81f 50bd 0d11 013d
00000030: 8032 883a 0d45 81bc 2791 23bd 938c 773d
00000040: e12a 14bc 9217 b43b 106b 84bc 7dc9 2b3c
00000050: b63b 2fbb 5c0e 193b f7f8 9cbc 4e9b 48bd
00000060: 7107 ccb9 c64c 1ebd fd8e 5f3d 4911 1f3c
00000070: 0a58 dbbb 9651 a23c c6b5 e2bc 8763 f8bc
00000080: 7a76 543b 516f cebc 6fc5 ecbc cb68 11bd
00000090: 43f0 e9bc 4dae 05bd 4046 023d 0540 423d
000000a0: 62dd cb3c 3828 0c3d 8c65 5bbd 22e4 d9bc
000000b0: ea3b 40bd 2a84 adbc 1086 b3bc 19a7 5cbd
000000c0: 41dc 423c 863c a33c 2a3c 433d ef79 153d
000000d0: 2153 18bc b2c5 a9bc c168 6f3c d8a7 063d
000000e0: 6d7c 1fbd 8da7 1bbd 95f9 d53c ac74 06bd
000000f0: 801f cbbc 3194 39bd a011 253d 7482 6fbb

_conditioned._func._diffusion._model.0.weight f4 [84, 64]
0.034878798 0.098422505 -0.0231379 -0.084841475 0.057809945 0.027593914 -0.1527667 0.019625703
0.05185809 -0.023968168 -0.16020955 0.038430307 -0.078802526 -0.15315555 -0.09747034 0.08320294
-0.08676611 0.02188567 -0.05804476 0.065474704 0.07427823 0.04156843 -0.07130925 0.028007401
-0.16604751 -0.1950272 0.08147408 0.0012629442 0.011276566 0.2093267 -0.09430793 0.11592552
-0.03221249 -0.05465575 0.028477812 -0.08306222 0.20757915 0.00547881 0.011039129 0.044258498
0.0353888 0.08362903 0.05798684 -0.11831268 -0.056715816 -0.09807506 -0.20002979 0.027812146
-0.0678042 0.11149287 -0.13543876 -0.017312141 0.06645634 -0.07848416 -0.010534099 0.15119763
0.0037704487 0.09975084 0.117028646 -0.0840579 0.030734967 -0.13975257 -0.11029939 -0.16359828
-0.08885276 0.060358264 0.053618427 -0.0873693 -0.015806334 0.019070117 0.0051985765 -0.08860081
0.005820822 -0.014765664 0.041643314 -0.030507175 0.022993283 0.050905805 -0.052874204 0.015323023
-0.029162977 0.013505696 0.095318325 0.015397194 0.08397984 -0.07308466 -0.06439019 0.10841996
0.105435975 -0.10919762 0.041987166 0.1354024 0.06638155 -0.0042918725 0.09531742 0.07639379
-0.21031748 -0.011184828 -0.09527994 -0.07140511 0.060122658 -0.0056871665 -0.052126706 0.06630662
0.17318748 -0.048935145 0.01093004 0.000634962 0.06649818 0.090447135 -0.008256604 0.021140322
-0.01786723 0.11980817 0.053550743 -0.05995727 0.031684376 -0.07766694 -0.017621247 0.15348579
0.055665888 -0.0020912688 0.08232058 -0.034237396 -0.048842285 0.03155599 -0.029345982 0.03643611
-0.015852483 -0.06966715 0.083024636 0.06418441 -0.025567004 -0.04135036 -0.17567818 -0.12435779
-0.15779968 0.10903939 -0.04807614 -0.04362222 0.050555766 -0.048813917 -0.0030063156 -0.05680217
0.06806019 0.017612841 -0.00572271 -0.020981777 -0.15613683 -0.00026727087 -0.023017365 -0.05494628
-0.05943766 0.170836 -0.11951779 -0.13298026 0.05088656 0.119509265 0.01741062 -0.10747183
-0.060597777 -0.23841803 -0.06340881 -0.0042581214 0.037958063 0.07415862 0.029451117 -0.032277144
-0.01417381 0.0296092 0.07513797 -0.07559026 0.12604617 0.16064411 -0.1194023 0.09990067
0.06392735 0.09899589 -0.10236855 -0.07135909 0.06777007 -0.0957407 -0.04347397 -0.09464399
0.013517884 0.028473843 -0.002125605 0.00033704826 0.15074265 -0.013031512 -0.13702115 0.043962453
0.081895 -0.07168822 0.15481742 -0.10588815 0.041535527 -0.028148426 0.07424704 0.040774506
0.048437428 -0.0644817 -0.058751673 0.025143752 0.067522414 -0.15951812 -0.046109527 -0.024913356
0.060447324 -0.0075460444 0.029825898 -0.0013146886 0.04305513 0.08036026 0.0129869105 -0.07004622
0.06557558 -0.078658804 0.10944204 -0.07422304 -0.052322973 0.092111535 -0.018426726 -0.027997758
-0.016965274 -0.002444669 -0.132627 0.023106383 -0.040859308 -0.005049311 0.11238712 -0.002284912
0.11048068 0.026428562 0.026670542 -0.03447027 0.11790032 0.051916882 -0.1195455 0.05411061
0.09813876 -0.045329325 0.046191484 -0.031410187 -0.07496491 -0.13115567 -0.03079316 0.0020444985
-0.055491783 -0.042856283 -0.02902237 0.0659298 0.16955778 -0.040279366 0.074188106 0.008324698
00000000: 12dd 0e3d bd91 c93d b18b bdbc 5ec1 adbd
00000010: 1fca 6c3d a20c e23c e06e 1cbe 15c6 a03c
00000020: 2669 543d e458 c4bc f90d 24be 1969 1d3d
00000030: 3863 a1bd cfd4 1cbe 889e c7bd 4e66 aa3d
00000040: 6eb2 b1bd 9449 b33c 58c0 6dbd 9a17 863d
00000050: 2f1f 983d a843 2a3d 960a 92bd c76f e53c
00000060: 5c08 2abe 36b5 47be e2db a63d 6089 a53a
00000070: 59c1 383c bd59 563e 8424 c1bd 5c6a ed3d
00000080: 3ef1 03bd b5de 5fbd 4d4a e93c 861c aabd
00000090: a18f 543e 9787 b33b 77dd 343c 6648 353d
000000a0: d9f3 103d b245 ab3d 9c83 6d3d eb4d f2bd
000000b0: d84e 68bd 94db c8bd 9cd4 4cbe 4cd6 e33c
000000c0: eedc 8abd 6056 e43d 75b0 0abe 31d2 8dbc
000000d0: 431a 883d 4ebc a0bd 3797 2cbc 8dd3 1a3e
000000e0: a219 773b 2b4a cc3d b7ac ef3d 8c26 acbd
000000f0: e6c7 fb3c 4c1b 0fbe a6e4 e1bd 4f86 27be
00000100: 70f8 b5bd 3a3a 773d ff9e 5b3d adee b2bd
00000110: 497c 81bc ef38 9c3c d258 aa3b 5774 b5bd
00000120: 98bc be3b afeb 71bc 2e92 2a3d 2fea f9bc
00000130: 695c bc3c 9b82 503d 9f92 58bd 6b0d 7b3c
00000140: 32e7 eebc ff46 5d3c 4136 c33d 8344 7c3c
00000150: 9ffd ab3d 69ad 95bd 01df 83bd 490b de3d
00000160: d1ee d73d 00a3 dfbd bcfa 2b3d eda6 0a3e
00000170: 0df3 873d d6a2 8cbb c835 c33d 5974 9c3d
00000180: 775d 57be 9240 37bc 2122 c3bd d83c 92bd
00000190: 2d43 763d 695b babb d082 55bd c4cb 873d
000001a0: 0f58 313e 3870 48bd e913 333c 9473 263a
000001b0: 3330 883d 593c b93d b546 07bc 782e ad3c
000001c0: 4c5e 92bc fc5d f53d 0658 5b3d c195 75bd
000001d0: 7ac7 013d d80f 9fbd 6f5a 90bc 612b 1d3e
000001e0: ea01 643d ab0d 09bb b197 a83d 833c 0cbd
000001f0: d90e 48bd db40 013d fc66 f0bc 083e 153d
00000200: 11dd 81bc a7ad 8ebd d208 aa3d 1e73 833d
00000210: e571 d1bc ff5e 29bd fbe4 33be 4caf febd
00000220: 3d96 21be 0b50 df3d 7deb 44bd 37ad 32bd
00000230: 9013 4f3d 1af1 47bd 9b05 45bb 64a9 68bd
00000240: 2463 8b3d ce48 903c 9285 bbbb fae1 abbc
00000250: 55e2 1fbe 7d20 8cb9 ea8e bcbc 5a0f 61bd
00000260: e774 73bd a2ef 2e3e bec5 f4bd fa2b 08be
00000270: 6d6e 503d 46c1 f43d b7a0 8e3c 311a dcbd
00000280: 6035 78bd db23 74be 7adc 81bd b687 8bbb
00000290: ea79 1b3d 79e0 973d 7843 f13c 0a35 04bd
000002a0: 4539 68bc fe8e f23c f0e1 993d 11cf 9abd
000002b0: 3f12 013e e47f 243e 3189 f4bd b998 cc3d
000002c0: 58ec 823d 5bbe ca3d 9aa6 d1bd b724 92bd
000002d0: 09cb 8a3d b313 c4bd c311 32bd b5d4 c1bd
000002e0: 1d7a 5d3c fa41 e93c bc4d 0bbb dab5 b039
000002f0: 485c 1a3e 1f82 55bc 464f 0cbe f911 343d
00000300: 91b8 a73d 46d1 92bd 7588 1e3e e3db d8bd
00000310: 2821 2a3d 8797 e6bc d50e 983d 2b03 273d
00000320: 5366 463d fb0e 84bd 98a5 70bd 45fa cd3c
00000330: 3149 8a3d b858 23be 58dd 3cbd 1817 ccbc
00000340: 9d97 773d cf44 f7bb 7155 f43c a151 acba
00000350: 935a 303d ec93 a43d 0dc7 543c 6574 8fbd
00000360: 7d4c 863d de17 a1bd 2623 e03d 4002 98bd
00000370: 9d50 56bd f9a4 bc3d a5f3 96bc 8e5b e5bc
00000380: c2fa 8abc bd36 20bb 5fcf 07be 9949 bd3c
00000390: 175c 27bd b174 a5bb 382b e63d 76be 15bb
000003a0: b243 e23d b680 d83c 2e7c da3c b330 0dbd
000003b0: b975 f13d cca6 543d 45d4 f4bd 16a3 5d3d
000003c0: f9fc c83d 3eab 39bd 4833 3d3d f8a7 00bd
000003d0: 3487 99bd ac4d 06be f041 fcbc fefc 053b
000003e0: 5a4b 63bd 128a 2fbd 52c0 edbc 3406 873d
000003f0: 8ea0 2d3e fafb 24bd efef 973d 5064 083c

_conditioned._func._diffusion._model.0.bias f4 [84]
0.15841332 0.017796472 -0.011313344 0.15444276 -0.07633185 0.035597406 -0.02152867 0.06572679
-0.09150744 0.019317308 0.00820695 0.012167917 0.030045431 -0.0511152 -0.21759765 -0.011135189
-0.16910695 0.005513175 0.163654 -0.061690833 -0.16384473 -0.0033818858 0.11547017 0.08611501
-0.029906482 0.1748507 0.0945381 0.06573359 -0.15723255 0.009676697 -0.09363863 -0.061036017
0.09406744 0.003412676 0.106035836 -0.0480909 -0.18410277 0.21191631 -0.08836562 -0.053791307
-0.06646369 0.0523034 -0.1552299 0.18544328 0.04432388 -0.007270986 -0.06393256 -0.1494512
0.15253358 0.09140191 0.00758484 -0.027017735 0.13641554 0.043512505 -0.05204364 -0.10894915
0.08404887 0.12876973 0.17925686 -0.07532333 -0.015670884 0.05196122 -0.15883611 -0.051869985
0.15376215 -0.019622102 -0.13237175 0.04223889 -0.049274955 -0.056858215 0.029860519 0.082078025
-0.21460055 0.20783207 -0.08348259 -0.00025544644 0.018466422 0.120250076 0.12115852 0.018617246
-0.099209405 -0.016428312 0.056752913 -0.021400722
00000000: 1a37 223e e8c9 913c 9b5b 39bc 3e26 1e3e
00000010: df53 9cbd 96ce 113d e55c b0bc c49b 863d
00000020: 4168 bbbd 553f 9e3c 7176 063c f15b 473c
00000030: d621 f63c 2c5e 51bd ebd1 5ebe 5e70 36bc
00000040: 5f2a 2dbe dda7 b43b ea94 273e 87af 7cbd
00000050: eac6 27be a1a2 5dbb a07b ec3d 115d b03d
00000060: 70fe f4bc 100c 333e 319d c13d 559f 863d
00000070: 9201 21be 028b 1e3c 9cc5 bfbd e700 7abd
00000080: 6ea6 c03d 34a7 5f3b 5129 d93d f7fa 44bd
00000090: 7085 3cbe 9700 593e 09f9 b4bd 4654 5cbd
000000a0: 1d1e 88bd 173c 563d 96f4 1ebe d8e4 3d3e
000000b0: f58c 353d 7441 eebb 13ef 82bd bc09 19be
000000c0: c331 1c3e ed30 bb3d 408a f83b 4c54 ddbc
000000d0: 84b0 0b3e 2b3a 323d b62b 55bd bb20 dfbd
000000e0: d021 ac3d 36dc 033e 1c8f 373e 1e43 9abd
000000f0: 3a60 80bc 4ad5 543d efa5 22be 9f75 54bd
00000100: d373 1d3e 88be a0bc 768c 07be b002 2d3d
00000110: 89d4 49bd 29e4 68bd 0c9e f43c 8618 a83d
00000120: 3fc0 5bbe eed1 543e ecf8 aabd 71ed 85b9
00000130: e546 973c ac45 f63d f521 f83d 3283 983c
00000140: 4d2e cbbd ab94 86bc be75 683d 9150 afbc

_conditioned._func._diffusion._model.2.weight f4 [64, 84]
-0.029397998 0.0063931695 0.037601575 -0.018141309 0.033246122 0.021753985 -0.029471869 -0.020906784
0.0060963836 -0.0010908362 -0.031744666 -0.054383695 -0.011887826 0.0056610485 -0.0164915 0.0016381232
0.03679766 0.0093755545 0.01136089 -0.051455602 -0.030769678 0.008776759 -0.006163077 -0.02305228
0.0335765 0.021688731 0.0061534294 -0.069550775 -0.021533368 -0.028100282 0.018181918 -0.013502883
0.030187562 0.046844676 0.02884781 0.008384696 0.013255583 0.0075052655 0.057370044 -0.021724002
0.033828665 0.02367053 -0.0066686966 0.00398509 -0.051329587 0.0043337583 0.031115051 0.005364077
0.024334233 0.03846834 -0.041717425 0.009479211 -0.0076781344 0.051966906 0.012883636 -0.00511199
0.0016400121 -0.03960134 0.0050462126 0.028173363 0.02295795 -0.008555858 0.020835789 -0.019958701
-0.025431963 0.008895495 0.0108197415 0.016445436 -0.006312045 0.009606358 -0.0073631215 -0.034769032
-0.014679461 0.012222679 -0.009517268 0.036624137 0.0018264476 -0.0055250623 -0.018686134 0.033122923
-0.0011852538 0.010883408 0.042031072 0.02171916 -0.051470436 -0.01023557 -0.022714026 0.028494852
-0.016439417 -0.036337316 0.015318841 0.035312865 -0.031444445 -0.041695297 -0.0299658 0.040639002
0.045480344 -0.068543926 -0.05947232 -0.0072050183 0.0097182775 0.056973193 0.04777503 -0.06249005
-0.024495998 -0.06293626 -0.021031702 -0.00033499306 0.0036239778 0.021634458 0.008481968 0.008141448
0.028555444 0.025511868 0.0044256435 0.016575411 0.017365025 0.020096956 0.042557903 0.048827402
0.015824893 -0.053324297 -0.084734246 -0.03192244 0.046305034 0.019728664 0.013732276 -0.0887519
-0.048099946 0.009942645 0.057201896 -0.019294484 -0.042350877 -0.061730605 -0.014305967 -0.06987651
-0.03763746 0.01845274 0.03583428 -0.019637503 0.019661307 -0.06285812 -0.022741772 -0.06330004
-0.05410997 -0.072873816 -0.05794681 -0.03248881 0.018648937 -0.018418454 0.02364332 -0.024110217
-0.012012583 0.0022029579 0.05437151 0.037236046 0.047026075 0.020076191 0.02841324 0.09080051
-0.04452879 0.017162023 0.079917416 -0.020921532 -0.016416961 -0.076136895 -0.022576327 -0.008897516
0.007020244 -0.0033733726 0.024028756 -0.019654559 -0.022465635 0.0018736029 0.05768642 0.03787929
0.0070825694 -0.0110547375 -0.019422675 -0.040377114 -0.0097921165 0.01000369 0.022736747 0.009700574
0.021161832 -0.004703768 -0.008625372 -0.013210179 -0.0020248315 -0.012853733 -0.0037975258 -0.038799413
-0.012563729 0.0370737 0.04903155 -0.031483594 -0.018312966 0.0015659403 -0.0048507447 -0.019866604
0.013257027 -0.0047923983 0.011541101 -0.015221688 -0.06048197 0.029552456 -0.02987283 0.017086577
-0.005547218 0.03461524 -0.026628507 -0.017020823 -0.01939387 0.00838831 0.019880934 -0.023060728
0.0040070554 0.03067604 -0.030818256 0.021612177 -0.014708838 0.05954407 0.0022194472 0.029859928
0.030355496 -0.017982898 -0.030128885 -0.011645543 -0.045313638 -0.0077921054 -0.0012674829 0.029406162
-0.010839564 0.023524674 -0.05791949 0.033293582 0.046137996 -0.012363922 -0.005782199 0.028167436
0.00056167506 0.006393618 -0.035653543 0.0038945668 0.04837417 -0.03164571 0.015632126 0.027957939
-0.001021615 -0.008247661 0.030064685 -0.0135121355 0.05614313 0.055942826 -0.014961564 0.006449787
00000000: 12d4 f0bc cb7d d13b 1c04 1a3d 159d 94bc
00000010: 162d 083d 6a35 b23c fd6e f1bc b444 abbc
00000020: 2cc4 c73b 64fa 8eba b206 02bd 70c1 5ebd
00000030: 28c5 42bc 5180 b93b 2f19 87bc 4bb6 d63a
00000040: 25b9 163d ed9b 193c 0723 3a3c 1cc3 52bd
00000050: b110 fcbc 65cc 0f3c a3f3 c9bb 23d8 bcbc
00000060: 8387 093d 91ac b13c b5a2 c93b a370 8ebd
00000070: bf66 b0bc 9032 e6bc 3ff2 943c 323b 5dbc
00000080: e84b f73c 34e0 3f3d 3e52 ec3c f75f 093c
00000090: f22d 593c bbee f53b dafc 6a3d 89f6 b1bc
000000a0: ed8f 0a3d b3e8 c13c 1585 dabb 5c95 823b
000000b0: f93e 52bd 3302 8e3b fee4 fe3c 24c5 af3b
000000c0: 9658 c73c fa90 1d3d e4df 2abd b14e 1b3c
000000d0: dc98 fbbb 40db 543d e315 533c 7b82 a7bb
000000e0: adf5 d63a 0435 22bd b35a a53b d3cb e63c
000000f0: 5012 bc3c df2d 0cbc d1af aa3c 6e80 a3bc
00000100: b156 d0bc 69be 113c 4945 313c 94b8 863c
00000110: 45d5 cebb fc63 1d3c 5746 f1bb f969 0ebd
00000120: 1f82 70bc a241 483c 51ee 1bbc 3103 163d
00000130: 6965 ef3a 950b b5bb aa13 99bc e7ab 073d
00000140: 855a 9bba 5250 323c c628 2c3d 61ec b13c
00000150: aad2 52bd 18b3 27bc c412 babc 096e e93c
00000160: f5ab 86bc 70d6 14bd e0fb 7a3c 39a4 103d
00000170: e4cb 00bd b0c8 2abd d67a f5bc 1575 263d
00000180: 9949 3a3d c260 8cbd 3f99 73bd 1318 ecbb
00000190: 6939 1f3c b95c 693d c0af 433d 91f5 7fbd
000001a0: d5ab c8bc bae4 80bd ad4a acbc 02a2 afb9
000001b0: 4280 6d3b bf3a b13c f4f7 0a3c b563 053c
000001c0: 1bed e93c 44fe d03c fd04 913b 28c9 873c
000001d0: 1941 8e3c 5fa2 a43c 3251 2e3d 3eff 473d
000001e0: 35a3 813c 946a 5abd 2689 adbd 1bc1 02bd
000001f0: 59aa 3d3d 029e a13c 57fd 603c 8ec3 b5bd
00000200: 7304 45bd 7ae6 223c 894c 6a3d 770f 9ebc
00000210: 1d78 2dbd 3bd9 7cbd 9363 6abc 6a1b 8fbd
00000220: bd29 1abd 332a 973c f7c6 123d d4de a0bc
00000230: c010 a13c c2bb 80bd f44c babc 74a3 81bd
00000240: 6aa2 5dbd de3e 95bd a259 6dbd fd12 05bd
00000250: a8c5 983c 4ce2 96bc a3af c13c ca82 c5bc
00000260: 6dd0 44bc 805f 103b a9b4 5e3d d384 183d
00000270: 6a9e 403d d376 a43c e2c2 e83c 9ef5 b93d
00000280: d263 36bd 5f97 8c3c beab a33d a263 abbc
00000290: dd7c 86bc a9ed 9bbd fdf1 b8bc e3c6 11bc
000002a0: 130a e63b cd13 5dbb f4d7 c43c 9902 a1bc
000002b0: da09 b8bc ae93 f53a 9848 6c3d 5027 1b3d
000002c0: e614 e83b ee1e 35bc 4d1c 9fbc 7962 25bd
000002d0: 1d6f 20bc 84e6 233c 6a42 ba3c 28ef 1e3c
000002e0: 945b ad3c 1122 9abb 6f51 0dbc 826f 58bc
000002f0: 09b3 04bb 7798 52bc e9df 78bb 22ec 1ebd
00000300: 19d8 4dbc 98da 173d 4ed5 483d f1f4 00bd
00000310: 1305 96bc 3d40 cd3a fff2 9ebb 4abf a2bc
00000320: 0034 593c 8d09 9dbb e316 3d3c 6364 79bc
00000330: f1bb 77bd fe17 f23c ddb7 f4bc 26f9 8b3c
00000340: 70c5 b5bb b6c8 0d3d 0724 dabc 416f 8bbc
00000350: e5df 9ebc 1f6f 093c 57dd a23c dae9 bcbc
00000360: 9e4d 833b 524c fb3c 9176 fcbc 050c b13c
00000370: 57fd 70bc 7ce4 733d 2574 113b cf9c f43c
00000380: 17ac f83c df50 93bc dad0 f6bc f3cc 3ebc
00000390: cb9a 39bd eb54 ffbb ab21 a6ba 31e5 f03c
000003a0: 6d98 31bc d1b6 c03c fd3c 6dbd da5e 083d
000003b0: 32fb 3c3d 0c92 4abc 9a78 bdbb 65bf e63c
000003c0: 603d 133a 8e81 d13b 7309 12bd fd3b 7f3b
000003d0: fe23 463d ef9e 01bd f20e 803c 0c08 e53c
000003e0: b6e7 85ba 3321 07bc 374a f63c 0162 5dbc
000003f0: 57f6 653d 4e24 653d 5921 75bc bc58 d33b

_conditioned._func._diffusion._model.2.bias f4 [64]
-0.0064375713 0.0021307261 -0.02454279 0.019134609 0.029271705 -0.05032845 0.012650966 0.046927076
0.007826989 0.06680706 -0.003485993 0.121207334 -0.049289346 -0.014540105 -0.016520504 -0.034201037
0.013821228 -0.03417484 -0.0408574 0.013416917 0.05751204 -0.05032321 -0.061090264 0.0098529225
-0.13720758 0.027650721 0.021391185 -0.009054355 0.060258303 -0.019853998 0.029506613 -0.03887508
-0.010987821 0.023716742 0.044726193 0.059215907 -0.02000381 -0.110359505 -0.050616473 -0.026790395
-0.05890813 0.049795385 0.023352424 0.048867546 -0.0065311207 -0.01660132 0.016011244 -0.066684544
0.008789901 0.020340728 -0.014859333 -0.012824993 0.02590318 -0.014754513 0.14249277 0.037107527
-0.07035591 0.047259137 0.07892462 0.13064103 0.016313897 0.048930652 0.09475264 -0.008890089
00000000: 43f2 d2bb a7a3 0b3b f60d c9bc 2fc0 9c3c
00000010: 37cb ef3c 3425 4ebd ff45 4f3c 9b36 403d
00000020: c53c 003c 24d2 883d 4275 64bb 8d3b f83d
00000030: a0e3 49bd 9f39 6ebc 0256 87bc 6316 0cbd
00000040: 6f72 623c ebfa 0bbd 175a 27bd a1d2 5b3c
00000050: bf91 6b3d b61f 4ebd c939 7abd 276e 213c
00000060: 2580 0cbe c483 e23c 913c af3c b858 14bc
00000070: 69d1 763d daa4 a2bc dab7 f13c 7a3b 1fbd
00000080: 4306 34bc 9d49 c23c d032 373d 618c 723d
00000090: 08df a3bc 2a04 e2bd 3853 4fbd 8877 dbbc
000000a0: a749 71bd 3ff6 4b3d 954d bf3c 5629 483d
000000b0: 0303 d6bb 7eff 87bc 032a 833c e891 88bd
000000c0: 8403 103c 99a1 a63c 8f74 73bc eb1f 52bc
000000d0: e832 d43c eabc 71bc a0e9 113e 10fe 173d
000000e0: c216 90bd cc92 413d 3ba3 a13d c3c6 053e
000000f0: b9a4 853c 826b 483d ac0d c23d bca7 11bc

_conditioned._initial._model.0.weight f4 [32, 16]
0.046761967 0.04814445 0.09428726 -0.13278748 0.13946767 0.2395183 0.11968256 -0.12173554
-0.02162305 0.14149061 -0.19092758 -0.09359826 0.034531835 -0.017426174 0.20889162 -0.106200084
0.15452854 -0.09171567 0.17873187 -0.1912183 -0.16716012 0.14133306 0.18599153 -0.025472837
-0.19902283 -0.13851723 0.0289776 -0.15440701 0.17279916 -0.15048905 -0.15827383 0.21260177
-0.009606406 0.09474424 0.10711487 0.033484824 0.041017976 0.14432292 0.08988307 -0.15859134
-0.114812315 -0.19979702 -0.057644103 -0.17765607 -0.029489476 0.12612797 0.054221254 0.22587739
-0.011353847 -0.05175078 -0.1555191 0.06988229 0.09429627 -0.09953916 -0.13061765 0.12440694
-0.037383184 0.009112294 -0.052386325 0.0928542 0.07314853 -0.03016492 0.17752719 0.07351989
-0.050599825 0.13407886 0.010311038 0.0034874415 -0.0008288995 0.0573391 -0.109953046 -0.014763733
-0.17171316 0.034079075 -0.08679026 -0.008028419 0.16408347 -0.21226469 0.18365157 0.108306386
0.2548718 -0.13190275 0.19458942 0.08793771 -0.18687062 0.07745709 0.10710437 -0.005822459
-0.12656896 -0.25684696 -0.053778417 -0.11278313 0.09611455 0.19175228 0.11775326 0.06697577
0.06289058 -0.10643492 -0.14252655 -0.15472837 -0.06059171 -0.0748753 -0.13618654 0.019020488
0.036971036 0.14935009 0.039507214 -0.07714616 -0.081058465 0.07187162 -0.20296656 0.1372753
0.2070014 0.055702064 0.12791531 -0.088304885 -0.10511015 0.11430739 0.16351359 0.10011962
0.10397612 -0.091333896 0.048331987 0.13071953 0.18857066 -0.108781286 0.07191024 0.114352144
0.059195306 -0.07328387 -0.1843532 -0.1105195 0.10022734 0.10760928 0.114513636 -0.05192923
-0.07516378 -0.016820246 0.11664478 -0.008024402 0.0710093 -0.05831762 -0.16164163 -0.03503207
-0.019043462 0.17082313 -0.25570062 0.273618 0.18932778 0.16711788 -0.11604198 0.09595646
-0.04598838 0.23763342 0.012895145 0.23126312 -0.060146295 -0.11142696 0.013793724 -0.26920912
0.20402913 -0.09374122 0.0042249947 -0.036019787 -0.17845663 -0.14179562 0.177355 -0.119379215
-0.13791728 -0.19038652 -0.076624915 0.008032723 0.03567898 0.107030004 0.1282915 0.1520533
-0.057145957 0.23230895 -0.14152643 0.068961844 0.21794572 -0.059655685 -0.17976083 -0.21246994
0.31735665 0.14500472 0.07171139 0.14716499 -0.17088436 -0.059237793 0.040574748 0.015214713
-0.23349346 0.082738645 0.15400983 0.19745745 -0.014452501 0.13391855 0.056632657 0.019672703
0.21032448 0.20460406 -0.05121761 0.14731996 0.09847535 -0.0009907248 0.1730196 -0.2876398
-0.20469636 -0.0041199876 -0.051694635 -0.0064605614 0.24081635 0.12519144 -0.18804754 0.07458407
0.19708566 0.17240514 0.025638502 -0.21246412 -0.14899391 -0.1418748 -0.23476328 0.05497652
-0.101223014 0.02038396 -0.21216553 0.27931795 0.01577668 0.023937505 0.061387964 -0.13833283
0.26629937 0.025028782 0.17400333 0.19547583 -0.19193862 0.13785733 0.09992077 -0.31834838
0.18402569 -0.016507452 0.10472058 -0.12646958 -0.16471049 0.060026873 -0.11384441 0.11544476
-0.26143867 -0.2456714 0.0102692135 -0.18072048 0.04278005 -0.11563624 -0.15918015 0.30256328
00000000: 7a89 3f3d 1d33 453d ae19 c13d 71f9 07be
00000010: 9dd0 0e3e 4944 753e 211c f53d 7c50 f9bd
00000020: d322 b1bc eae2 103e 8582 43be 72b0 bfbd
00000030: 4171 0d3d 56c1 8ebc afe7 553e 6e7f d9bd
00000040: bb3c 1e3e 6dd5 bbbd 7d05 373e bbce 43be
00000050: 062c 2bbe 9db9 103e 9074 3e3e 69ac d0bc
00000060: a4cc 4bbe 76d7 0dbe 6f62 ed3c df1c 1ebe
00000070: 43f2 303e cd19 1abe 8912 22be 47b4 593e
00000080: 3064 1dbc 4509 c23d 0a5f db3d 6227 093d
00000090: 7702 283d 63c9 133e 9d14 b83d c565 22be
000000a0: b822 ebbd 9797 4cbe 391c 6cbd 79eb 35be
000000b0: ea93 f1bc b127 013e 1b17 5e3d 674c 673e
000000c0: 7c05 3abc a0f8 53bd 6640 1fbe 721e 8f3d
000000d0: 671e c13d 30db cbbd a2c0 05be 11c9 fe3d
000000e0: 1c1f 19bd bb4b 153c 0b93 56bd 582a be3d
000000f0: e6ce 953d 6c1c f7bc b0c9 353e 9991 963d
00000100: c341 4fbd f84b 093e a1ef 283c 8f8d 643b
00000110: 814a 59ba 67dc 6a3d 102f e1bd 96e3 71bc
00000120: 93d5 2fbe 8096 0b3d 18bf b1bd a189 03bc
00000130: 7f05 283e ea5b 59be 280f 3c3e bdcf dd3d
00000140: 8e7e 823e 8411 07be 7342 473e b018 b43d
00000150: 035b 3fbe d3a1 9e3d 8959 db3d 53ca bebb
00000160: 4b9b 01be 7281 83be c246 5cbd d7fa e6bd
00000170: b5d7 c43d b65a 443e 9f28 f13d 982a 893d
00000180: c7cc 803d 8dfa d9bd 7bf2 11be 1d71 1ebe
00000190: 032f 78bd 3958 99bd 7c74 0bbe dbd0 9b3c
000001a0: f16e 173d 3bef 183e 51d2 213d cefe 9dbd
000001b0: fb01 a6bd 6e31 933d 77d6 4fbe e591 0c3e
000001c0: 2df8 533e d927 643d 3bfc 023e 31d9 b4bd
000001d0: fe43 d7bd fe19 ea3d 1b70 273e 840b cd3d
000001e0: 6ff1 d43d 440d bbbd c3f7 453d 57db 053e
000001f0: ab18 413e b9c8 debd ad45 933d 7531 ea3d
00000200: c776 723d db15 96bd 16c7 3cbe 0c58 e2bd
00000210: fe43 cd3d 4162 dc3d 2086 ea3d bfb3 54bd
00000220: 78ef 99bd 9dca 89bc 75e3 ee3d c878 03bc
00000230: 536d 913d 75de 6ebd 6285 25be ca7d 0fbd
00000240: 0901 9cbc 42ec 2e3e 31eb 82be a917 8c3e
00000250: 24df 413e f320 2b3e 6ba7 edbd d284 c43d
00000260: 505e 3cbd 2d56 733e 2946 533c 3dd0 6c3e
00000270: f65b 76bd d133 e4bd 12ff 613c c7d5 89be
00000280: 03ed 503e 66fb bfbd d371 8a3b 7c89 13bd
00000290: 56bd 36be df32 11be 8d9c 353e 177d f4bd
000002a0: 303a 0dbe aff4 42be 86ed 9cbd af9b 033c
000002b0: 1f24 123d 8c32 db3d d95e 033e dcb3 1b3e
000002c0: e111 6abd 66e2 6d3e 4eec 10be de3b 8d3d
000002d0: 2a2d 5f3e 8559 74bd 3913 38be b891 59be
000002e0: 927c a23e 1e7c 143e 6cdd 923d 6bb2 163e
000002f0: 4ffc 2ebe 54a3 72bd b531 263d 2247 793c
00000300: e918 6fbe e172 a93d c1b4 1d3e 4932 4a3e
00000310: 2fca 6cbc f221 093e a5f7 673d a628 a13c
00000320: 4d5f 573e ba83 513e 8ec9 51bd 0bdb 163e
00000330: 72ad c93d 35db 81ba 0d2c 313e 8645 93be
00000340: ec9b 51be f600 87bb c1bd 53bd 1eb3 d3bb
00000350: 9098 763e 2f32 003e 898f 40be 88bf 983d
00000360: d3d0 493e f98a 303e d607 d23c 3290 59be
00000370: dc91 18be a147 11be c965 70be 0f2f 613d
00000380: 034e cfbd 43fc a63c ec41 59be c302 8f3e
00000390: 193e 813c 9618 c43c f271 7b3d 1fa7 0dbe
000003a0: 6458 883e 2909 cd3c ee2d 323e d12a 483e
000003b0: 8f8b 44be 792a 0d3e 43a3 cc3d 8ffe a2be
000003c0: 3b71 3c3e a33a 87bc be77 d63d 3e81 01be
000003d0: dea9 28be bdde 753d 4227 e9bd 4d6e ec3d
000003e0: 4adb 85be 4991 7bbe 3440 283c ca0e 39be
000003f0: 223a 2f3d b1d2 ecbd 1f00 23be 93e9 9a3e

_conditioned._initial._model.0.bias f4 [32]
-0.11786323 -0.21040511 0.02997054 -0.081405066 0.075109154 0.1723338 0.19953936 0.11913141
0.17901485 0.02061881 0.015969684 -0.17680295 0.09558452 0.23123349 0.16740493 -0.25722906
-0.1812182 -0.22047767 0.14703949 -0.1896537 -0.24106503 0.041136567 0.20867825 -0.12123224
-0.048317764 -0.18131842 0.12792915 0.18977259 0.024278538 0.14434545 -0.043421797 -0.006293118
00000000: 4762 f1bd 7074 57be c784 f53c b3b7 a6bd
00000010: d4d2 993d 4678 303e 0c54 4c3e 2bfb f33d
00000020: ab4f 373e c7e8 a83c dbd2 823c d50b 35be
00000030: d1c1 c33d 79c8 6c3e 336c 2b3e 87b3 83be
00000040: 4491 39be e6c4 61be 8591 163e 9434 42be
00000050: c0d9 76be d17e 283d c0af 553e 9c48 f8bd
00000060: d9e8 45bd 89ab 39be dcff 023e bf53 423e
00000070: c9e3 c63c 4bcf 133e 0edb 31bd 8036 cebb
