Forex/lstm_sigwgan/G.pt (torch, 320167 bytes, 41 tensors)

encoder.lstm.weight_ih_l0 f4 [128, 1]
00000000: b69d d3bd 1cc2 cb3d da01 303e 1e15 0ebe
00000010: 5674 9ebd c8f4 343e 3e7b bc3d 53c0 06be
00000020: 1d48 c2bd da52 a5bd 75a1 18be e177 c4ba
00000030: 4610 0dbd eac1 cabd b386 f13c 6269 ffbc
00000040: cba2 23be b862 d1bd 698a 063e d694 b5bd
00000050: 8506 003e ce08 2c3e a40d 00be 380c 323e
00000060: f5dc c3bb c121 9e3d 33db 803d 8160 a6bd
00000070: 727e 003e fd5d 13be 7e00 acbd ca1d 1e3d
00000080: 4c39 023d 090a 0dbe 418d be3d eeee dabd
00000090: 01e8 dfbd 202f 19be 875f 3dbd 8633 2f3e
000000a0: 7edd d3bd 4403 a73d 5d6a 4bbd f9f1 f43d
000000b0: e303 5f3d ab5b ee3c 4760 69bd 953e 30be
000000c0: 57be 1fbe fcc5 64bd 4081 22bd 6cd0 bebd
000000d0: fd0f 93bc aa2f 0b3e 9a63 fbbc 121a 303e
000000e0: cad4 91bc ba9d 123e 51a6 e63d 088a 153d
000000f0: 6948 7fbd f80b bebc c78f 5d3a 1f7d 233e
00000100: 1012 9c3a 834f 0ebe f273 073e cef4 23be
00000110: 8752 86bb 4413 193e d3cc 383d 234d a5bd
00000120: 9896 03be 9618 1b3d 1862 05be 22ae 0b3e
00000130: e438 32be 278b fdbd 7076 d63d ae2c 333e
00000140: b592 56bd b447 54bd 765c 23be e196 6b3d
00000150: 9b5e debb 952e ca3a 76c4 273e a909 a33d
00000160: f587 febc 4951 c1bd 585f c23d 61aa 11be
00000170: 4dd1 5abd 0c2a 8c3d 6079 ef3b 5c15 26bc
00000180: f329 16bc 90c9 1fbe a21d 423d 22ef b23d
00000190: d2a2 f43d acd5 15bd b458 31be b640 00bc
000001a0: f6ab 30be 3b5a 1a3e df24 eebc 1f5c fbbd
000001b0: 56bd 03be 7d22 463c b2b2 d8bd a101 093d
000001c0: 7da0 29be c5dd 1a3e a52b 1f3d 20dc de3b
000001d0: 0df0 cf3d e1d1 42bb dbb9 923d 3997 adbd
000001e0: d75b b73c 48a5 0abd 9d81 dc3d 1d77 acbd
000001f0: 2616 a03d 2a21 9fbd 92b7 6cbd c5a3 8bbd
-0.10332815 0.09949133 0.17188206 -0.13875243 -0.07737033 0.17671502 0.09203194 -0.13159303
-0.09486411 -0.08072443 -0.14905341 -0.001498934 -0.034439348 -0.099002674 0.029483175 -0.03117818
-0.1598007 -0.10223907 0.13138737 -0.08866279 0.12502487 0.16800234 -0.12505203 0.17387474
-0.005977268 0.07721282 0.06291809 -0.081238754 0.12548235 -0.14391322 -0.083985314 0.038602628
0.031792924 -0.1377336 0.09304286 -0.106901035 -0.10932923 -0.14959383 -0.04623368 0.17109498
-0.10344981 0.0815492 -0.049661983 0.11960215 0.054447066 0.029096445 -0.056976583 -0.17211373
-0.15599953 -0.055852875 -0.039674044 -0.09317097 -0.01795196 0.13592401 -0.030687142 0.17197445
-0.017801661 0.1431798 0.11262191 0.03650859 -0.062324915 -0.023199067 0.00084519055 0.15965699
0.0011907239 -0.13897519 0.13227823 -0.16011354 -0.0040991935 0.14948756 0.04511721 -0.08071353
-0.12850416 0.037865244 -0.13025701 0.13640645 -0.17404515 -0.12380057 0.10471809 0.17497513
-0.052386004 -0.051826194 -0.1595324 0.057516936 -0.00678618 0.001542526 0.16383538 0.07960827
-0.031070689 -0.09439332 0.094908416 -0.1422515 -0.05342226 0.06843957 0.00730817 -0.010136928
-0.009165275 -0.15604234 0.04739154 0.08737017 0.11945118 -0.036580727 -0.17318994 -0.007827928
-0.17253098 0.15073483 -0.029070316 -0.1227343 -0.12865195 0.012093184 -0.105809584 0.03344882
-0.16565128 0.15123661 0.038859982 0.0068011433 0.10153208 -0.0029727148 0.07164355 -0.08476109
0.02238266 -0.03384903 0.10766909 -0.084211566 0.078167245 -0.077699974 -0.057792254 -0.06818346

encoder.lstm.weight_hh_l0 f4 [128, 32]
00000000: 602a 65bd c5b8 0c3d bc44 d6bc dcf6 043e
00000010: 727c 1e3e 0697 883c c3a2 5cbd ba50 0c3d
00000020: 6411 023d b8e3 f13d 9666 04bd 9178 dfbd
00000030: 3466 36be b5c7 dc3d 00b5 9c3d c776 563d
00000040: d8e4 fbbd 9488 c43d 308a 90bd fe81 a0bc
00000050: 930d 9d3d e641 e9ba fe9f 83bd e807 263e
00000060: 9791 34be 0d98 1dbe b92a 6ebd 2878 a6bd
00000070: 5207 07be 41e1 33bd 0ec9 143e 0721 bc3d
00000080: a3d8 f9bc 63bf 203c c40a 9ebd 03b5 efbc
00000090: db82 f6bd 5492 f3bd 1c97 503c 1ccb 06be
000000a0: d766 c13d 2247 323e 57de 08bd d2cc f4bd
000000b0: b9b9 debd 15c2 03be ed3f f4bd ba5c 033d
000000c0: ff15 e3bd 06d0 5ebd 815c 57bd 2063 cb3d
000000d0: f53b f03c 9e63 32be 66c4 09be 2684 13be
000000e0: a1f4 203e 70bc 1fbe fb6a 563d 9723 ccbc
000000f0: 848d 0e3d e6ae 033e 5952 b2bd 0ae6 77bd
00000100: ec80 bbbc dfff 333e 4c89 d2bd e1f1 a03b
00000110: 52a9 933d ff3d 0dbe 047f 133d f048 19be
00000120: 3d04 dd3d 7c26 f23a d294 e6bc 4389 67bd
00000130: 746b 22be 2087 133e 5429 07be 20a6 35be
00000140: 273c f0bd 5543 b63d 79ec b73d db9c c93c
00000150: 5690 c73d 1319 d1bd cebf be3d 2b9a cf3d
00000160: e628 32be 8b85 edbd 333f 1e3d 0fb3 9bbb
00000170: bc12 153e 7b01 94bb 4f51 70bd 44e4 2b3d
00000180: 5196 0e3e fb58 4e3d 9d72 043e c3b4 28be
00000190: ba81 2a3e 5af4 053e 6600 dcbc 3d56 0f3c
000001a0: 4cd1 b6bd fabe 15be 8a7c a8bc 847a f33c
000001b0: da13 b83d 1d1d 863d 450e 743d b0a3 253e
000001c0: fccf d13d 5490 ee3d 6ab7 29be 9450 223d
000001d0: 0726 f9bd fb32 2e3e ac50 fc3d 5e33 5fbd
000001e0: 2091 b83b d4da fdbc 20f3 06be 0ae0 f4bd
000001f0: ffbc bdbb a400 74bd 181b 85bd b4ac 08bb
00000200: 8d71 de3c ef08 06be de3b d6bd a0ef 29be
00000210: e4ba 9b3d a7f4 c2bd 0b0d a43d bb2f bdbc
00000220: feb8 81bd bb62 5abd 2ec7 4bbc 9aea e33c
00000230: 1e58 1cbe 843b 4c3d 94d0 cebc efe4 1dbd
00000240: f11e d03d d266 453d 1fde 143e 911c 2cbe
00000250: f486 a1bd 15c4 bb3d fb91 fd3d 9585 12be
00000260: 28e2 00be dcfa d1bd d798 3fbd 808f 103d
00000270: 0da0 c1bc c19d f1bd 0d2c 1d3d b776 ca3d
00000280: 6b43 a53d 08a4 fab9 8da7 edbc f5ce 09bc
00000290: 1f61 16be d9c4 03be 53d6 e63b 130c 2cbe
000002a0: efee eabd 8263 3c3d e545 06be 89f1 75bc
000002b0: cbe8 333e b6a4 9bbd 4107 943d 1aa2 4fbc
000002c0: d0fd 1cbe 72a8 adbc 5d27 803c 25ec cf3d
000002d0: e154 04be 10b1 0d3e 2eb2 4abd fdba 343e
000002e0: b89f 3bbd f1ee e73d d7a1 07ba 0bcd e43d
000002f0: d0b4 1c3d 3f54 3f3d 45ee 3bbd 23d5 193e
00000300: 74b9 d13b 4baa c7bc 18df 2e3d d94f 133e
00000310: eaa3 ad3b b33b 083d 1c75 1b3d f307 92bb
00000320: 7100 983d 98bf 493d bc3d 0ebe 54bc ccbd
00000330: 0c41 0f3e 5a62 cb3d f001 4d3d 2b6d 0cbe
00000340: a5fd 0ebd f0a6 2b3e 5fac d3bd 0443 d8bc
00000350: 2099 aa3b 666f 0f3e 3140 35bd c231 7f3d
00000360: 2dc4 eebd 3b27 d83c b005 2d3e 17de b83d
00000370: 03ba 9b3d 1e18 fc3d 1baa e1bc cbe0 0abe
00000380: c718 cfbd 570f 4f3d 5c05 963d c94e 81bd
00000390: d776 093e fb74 e4bd a36e 87bd e702 8a3d
000003a0: 6f04 16be ab1c f0bd 4c76 333e cae2 64bd
000003b0: 9cf9 ba3d 59d5 f23d a558 f7bd feb8 d7bd
000003c0: ed8d b23c 4687 ed3d 030e d3bc 532b 1fbd
000003d0: 0f99 4ebd 2e3d f1bd f721 b93c e609 f03d
000003e0: a58a 71bc d951 13be fdb1 73bd e177 e7bc
000003f0: 2be1 093e 0433 623d 331f 903c d7fa 56bd
-0.055948615 0.034355897 -0.026155822 0.12984794 0.1547716 0.016673576 -0.05386616 0.034256674
0.031754866 0.11811012 -0.032324396 -0.10911668 -0.17812425 0.107802786 0.076517105 0.05235937
-0.12299508 0.09596363 -0.07057607 -0.019593235 0.07668605 -0.0017796129 -0.064270005 0.16213953
-0.17633663 -0.15390034 -0.058146212 -0.08128387 -0.13186386 -0.04391599 0.14529821 0.09185987
-0.030498808 0.009811255 -0.07716897 -0.029261118 -0.120366774 -0.11893144 0.01273134 -0.13163418
0.09443443 0.17409948 -0.033415165 -0.11953129 -0.108752675 -0.12867005 -0.119262554 0.032070853
-0.1108818 -0.054397605 -0.052578453 0.09931016 0.029325465 -0.17420813 -0.13453826 -0.1440588
0.15718319 -0.15599227 0.05234812 -0.024919314 0.03480293 0.12859687 -0.08707113 -0.060522117
-0.022888623 0.17578076 -0.102800936 0.0049116467 0.0721003 -0.13793181 0.036009803 -0.1496923
0.10791824 0.0018474604 -0.028147135 -0.056527387 -0.15861303 0.14407015 -0.13199359 -0.17739153
-0.11730223 0.08899561 0.089806505 0.024610927 0.09744327 -0.10209861 0.093139276 0.10136827
-0.17398414 -0.11597737 0.03863449 -0.00475157 0.14557928 -0.004516778 -0.058671292 0.041965738
0.13924529 0.050377827 0.12934346 -0.16475205 0.1665105 0.13081494 -0.026855659 0.008748588
-0.08926639 -0.14623633 -0.020567197 0.029721506 0.089881614 0.06548522 0.05958392 0.16175723
0.10244748 0.11648622 -0.16573873 0.039627627 -0.12165456 0.17011635 0.123200744 -0.054492347
0.0056325346 -0.030988134 -0.13178682 -0.119567946 -0.0057903524 -0.059570923 -0.06499308 -0.0020854892
0.027153755 -0.13089345 -0.104606375 -0.16595316 0.07604006 -0.0951932 0.080103 -0.023094049
-0.063341126 -0.053316813 -0.012437625 0.027821828 -0.15267989 0.049861446 -0.025245942 -0.038548406
0.101621516 0.04819376 0.14537857 -0.16807772 -0.078870684 0.09168259 0.12381359 -0.1430877
-0.12586272 -0.10252926 -0.04677662 0.035293102 -0.023635888 -0.11797667 0.03837209 0.09885924
0.080694996 -0.0004780593 -0.029010559 -0.008411159 -0.14685486 -0.1286806 0.0070445924 -0.16801481
-0.11471354 0.045993336 -0.131126 -0.0150112 0.17569272 -0.075997755 0.07227946 -0.012672925
-0.15331197 -0.021198485 0.01564377 0.10152463 -0.12923004 0.13837075 -0.04948633 0.17649455
-0.045806617 0.11324871 -0.00051739573 0.11171921 0.038258374 0.046711203 -0.04588153 0.15022711
0.0064002816 -0.024373194 0.042693228 0.14385928 0.005299081 0.03326006 0.03795348 -0.004456514
0.07421959 0.049254984 -0.13890737 -0.09996858 0.13989657 0.099308684 0.050050676 -0.1371352
-0.034909863 0.167629 -0.103356116 -0.026399143 0.005206242 0.14007339 -0.04425067 0.062303312
-0.11658511 0.026385894 0.16896701 0.09026735 0.07603838 0.123092875 -0.027546933 -0.13562314
-0.10112148 0.05055174 0.07325241 -0.06313855 0.1342424 -0.11155125 -0.06612899 0.06738835
-0.14650129 -0.11724218 0.17525595 -0.055880345 0.091296405 0.11857099 -0.120774545 -0.10533331
0.021796191 0.11598067 -0.025763517 -0.038859677 -0.050438937 -0.11779247 0.022599204 0.11720638
-0.014742528 -0.14386691 -0.059495915 -0.028255405 0.13464801 0.055224434 0.017593002 -0.052485313

encoder.lstm.bias_ih_l0 f4 [128]
00000000: 5328 2e3e ab2a b53d ae16 b23d 8858 953c
00000010: 84d0 10be afc1 e5bc b1ad 233d fbb3 2a3e
00000020: 062f 093e c212 5dbc d15b d5bd 02b4 873d
00000030: 2800 3dbd 68e9 dabd 1985 9ebd bfd2 9ebd
00000040: 5215 1bbe b98d e53c 2dfa b33d 84be 38bd
00000050: 7aee 303d 20d7 88bd 8a30 f13d ff44 0cbe
00000060: a83e 563d 2467 b73d bff5 bbbd f8bd 973c
00000070: da52 7c3c e416 873d f4a1 06be 18b1 92bc
00000080: f37e 2ebe abcc 05be c6a0 14be 3f63 d33d
00000090: 3fce 323e e4ba f83d 7a5a 3cbd 17b5 0e3e
000000a0: 10cc 6d3a 78ff 0abe 736c d7bd f59f 0cbe
000000b0: 8a28 bf3d 1f94 993d b837 faba 11be 8cbd
000000c0: 2748 91bd 0cbc 783d 8b95 c63c d29f c23d
000000d0: e002 233e 136c 2ebe d3bd 273e 5445 f4bd
000000e0: defa 8c3d 4497 28be 43ea 0d3e f4c4 533d
000000f0: 6c61 0e3e be35 323e d1ef c0bd 2089 b4bc
00000100: 989b c93d 21e3 1fbe 6b2a dc3d 9d03 223e
00000110: 4f9a 26bd 9932 13be a439 c9bc 1352 f43d
00000120: 972a cebd 80bf ad3d 9f2e fd3d 7c1f 8bbd
00000130: c376 253d 6ac5 96bd 6299 d1bc a339 333d
00000140: b90b 0f3e 6ed1 133e f671 83bd 10ba 093e
00000150: 4d15 12bd 2ec1 fbbd 1617 fe3d 0a3a 233e
00000160: 60c4 0abe 37b1 0ebd b9dd 293e 7201 0cbd
00000170: d626 2f3e 732a 2b3d 18b9 b2bd 3ed7 a53d
00000180: 19b6 f7bd e82a 22be 6d93 20be f642 b1bd
00000190: acd1 a5bd 3a1d 83bc 7cb8 ecbd ab0b d3bd
000001a0: 3462 5a3c 531c c63d cf34 f3bd e5b0 1f3e
000001b0: 7446 6abd f7a5 273e a754 5abd 818f 133e
000001c0: b2a6 53bc d22c d83d 442e b6bd e856 edbd
000001d0: 08ae 29be 9267 bbbd d6bc f13d f831 20be
000001e0: 3af3 e6bd 0a7a cebd a544 773c f8d4 19bd
000001f0: 4934 d33d 0894 0c3e bc37 243e fda0 22bd
0.1700757 0.08846029 0.08695732 0.018230692 -0.14142042 -0.028046457 0.039960567 0.1667022
0.13396844 -0.013493242 -0.10417903 0.06626131 -0.046142727 -0.1068905 -0.0774023 -0.077550404
-0.15144852 0.02802168 0.087879516 -0.045103565 0.04319618 -0.06681657 0.11776836 -0.13698195
0.052305847 0.089552194 -0.09177732 0.018523201 0.015400613 0.06596163 -0.13147718 -0.01790671
-0.17040615 -0.13066356 -0.14514455 0.10321664 0.17461489 0.121450216 -0.045984723 0.13936268
0.000907124 -0.13574016 -0.10518732 -0.13732894 0.09333904 0.07498955 -0.0019090092 -0.0687219
-0.0709384 0.06072621 0.02424123 0.095031396 0.15919065 -0.17033415 0.16381006 -0.11927286
0.068837866 -0.16463953 0.13858895 0.0517015 0.13904351 0.17403314 -0.09420741 -0.022038043
0.0984413 -0.15613987 0.10750278 0.15821691 -0.040674504 -0.1437477 -0.024563618 0.11929717
-0.10066717 0.08483791 0.12362408 -0.067931145 0.040396463 -0.073618725 -0.025585834 0.04375614
0.13969316 0.1443536 -0.06418221 0.13449883 -0.035664845 -0.122927055 0.12406747 0.15940109
-0.13551474 -0.034836974 0.16588487 -0.034181066 0.17104658 0.04178853 -0.0872671 0.08097695
-0.12095279 -0.1583668 -0.15681238 -0.0865535 -0.08096632 -0.016005147 -0.11558625 -0.1030496
0.0133290775 0.09673371 -0.11875307 0.15594824 -0.057196096 0.16371904 -0.053303387 0.14410211
-0.012918161 0.10555424 -0.08895543 -0.11588842 -0.16570294 -0.09150614 0.11803596 -0.15644062
-0.112768605 -0.10081871 0.01509205 -0.03755662 0.10312707 0.13728344 0.16036886 -0.03970431

encoder.lstm.bias_hh_l0 f4 [128]
00000000: 293f 0a3d f9ba 043d 7cd6 b2bd b250 27be
00000010: 4482 073e 582f d4bd 6e94 203e 27dc 023c
00000020: 4dbe 1c3e 72ce f7bb bf69 fa3d 3b86 003d
00000030: 5741 f9bd e9d1 02bd a0e4 d1bd 19f4 33be
00000040: b8ad c63d 6d1d 833d 5d75 9ebd 4eef c7bd
00000050: 82ec a6bd d52c 0fbd a46f 32be 910e c2bc
00000060: d1a8 05be 9555 063e 8ffa 24be f532 2b3e
00000070: 24e4 813d 67a4 22be fb0a 6cbd 7947 70bc
00000080: 0108 143d 77b6 f03c fc8e 10be 79e1 19be
00000090: c27a d23d f7db 893d 0f82 d5bd 592f 18be
000000a0: 0788 abbd 0328 0f3e 2dca 4cbd 008f 2fbe
000000b0: b8a9 f1bd 8448 a83c 139c bbbc d99b 13bd
000000c0: 679c fcbd 4f8b 2cbe 0509 063e eed6 53bd
000000d0: b443 053d 413b 8c3d 0034 d8bd 04a0 84bc
000000e0: 84db 4d3d e50f 253e 302a 19be 07e1 2dbe
000000f0: 0849 093e 51e1 c73d ec60 21be 33c9 ebbb
00000100: fe64 0b3e 6237 8fbd b882 0b3d 2a52 943d
00000110: 901e 2b3e 53f8 f3bd 5358 1ebe 1c03 b93d
00000120: 9034 e23d d022 863c 8fbd b93d cf47 e23d
00000130: af57 253d 839b c0bd 06c3 453d fb8c 0bbe
00000140: ce9d 0abd 2693 eabd 8820 4bbc 6e61 f6bd
00000150: f9a7 07bd 9547 54bd fc73 91bc 92c0 1c3e
00000160: 1cc2 ddbd da92 04be 508b febd 6b00 133d
00000170: 10a6 adbd a1f8 73bd d36c 1abd 7865 5d3d
00000180: eecd 5b3c 1888 013e 2844 c73c 8896 143e
00000190: e2f7 13be f64a b9bc 6d00 f6bb b30a 15be
000001a0: 60a4 31be 4541 18be 63ff d5bd 3c37 f5bb
000001b0: 65a0 9c3d 89aa ee3d fc0a f8bd 9260 d33d
000001c0: 766a 2b3e e23f 07be 29d3 66bc 663f f23d
000001d0: 1bcf ec3d 6a8d f5bd 863d b93d 2fbf b6bd
000001e0: 16d0 b63b a0f2 c8bd a4a7 cb3c 7803 c53d
000001f0: b861 0bbe 9fd0 aabd e6d8 223e 7a0a 923b
0.03375164 0.032404874 -0.08732316 -0.16339377 0.13233286 -0.103605926 0.15681621 0.007987059
0.15306969 -0.007562452 0.12227201 0.031378012 -0.12170666 -0.031938467 -0.10248685 -0.17573585
0.09701103 0.06402097 -0.07737229 -0.097624406 -0.08150579 -0.034954865 -0.174254 -0.023688586
-0.1305268 0.13118584 -0.16111206 0.16718657 0.063423425 -0.15883027 -0.05762766 -0.014665478
0.036140446 0.029383881 -0.14117044 -0.15027417 0.102773204 0.06731408 -0.10425197 -0.14861812
-0.083755545 0.13980107 -0.049997497 -0.17144394 -0.117999494 0.02054239 -0.02290157 -0.0360373
-0.12334519 -0.16850017 0.13089378 -0.051718645 0.03253527 0.06847239 -0.10556793 -0.016189583
0.050258175 0.16119345 -0.149575 -0.16980372 0.13406765 0.097597726 -0.15759629 -0.0071956157
0.13612744 -0.06992985 0.03406021 0.07242234 0.16710877 -0.119125985 -0.1546338 0.09033796
0.11045182 0.016374022 0.090693586 0.11048853 0.040366825 -0.094046615 0.048281692 -0.13627999
-0.0338419 -0.114538476 -0.012397893 -0.12030302 -0.033119176 -0.05182608 -0.017755501 0.15307835
-0.10828039 -0.12946644 -0.124289155 0.03588907 -0.084789395 -0.059563283 -0.03770144 0.054051846
0.013415797 0.12649572 0.024324492 0.14510548 -0.14450029 -0.022618752 -0.007507375 -0.14554863
-0.1734786 -0.14868648 -0.10449102 -0.007483391 0.0764778 0.11653621 -0.1211147 0.10321154
0.1673983 -0.13207963 -0.01408843 0.118284985 0.1156294 -0.11989863 0.09044938 -0.08923184
0.005579005 -0.09811902 0.02486021 0.09619802 -0.13611495 -0.083405726 0.15903053 0.0044568153

encoder.lstm.weight_ih_l1 f4 [128, 32]
00000000: c75c 09be 7f1c e0bd 6278 80bd a57c 00be
00000010: 0010 5fbc 8b97 1d3e 8d95 2fbe 8ec2 47bd
00000020: 8248 06be 767f debd af64 5e3d d3d6 a5bc
00000030: 707f 863d dec3 813b 4ca4 033d e364 f33d
00000040: 4202 e7bd 88d8 c43c 85c9 ca3d 5dd3 3dbd
00000050: 3180 0f3d 018c d8bc 3152 c53d 7b6c d03d
00000060: 5482 0dbe 3d1f e83d e8f7 9d3d cd50 863a
00000070: 8e18 303d 3f74 0cbe 7843 2a3e c09d 0bbe
00000080: 3567 013e 4089 f73d 623b 343e ad7a b03d
00000090: f7d4 a2bc d41a 43bd 6e9f 343e 0bb5 2cbe
000000a0: 509c 26be 5290 91bc 4459 a6bd 94e8 86bc
000000b0: f953 ddbd f1a4 003e 39ca 9cbd 09b2 b93c
000000c0: 1b29 a4bd 7f32 0bbe 5456 9b3d 5a9f 313e
000000d0: c793 bd3d 79b1 043d e236 a23d 77d7 f2bb
000000e0: 114b 20be 962f 47ba 7d53 22be edda d2bd
000000f0: 10f2 10be 803d ca3c 1d44 873b 2294 b3bc
00000100: aa81 c3bc b466 ea3d 508f e3bd 800c e8bd
00000110: 697b 8d3d d61d 2d3e 5d86 db3d 1229 9dbd
00000120: 3d47 2c3e 07cc 69bb 2927 2fbe 459a 9ebd
00000130: e349 7f3c 9897 be3d 7cdf 64bd a9d8 19be
00000140: 0c05 753d 9292 61bd 8ee0 283e b33b a73d
00000150: 4927 e8bb 53d6 93bd 9169 e03d 63dd e8bd
00000160: 64bf 31be 01a3 933d 082e a93c bb12 153d
00000170: 7171 5bbb f669 0a3d dfdb 213e 4dda 00be
00000180: 242a 12be 32be 32bb 8751 a73d 0bca a33d
00000190: 2c56 003c 04f8 ae3d acd2 bc3d b48f f6bd
000001a0: cfa7 95bd 20d5 2fbe 8094 203e 2257 34bb
000001b0: 147c 3e3d e197 5b3d 555b 45bc bfc0 9dbd
000001c0: b8a6 87bc 4a27 c43d 4bb3 3b3d b41a 8e3c
000001d0: e02b 33bc cb07 77bc 6252 acbd cf2f 8abc
000001e0: c7a1 dcbc 2cc4 07be 6401 2c3d 05b2 e4bd
000001f0: 7747 693c 5c14 17bd 9c6f 123e e336 dcbd
00000200: 6c55 e63c c45e 75bd a7ee 0cbe 706b eebd
00000210: 89dd 14be 699d 18be 2c99 cc3d 1683 2dbe
00000220: 9f19 9cbd 83b7 57bc 8839 78bd 34d9 05bd
00000230: b674 943d 378d e9bd aa10 04be d039 0bbe
00000240: e5f6 dabd d5c8 11be 832f 32bd 3795 893d
00000250: 961a b93c 5cce 403d c208 193e 35cb 853c
00000260: fc4a 58bd 1544 743d f744 2cbd 35dc 073e
00000270: d539 2fbe fb1d 8c3d f1b5 553d b3cb 9fbd
00000280: 9043 023d 53f8 02be 5695 d53d 3d77 043e
00000290: 565a 273e ab3c 3bbc bb40 7ebd 2a37 193e
000002a0: eb01 0ebe 7a20 8bbd 356f f1bd 711a fb3c
000002b0: 8ca4 8c3b 0a5b da3d 8c3a dfbd 5f10 6d3d
000002c0: 3452 11bc b155 0f3e 1a4f 9c3d 0211 17bb
000002d0: 9cd0 0b3e 98af 76bd 374a 26be cd0a 1b3e
000002e0: 4aa4 0bbd 19f7 df3d d41b 1d3e 1ec7 173e
000002f0: b04b 273e 3cb1 6b3d abb3 bfbc 5536 13be
00000300: c6b6 6fbd ce80 0b3e 8fc9 b53d 6722 123e
00000310: 0662 f83c 8676 333e 110f a03b a3ea 19be
00000320: cd66 02be ebb0 703d a82a 15bd e23c 6fbd
00000330: 9d75 1e3e 72c3 b43c d2f8 9f3c 8f7a 6c3d
00000340: 7195 7e3d 2299 30be 916e e13d 3bc8 af3d
00000350: c33e d3bd a18e e33d 6a9b e2bd 6708 913c
00000360: d79e 9fbd ad69 803d 6ab6 1b3e 0620 e4bd
00000370: 4fdc 363d bb15 c93d 44b8 c9bd 20d7 0d3e
00000380: 1de8 cb3c 3e20 ca3d 51f6 fdbb 3c0a 93bd
00000390: ab4b 403d b204 25be e38e 7d3d f1c3 183e
000003a0: b341 1ebe b234 09bd 8792 29be 8a85 273e
000003b0: 4a38 0b3b 858c 9a3d 7ffc 19be ff6b 15bd
000003c0: 2c2c 073d d9ab dc3d 4a3a 113e d1a4 a1bd
000003d0: c72d d73d 6692 9b3d 9ab1 3f3d 83d3 05be
000003e0: 05c4 133e fc43 e0bd d203 edbd 321b 35be
000003f0: 3364 22bc 3c99 8c3c 12c4 28bc 1880 6ebc
-0.13414298 -0.10942935 -0.06272961 -0.12547548 -0.013614655 0.1538984 -0.17146893 -0.048769526
-0.13113597 -0.10864155 0.054295238 -0.020244038 0.065672755 0.0039601168 0.032139108 0.11884477
-0.112797275 0.024029031 0.09901718 -0.04634415 0.035034362 -0.026433947 0.096348174 0.10176941
-0.13819247 0.11334083 0.077133 0.0010247469 0.042992167 -0.1371622 0.166273 -0.13634396
0.12637027 0.12086725 0.17600778 0.086171485 -0.01987694 -0.047633007 0.17638943 -0.16865937
-0.16270566 -0.017769013 -0.08122495 -0.016468324 -0.10807032 0.1256292 -0.076557584 0.022667902
-0.08015653 -0.13593481 0.07584825 0.17345944 0.09256702 0.032395814 0.07920624 -0.0074109393
-0.15653636 -0.00075983384 -0.15852161 -0.10295663 -0.1415484 0.024687529 0.004127993 -0.021921221
-0.02386554 0.1144537 -0.11111319 -0.11330509 0.06908304 0.16905913 0.10718987 -0.07673849
0.1682405 -0.0035674588 -0.17104782 -0.07744268 0.015581581 0.09306258 -0.055877194 -0.15024056
0.059819266 -0.05507142 0.16491911 0.081656836 -0.0070847613 -0.072186135 0.10957635 -0.11370351
-0.17358166 0.07208825 0.020651832 0.036394816 -0.0033484364 0.03379246 0.1580653 -0.12583275
-0.14273888 -0.002727401 0.08169847 0.07997521 0.007833045 0.08543399 0.0921987 -0.12039128
-0.073073976 -0.17171144 0.15681648 -0.0027517756 0.04650505 0.05361164 -0.012045701 -0.07702779
-0.01655899 0.09577806 0.045825284 0.017346717 -0.010935754 -0.015077542 -0.08414151 -0.0168685
-0.02693261 -0.13258427 0.041993514 -0.11166767 0.01423823 -0.03688465 0.14300388 -0.10752656
0.028116904 -0.05990483 -0.13762914 -0.11641586 -0.14537634 -0.14903797 0.09990153 -0.16944537
-0.07622074 -0.013166311 -0.06060174 -0.032677844 0.07248823 -0.11403888 -0.12896982 -0.13596272
-0.10691623 -0.14236768 -0.043502342 0.067179136 0.022595685 0.0470718 0.14944747 0.016332248
-0.052805886 0.05963524 -0.042057958 0.13267596 -0.17111905 0.06841656 0.052175466 -0.078025244
0.031802714 -0.1279004 0.10428874 0.12936111 0.16343054 -0.011428039 -0.06207345 0.1496245
-0.13867919 -0.06793304 -0.11788789 0.030652257 0.0042920765 0.106618956 -0.10899839 0.05787694
-0.008869696 0.13997532 0.07632275 -0.002305091 0.13653797 -0.060226053 -0.16239248 0.15140839
-0.034092225 0.10935802 0.15342647 0.14822051 0.16337466 0.05754207 -0.023401102 -0.14376195
-0.058523916 0.13623354 0.08876335 0.14270936 0.030320179 0.17525682 0.0048846086 -0.15030913
-0.12734528 0.058762472 -0.036417633 -0.05840767 0.15474553 0.022065852 0.019527826 0.05773407
0.062154237 -0.17245916 0.11007417 0.08583113 -0.10314705 0.11111189 -0.11064799 0.017704202
-0.07793968 0.06270156 0.15206304 -0.111389205 0.044643696 0.09818598 -0.09849599 0.13851595
0.024890954 0.09869431 -0.0077503105 -0.071796864 0.046947163 -0.16115072 0.061903846 0.14918496
-0.1545475 -0.03349752 -0.16559802 0.16359535 0.0021243268 0.07546333 -0.15037726 -0.036479946
0.03300111 0.10774965 0.14182392 -0.07892764 0.10506778 0.07596283 0.046800233 -0.13068967
0.14430244 -0.10950467 -0.11572994 -0.17686155 -0.009911585 0.017162912 -0.010300653 -0.014556907

encoder.lstm.weight_hh_l1 f4 [128, 32]
00000000: f865 ecbd dc35 87bd e5e1 31be b3cc bbbd
00000010: 7a91 af3d f6e2 273e 59a6 22be ed31 183e
00000020: aa2b 063e daf2 84bd f9de 86bd 0606 1f3e
00000030: a84e 87bd b3d4 0d3e 63e5 0f3e c3fe a9bd
00000040: 7b49 a23d d95e b43d 49b5 e2bd fa95 d03d
00000050: c1a7 bbbd 1240 09bd 5a19 03bd ee72 edbc
00000060: cdda 0fbe 489f d5bd bca1 afbd 1377 df3d
00000070: e050 913b 885c 033e bbef c0bd 47c6 7abc
00000080: 3179 e33c 855f cebd 2792 d43d 3289 143e
00000090: 7042 f83c 4aff 9b3d 15c7 2d3e 0240 a53d
000000a0: 92c2 a03d c52a 68bd 5378 ea3d d21f 343e
000000b0: 3cda 42bd bec2 adbd 6fb6 2d3e b9c6 f83d
000000c0: c64b 1f3d d775 e7bd a966 0c3e b7ee 3c3c
000000d0: 947d e33d 6407 1f3c 76ac febc 5cc3 183d
000000e0: 5cb9 d2bd d90a 94bd eb96 4dbd 0422 ed3d
000000f0: 04f1 ddbd f606 163e 4139 e9bd c513 073e
00000100: 5890 0d3e 18be 313d da65 0bbe 5e73 4ebd
00000110: 6173 cbbd eb72 de3d 85b0 c83d 28a9 33bd
00000120: fce2 a33d 0d4c 953d 3923 953d 1872 7dbd
00000130: 48c2 373d 06d2 10be 35c5 013e 97af cabd
00000140: 624a 143d 6321 14be 5534 0f3e 004e 1a3e
00000150: b54f 143e 1cb8 22bd c6f3 2b3b ea86 fabd
00000160: 9e06 12be 698a 913b c2df 923b cefd f83d
00000170: f2bf 9f3d 2f7a 343e 98d1 f43c ba47 06be
00000180: a698 573c 805c ecbd cc8e 15bd 5550 373c
00000190: f4d6 55bc d7f5 3a3d 348d e2bd 7079 11be
000001a0: a2d0 24be bee6 eb3d 02ad aabd af3f 373d
000001b0: aa8c c5bd 0f92 a7bd dc5e 033e 7743 0b3c
000001c0: 6497 bfbd 4e92 bbbd a59e 40bd 30f2 f83c
000001d0: 9ec3 a23c 5a6a 8e3d 0f76 b2bd 3279 b3bd
000001e0: 4324 d73d 7e2e 143e 2b35 643d 82e7 abbc
000001f0: f359 153e 2c14 1a3e 12a9 1dbe 808d 67bd
00000200: 973a 193d c0df 273e 0af7 36bd df6f 00be
00000210: aa3b 18be f310 bcbd 6d82 ba3d 5486 793b
00000220: 3407 593d 35a7 243c 1b86 bc3c c0c8 6bbd
00000230: 7e3e 20be beda 25be 925f af3d fd50 2d3c
00000240: dcd0 09be 7dd7 bbbc 0207 96bd 06fc 9f3d
00000250: eb89 40bd 5a93 3cbb d18d f8bc ed6f 21be
00000260: 9d56 fdbd 2fa2 85bd 6085 05be a1bd 863d
00000270: 7c80 1cbe d399 0bbc 8a4c 5cbd 1725 973d
00000280: 86b4 50bc 91f8 1bbe 53e0 b9bd 0d1e bd3d
00000290: 2e86 b0bb e410 0bbe 84e9 b4bd 0099 05be
000002a0: e7c0 163e 1b84 22be 8725 bc3d 0470 52bd
000002b0: 7ecf 21be fa4a d73d ee3b df3b 2e35 da3d
000002c0: 992b d9bd 907b 963c 7864 0abc 5a34 243e
000002d0: f140 e9bd 9578 10be 97e4 fdbd adaa 07be
000002e0: ded8 b13d 6abc 9abc 72ce 22bd ac0d b53d
000002f0: 572a 193e 255a b93c 430f 16be e622 afbd
00000300: 8607 23be c464 c2bd 9743 d7bd da16 eb3d
00000310: b10e fdbc c0e5 bbbd 9e03 bd3d 6503 aebd
00000320: f843 fdbd afc1 9cbd f64b b9bd 9007 9a3d
00000330: b513 1f3d 1a31 1c3e 263a 34bd 688c 97bc
00000340: 14fc 1abc 5ab1 233e a524 c0bd 5370 c93d
00000350: f4ee 00be 7c3e 8dbc 77d1 913d 39e3 21be
00000360: 78e2 01bd 7441 16be b658 99bd bbdd 793d
00000370: 37db b13d 92cd 1f3e 487d 233e 5cf9 333c
00000380: 173f 053e 9d35 08be fdfa d33c cacb 12be
00000390: 023a 6a3d 3a3c 993d d77e d43d 3472 873d
000003a0: acae 0a3e bd6a 9c3c e80e 783d 6655 143e
000003b0: 2b67 24be 863c 8e3d 7ac4 07be bf30 43bd
000003c0: 788c 163d ba54 a1bd 527f 9a3c 6bd2 263e
000003d0: 1a13 983d 7ecc 17be eddb 8ebd 3bde b23d
000003e0: 5dce 0fbe 1177 5a3d f487 06be d40f eb3d
000003f0: 8d35 0bbe 750a 1fbd fd73 35be 84b9 afbd
-0.115428865 -0.0660207 -0.17371328 -0.09169903 0.08572669 0.16395172 -0.15883769 0.14862795
0.13102594 -0.06491633 -0.065854974 0.15529642 -0.06606799 0.1385067 0.14052348 -0.08300545
0.079241715 0.08807153 -0.11069734 0.10184856 -0.09162856 -0.033508368 -0.0320066 -0.028985467
-0.1404831 -0.10430771 -0.0857577 0.109113835 0.00443469 0.12828267 -0.09420725 -0.015306062
0.02776775 -0.10076813 0.10379439 0.14505461 0.030305117 0.07617052 0.16970475 0.08068849
0.07849611 -0.056681413 0.11448731 0.17590263 -0.047571406 -0.0848441 0.16964124 0.12147278
0.038890623 -0.11301773 0.13711037 0.011531523 0.111079365 0.009706352 -0.031088095 0.037295684
-0.10289261 -0.072286315 -0.050192755 0.115787536 -0.10836986 0.14651093 -0.113878734 0.13191135
0.13824594 0.04339418 -0.13613072 -0.05040299 -0.09934116 0.108617626 0.097992934 -0.04386249
0.08002278 0.07289896 0.07282109 -0.061876386 0.044863015 -0.14142618 0.12672885 -0.09896772
0.03620375 -0.14465861 0.13984807 0.15068817 0.14483531 -0.03972636 0.002623783 -0.12232764
-0.14260337 0.0044415486 0.0044822404 0.121577844 0.078002825 0.17624734 0.029885098 -0.13113299
0.013158953 -0.115410805 -0.036513135 0.011188586 -0.013051737 0.045644607 -0.110620886 -0.14206481
-0.16095212 0.1151862 -0.0833378 0.044738468 -0.0964597 -0.08182155 0.12829155 0.008499972
-0.09355047 -0.09158765 -0.047026295 0.030388921 0.019868668 0.06953879 -0.08713924 -0.087633505
0.10504963 0.1447086 0.055714767 -0.020984415 0.14585094 0.15046757 -0.15396526 -0.05653143
0.03740939 0.16393948 -0.04466919 -0.12542675 -0.1486651 -0.0918292 0.09106908 0.003807445
0.052985385 0.010049631 0.023013165 -0.057564497 -0.15648839 -0.16196725 0.085631505 0.010578391
-0.1345858 -0.022929901 -0.073255554 0.078117415 -0.04700653 -0.0028774352 -0.03034106 -0.15765353
-0.12370036 -0.06525075 -0.1303916 0.065791376 -0.15283388 -0.008520561 -0.05378393 0.07380121
-0.012738353 -0.1523154 -0.090759896 0.09234247 -0.005387089 -0.13580662 -0.08833602 -0.13046646
0.14722024 -0.15870707 0.09186845 -0.051376358 -0.15801808 0.105123475 0.006812564 0.106546745
-0.10604019 0.018369466 -0.008446805 0.16035596 -0.1138934 -0.14108498 -0.12397116 -0.13248701
0.08683942 -0.018888671 -0.039747663 0.08840498 0.14957558 0.022625992 -0.1465426 -0.08551578
-0.15920839 -0.09491876 -0.105109386 0.11478968 -0.030890794 -0.09174681 0.092292055 -0.08496741
-0.1236648 -0.0765413 -0.090476915 0.07520974 0.038837153 0.15253106 -0.044000767 -0.018499568
-0.009459514 0.15985623 -0.093819894 0.09835877 -0.12591153 -0.017241709 0.071200304 -0.15809335
-0.031710118 -0.14673406 -0.074876234 0.061002474 0.0868439 0.15605763 0.1596576 0.010984745
0.13012348 -0.13301702 0.025876516 -0.14335552 0.057184227 0.074821904 0.10375755 0.066135794
0.13543195 0.019093866 0.06056109 0.14485702 -0.1605498 0.06945138 -0.13258544 -0.04765391
0.036755055 -0.078774884 0.01885954 0.16291206 0.07425518 -0.14824101 -0.06975541 0.08733793
-0.14043565 0.053336207 -0.131378 0.11477628 -0.13594647 -0.038828332 -0.17720027 -0.08580306

encoder.lstm.bias_ih_l1 f4 [128]
00000000: a4c0 2f3e f945 233e f9e7 8b3d f43f a2bd
00000010: 9df0 713d 0e53 133e f96e 85bd a3f2 043d
00000020: b932 86bd 7543 d03d 4332 f7bd 684b f8bd
00000030: 1646 0fbd 92e3 8cbd 0d58 60bc 94eb 2a3e
00000040: 0ad7 8fbd a2fb 0bbe 2af8 d4bd 2b17 b8bc
00000050: 896a 8fbd b488 1e3e cd2f 7dbd 6f82 883d
00000060: 4da0 e5bd 0f64 093b ae7e c4bd 60cb 263e
00000070: 191a b53d 60c1 0cbe 1dd3 233e 62db 51bd
00000080: 0e31 febc 278b 67bd cc79 313e 5a46 f0bd
00000090: 0f01 5e3d c6df d13d 6552 2d3e b3b6 9abd
000000a0: a609 aa3d 70c6 d03c 1841 103d 6745 b83d
000000b0: 83fc a4bd 3035 173d b787 d4bd 45b8 71bd
000000c0: c723 ffbd 9121 ed3d 2e39 f03d f021 2fbe
000000d0: f18d ec3d 8f93 f5bd 3b0f bebd 669b d93d
000000e0: a19f febd b269 0ebe 5c69 e53d 5c9d 6b3d
000000f0: 079c 013d 2a26 9a3d 9ecb 75bc 718e 1cbe
00000100: 6664 0cbd 9de1 33be e372 d4bd 2b27 613d
00000110: cb4e d2bd 1d37 473d 0711 2c3d 0008 e9bc
00000120: 2bd4 113e 7076 ae3d 12f6 98bd 0fbe ff3d
00000130: 4193 2c3e a435 0e3e ed56 f3bd ad89 4ebd
00000140: f29c 32be 0b8a e73d 5b31 b1bc 5a9d b93d
00000150: 9dd8 303c f477 f7bd c2bd 18be 68c5 1b3e
00000160: 7ace c2bd b870 cdbd 7303 d73d f2ee 0b3e
00000170: 1c14 9b3d 7a44 0b3e 689e 97bc 9365 0c3e
00000180: 9330 bc3d 2748 28be 2aac 32bc acf7 1d3e
00000190: 83e9 17be b81e a4bd 322e 113d 8eda dcbd
000001a0: 2375 273e b57c b0bc ec97 5abd c020 bd3c
000001b0: 60fc 2dbe f467 b53c 875c 05be 19f4 15bd
000001c0: 43e2 10bd 4ab5 2bbe 43dc cc3d 383c 30be
000001d0: ff13 583b e1ca 7a3d eff5 16be e21c ccbd
000001e0: 19f8 983d 22a2 bb3d 05a3 053e fce4 5c3c
000001f0: 3692 80bd c22c 09be 1411 3fbd 3865 683d
0.1716333 0.15944661 0.06831355 -0.07922354 0.059067357 0.14387152 -0.06515307 0.03245796
-0.06552643 0.101691164 -0.120701335 -0.121237576 -0.03497895 -0.06879343 -0.013692868 0.16691428
-0.07023437 -0.13670209 -0.10398896 -0.022471985 -0.07002742 0.15481836 -0.061813165 0.06665503
-0.112122156 0.002096418 -0.09594475 0.16288519 0.08842868 -0.13745642 0.15998502 -0.05123461
-0.03102925 -0.05652919 0.17331618 -0.117321685 0.05420023 0.102477595 0.16925962 -0.07554378
0.083026215 0.025485247 0.03521833 0.089976124 -0.08055975 0.036915958 -0.10377448 -0.059013624
-0.12457996 0.11578668 0.11729656 -0.1710279 0.11550511 -0.11991035 -0.09280249 0.10625343
-0.124327905 -0.13907507 0.11201736 0.057523116 0.03164294 0.075268105 -0.015002159 -0.15288712
-0.034275435 -0.17566533 -0.103734754 0.054968994 -0.10268935 0.048636544 0.042008426 -0.028446198
0.14241092 0.08518684 -0.07468809 0.12487423 0.16853048 0.1388765 -0.11881814 -0.050424267
-0.17442682 0.113056265 -0.02162998 0.090632156 0.010793832 -0.12083426 -0.14916137 0.15212023
-0.095120385 -0.10031265 0.10498705 0.13665369 0.07572195 0.1360034 -0.018508151 0.13710622
0.09188952 -0.16433774 -0.010905305 0.1542651 -0.14835171 -0.08013672 0.035444446 -0.107838735
0.16353278 -0.02154384 -0.05336754 0.023086905 -0.16990805 0.022144295 -0.13023578 -0.036609743
-0.03537203 -0.16768375 0.10002949 -0.17210472 0.0032970903 0.061228637 -0.14742254 -0.099664465
0.07469196 0.09161784 0.13050468 0.0134823285 -0.062778875 -0.1339598 -0.046647146 0.056737155

encoder.lstm.bias_hh_l1 f4 [128]
00000000: ac1d 303e cb37 373d 6fc5 03be d4ee eebd
00000010: a63c fb3d 5c4b 323e 7641 043e d6d4 4e3d
00000020: b985 213e 76f5 ae3d 62f2 053e be0b b03c
00000030: 109e 2b3e 9ec7 e2bd 3274 173e 3e83 63bb
00000040: b44a 503d b1ad 13bc b0de 673d 75e9 1b3d
00000050: dbab 003e 8cb2 34be da4d e13c 50db 233d
00000060: 2e0b f2bc 4b47 2e3d 1e64 e8bd 844b e03d
00000070: 5058 ba3d a0d0 443d dd97 603d e8aa c5bd
00000080: e2a5 563d 10f1 3fbd 4f5e e63d e7ae 25be
00000090: 9c24 8c3d c29a 25be 3375 c0bd 4832 debd
000000a0: 39c2 1cbd 5a20 53bc d45b e7bc b171 043d
000000b0: 138c 29be d5a2 3f3d 918d 323e 6d06 f13d
000000c0: c768 e03c 8c00 993d 85e5 883d 1750 cdbd
000000d0: 07fe e23c bb6c 603c 4420 babc 287b 323d
000000e0: 42b2 d9bd a439 323e a224 c73d dec5 b03d
000000f0: 4bab db3d df09 583d ad6b cb3d 473c f03b
00000100: 813c f73d 2a2d a63c abca 273e 88be b6bc
00000110: 2e71 ffbd f5a3 2dbe b7cc 6e3d 1914 e33b
00000120: e587 11bc 2470 acbc abdb d93d 7eaf bd3c
00000130: a003 36bd a900 21be b4ad 00be 4f28 97bd
00000140: 0f74 22be 638a d63d 37f0 2f3d ce8b f33d
00000150: 0055 863d 6078 22be 61e7 eb3d 43af ba3c
00000160: bad6 15be 9c6c 213e 57d0 cc3d 2fca 0fbe
00000170: b6cb da3c 4d23 05be 912e 0e3e 177e 213e
00000180: a393 123e 58ed 2f3e ddb9 da3b 3e1e 76bd
00000190: a581 c8bd 7105 a83d 7948 11be 11fa 983c
000001a0: 10b9 f8bc 5ee2 1abe d1e4 8fbc f0e0 8dbd
000001b0: 7427 163e e289 12be 16ee dbbd 7d60 31be
000001c0: 8cc0 c73b 92c7 babc bbed dc3d e526 0fbe
000001d0: 5411 0b3e 706b d0bc c34d f93d dc46 66bc
000001e0: a81a 11bd 3818 1c3e 370e b9bd 5da6 13be
000001f0: ca5c fa3b 6a41 e3bd 0a83 c63d 10ab b33b
0.17198819 0.044730943 -0.12868284 -0.116666466 0.12267427 0.1741156 0.12915596 0.050495945
0.15773667 0.08542912 0.13080743 0.021489974 0.16759515 -0.1107323 0.14790419 -0.0034715678
0.050852492 -0.009013579 0.056608856 0.03806444 0.12565558 -0.17646235 0.027502943 0.040004075
-0.029546347 0.04254846 -0.11347221 0.109519035 0.090988755 0.048050523 0.054832328 -0.096517384
0.052404292 -0.046860754 0.11248457 -0.16180001 0.0684292 -0.16172317 -0.09397354 -0.10849434
-0.038271163 -0.012886131 -0.02824203 0.032334987 -0.1655734 0.046786148 0.17436816 0.11768804
0.027393712 0.074708074 0.066844024 -0.100250416 0.02770902 0.013697798 -0.022720464 0.043574482
-0.10629703 0.174048 0.09723784 0.0863149 0.10726031 0.05274379 0.09932647 0.0073314044
0.12072087 0.020285208 0.16385905 -0.02230765 -0.12472759 -0.16957076 0.0583007 0.006929886
-0.008882497 -0.021049567 0.106376015 0.02315497 -0.04443705 -0.15722908 -0.12566262 -0.07380735
-0.15864585 0.10475614 0.042953696 0.118919 0.06559181 -0.15866232 0.115187414 0.02278865
-0.14632693 0.15764087 0.10000675 -0.1404197 0.026708465 -0.13001747 0.13884951 0.15770756
0.14314131 0.17180383 0.0066749887 -0.060087435 -0.09790353 0.08204163 -0.14187802 0.018673928
-0.030361682 -0.15125415 -0.017565163 -0.06927669 0.14663488 -0.1431041 -0.10738771 -0.17321964
0.0060959514 -0.02280024 0.10787531 -0.13979681 0.13580829 -0.025441855 0.12173035 -0.01405498
-0.035425812 0.15243614 -0.090359144 -0.14418931 0.007640456 -0.11096461 0.096929625 0.0054830387

encoder.lstm.weight_ih_l2 f4 [128, 32]
00000000: 1f66 f9bd ff7c cbbb 6df3 833d 0aa9 2e3d
00000010: bc1b 9d3d ef3c 6a3d 9e87 e8bc 640e 1cbd
00000020: 4585 33bd a248 a93c b4d3 83bd 0de8 2b3d
00000030: 969b 30be 70f2 9f3d bffb 81bd 716a 97bd
00000040: 70e9 873d 4f54 c5bd 5fae 6dbd 1b33 debd
00000050: 6d43 e43d 87f9 05bc 66e5 62bd 42c0 f9bd
00000060: fad8 593b 44f4 36be d558 cfbd 9479 4f3d
00000070: 3f6d e83d a8e7 d6bd 5735 8abd 07e1 c8bb
00000080: 05b0 d6bd 6132 89bd 53d5 2fbc 1a39 013e
00000090: 82f6 08be 97b3 fd3d f15c cfbd 9d2b 0a3d
000000a0: 74f3 8f3d 2f19 273d 1318 28be efe7 b33d
000000b0: 1fbb 2abe 1ad1 35be 5c55 32be a5ed 84bb
000000c0: 6371 70bd 9ae0 64bd 3be4 483c cba2 6e3d
000000d0: 3cc7 8d3d 1a22 a63d 0841 223c 6bd3 debc
000000e0: 7085 34be b3b1 33be e535 96bb 92b7 143e
000000f0: c95c 493d 1da1 263e bdfa 31be 7dc1 7a3c
00000100: d698 aebd 1738 f1bc 90b7 ea3d d1ba b0bd
00000110: 22f3 eebc 3bed c63d 07c8 573d 8a4f 1bbe
00000120: 35f0 1b3e 5c9c 233e 227f c5bc 510e 1dbe
00000130: 21c5 9dbd ab14 283d bc43 223d 3a48 41bd
00000140: c7b3 97bd 8430 ff3d 1bac 7dbd 1a99 b63d
00000150: 21d5 b6bd 3ad3 023e 3792 a5bd 53d7 c2bd
00000160: f5b9 bb3a e263 b33d 4f38 d03d f78b 1b3c
00000170: b3c7 18be 4a7a a1bd ae34 07be ff59 1fbd
00000180: 7685 5ebd 0165 073d a7b8 f2bd 6ef1 083e
00000190: 36e4 94bd 5067 20be 7d9b 083e ba27 6fbd
000001a0: 4c2a 653b 1404 ffbd 3d76 153e 5cd4 893d
000001b0: d569 19be c83d debd 22d9 d1bb fcee 62bd
000001c0: fc63 3aba 671f b23d 8329 b1bd 9477 eebd
000001d0: d21b 88bc 7a66 203e 6d45 25be 3750 c13c
000001e0: 8600 a53d 575a 38bd f92e 023e d9f4 ad3d
000001f0: 02f9 d63c 841c 3b3c 378d 753d fe2f cd3d
00000200: 8918 0abe a094 1a3c 1352 26be fe60 fcbd
00000210: bbc1 15be e90c 32be c8d7 b5bd 8089 e73d
00000220: 4de6 fa3d ec0b 3bbd 5a11 68bd cd16 f6bd
00000230: b68e 143d 8445 a8bd 2b4c 31be d9f0 843d
00000240: e3d3 9ebd a733 0dbe a473 39bc 1f94 b3bd
00000250: e0bc 2e3e ae2b aeba d0f4 6fbd 59df 7ebd
00000260: fc74 d1bd 8a42 2f3e f048 9f3d 6ee6 f13c
00000270: 95cc 33bd a776 6d3d bb47 cfbd 8b2e ac3d
00000280: 62a3 003e 24ed 1b3d 8856 2dbe 8277 323d
00000290: b56b b7bc f463 293e 5ffe aebd 153d 29be
000002a0: 645c 58bd 05f0 f13d e29d ecbd 4418 efbd
000002b0: b379 dd3d bcad 0e3e e5bc abbd ad66 0b3e
000002c0: a9a0 b83b 49f9 913c 0c6b b2bc 45c2 413b
000002d0: a682 5b3d 6040 ed3d 0c85 2d3d b30c 62bd
000002e0: b795 253e 9dcd 923c 0ce3 1b3a 1fac 9cbd
000002f0: 2e8d 053e dfff 2cbe d667 093c 4570 23bd
00000300: 5380 943d e2f0 fcbd f52d aa3d 0f13 a9bd
00000310: 7cc7 ecbd 4af5 f9bd e2a2 223e 6eaa 7d3d
00000320: 5806 113e 7fb2 d63d 5236 b3bd 889d a63a
00000330: 0d5a 803d 0518 7fbd e48f 0a3e 9d92 1cbe
00000340: d067 5f3d ba7b e6bd 3a97 c6bd e491 2d3e
00000350: 63b3 08be aacc 863d f515 35be f0cd f5bd
00000360: b94a 883d 67fa ae3c 86a4 d1bd 6eb4 32be
00000370: f937 5c3d ac11 92bd 9d78 da3d 8743 2e3e
00000380: b0b3 413d d49b ed3d 06c8 0ebe c115 86bd
00000390: 2db4 29be 300c 88bd 4228 0abe 74ae 31be
000003a0: a579 ed3d 60eb 51ba 5d3a 2f3e 1818 963b
000003b0: c93c 07be 73ac cbbd 185d e1bd 89f9 0ebe
000003c0: eaae 20bd 3a2a 22bd 9d53 2b3e 166d 813c
000003d0: 40c9 e6bd 2a32 31be 57b5 b9bd 4417 bfbd
000003e0: 790b e4bd 4531 4dbd ce59 ab3d 4df1 d6bd
000003f0: e6c1 bb3d 3a46 adbd 9146 d6bd 144b 9cbd
-0.12177681 -0.006209969 0.06442914 0.042641677 0.076713055 0.057187017 -0.02838498 -0.03809966
-0.043828268 0.020664517 -0.064368635 0.041969348 -0.17246851 0.07809913 -0.06346845 -0.07393349
0.066363215 -0.09635221 -0.05802762 -0.10849591 0.11145673 -0.008177168 -0.055394553 -0.121948734
0.00332409 -0.17866617 -0.10124365 0.050653055 0.11348962 -0.10493404 -0.06748455 -0.006130341
-0.10482792 -0.06699062 -0.010732013 0.12619439 -0.13375285 0.1238777 -0.10125149 0.033733
0.07028857 0.0407955 -0.16415434 0.08784472 -0.16672944 -0.17755547 -0.17415375 -0.0040566497
-0.058701884 -0.05587826 0.012261446 0.05826072 0.069227666 0.08111973 0.0099032 -0.027200421
-0.17629027 -0.17548256 -0.0045840614 0.14523152 0.049160752 0.16272397 -0.17380805 0.01530492
-0.08525245 -0.029445691 0.11460793 -0.086293824 -0.02916867 0.09713217 0.052680995 -0.1516706
0.1522835 0.15977615 -0.024108473 -0.15337493 -0.07703615 0.041035336 0.039615378 -0.04718802
-0.07407337 0.124604255 -0.06193171 0.089159206 -0.0892737 0.12775889 -0.08084529 -0.09513726
0.0014322387 0.087592855 0.1016699 0.009493819 -0.14919929 -0.07884653 -0.1320369 -0.038904186
-0.054326497 0.03305531 -0.11851626 0.13373348 -0.0727009 -0.1566441 0.13340564 -0.058387496
0.0034967838 -0.1245195 0.14595886 0.067299575 -0.14981778 -0.108516276 -0.006404058 -0.055403695
-0.0007110236 0.08697396 -0.08650496 -0.116439015 -0.016614828 0.15664092 -0.16139765 0.02359782
0.080567405 -0.04500803 0.12713231 0.084939666 0.026241783 0.011420373 0.059949126 0.100189194
-0.13485922 0.009434849 -0.16242246 -0.12323187 -0.14624684 -0.17387737 -0.08879048 0.11305523
0.12250958 -0.045665666 -0.056657173 -0.12016068 0.036268912 -0.08216384 -0.17314212 0.064912505
-0.07755258 -0.13789235 -0.011319075 -0.08768486 0.17064238 -0.0013288164 -0.05858308 -0.06222472
-0.10227391 0.17115226 0.077775836 0.029528823 -0.043896277 0.057974484 -0.101211034 0.08407315
0.12562326 0.03806795 -0.1692754 0.043571003 -0.022390226 0.16542035 -0.08544611 -0.16527207
-0.052822486 0.11813358 -0.11553551 -0.1167455 0.10814228 0.13933462 -0.08385638 0.13613386
0.0056343866 0.017819064 -0.02177956 0.0029565257 0.053591393 0.11584544 0.04236321 -0.055187892
0.16170393 0.01792031 0.00059466134 -0.07650017 0.13042137 -0.16894482 0.008386573 -0.03990199
0.072510384 -0.12350632 0.08309547 -0.08255588 -0.11561486 -0.12204988 0.15882447 0.061930113
0.14162576 0.10483264 -0.08750595 0.0012711743 0.06267176 -0.062278766 0.13531452 -0.15290304
0.054542363 -0.11254068 -0.09696813 0.16950184 -0.1334968 0.06582005 -0.17684157 -0.1200217
0.06654877 0.021359636 -0.102364585 -0.17451641 0.053764317 -0.07132277 0.106675364 0.17017947
0.047290504 0.116019875 -0.1394349 -0.06547118 -0.16572638 -0.066429496 -0.1349192 -0.17351705
0.115954675 -0.0008007791 0.17112108 0.004580509 -0.13206781 -0.099450015 -0.11004084 -0.13962378
-0.03922931 -0.03959105 0.16731115 0.015799087 -0.11268854 -0.17304292 -0.09067791 -0.093306094
-0.11135001 -0.050095815 0.08366738 -0.10495243 0.091678426 -0.0846066 -0.10462678 -0.076315075

encoder.lstm.weight_hh_l2 f4 [128, 32]
00000000: 7122 d13d 0237 e8bc 827a a83d 1574 12be
00000010: c439 1abe 4e06 75bd b3ec f93d b8db aebc
00000020: be22 2dbe abe7 d73d 3960 6fbd 4335 a63d
00000030: 4191 703d fcc4 983c fd30 a1bd 15c7 cd3d
00000040: 7780 cf3b f545 efbd 360e 1d3e e0b6 3ebc
00000050: 47d1 edbd bcae 853d 7e97 0b3e fcd7 0bbe
00000060: 0515 a23d 499a 593d ad55 1d3e f426 15be
00000070: 79c9 6c3d f43c 3b3d f98f 273e 3f54 11bd
00000080: 5a5a 30be 2a2b 913c af9c 97bd 5fed f23d
00000090: f336 15be 4cbc c2bd df92 3cbb ebd7 27be
000000a0: 2249 f9bd dfbc 283d 9032 6cbc c096 01be
000000b0: aef0 e3bd 7158 bdbd 4675 f23d 67d4 fabd
000000c0: 2854 663d 557e ebbd 4edc c93d 937c 31be
000000d0: 733e 1dbd ccab 30be b90f 20be 86e8 22bd
000000e0: 3b32 e6bc 0853 8a3d d1f6 1f3e 947d 09bd
000000f0: d23e 98bd 9073 133d 1c57 2abe 3921 573d
00000100: 5ffb c03d e1c1 04bd 57b6 0a3e 1bfe f33d
00000110: 96e8 533d 6bc3 adbc b954 f13d 0522 23be
00000120: 0a61 15bd cdf3 c7bd bf7d 18be 548e c8bd
00000130: b51c 01be d1a6 c6bd 0c18 d0bd 6873 403d
00000140: 6345 153e 0eb0 023e 0b5e e7bd 6366 eb3d
00000150: 4de6 83bd 2fa1 cabd dac9 5c3d dc8d ab3d
00000160: 4cdc 60bd 7192 e9bc 1c74 cc3d 9d8d 28be
00000170: 3313 6cbd fdc2 f2bd 74c8 7abd 282a a2bd
00000180: 7888 e6bc 0919 223e 3eea d5bd b092 f0bc
00000190: dfd5 0f3e 0100 ed3b ef67 a43d 8c92 0e3d
000001a0: ab89 80bd dcea 9cbd 555f 5e3d 10e0 c8bc
000001b0: 3664 0fbe a22f 24be 080e a43d 37ea e5bd
000001c0: 0973 27bd 85d5 84bd 82d0 313e f2c5 debb
000001d0: bac0 183e 141f 5cbd f0d6 1cbd a9d5 a5bd
000001e0: 6321 1b3e f31f 243e fd26 b3bd 59fa 07bc
000001f0: caa5 76bd 00d8 083e 9014 2e3b 5fdc 823d
00000200: 2342 6e3c 785e 053d 6628 17be 8c7a 003e
00000210: 477b d2bd 95d7 f1bd 8e20 773d fc51 babd
00000220: df10 143e 5c27 313e 88b6 33be 334d 493d
00000230: 7448 00be 5e0b 0a3d 885a 00be e29c 0b3e
00000240: 5bd0 163e 898a 65ba 2112 2bbe b450 b03b
00000250: 2d83 cb3d bad7 ef3d 538e 9cbd 8150 c33d
00000260: 2708 1fbd b468 15be 559c d13c c303 ad3d
00000270: 0f24 06be 219d 663d 2f57 113e feb7 273e
00000280: 8367 21be e6e0 89bd 1138 b2bd 416c 0c3e
00000290: 7130 c2bd 451c cc3d e639 54bd 5572 363d
000002a0: 9a34 fbbd d471 01be e256 07be 7cd3 113c
000002b0: 1ce7 c23d e1d0 b6bc 891f 15be f435 263e
000002c0: 0a05 1b3e b342 6b3d e3b5 b6bc 9490 14be
000002d0: aad3 8f3d 2eb5 f13d ab53 203e a356 d13c
000002e0: 7444 a93c 8498 9c3d 2f45 093e 163f 03be
000002f0: 5d88 743d 04c6 d13d 8789 08bd 6694 bf3b
00000300: b67c d6bd ce0b 9e3c 6f2a 0bbe 74e5 fa3d
00000310: 9b9a 02be 2b16 263d d53b 3ebd 3de8 1ebe
00000320: 77c1 e5bb 3956 153e c8ab 2e3e 2834 133e
00000330: 1067 1abd b337 203e 3a76 143d f605 293e
00000340: ffa2 4b3d 0457 25bc a749 053e 08ac cc3d
00000350: 9df8 9abd 76be b4bc d747 633d 3aad ed3d
00000360: 49a9 06bd c03d 9a3d d65a 8bbd e424 c6bd
00000370: e638 73bd b7c0 2bbe 19d2 0fbe 20a1 213e
00000380: 3d5e dcbd d65d b1bd 2886 58bd 9b76 cf3d
00000390: a2fd c23d 48f5 2fbd 91c5 06be 0288 ed3d
000003a0: 5f53 d13d 908c 14be d06a 293e cc2e 70bc
000003b0: c18b f5bd 2100 143e abcc 9bbd 592d 113c
000003c0: 35de ce3d 16e0 cbbc 07c4 993d fb75 523d
000003d0: 8582 27be 1617 b63d b8f4 ff3d f7e0 2f3e
000003e0: 6e52 babd 6b10 593d 7486 f2bd c041 d3bd
000003f0: d8a9 033e a136 d63d 7f70 a13c 9f2f 8a3c
0.10211647 -0.028346542 0.082264915 -0.14302094 -0.15061098 -0.059820466 0.1220335 -0.021345004
-0.16907784 0.10542234 -0.058441374 0.081156276 0.058732275 0.018648617 -0.07870672 0.100477375
0.006332453 -0.11683265 0.15337452 -0.0116402805 -0.11612182 0.065274686 0.13632008 -0.1365661
0.079141654 0.053125653 0.15364714 -0.1456564 0.057809327 0.045712426 0.16363515 -0.035480734
-0.17221966 0.017720778 -0.07402932 0.11861681 -0.14571743 -0.09508571 -0.0028774065 -0.1639096
-0.12172152 0.041195747 -0.014416352 -0.12655163 -0.111298904 -0.092453845 0.118387744 -0.12247544
0.0562326 -0.11498705 0.09856473 -0.17332678 -0.038389634 -0.17253035 -0.15630998 -0.039772533
-0.028100124 0.06754118 0.15621497 -0.033567026 -0.07433857 0.03599888 -0.16634792 0.052521918
0.09422945 -0.03241146 0.1354612 0.11913701 0.051735483 -0.021211347 0.11783738 -0.15930946
-0.036469497 -0.09763298 -0.14891718 -0.09792772 -0.12608607 -0.096997865 -0.101608366 0.04698506
0.1457725 0.12762472 -0.11297234 0.11494138 -0.06440411 -0.098940246 0.05390344 0.08376667
-0.05489759 -0.028512212 0.099830836 -0.16460271 -0.057635497 -0.11853597 -0.061226323 -0.07918197
-0.028141245 0.15829863 -0.10445069 -0.029366821 0.14046429 0.0072326665 0.08027636 0.034807727
-0.06276258 -0.07661983 0.054290134 -0.024520904 -0.14003071 -0.16033795 0.08010489 -0.112263136
-0.04088119 -0.06486038 0.17364696 -0.0067984993 0.1491727 -0.053740576 -0.038290918 -0.08097393
0.15149455 0.16027813 -0.08747671 -0.008299434 -0.060216703 0.13363647 0.002656255 0.06389689
0.014542135 0.032560796 -0.14761505 0.12546748 -0.102774195 -0.11808697 0.06033378 -0.090976685
0.14459561 0.1730017 -0.17550099 0.04914589 -0.12527639 0.033702247 -0.12534535 0.13634065
0.14727919 -0.00087563 -0.16706134 0.0053807143 0.09937129 0.117110685 -0.07644334 0.09536839
-0.038826134 -0.14590722 0.02558724 0.08447983 -0.13099693 0.056302194 0.14193414 0.16378781
-0.15762143 -0.06732349 -0.087021 0.1371317 -0.09481896 0.099663295 -0.05181303 0.04454263
-0.12265892 -0.12641078 -0.13216737 0.008900519 0.09516737 -0.022316398 -0.14562811 0.16231519
0.15138641 0.057436656 -0.022303527 -0.14508277 0.070227936 0.118021354 0.15656917 0.025554007
0.020662524 0.076462775 0.13405298 -0.12817034 0.05970036 0.102428466 -0.03333428 0.005846548
-0.104730055 0.019292738 -0.13590406 0.12250796 -0.1275429 0.040548485 -0.04644378 -0.1551828
-0.007011588 0.14583673 0.17057717 0.14375365 -0.037695944 0.15646248 0.036245562 0.1650618
0.049715992 -0.010091547 0.13016377 0.0999375 -0.075669505 -0.022063475 0.055488434 0.11605306
-0.032876287 0.07531309 -0.06804435 -0.09675005 -0.059380434 -0.16772734 -0.1404499 0.1578412
-0.10760162 -0.08660476 -0.052862316 0.10130044 0.09521033 -0.042958528 -0.13161303 0.11598207
0.1022098 -0.14506745 0.16544652 -0.014659595 -0.119895466 0.14453174 -0.07607397 0.008860909
0.101009764 -0.024887126 0.075080924 0.051382046 -0.16358383 0.08891122 0.12497848 0.17175661
-0.090977535 0.052994173 -0.11842051 -0.10315275 0.12857759 0.104596384 0.019706963 0.01686841

encoder.lstm.bias_ih_l2 f4 [128]
00000000: bd8d 81bd 3e38 debd 8af1 0a3d ff64 1cbd
00000010: 6542 efbd c371 2bbd e88e ecbd 2a66 dc3d
00000020: f168 e4bd e66a b83d d9ab 093d 6929 d4bc
00000030: 8329 c0bd 16e9 0ebe a3e4 85bc 9d6e 103e
00000040: f04b 4b3d 9a7b dabd 24d8 acbd 4d67 123d
00000050: 01a9 ffbc 685b 193e a63f d6bd 549b 8cbd
00000060: b723 ab3d cbb5 1dbe 0580 283e d20a 263e
00000070: 72c8 be3d a2b9 553d c8df cfbd 437a 5cbc
00000080: c726 babd 9521 06bd 0466 71bd d816 d0bd
00000090: 8428 8d3d 24fd 6eb9 2179 593d b64c dabd
000000a0: a6e5 1abe c34b b1bd e9b3 f1bd b4d8 88bd
000000b0: cbff 80bd 035b f0bd a106 a43d c59b 19be
000000c0: 33f6 1b3d 6257 af3c f1c5 1d3e 17db 293e
000000d0: 45cf c5bc 0709 14be 27d6 1d3e 489c afbb
000000e0: 6968 e43d c52c ce3c 81fb d13d 2725 293e
000000f0: 2944 0abe 1043 203c ffd9 92bd 06b5 203e
00000100: 08a2 b6bd 40b0 493d 1338 0e3e 62c7 0bbc
00000110: 8334 833d 5f2b 2e3e 5ac3 863d 8fda f23c
00000120: 10bb 06be f6b7 f0bc 66d7 edbd ec58 0cbd
00000130: 325f 473d ee2e af3d fb7b 1e3e 690d 9cbc
00000140: b3cd 5abd 5e36 9e3d 0b31 19be 220e 9abc
00000150: 3024 aabd 7b72 953d c9d9 edbb d40c f3bb
00000160: c794 65bd d1bb 303e 58d7 2ebe 2d60 d83d
00000170: dd95 0ebe e195 27be 036d 223e 2fab f73d
00000180: 94dc 9b3d 1d1d 143e 8fb8 20be 391b bd3d
00000190: 66c8 e43d c358 113e 989b 16bc 048d db3d
000001a0: 14f4 dbbd 35d9 af3d 27b3 ecbd 8fde c03b
000001b0: 0ef0 e73c d243 d13d 00fe 07be 5031 38bc
000001c0: 7b92 a1bd f522 b5bd f198 d0bd 76fd b13c
000001d0: 8d71 c3bd 9994 f63d e451 1cbe 39ae b0bc
000001e0: 4883 90bd 3a6a a33d b01a 013e f499 d03d
000001f0: 142d 18be b74c 0cbe 6c1d e3bd 53a9 9abd
-0.063258626 -0.10850571 0.033921756 -0.038182255 -0.116825856 -0.04185654 -0.11550695 0.10761674
-0.111528285 0.09004764 0.033611152 -0.025898652 -0.09382918 -0.13956103 -0.016344374 0.14104696
0.049632967 -0.106681064 -0.08439663 0.035743047 -0.031208517 0.14976275 -0.10461359 -0.06865564
0.083564214 -0.1540138 0.16455086 0.16215065 0.09315576 0.052178986 -0.10150105 -0.013456884
-0.090894274 -0.03274687 -0.05893518 -0.10160607 0.06892493 -0.00022791751 0.053094033 -0.10659163
-0.15126666 -0.086570285 -0.11801893 -0.06681958 -0.06298789 -0.11736109 0.08009077 -0.15000828
0.03807659 0.021403972 0.1540754 0.16587482 -0.024146685 -0.14456569 0.15413724 -0.0053592063
0.11152727 0.025167832 0.10253049 0.16518079 -0.13502564 0.009781614 -0.07170486 0.15694055
-0.08917624 0.04924035 0.13888578 -0.008531423 0.064065 0.17008732 0.06580229 0.029645232
-0.13157296 -0.029384594 -0.116133496 -0.03426449 0.04867477 0.08553873 0.15476982 -0.019049363
-0.053418826 0.077252135 -0.14960115 -0.018805567 -0.083076835 0.07297226 -0.007258628 -0.0074173007
-0.05605009 0.17259146 -0.17074335 0.10565219 -0.13924356 -0.16365768 0.15861897 0.120931976
0.07610431 0.14464231 -0.15695404 0.09233708 0.111710355 0.14194016 -0.00919237 0.10720256
-0.107399136 0.08586351 -0.11557608 0.005885906 0.02831271 0.10218014 -0.13280487 -0.011242226
-0.07889267 -0.08844558 -0.10185421 0.021727305 -0.095431425 0.120400615 -0.15265614 -0.02156745
-0.0705629 0.079792455 0.12607837 0.10185614 -0.14860946 -0.1370114 -0.11089596 -0.07551827
