Ibex/lstm_sigwgan/G.pt (torch, 410591 bytes, 17 tensors)

encoder.lstm.weight_ih_l0 f4 [256, 1]
0.19561407 0.19572107 -0.1720837 0.34293336 0.06891771 0.17536592 -0.25289735 0.266293
-0.25650728 0.092231475 -0.240674 0.25532082 0.32036468 0.11368087 -0.2159632 -0.25926834
0.04507548 -0.16788359 -0.09921517 0.06076615 0.007063043 -0.12769192 -0.1254644 -0.07680009
-0.13875219 0.06385942 0.09424562 0.1367553 0.15014108 -0.015752109 -0.17661023 -0.0049807886
0.028157411 0.27521926 0.05962181 -0.11129481 -0.014347256 -0.10135049 0.09909823 -0.1864735
-0.18087603 -0.18057002 -0.040494356 1.8408178e-05 0.3800773 -0.031353857 -0.14170545 0.063618764
-0.26384425 -0.18162698 0.18687703 -0.13599506 0.016870392 -0.15961935 0.12949227 0.34926093
0.34066576 0.3438327 -0.1060573 0.08549152 0.10748362 0.08577552 0.03611715 -0.003570584
0.057824265 0.29218447 -0.35765594 -0.10195835 0.42964384 0.3534753 -0.067885146 0.20731074
-0.39265737 0.16371779 -0.13435477 0.24988183 -0.18901195 -0.07180564 -0.06454103 -0.21204808
0.08995472 -0.08544308 0.0004277491 0.07194176 -0.092687726 -0.24015783 -0.286844 -0.17076622
-0.27401304 0.0105886 -0.23540592 -0.08712867 0.024993634 0.039273124 0.009357999 -0.23780356
-0.164528 -0.0043735974 0.07956621 -0.16366057 -0.08139627 0.08567354 0.21558456 -0.2586144
-0.2667093 -0.21187828 -0.14916201 0.056115042 0.16526604 -0.17420144 -0.25965104 -0.17040014
-0.18466595 -0.18103434 0.013788445 -0.2301949 -0.05831116 -0.14054443 -0.12541483 0.0888378
-0.4257617 0.06982011 0.124100186 -0.1992771 -0.048947908 0.2668222 -0.082399115 -0.16679756
0.21732081 0.115791805 0.17565586 0.25156412 -0.17406327 -0.24435875 0.06414595 0.20369408
-0.15045877 0.17897992 -0.009950467 0.2718862 -0.35460606 -0.1515496 0.016928874 0.15013824
0.1272325 0.26989385 0.11992519 0.18876532 -0.23546974 -0.05562046 -0.258918 -0.16959055
-0.014649286 0.123601206 0.2767075 0.18827811 -0.13292618 -0.17619087 0.20955455 -0.026483493
-0.0133374315 -0.22369747 0.20252405 -0.2351215 0.1706428 0.079189025 0.060234938 0.21558541
-0.039309237 0.17288771 0.07458804 0.20090397 0.14960618 0.030818092 0.09740721 -0.22231172
0.0776233 0.13048428 0.32435635 0.51220596 0.16126671 0.08203261 0.32110113 -0.08765307
0.17007637 0.3667989 -0.031768396 -0.24775125 0.16527513 0.052721817 -0.095434114 -0.4057277
0.16375297 0.31455445 -0.2809985 0.25500697 0.39258152 -0.11113198 0.14236861 0.3594096
-0.22244675 0.20197214 -0.11252123 0.40630627 0.20274417 -0.10298151 -0.13065626 -0.22848856
0.15256189 -0.03403166 0.051477406 0.083249405 -0.083658576 -0.14302911 -0.21762376 -0.14041294
0.015226287 0.055630803 0.10191115 0.017335467 -0.18341856 0.004198463 -0.01129128 -0.2452559
-0.14192255 0.3340344 0.0057857363 -0.21011654 -0.10440778 -0.1033314 0.12163702 -0.24986044
-0.11128106 -0.34191555 0.00068723096 -0.19121927 0.403783 -0.105696045 -0.14322355 0.09160823
-0.35533583 -0.21999164 0.1239357 -0.013602061 -0.04757362 -0.20285183 0.22771637 0.21504802
0.2948569 0.28927416 0.004069067 0.089569844 0.16428871 0.14509624 0.04392365 -0.06711312
00000000: 0e4f 483e 1b6b 483e b636 30be f694 af3e
00000010: ba24 8d3d 2093 333e c37b 81be 8e57 883e
00000020: ec54 83be dbe3 bc3d 3f73 76be 69b9 823e
00000030: d706 a43e 84d1 e83d 7525 5dbe d2be 84be
00000040: 11a1 383d ade9 2bbe 5331 cbbd ede5 783d
00000050: 1971 e73b acc1 02be bd79 00be 5e49 9dbd
00000060: 0e15 0ebe bac8 823d d903 c13d 9509 0c3e
00000070: 95be 193e 910a 81bc 50d9 34be e235 a3bb
00000080: 5faa e63c 8ae9 8c3e 0036 743d 89ee e3bd
00000090: c110 6bbc d890 cfbd 03f4 ca3d e9f2 3ebe
000000a0: 9137 39be 59e7 38be 69dd 25bd 436b 9a37
000000b0: 7e99 c23e e76c 00bd 3c1b 11be 8e4a 823d
000000c0: 9816 87be 6cfc 39be b15c 3f3e 4a42 0bbe
000000d0: c733 8a3c 4173 23be 9f99 043e 54d2 b23e
000000e0: be6b ae3e d70a b03e 9234 d9bd 2e16 af3d
000000f0: 5f20 dc3d 13ab af3d 94ef 133d 7600 6abb
00000100: 23d9 6c3d 3499 953e ae1e b7be 8acf d0bd
00000110: 47fa db3e b7fa b43e 5e07 8bbd 4449 543e
00000120: 630a c9be a3a5 273e 4c94 09be 06e1 7f3e
00000130: 598c 41be d60e 93bd 162e 84bd 2223 59be
00000140: 2e3a b83d c8fc aebd 8343 e039 3456 933d
00000150: 10d3 bdbd efeb 75be 37dd 92be 57dd 2ebe
00000160: 704b 8cbe cf7b 2d3c 400e 71be 8470 b2bd
00000170: 73bf cc3c dbdc 203d 4b52 193c c782 73be
00000180: 077a 28be 6550 8fbb 9cf3 a23d a396 27be
00000190: 16b3 a6bd 9c75 af3d 33c2 5c3e 1b69 84be
000001a0: 1f8e 88be 9ff6 58be edbd 18be e3d8 653d
000001b0: 803b 293e dd61 32be fbf0 84be 607d 2ebe
000001c0: 1219 3dbe 1161 39be eee8 613c 36b8 6bbe
000001d0: afd7 6ebd e1ea 0fbe bf6c 00be 98f0 b53d
000001e0: 70fd d9be d9fd 8e3d 3d28 fe3d 4c0f 4cbe
000001f0: 9a7d 48bd eb9c 883e dec0 a8bd fbcc 2abe
00000200: 5989 5e3e 4124 ed3d 21df 333e 03cd 803e
00000210: a43d 32be 2e39 7abe f45e 833d 2e95 503e
00000220: dd11 1abe 8346 373e 4907 23bc ab34 8b3e
00000230: ed8e b5be d12f 1bbe 6cae 8a3c d7bd 193e
00000240: 3d49 023e 872f 8a3e 579b f53d b24b 413e
00000250: fb1e 71be 48d2 63bd e690 84be 25a9 2dbe
00000260: 8f03 70bc a122 fd3d 9bac 8d3e facb 403e
00000270: cd1d 08be 616b 34be 7895 563e e9f3 d8bc
00000280: 3e85 5abc f310 65be 7762 4f3e b1c3 70be
00000290: fcbc 2e3e db2d a23d e9b8 763d 6cc2 5c3e
000002a0: b902 21bd 7a09 313e 9dc1 983d c5b9 4d3e
000002b0: 5d32 193e 3976 fc3c 6e7d c73d afa5 63be
000002c0: f7f8 9e3d ac9d 053e 0912 a63e ee1f 033f
000002d0: 1a23 253e b700 a83d 5e67 a43e 7483 b3bd
000002e0: 8028 2e3e 11cd bb3e 941f 02bd 81b2 7dbe
000002f0: e23d 293e d5f2 573d f672 c3bd 8bbb cfbe
00000300: dcae 273e 480d a13e 09df 8fbe 4690 823e
00000310: 7200 c93e 2a99 e3bd 14c9 113e 8904 b83e
00000320: 15c9 63be c9d1 4e3e 8871 e6bd 6007 d03e
00000330: 2b9c 4f3e f8e7 d2bd c1ca 05be e8f8 69be
00000340: 2f39 1c3e c864 0bbd f9d9 523d aa7e aa3d
00000350: 3055 abbd 3976 12be c3d8 5ebe 69c8 0fbe
00000360: ad77 793c 20dd 633d cbb6 d03d 1c03 8e3c
00000370: 13d2 3bbe 4393 893b 10ff 38bc 5d24 7bbe
00000380: 2554 11be 8f06 ab3e 4696 bd3b ca28 57be
00000390: bfd3 d5bd 6a9f d3bd d41c f93d 6adb 7fbe
000003a0: 53e7 e3bd 8e0f afbe 4a27 343a fcce 43be
000003b0: a5bc ce3e 2b77 d8bd 32a9 12be 189d bb3d
000003c0: 94ee b5be 7d45 61be 00d2 fd3d 2edb 5ebc
000003d0: 8edc 42bd 64b8 4fbe 7b2e 693e 8c35 5c3e
000003e0: 7cf7 963e be1b 943e cf55 853b 6570 b73d
000003f0: 4d3b 283e 1c94 143e 49e9 333d 9a72 89bd

encoder.lstm.weight_hh_l0 f4 [256, 64]
0.020993598 0.013944366 0.18538815 0.07794756 -0.122500844 0.06478124 0.1384816 0.10488355
-0.05159183 -0.045521542 -0.14222038 0.050716497 -0.08563103 -0.049355485 0.13517249 -0.080969065
0.026959851 0.015553824 -0.043467365 0.05673694 0.018998152 0.018139625 -0.114599444 0.12494805
0.0024987669 -0.053691067 0.035840828 0.04916217 -0.016505672 -0.06850518 0.12498524 -0.04378997
-0.035931755 -0.120618545 0.036542494 -0.06339842 0.1676922 0.0016145392 0.08503422 0.088833295
-0.019702718 -0.0888561 -0.00034088554 0.04981843 0.10474116 -0.1543352 -0.1318365 -0.13361156
-0.0974371 -0.006091656 0.04472601 0.022951368 -0.03147574 0.01424551 0.037541796 0.07832111
0.011061163 0.064247526 0.076833464 -0.08084704 0.16353382 -0.037269574 -0.065426074 0.019002996
0.008954234 0.12486983 -0.015112382 -0.08391703 -0.023011725 0.038580764 0.31045777 -0.031412497
0.107530296 -0.003364436 0.024010597 0.13010558 -0.10828515 0.044937555 0.012820489 -0.01652648
0.122878455 0.1336264 -0.099477 -0.027641755 -0.13500896 0.052775286 -0.10681199 0.05328558
-0.007309365 0.029501006 -0.11890771 -0.040146098 0.1008647 -0.14725094 -0.08905695 0.05559449
0.17288879 0.022780657 -0.057046235 -0.01764575 0.2169836 0.06253583 -0.009850722 -0.095264375
0.060445435 0.007856692 -0.0713087 0.036893174 0.19642676 -0.100192375 -0.16183485 -0.0043123374
-0.112906106 -0.14398411 -0.037502572 0.12920272 0.031441014 -0.041895088 0.062220927 -0.06972431
-0.046826977 0.07379955 -0.018572489 0.06424578 0.07277821 -0.017073937 0.081907384 0.07493997
-0.03342584 -0.005186172 -0.32087553 0.10636468 0.098544605 0.13666156 -0.12019425 -0.05399943
0.36429563 -0.18284167 -0.103696644 -0.22879766 0.07159788 0.15636851 -0.004367323 0.1578937
-0.040615495 0.107295096 -0.14822413 -0.031047452 0.06710646 0.01735521 0.08006709 0.014835974
-0.020333176 -0.021435315 -0.0016795396 -0.07363902 0.08686771 0.117998436 0.081167 0.1245738
0.060974233 -0.03141489 -0.0856684 -0.12904836 0.07192147 0.003483791 0.0445738 -0.16553333
0.2013752 0.08473911 -0.035806153 0.08680599 0.09939609 0.056690488 0.025516387 -0.001094183
-0.14074719 -0.12464956 0.02528523 -0.051790703 0.08830538 0.018892596 0.0009974265 -0.16925158
-0.024223194 0.02108065 0.018702142 -0.0073624114 0.03798929 -0.012766875 -0.04681216 0.13480785
0.044240493 0.17157799 -0.000114918534 0.026068995 -0.24244526 -0.17489722 0.0025725162 0.111844905
-0.22443455 0.18611872 0.10270548 0.1539118 -0.011140908 -0.1533368 0.026389018 0.03382918
0.030763894 -0.055090923 0.19097349 0.14832209 -0.0077546854 -0.046925485 -0.09198899 0.00126043
-0.022184305 0.07022623 0.09069697 0.08681194 -0.015185818 -0.13068998 -0.056647167 -0.18950957
-0.15118846 -0.07960612 0.29368418 -0.05951799 0.08389055 0.028605614 0.066941924 0.06277354
-0.07884219 0.046792336 0.024239475 0.0139479125 0.08211394 0.15503986 0.09884298 0.0038990716
0.12456119 0.035503402 -0.015793359 0.009901099 0.068769455 0.014243151 0.030617144 0.19179428
-0.0053827944 0.12303186 -0.121067666 -0.11079516 0.000875094 0.19974773 -0.009029474 -0.029182658
00000000: c4fa ab3c e976 643c 64d6 3d3e f8a2 9f3d
00000010: b9e1 fabd 07ac 843d 1fce 0d3e 30cd d63d
00000020: f451 53bd cc74 3abd 38a2 11be 1abc 4f3d
00000030: 525f afbd fa28 4abd a86a 0a3e 1cd3 a5bd
00000040: e8da dc3c 77d5 7e3c d60a 32bd fe64 683d
00000050: 03a2 9b3c 8d99 943c 1db3 eabd c3e4 ff3d
00000060: 5ac2 233b 2aeb 5bbd d5cd 123d 465e 493d
00000070: e736 87bc 724c 8cbd 43f8 ff3d 1d5d 33bd
00000080: 2d2d 13bd db06 f7bd 95ad 153d 08d7 81bd
00000090: 81b7 2b3e f29e d33a 6c26 ae3d 3bee b53d
000000a0: 9867 a1bc 30fa b5bd e2b8 b2b9 690e 4c3d
000000b0: 8982 d63d 0c0a 1ebe 2600 07be 78d1 08be
000000c0: 1a8d c7bd 849c c7bb 9f32 373d 8204 bc3c
000000d0: b5ec 00bd 0066 693c 6dc5 193d d166 a03d
000000e0: e139 353c 3594 833d dd5a 9d3d 2293 a5bd
000000f0: 6975 273e fba7 18bd 1bfe 85bd 2cac 9b3c
00000100: c8b4 123c c1bb ff3d ed99 77bc b1dc abbd
00000110: 1683 bcbc dd06 1e3d 52f4 9e3e 64aa 00bd
00000120: d838 dc3d df7d 5cbb dfb1 c43c 663a 053e
00000130: 9bc4 ddbd 7110 383d 070d 523c 8a62 87bc
00000140: b3a7 fb3d 5cd5 083e 99ba cbbd f670 e2bc
00000150: ca3f 0abe e62a 583d 3fc0 dabd fb41 5a3d
00000160: 6683 efbb 18ac f13c e385 f3bd 3c70 24bd
00000170: 2792 ce3d f3c8 16be 7d63 b6bd 0cb7 633d
00000180: c209 313e 809e ba3c 50a9 69bd d28d 90bc
00000190: f330 5e3e c912 803d ec64 21bc f819 c3bd
000001a0: a295 773d 5bb9 003c 4c0a 92bd 4c1d 173d
000001b0: 1924 493e a931 cdbd 09b8 25be 824e 8dbb
000001c0: 513b e7bd 9270 13be 4c9c 19bd b84d 043e
000001d0: 4bc8 003d 2f9a 2bbd 5fdb 7e3d 9ecb 8ebd
000001e0: a5cd 3fbd 3824 973d 5525 98bc 4b93 833d
000001f0: be0c 953d a4de 8bbc 0fbf a73d 217a 993d
00000200: 89e9 08bd c4f0 a9bb cc49 a4be bad5 d93d
00000210: c1d1 c93d 02f1 0b3e 6728 f6bd 822e 5dbd
00000220: f584 ba3e d93a 3bbe e85e d4bd ef49 6abe
00000230: e9a1 923d 111f 203e c31b 8fbb e3ae 213e
00000240: 6f5c 26bd 88bd db3d 11c8 17be 3a57 febc
00000250: 1d6f 893d 832c 8e3c 37fa a33d 9612 733c
00000260: c391 a6bc 1d99 afbc ff23 dcba 0ed0 96bd
00000270: b3e7 b13d 2aa9 f13d e23a a63d 8c20 ff3d
00000280: 1ec0 793d e6ac 00bd ea72 afbd 4125 04be
00000290: 904b 933d 5050 643b 0493 363d 9281 29be
000002a0: 4d35 4e3e b38b ad3d 79a9 12bd 57c7 b13d
000002b0: 2d90 cb3d 4934 683d be07 d13c b06a 8fba
000002c0: 0820 10be 4548 ffbd f822 cf3c 7d22 54bd
000002d0: 73d9 b43d a5c4 9a3c 14bc 823a 4950 2dbe
000002e0: b86f c6bc 54b1 ac3c 3c35 993c 6240 f1bb
000002f0: a89a 1b3d 282c 51bc 1cbe 3fbd 120b 0a3e
00000300: 8535 353d 24b2 2f3e 6b00 f1b8 a58e d53c
00000310: 9243 78be 4218 33be a997 283b f10e e53d
00000320: 2cd2 65be e895 3e3e 4057 d23d 0e9b 1d3e
00000330: 5b88 36bc 5204 1dbe c82d d83c 7790 0a3d
00000340: 9004 fc3c 05a7 61bd 8e8e 433e bfe1 173e
00000350: 041b febb f034 40bd b964 bcbd 0335 a53a
00000360: dcbb b5bc c5d2 8f3d 55bf b93d 75ca b13d
00000370: f0cd 78bc 98d3 05be dc06 68bd cc0e 42be
00000380: 26d1 1abe 8908 a3bd c65d 963e 23c9 73bd
00000390: cfce ab3d 5256 ea3c d918 893d 6a8f 803d
000003a0: 0478 a1bd 52a9 3f3d dd91 c63c c985 643c
000003b0: 5a2b a83d c5c2 1e3e 306e ca3d 9187 7f3b
000003c0: f019 ff3d 046c 113d 1361 81bc 3838 223c
000003d0: 00d7 8c3d 1b5c 693c ced0 fa3c b865 443e
000003e0: 2762 b0bb 21f8 fb3d 53f2 f7bd 93e8 e2bd
000003f0: 9066 653a ab8a 4c3e 5cf0 13bc 7810 efbc

encoder.lstm.bias_ih_l0 f4 [256]
0.051881365 -0.06327572 0.06310309 0.27832785 0.008890569 0.10057086 -0.17127012 0.16732305
0.117144406 -0.12210763 -0.17177686 0.10036332 0.4445067 0.08992338 -0.04434572 -0.103955396
-0.06328665 -0.030697232 -0.07322111 0.117288366 0.1436759 -0.103327915 0.29490504 0.013249455
-0.28489637 -0.058650423 0.35932168 -0.0010274034 -0.102102295 -0.055514235 0.14455293 -0.08706238
-0.19629757 0.41625354 0.14686567 0.027723944 -0.051580537 -0.17051232 -0.08888921 0.13008156
-0.14665042 -0.08579315 -0.22910099 0.11298738 0.17255229 -0.074042946 -0.027885167 0.2997093
-0.06784457 -0.117129035 0.2871706 0.24341857 -0.0774985 -0.27335188 0.4826858 -0.004802281
-0.06525215 0.43717277 -0.032368567 0.12303894 0.020648021 0.10953573 -0.16962294 0.27603185
-0.19933254 0.11822582 -0.017311227 -0.1903232 0.07296616 0.16678609 -0.049180973 0.23241343
0.03917441 0.124730796 -0.024658376 -0.04227647 -0.24228619 0.060164846 0.019656338 -0.022944426
-0.028063752 -0.110205464 -0.043472175 -0.06469892 -0.09359421 -0.16273896 0.067107745 0.06399392
-0.10768364 -0.11143731 0.12651122 -0.41473803 -0.17142779 -0.12215567 0.067747414 0.0823394
-0.082044594 0.08981233 0.28153858 -0.10488083 -0.12855488 -0.10305496 0.08770765 -0.0783486
0.022514893 0.028145399 -0.25528094 -0.063712835 0.01466323 0.2609691 0.15994988 -0.15085688
0.23478514 -0.20722507 -0.12527525 -0.3956704 0.063242234 -0.27198434 -0.0036011138 0.21785983
-0.42046565 -0.20233175 0.07124161 -0.10958426 0.035297412 0.3198906 -0.24858624 -0.16398622
0.034886718 -0.21250866 -0.17524762 -0.16485585 0.014865152 0.0066695125 0.021552801 -0.15432091
-0.12880307 -0.11297883 0.07167286 -0.055811748 0.17803025 -0.18496037 0.08030804 0.16525537
-0.07689007 0.091091916 -0.020979695 -0.075930096 0.12043066 0.051271837 0.18576927 -0.00065651996
0.08177514 0.06160509 -0.22482839 -0.15610862 0.16283533 0.078752704 -0.11578027 -0.093173996
-0.0895711 0.235872 -0.0018488879 -0.10849028 0.10473769 -0.028836083 -0.17169382 0.1106973
0.007041008 -0.05869787 -0.022673495 0.0684782 -0.1689523 0.12181235 -0.1898924 0.23057404
-0.025929447 -0.105542935 -0.09548821 -0.08665923 -0.06623408 -0.0041441107 -0.12977037 0.061058808
-0.0765859 -0.20168555 0.0061119134 0.13047683 -0.08780359 0.014401796 0.101945125 0.14276215
-0.087181024 0.13870414 0.051011905 0.2610785 -0.051833495 -0.013294945 -0.1298464 0.18345217
0.036537375 -0.041819017 -0.096301526 0.19734326 0.32062918 0.09714419 0.009812543 -0.03268822
-0.009110438 -0.05587207 0.04686108 0.118517235 0.060880646 -0.108116984 0.26424098 -0.017508097
-0.2869113 0.017807532 0.3177329 0.031886313 -0.09606071 -0.07457987 0.13060027 0.041244682
-0.09152754 0.33561078 0.0034984432 0.012121692 0.012982936 -0.20131423 0.014172961 0.049574263
-0.16974789 -0.09871082 -0.2335755 -0.094515815 0.15105726 -0.04597552 -0.012658411 0.24640274
0.10830334 -0.10825959 0.13093738 0.24127813 -0.012472349 -0.40769023 0.40334806 0.08085913
0.063543946 0.40714726 -0.07674915 0.17678875 0.037457958 -0.07720681 -0.08889148 0.24465728
00000000: 8e81 543d b396 81bd 313c 813d fd80 8e3e
00000010: c0a9 113c 18f8 cd3d 6f61 2fbe bc56 2b3e
00000020: 68e9 ef3d 9113 fabd 46e6 2fbe 498b cd3d
00000030: 6296 e33e c029 b83d dca3 35bd 91e6 d4bd
00000040: 6e9c 81bd c378 fbbc f3f4 95bd e234 f03d
00000050: c61f 133e 969d d3bd cbfd 963e 3e14 593c
00000060: f0dd 91be 6d3b 70bd 03f9 b73e f0a9 86ba
00000070: 021b d1bd e562 63bd af05 143e c34d b2bd
00000080: 3b02 49be 2f1f d53e f463 163e 531d e33c
00000090: 1d46 53bd c89a 2ebe 8c0b b6bd 1a34 053e
000000a0: 872b 16be 52b4 afbd 7399 6abe ed65 e73d
000000b0: 8cb1 303e d4a3 97bd 6f6f e4bc 7f73 993e
000000c0: 18f2 8abd 59e1 efbd 0608 933e b842 793e
000000d0: 89b7 9ebd c7f4 8bbe 9822 f73e 745c 9dbb
000000e0: eba2 85bd 1cd5 df3e e794 04bd d7fb fb3d
000000f0: 0a26 a93c 4554 e03d a3b1 2dbe 0c54 8d3e
00000100: d41d 4cbe 6120 f23d 46d0 8dbc 16e4 42be
00000110: 486f 953d f9c9 2a3e fd71 49bd c9fd 6d3e
00000120: 5975 203d dc72 ff3d 5d00 cabc 182a 2dbd
00000130: df19 78be 6a6f 763d 5406 a13c f3f5 bbbc
00000140: f4e5 e5bc 67b3 e1bd e10f 32bd de80 84bd
00000150: 52ae bfbd 0ba5 26be c96f 893d 3f0f 833d
00000160: 3e89 dcbd 3f39 e4bd 288c 013e 8b58 d4be
00000170: c48a 2fbe c02c fabd 28bf 8a3d 8fa1 a83d
00000180: ff06 a8bd 87ef b73d d325 903e c3cb d6bd
00000190: e4a3 03be 7b0e d3bd 12a0 b33d 3b75 a0bd
000001a0: 2771 b83c 2e91 e63c 2fb4 82be e07b 82bd
000001b0: 0b3e 703c be9d 853e e7c9 233e 3a7a 1abe
000001c0: 846b 703e cf32 54be 2848 00be 5095 cabe
000001d0: 2585 813d 8841 8bbe aa00 6cbb a616 5f3e
000001e0: 4647 d7be 0e30 4fbe 1fe7 913d b66d e0bd
000001f0: 0594 103d b3c8 a33e 648d 7ebe 01ec 27be
00000200: 60e5 0e3d df9b 59be 1d74 33be f9cf 28be
00000210: f78c 733c ed8b da3b 808f b03c 4d06 1ebe
00000220: f4e4 03be 7261 e7bd 38c9 923d dc9a 64bd
00000230: 904d 363e 4066 3dbe 8b78 a43d b438 293e
00000240: 8b78 9dbd 668e ba3d 9cdd abbc 3d81 9bbd
00000250: 5aa4 f63d 6b02 523d 4d3a 3e3e 4f1a 2cba
00000260: b979 a73d 9e55 7c3d 6a39 66be f0da 1fbe
00000270: 4ebe 263e 1949 a13d 351e edbd 02d2 bebd
00000280: 0e71 b7bd 6e88 713e 6256 f2ba 2730 debd
00000290: b780 d63d a639 ecbc 81d0 2fbe 44b5 e23d
000002a0: 42b8 e63b 2d6d 70bd c4bd b9bc 4c3e 8c3d
000002b0: d501 2dbe c178 f93d 2773 42be 9a1b 6c3e
000002c0: fe69 d4bc e526 d8bd 538f c3bd 657a b1bd
000002d0: bca5 87bd 52cb 87bb 86e2 04be cd18 7a3d
000002e0: 11d9 9cbd a886 4ebe 7246 c83b b89b 053e
000002f0: 5ed2 b3bd 83f5 6b3c 9bc8 d03d 3e30 123e
00000300: f78b b2bd 7508 0e3e dcf1 503d 15ac 853e
00000310: 5c4f 54bd 0ad3 59bc 74f6 04be e3da 3b3e
00000320: 37a8 153d 6b4a 2bbd bc39 c5bd 5a14 4a3e
00000330: 8229 a43e 88f3 c63d cac4 203c 15e4 05bd
00000340: f243 15bc 1dda 64bd 67f1 3f3d 2ab9 f23d
00000350: fc5d 793d 706c ddbd 984a 873e 246d 8fbc
00000360: 0ae6 92be 1ae1 913c e3ad a23e 399b 023d
00000370: 7abb c4bd 55bd 98bd 14bc 053e 2ff0 283d
00000380: ca72 bbbd 2dd5 ab3e 2346 653b 109a 463c
00000390: 61b6 543c 5125 4ebe b535 683c 620e 4b3d
000003a0: 64d2 2dbe e628 cabd 6a2e 6fbe 8291 c1bd
000003b0: c1ae 1a3e d450 3cbd 3965 4fbc 0051 7c3e
000003c0: 24ce dd3d 34b7 ddbd 7314 063e 9d11 773e
000003d0: d358 4cbc c6bc d0be a383 ce3e 7999 a53d
000003e0: 5423 823d 9b75 d03e a92e 9dbd 1c08 353e
000003f0: 846d 193d 9b1e 9ebd bc0c b6bd 7087 7a3e

encoder.lstm.bias_hh_l0 f4 [256]
0.13425863 0.107340425 0.19230253 0.12521087 -0.1354124 0.1326198 -0.16074215 0.11590361
0.08215739 -0.122173764 -0.12970607 0.14153996 0.29888183 0.18017153 -0.14536543 -0.06681038
-0.15648316 0.096264645 0.005187387 0.07086104 0.05426981 -0.14840506 0.1264964 -0.119339906
-0.35565388 0.01573503 0.48786515 0.073166 -0.01036032 -0.08991165 0.13423245 0.054524936
-0.24299482 0.38508517 0.030314371 -0.10381856 -0.1506121 -0.032241732 -0.029323092 0.17731592
-0.13469908 0.018420152 -0.17847776 0.11698857 0.14676054 -0.026858158 0.097085975 0.2909809
-0.12320821 -0.020670054 0.31924343 0.18842283 0.104190506 -0.2838027 0.36929467 -0.085847214
-0.003960683 0.46260527 -0.06906962 0.15168232 -0.055786368 0.07431178 -0.15361413 0.27904752
-0.08879113 -0.003646969 -0.112589054 -0.09645118 0.17295009 0.23867096 0.1470876 0.18042243
0.22273296 0.12563398 0.059547044 0.036031812 -0.37523696 0.13558325 -0.019594785 0.073553085
0.10869446 -0.021649847 -0.10374795 -0.11433738 0.02536726 -0.23424332 0.00068752986 0.11771164
-0.15920924 -0.206618 -0.0074949036 -0.39157063 -0.15697323 -0.09264979 -0.096861966 0.11491955
-0.09557377 0.08863276 0.26062283 -0.18852228 0.06825902 0.018855825 0.10059418 0.10215024
0.005178905 -0.010252376 -0.16594733 0.10527331 -0.02784894 0.19795476 0.061891425 -0.16216575
0.19728348 -0.22195953 0.01953154 -0.2825498 0.12535709 -0.26144385 0.05258474 0.27866
-0.38392907 -0.18431379 0.081270754 -0.09379514 0.011924531 0.2779945 -0.14538856 -0.22107981
-0.1863135 -0.0201351 -0.1557518 -0.12427143 0.054005414 -0.11342478 0.028896008 -0.15933666
-0.07812397 -0.032917835 -0.016635789 0.018661534 0.068380326 -0.024364894 0.026336169 -0.0040075406
-0.087500155 0.04651842 -0.13907073 -0.18208936 0.12544756 0.1054322 0.15443258 0.11618071
-0.060936015 0.04512995 -0.1957131 -0.07768906 0.17453481 0.09735713 0.0059872526 -0.08792691
0.12464232 0.22820112 0.10469298 0.012369117 -0.08011562 -0.055766128 -0.0756676 0.20277512
-0.073809974 0.09706535 -0.16256279 -0.09901614 -0.06893474 0.096933246 -0.09851354 0.08374493
0.095344685 -0.16111395 -0.11624486 -0.10797646 -0.16833398 -0.040857177 -0.20895927 -0.048494425
-0.08037099 -0.12840027 -0.007132214 0.20431681 0.09260732 0.02527353 0.09384718 0.23406792
0.04194793 0.10934686 0.16319856 0.18636087 0.035271235 -0.056737978 0.085742794 0.037196383
0.11459714 0.06474221 -0.21021384 0.17988704 0.39378467 0.12582715 0.055063453 -0.18374617
-0.08277809 0.058344133 0.013019655 -0.010578806 0.09808848 -0.27155632 0.3457948 0.02891623
-0.12169415 -0.15662815 0.19020951 -0.046316862 0.048813764 -0.12092031 0.11353903 -0.14043137
-0.017844899 0.25772274 -0.0014272606 -0.005006742 -0.030070523 -0.07508778 0.03543844 0.030583365
-0.022349512 -0.052252863 -0.23766635 0.010206812 0.09805046 -0.11704802 -0.014588335 0.16858913
-0.021614488 -0.15347695 0.13512075 0.19734925 -0.113673724 -0.25165415 0.3612647 0.104452774
0.06066424 0.43131682 -0.07862778 0.07526205 -0.17554843 0.00081372133 -0.20044114 0.3761415
00000000: 187b 093e 4cd5 db3d f4ea 443e 4737 003e
00000010: 8ca9 0abe 7ccd 073e 9799 24be df5e ed3d
00000020: 2242 a83d 3d36 fabd abd1 04be daef 103e
00000030: 0a07 993e e37e 383e adda 14be e1d3 88bd
00000040: 1f3d 20be 6626 c53d f5fa a93b 981f 913d
00000050: 054a 5e3d 7ff7 17be 4688 013e 7b68 f4bd
00000060: 4418 b6be c0e6 803c 76c9 f93e 0ed8 953d
00000070: 55be 29bc 9923 b8bd 3b74 093e 8a55 5f3d
00000080: a2d3 78be e229 c53e d855 f83c d39e d4bd
00000090: 0f3a 1abe e80f 04bd fb36 f0bc 4e92 353e
000000a0: 8eee 09be dce5 963c e0c2 36be b497 ef3d
000000b0: 6548 163e a405 dcbc 03d5 c63d 73fb 943e
000000c0: 9654 fcbd 3f54 a9bc e073 a33e eaf1 403e
000000d0: d561 d53d 964e 91be 3114 bd3e aad0 afbd
000000e0: 9ec8 81bb 99da ec3e 5f74 8dbd 9c52 1b3e
000000f0: 3f80 64bd c630 983d 064d 1dbe 51df 8e3e
00000100: 20d8 b5bd fd01 6fbb 1795 e6bd 3288 c5bd
00000110: d419 313e 2966 743e 229e 163e a8c0 383e
00000120: 1c14 643e 32a6 003e 9ae7 733d 1896 133d
00000130: 0f1f c0be 56d6 0a3e 3e85 a0bc 00a3 963d
00000140: 339b de3d 055b b1bc ce79 d4bd b729 eabd
00000150: 00cf cf3c 7bdd 6fbe 593b 343a cd12 f13d
00000160: bf07 23be ab93 53be cf97 f5bb f27b c8be
00000170: 97bd 20be 2cbf bdbd 915f c6bd f15a eb3d
00000180: 2ebc c3bd 1885 b53d 5b70 853e fc0b 41be
00000190: 63cb 8b3d 8877 9a3c 5204 ce3d 2534 d13d
000001a0: ceb3 a93b 95f9 27bc 19ee 29be 8899 d73d
000001b0: 7623 e4bc a7b4 4a3e dd81 7d3d c70e 26be
000001c0: ae04 4a3e 5c49 63be 9c00 a03c 5eaa 90be
000001d0: 9c5d 003e f8db 85be 1963 573d 86ac 8e3e
000001e0: 5a92 c4be c1bc 3cbe 4871 a63d ab17 c0bd
000001f0: 1c5f 433c 4c55 8e3e bde0 14be bf62 62be
00000200: f7c8 3ebe 5ef2 a4bc 667d 1fbe 0582 febd
00000210: c834 5d3d 404b e8bd 52b7 ec3c 2629 23be
00000220: 76ff 9fbd dad4 06bd c747 88bc 13e0 983c
00000230: fc0a 8c3d e398 c7bc f3be d73c b051 83bb
00000240: 4833 b3bd 198a 3e3d 8f68 0ebe a275 3abe
00000250: 5375 003e d6ec d73d 9323 1e3e 27f0 ed3d
00000260: 0b98 79bd 2fda 383d 0469 48be 711b 9fbd
00000270: 41b9 323e 2d63 c73d b730 c43b 0613 b4bd
00000280: 7944 ff3d 8ead 693e 4669 d63d d6a7 4a3c
00000290: a813 a4bd 066b 64bd 9df7 9abd 48a4 4f3e
000002a0: af29 97bd 33ca c63d dc76 26be f9c8 cabd
000002b0: a82d 8dbd f084 c63d 78c1 c9bd 7682 ab3d
000002c0: 1344 c33d 0efb 24be c911 eebd c322 ddbd
000002d0: be5f 2cbe db59 27bd 6bf9 55be 17a2 46bd
000002e0: 8c99 a4bd 5c7b 03be 59b5 e9bb 6d38 513e
000002f0: e8a8 bd3d 6f0a cf3c f332 c03d 80af 6f3e
00000300: 98d1 2b3d 3ff1 df3d 861d 273e 62d5 3e3e
00000310: 9278 103d 1566 68bd eb99 af3d 3c5b 183d
00000320: e8b1 ea3d 9097 843d 4c42 57be 4f34 383e
00000330: 259e c93e d5d8 003e 378a 613d f527 3cbe
00000340: 8f87 a9bd 42fa 6e3d 6450 553c ba52 2dbc
00000350: 9de2 c83d 6e09 8bbe 040c b13e bbe1 ec3c
00000360: c83a f9bd 2163 20be 48c6 423e c0b6 3dbd
00000370: f1f0 473d 11a5 f7bd 2787 e83d 3ecd 0fbe
00000380: 772f 92bc 3cf4 833e eb12 bbba 990f a4bb
00000390: 7556 f6bc 9fc7 99bd e627 113d f789 fa3c
000003a0: 5316 b7bc 1907 56bd cf5e 73be 793a 273c
000003b0: aece c83d dfb6 efbd e903 6fbc a1a2 2c3e
000003c0: de10 b1bc 1029 1dbe 185d 0a3e ec15 4a3e
000003d0: c5cd e8bd d0d8 80be b0f7 b83e 56eb d53d
000003e0: 117b 783d 8fd5 dc3e 9a07 a1bd fd22 9a3d
000003f0: f8c2 33be ea4f 553a 7140 4dbe 9e95 c03e

encoder.lstm.weight_ih_l1 f4 [256, 64]
0.046251297 -0.11658836 0.12713909 0.2450203 0.061845545 0.013157735 0.15296249 0.08797135
-0.07926755 -0.03663433 -0.037262388 0.07587023 -0.032038122 6.44006e-05 0.1482558 0.020513393
-0.043731153 -0.032782283 0.0040551913 0.051547598 -0.11101447 -0.055060424 0.06037583 0.0940067
-0.052533284 0.09526186 -0.0044900216 -0.11483837 0.014158507 0.072706975 0.07261662 0.12750766
-0.019470047 0.030676594 -0.23158522 0.024717756 0.01162164 -0.01343877 0.011250425 0.006943258
-0.1473419 -0.066578254 -0.008848381 0.03210377 0.15050286 -0.08877906 -0.1397875 0.030372169
-0.071571305 -0.039903548 0.25011882 -0.061060287 -0.15736167 0.017315485 0.0703908 -0.26545718
-0.051627614 0.10454237 0.123608686 -0.032770984 -0.06363951 -0.045968562 -0.038252436 -0.042148326
0.20135568 0.22071032 -0.049636137 0.13758598 0.008982221 -0.15221366 -0.027662119 0.1293201
-0.042671833 0.23135589 0.095369324 -0.06775592 -0.31103182 -0.16448098 -0.07755425 0.1316654
0.1014789 0.15293902 0.15013325 0.07325753 0.026677188 -0.00623004 -0.056848858 -0.097208306
0.024788508 0.23970547 0.19258319 0.0830264 0.015238715 -0.07675198 0.05787191 -0.003067952
-0.07435606 -0.006277365 0.31823152 -0.045543484 0.039285354 0.120705485 0.13814725 0.021598132
-0.022903014 0.20266588 0.01514734 0.2617035 0.07728817 0.13307612 0.09028283 -0.11599185
0.012614188 0.009320752 0.21137731 0.24388692 0.19255282 0.008217418 0.029495806 -0.35230237
0.03940512 0.18426956 -0.20366816 -0.028065365 0.07259979 0.28573927 0.020333232 -0.21935754
0.08369387 -0.0099215945 -0.012577441 -0.050391767 -0.048884623 -0.07885973 0.07983807 -0.16651484
0.025840586 0.062238026 -0.07412507 -0.08997589 -0.0049282704 0.003994073 -0.01083086 0.045096077
0.027198935 0.09955885 -0.009007213 0.021264821 -0.12022504 -0.012699441 -0.09343351 0.0013693327
-0.0023832505 0.09763066 0.029274626 -0.07061441 -0.007975871 0.030288005 0.10601315 0.05933435
-0.032976847 0.1518255 0.06882861 -0.030086257 0.011634337 0.006755298 -0.121898025 -0.057366457
0.03925798 0.10336842 0.031092526 0.056052726 -0.10564867 -0.109468095 0.014892774 -0.030146126
-0.12012484 0.007933897 0.01843454 -0.010772987 0.0012837084 -0.027077982 0.037624527 -0.0044483724
-0.038898066 0.0060714907 0.071444206 0.02311024 0.0051096254 -0.014871022 0.0014877872 -0.02381768
0.08738549 -0.20114249 -0.005391571 0.13736308 -0.18771654 -0.087723516 -0.089689724 0.044483297
0.14001538 -0.15849926 -0.13269144 0.20228775 -0.06632918 0.1571143 0.042198334 0.06359138
0.00086988794 -0.04382225 0.062391605 0.21848221 -0.22739984 0.073112264 -0.253666 -0.11987752
-0.03820343 0.030045945 0.22109714 0.04084456 -0.15377247 -0.059551153 0.052892175 0.1133812
0.08968578 -0.2142752 0.05379851 -0.09684859 0.07495583 -0.068488136 0.007666357 -0.11953426
0.119306825 0.14238723 0.038194958 0.046478003 0.074716605 -0.09519098 0.0914978 -0.13024825
-0.06601321 0.015412139 0.34328443 0.14987312 0.074268974 0.011162269 0.18603055 -0.2665483
-0.040865134 0.3346346 0.07151483 -0.20302916 -0.032972895 0.035585888 -0.05117682 -0.15096149
00000000: 0072 3d3d e1c5 eebd c030 023e 9ae6 7a3e
00000010: c151 7d3d 8a93 573c 33a2 1c3e 532a b43d
00000020: 0657 a2bd e10d 16bd 72a0 18bd da61 9b3d
00000030: 683a 03bd cf0e 8738 5ed0 173e b40b a83c
00000040: 701f 33bd b746 06bd 69e1 843b 9323 533d
00000050: 8e5b e3bd 0a87 61bd a54c 773d 9686 c03d
00000060: 242d 57bd a618 c33d 0821 93bb 6130 ebbd
00000070: 15f9 673c 65e7 943d 06b8 943d 5e91 023e
00000080: a67f 9fbc 7b4d fb3c ad24 6dbe e47c ca3c
00000090: b168 3e3c 492e 5cbc b453 383c 4584 e33b
000000a0: cce0 16be 2e5a 88bd cdf8 10bc 3e7f 033d
000000b0: 6c1d 1a3e ccd1 b5bd 7424 0fbe 0ecf f83c
000000c0: fa93 92bd e771 23bd 930f 803e 5a1a 7abd
000000d0: 6b23 21be 34d9 8d3c 0d29 903d 01ea 87be
000000e0: 7a77 53bd 4f1a d63d 8d26 fd3d de3a 06bd
000000f0: 6e55 82bd 8849 3cbd 96ae 1cbd b9a3 2cbd
00000100: 2f30 4e3e e301 623e 434f 4bbd 57e3 0c3e
00000110: 2a2a 133c e6dd 1bbe ab9b e2bc 7d6c 043e
00000120: a9c8 2ebd 8fe8 6c3e fe50 c33d 9ec3 8abd
00000130: 903f 9fbe b46d 28be c3d4 9ebd 4bd3 063e
00000140: 2bd4 cf3d 0c9c 1c3e 88bc 193e 0b08 963d
00000150: 1e8a da3c 5d25 ccbb 59da 68bd 2615 c7bd
00000160: 4511 cb3c 5a75 753e 8734 453e bf09 aa3d
00000170: ceab 793c 2430 9dbd 190b 6d3d b20f 49bb
00000180: fd47 98bd 5bb2 cdbb 3eef a23e ce8b 3abd
00000190: aee9 203d 7034 f73d 7976 0d3e 91ee b03c
000001a0: 1a9f bbbc a587 4f3e 8c2c 783c 00fe 853e
000001b0: 4349 9e3d 1b45 083e 34e6 b83d 238d edbd
000001c0: bdab 4e3c 11b6 183c 4b73 583e 7ebd 793e
000001d0: 912c 453e 59a2 063c 30a1 f13c fa60 b4be
000001e0: 4367 213d 29b1 3c3e 638e 50be 56e9 e5bc
000001f0: 33af 943d 6b4c 923e e191 a63c 439f 60be
00000200: b167 ab3d 2f8e 22bc 9c11 4ebc 9967 4ebd
00000210: 3e3b 48bd 3681 a1bd 2482 a33d de82 2abe
00000220: a3af d33c 4ded 7e3d e2ce 97bd 4845 b8bd
00000230: 547d a1bb b6e0 823b eb73 31bc aab6 383d
00000240: 4dd0 de3c 83e5 cb3d fd92 13bc 9033 ae3c
00000250: 8c38 f6bd 5111 50bc 115a bfbd 2e7b b33a
00000260: 4f30 1cbb 95f2 c73d 57d1 ef3c 4a9e 90bd
00000270: 3aad 02bc 8d1e f83c 6c1d d93d 9308 733d
00000280: bb12 07bd 2578 1b3e 04f6 8c3d 7477 f6bc
00000290: f29d 3e3c 8c5b dd3b aca5 f9bd 17f9 6abd
000002a0: facc 203d d2b2 d33d c1b5 fe3c 8b97 653d
000002b0: 545e d8bd cf30 e0bd d200 743c 02f5 f6bc
000002c0: 0304 f6bd 2dfd 013c 0804 973c 2f81 30bc
000002d0: 1b42 a83a a5d2 ddbc 2d1c 1a3d a7c3 91bb
000002e0: 9453 1fbd 5bf3 c63b 5751 923d b051 bd3c
000002f0: a56e a73b 96a5 73bc db01 c33a 4c1d c3bc
00000300: 2af7 b23d 4cf8 4dbe c7ab b0bb e8a8 0c3e
00000310: c438 40be 63a8 b3bd 3faf b7bd 1e34 363d
00000320: 3160 0f3e a14d 22be 44e0 07be 8524 4f3e
00000330: 98d7 87bd 92e2 203e 29d8 2c3d 333c 823d
00000340: 3109 643a f67e 33bd 578e 7f3d cdb9 5f3e
00000350: 81db 68be e2bb 953d 83e0 81be 5882 f5bd
00000360: 337b 1cbd ea22 f63c 4a67 623e a04c 273d
00000370: 8876 1dbe e9eb 73bd 77a5 583d 6734 e83d
00000380: 2ead b73d f56a 5bbe d45b 5c3d 8e58 c6bd
00000390: 7182 993d 8243 8cbd 1036 fb3b 61ce f4bd
000003a0: 2357 f43d f5cd 113e 5172 1c3d b85f 3e3d
000003b0: 0505 993d 7df3 c2bd 3363 bb3d cc5f 05be
000003c0: ef31 87bd 3283 7c3c fac2 af3e 5778 193e
000003d0: 551a 983d f3e1 363c cb7e 3e3e 0579 88be
000003e0: 3362 27bd 3a55 ab3e 5e76 923d e0e6 4fbe
000003f0: 960e 07bd 82c2 113d c99e 51bd a695 1abe

encoder.lstm.weight_hh_l1 f4 [256, 64]
-0.103112526 -0.13881765 0.15928 0.1768658 0.028367987 -0.21735263 -0.088881746 0.1366895
-0.079614535 0.14633249 0.018906983 -0.0746746 -0.103411645 -0.11176083 0.09601117 0.0011908767
0.09919739 0.03323051 0.0733165 0.17236967 0.25080317 0.09582713 0.12663156 0.120025374
0.043513637 0.34589672 0.007708827 -0.08900552 0.002510655 0.003005007 -0.12277812 0.000631222
-0.1671492 -0.11700628 0.16413647 -0.12254905 0.15841384 -0.10128823 -0.0005714606 -0.006831526
0.006771614 0.27515236 0.098403074 -0.16330487 0.09195826 0.028181056 0.09539912 0.03812139
-0.041513782 0.17336294 -0.10697487 0.15613285 -0.032676894 0.11704707 -0.17286456 0.045803316
0.10718537 0.16933091 0.05877303 0.1545157 0.06916832 0.0023952073 0.0012133484 -0.25651217
0.13309018 0.05615809 -0.30228597 0.10767733 -0.05125507 0.29053265 -0.07748187 -0.14170527
-0.07270951 0.08117046 -0.14590062 0.15918522 0.17309701 0.05773792 -0.08380873 -0.14265905
0.16741125 0.036544632 0.13138014 -0.051114094 0.0075702425 -0.13936368 0.023799563 -0.06519184
0.014055713 -0.11514151 0.018542439 -0.13929237 -0.1264995 0.14891419 -0.093795106 0.34969613
-0.0469183 0.09132581 -0.09417833 0.017287474 0.2215427 -0.24985921 -0.20507842 0.19017637
-0.1314525 -0.078500375 -0.023935549 0.16598414 -0.38868332 0.021101577 0.11098108 -0.034542058
0.22655289 0.19513835 0.016524544 -0.27725303 -0.00040913533 -0.043988388 0.050256066 -0.26412308
-0.15237889 -0.09598356 0.13953917 -0.17564434 0.16393074 -0.0035094072 0.0014171231 0.03561171
0.07259353 0.1946804 0.026595432 -0.02738463 0.050050624 0.31512678 -0.09892528 -0.06250305
-0.0113297505 0.15025589 0.027970307 0.103021875 -0.07305123 -0.117510825 -0.056376647 -0.10162838
0.03794473 0.027498594 0.11592637 -0.022384647 -0.13731104 -0.1648042 -0.013547573 -0.14046209
-0.023153529 0.045864508 -0.0011387181 -0.035421062 -0.029961724 -0.014414246 0.110042214 0.024110323
-0.0318531 -0.014302242 -0.14456476 0.14937617 0.24547327 -0.061347537 0.16198596 0.12506077
-0.15520862 0.33207977 0.12897845 -0.17522916 0.0054126577 0.16064243 0.34204865 0.21927665
0.02818218 -0.08429914 -0.09237563 0.05419666 -0.1186147 -0.12531604 0.008858348 -0.017475877
-0.05158598 -0.056663327 0.060735963 0.07293334 0.0047179097 -0.056843404 -0.0974602 0.047527224
-0.096848615 0.026307503 -0.101408005 -0.026829487 0.03839738 -0.022431387 0.0010442743 -0.04347941
0.14733778 -0.27371386 -0.026955068 0.25745803 0.101469524 -0.1096333 -0.031145005 0.093959846
-0.21533158 -0.047331396 -0.017753331 0.010976629 -0.048235554 0.073600315 -0.093745165 -0.082952425
0.09580568 -0.077859476 0.0603647 0.4049683 -0.074566916 -0.02054182 0.3193489 -0.09327837
-0.018339178 -0.16751212 0.25360808 0.08357036 -0.2494876 0.3778756 0.053197812 -0.04135558
0.09696562 -0.06613758 0.15328771 -0.20536235 -0.15148956 -0.016848478 -0.2340139 0.109361604
-0.16461492 0.14180586 0.086424224 -0.012904687 -0.13245727 0.044146735 -0.38540652 0.02938809
0.1448509 0.011770772 0.055886246 0.23877397 -0.09894753 -0.020789307 -0.009779077 -0.18814807
00000000: a92c d3bd 3726 0ebe 4c1a 233e 4f1c 353e
00000010: fb63 e83c b091 5ebe a207 b6bd 55f8 0b3e
00000020: f20c a3bd 2fd8 153e d1e2 9a3c ffee 98bd
00000030: 7cc9 d3bd dde2 e4bd 81a1 c43d 3117 9c3a
00000040: 0028 cb3d b71c 083d f626 963d ad81 303e
00000050: 4669 803e 0441 c43d b4ab 013e ddcf f53d
00000060: 5b3b 323d 6019 b13e 549a fc3b 8748 b6bd
00000070: cd89 243b a7ef 443b 1873 fbbd 9778 253a
00000080: 2929 2bbe fda0 efbd 6413 283e fffa fabd
00000090: 3d37 223e 3470 cfbd 12ce 15ba feda dfbb
000000a0: 6ae4 dd3b c5e0 8c3e 8d87 c93d 6439 27be
000000b0: 9d54 bc3d f5db e63c 9d60 c33d 2d25 1c3d
000000c0: 5b0a 2abd 0e86 313e a415 dbbd 4ae1 1f3e
000000d0: 35d8 05bd 60b6 ef3d 6803 31be 429c 3b3d
000000e0: 0184 db3d 1565 2d3e fdbb 703d 5d39 1e3e
000000f0: 1fa8 8d3d e9f8 1c3b 3709 9f3a 9055 83be
00000100: cb48 083e 0606 663d 3ac5 9abe ef85 dc3d
00000110: d6f0 51bd b2c0 943e d1ae 9ebd 301b 11be
00000120: b9e8 94bd b33c a63d f966 15be 7301 233e
00000130: 5840 313e 997e 6c3d e9a3 abbd 3715 12be
00000140: db6d 2b3e d3af 153d 8488 063e 035d 51bd
00000150: cc0f f83b 5ab5 0ebe 4df7 c23c 4d83 85bd
00000160: ef49 663c 50cf ebbd 50e6 973c a9a2 0ebe
00000170: 1689 01be f67c 183e a617 c0bd 5f0b b33e
00000180: 672d 40bd 0709 bb3d 91e0 c0bd 769e 8d3c
00000190: 17dc 623e 18db 7fbe 1400 52be 98bd 423e
000001a0: 7c9b 06be cec4 a0bd 7c14 c4bc bff7 293e
000001b0: 8001 c7be 37dd ac3c 0c4a e33d f97b 0dbd
000001c0: 7bfd 673e 59d2 473e 7b5e 873c 1cf4 8dbe
000001d0: 3781 d6b9 2b2d 34bd 4ed9 4d3d 243b 87be
000001e0: 3609 1cbe 0793 c4bd 5be3 0e3e 1cdc 33be
000001f0: 76dd 273e 15fe 65bb c3be b93a 96dd 113d
00000200: ebab 943d 4c5a 473e aade d93c bb55 e0bc
00000210: e201 4d3d 4c58 a13e 5699 cabd 9901 80bd
00000220: 6ba0 39bc aedc 193e fc21 e53c 22fd d23d
00000230: e29b 95bd 84a9 f0bd 33eb 66bd 8a22 d0bd
00000240: ef6b 1b3d bb44 e13c ce6a ed3d 0260 b7bc
00000250: 449b 0cbe 6fc2 28be a4f6 5dbc 4bd5 0fbe
00000260: 78ac bdbc 6cdc 3b3d 0a41 95ba ad15 11bd
00000270: 4a72 f5bc bb29 6cbc d05d e13d 0383 c53c
00000280: 6578 02bd f353 6abc c908 14be 11f6 183e
00000290: 585d 7b3e 8e47 7bbd a6df 253e ee0f 003e
000002a0: 02ef 1ebe 5c06 aa3e ed12 043e 466f 33be
000002b0: aa5c b13b 737f 243e 0021 af3e 0f8a 603e
000002c0: 51de e63c 07a5 acbd 6f2f bdbd 51fd 5d3d
000002d0: 44ec f2bd d952 00be 9b22 113c 9229 8fbc
000002e0: d24b 53bd ce17 68bd 46c6 783d 135e 953d
000002f0: b298 9a3b a1d4 68bd 3799 c7bd e8ab 423d
00000300: 9158 c6bd d582 d73c 00af cfbd 83c9 dbbc
00000310: 9246 1d3d 07c2 b7bc 08e0 883a 7717 32bd
00000320: b7df 163e 3924 8cbe e0d0 dcbc 8ad1 833e
00000330: 41cf cf3d 6c87 e0bd cf23 ffbc 056e c03d
00000340: e27f 5cbe 91de 41bd 6f6f 91bc 52d7 333c
00000350: a592 45bd c3bb 963d 77fd bfbd f6e2 a9bd
00000360: c535 c43d ca74 9fbd fa40 773d 0158 cf3e
00000370: 8ab6 98bd 5247 a8bc b381 a33e bb08 bfbd
00000380: 0b3c 96bc 4c88 2bbe ebd8 813e f026 ab3d
00000390: ad79 7fbe e978 c13e f3e5 593d 7864 29bd
000003a0: e995 c63d 2473 87bd 74f7 1c3e 824a 52be
000003b0: 1420 1bbe d205 8abc 57a1 6fbe faf8 df3d
000003c0: d090 28be 8e35 113e 2fff b03d 2e6e 53bc
000003d0: e1a2 07be 35d3 343d 0154 c5be 4bbf f03c
000003e0: cb53 143e 32da 403c fae8 643d 2a81 743e
000003f0: 01a5 cabd 564e aabc 6c38 20bc e3a9 40be

encoder.lstm.bias_ih_l1 f4 [256]
-0.06067741 0.26848972 0.026164746 -0.21672058 0.0354241 0.08854364 -0.11228396 0.02337448
-0.12933812 0.001873485 -0.10695662 -0.18662313 0.042469822 -0.08849354 -0.22239052 -0.107979976
0.014665768 0.13594215 0.14518732 0.14916375 -0.22954032 0.09907562 -0.14922626 0.016174663
-0.05606127 -0.11479536 -0.23223917 0.1858534 -0.17198953 0.04102661 -0.03158088 0.2506997
-0.07248306 -0.03183845 0.08473421 0.40319422 -0.10546474 0.2223463 -0.021044249 0.04029536
-0.043505967 -0.040171854 0.09272632 0.055103783 -0.040934544 -0.045931466 -0.0347125 0.06115619
-0.03513928 -0.1743428 -0.1946449 0.048927385 0.018900562 0.035783358 -0.055408843 0.0760471
0.019348044 -0.04315556 0.35869932 0.07649742 0.07120898 -0.039080452 -0.08362453 0.059922054
0.2614179 0.05134469 0.15013508 0.03412949 0.0008823275 0.14380866 -0.09649979 0.18847585
-0.015187139 0.19805457 -0.05884758 0.13928492 0.012410055 0.09078234 0.00810972 -0.012747777
-0.00910866 0.123134516 0.1634449 -0.0017192821 0.23511659 0.13157336 0.05553086 -0.07918109
-0.042725373 0.094620176 -0.03216247 -0.1392631 0.034339588 -0.011627114 -0.11294517 -0.10025392
-0.03573643 0.19623958 0.0037090525 -0.46820515 0.033609375 0.041256264 -0.00081721385 0.22637902
0.30792788 -0.009642144 0.2303753 -0.08520837 -0.057323057 0.12438623 0.13819647 0.016353386
-0.10763521 -0.0131726945 0.08624287 0.07102893 0.07491128 0.056715112 0.045849953 0.06707436
0.0697186 0.11814757 -0.14823285 0.027382564 -0.05505049 -0.11742225 0.1748908 0.24263847
0.11319498 0.10262342 -0.13399857 0.032430355 -0.065003514 0.06255415 -0.0051720086 0.13891153
-0.02189661 -0.1743024 0.10155466 -0.026239622 0.06054237 -0.12986861 0.10810875 -0.01890433
-0.016350958 -0.067826495 -0.052670628 0.031054713 0.03253047 -0.12789218 -0.064989366 0.12005354
0.14263919 -0.12375981 -0.013372755 -0.06831671 -0.06531575 -0.0694633 -0.020715052 -0.040872645
-0.04097084 0.07334848 0.09162193 0.07522785 -0.03194984 -0.065854125 -0.13391487 0.116734445
0.10110325 0.00408919 0.009535511 -0.020329341 0.034571797 -0.07512901 0.071155444 -0.0026095323
-0.07608195 -0.04033452 -0.069907315 0.025231287 0.01852635 0.048495088 -0.039287396 0.095793
0.055955034 0.094236605 -0.095192246 -0.0040358873 0.081956394 0.06268557 -0.09434237 -0.10689891
-0.013937156 0.21522574 0.083694704 0.043082096 0.22275026 0.086171135 -0.089622855 -0.042730015
0.1554636 0.08676835 -0.14458647 0.120634824 -0.13604945 0.21581952 -0.09639862 -0.14497526
0.06350777 -0.050082486 0.17414007 0.09073339 0.026965214 0.14669876 0.07528132 -0.18118246
-0.036417045 -0.09101119 -0.032006517 0.23045087 -0.018607453 0.024830833 -0.13001269 0.04367505
0.030748272 0.20949614 0.09292111 0.3777934 -0.08192945 0.38489106 0.0316011 0.04740932
-0.0012155356 0.19786857 0.026210696 0.208743 0.15202308 0.17945637 0.07125798 -0.18022476
-0.084902875 0.05790734 -0.13534844 0.07522889 -0.17720276 0.009007578 0.14073397 -0.039607707
-0.049285095 -0.035791803 0.49223182 0.23173396 0.054540627 0.06394203 0.10140995 0.041018937
00000000: e088 78bd 7c77 893e 7357 d63c 00ec 5dbe
00000010: dc18 113d 5e56 b53d 22f5 e5bd d67b bf3c
00000020: 3671 04be ba8f f53a 130c dbbd 221a 3fbe
00000030: d6f4 2d3d 1a3c b5bd 57ba 63be 9b24 ddbd
00000040: b048 703c 6b34 0b3e fcab 143e 62be 183e
00000050: 9e0c 6bbe 29e8 ca3d c5ce 18be ba80 843c
00000060: 81a0 65bd d419 ebbd 1bd0 6dbe 5b50 3e3e
00000070: 061e 30be 850b 283d f45a 01bd b65b 803e
00000080: 0072 94bd 0969 02bd 2189 ad3d 796f ce3e
00000090: e6fd d7bd c0ae 633e fd64 acbc bf0c 253d
000000a0: 5033 32bd 3e8b 24bd 4ce7 bd3d 81b4 613d
000000b0: fbaa 27bd a222 3cbd b22e 0ebd ea7e 7a3d
000000c0: 35ee 0fbd eb86 32be fe50 47be 1568 483d
000000d0: 5ad5 9a3c 9291 123d 62f4 62bd 95be 9b3d
000000e0: ca7f 9e3c e2c3 30bd 70a7 b73e aeaa 9c3d
000000f0: 04d6 913d d312 20bd 5643 abbd d470 753d
00000100: 91d8 853e cf4e 523d 03bd 193e 5dcb 0b3d
00000110: ff4b 673a 9442 133e afa1 c5bd d0ff 403e
00000120: 7ad3 78bc d1ce 4a3e 290a 71bd b5a0 0e3e
00000130: 8b53 4b3c 17ec b93d a2de 043c 0ddc 50bc
00000140: 7d3c 15bc f32d fc3d 1a5e 273e 8959 e1ba
00000150: 67c2 703e 2bbb 063e 5474 633d b229 a2bd
00000160: cd00 2fbd 39c8 c13d cbbc 03bd fc9a 0ebe
00000170: aba7 0c3d a77f 3ebc cc4f e7bd ed51 cdbd
00000180: 5d60 12bd 07f3 483e 9313 733b 96b8 efbe
00000190: fca9 093d 54fc 283d 4b3a 56ba e7cf 673e
000001a0: b9a8 9d3e 15fa 1dbc 81e7 6b3e ba81 aebd
000001b0: 95cb 6abd 35be fe3d 6083 0d3e 89f7 853c
000001c0: d96f dcbd 49d2 57bc 1aa0 b03d 9e77 913d
000001d0: 166b 993d 1b4e 683d 29cd 3b3d 485e 893d
000001e0: a0c8 8e3d 5af7 f13d 5aca 17be 6651 e03c
000001f0: 9f7c 61bd 147b f0bd 9316 333e 3876 783e
00000200: c5d2 e73d 3a2c d23d ec36 09be b1d5 043d
00000210: 9020 85bd 641c 803d f479 a9bb d33e 0e3e
00000220: 8560 b3bc 547c 32be e4fb cf3d 7af4 d6bc
00000230: 47fb 773d 47fc 04be 1f68 dd3d 41dd 9abc
00000240: 72f2 85bc 9ee8 8abd 28bd 57bd 7466 fe3c
00000250: ac3e 053d 2bf6 02be 2519 85bd a1de f53d
00000260: 0210 123e c975 fdbd 6619 5bbc a2e9 8bbd
00000270: 44c4 85bd c642 8ebd 9db2 a9bc 136a 27bd
00000280: 0ad1 27bd ba37 963d 47a4 bb3d 0f11 9a3d
00000290: d6dd 02bd 87de 86bd fb20 09be 7812 ef3d
000002a0: 390f cf3d 9dfe 853b d53a 1c3c b889 a6bc
000002b0: 289b 0d3d 3ddd 99bd f2b9 913d b004 2bbb
000002c0: dad0 9bbd cf35 25bd 912b 8fbd d8b1 ce3c
000002d0: 92c4 973c c9a2 463d d2eb 20bd 1f2f c43d
000002e0: 1b31 653d 1fff c03d 27f4 c2bd 7a3f 84bb
000002f0: c1d8 a73d 4b61 803d 9336 c1bd d1ed dabd
00000300: ab58 64bc 2364 5c3e 2168 ab3d da76 303d
00000310: a518 643e 7e7a b03d 308c b7bd ab05 2fbd
00000320: da31 1f3e 9bb3 b13d 7a0e 14be 640f f73d
00000330: 8c50 0bbe cbff 5c3e a46c c5bd 6574 14be
00000340: 5d10 823d 4b23 4dbd c651 323e 6dd2 b93d
00000350: 27e6 dc3c 3338 163e 182d 9a3d e587 39be
00000360: 0a2a 15bd 1364 babd 4419 03bd 50fb 6b3e
00000370: a86e 98bc 086a cb3c 0c22 05be 9ce4 323d
00000380: cde3 fb3c 2886 563e 6c4d be3d 236e c13e
00000390: a1ca a7bd 7110 c53e 2870 013d 4630 423d
000003a0: 9b52 9fba 0f9e 4a3e d0b7 d63c bac0 553e
000003b0: f0ab 1b3e 69c3 373e b4ef 913d d78c 38be
000003c0: 8fe1 adbd 3f30 6d3d c898 0abe 9b11 9a3d
000003d0: a474 35be 8594 133c 911c 103e b13b 22bd
000003e0: 2bdf 49bd 6d9a 12bd cf05 fc3e ab4b 6d3e
000003f0: fe65 5f3d 0af4 823d 05b0 cf3d 7903 283d

encoder.lstm.bias_hh_l1 f4 [256]
-0.14389937 0.1873719 0.0127061065 -0.0907177 0.022097634 -0.08934772 0.014749075 -0.12117469
-0.049322505 -0.012081483 -0.15318008 -0.1859425 0.016704649 0.004047444 -0.20874333 -0.12828548
-0.0048015704 0.0015165979 0.09018679 0.15433188 -0.1368829 0.04444647 0.0045453254 -0.19992779
-0.0812075 0.029710911 -0.0700365 0.15146197 -0.09279925 0.027216552 0.07737013 0.15874572
-0.14547405 0.0912365 0.13705757 0.48894915 -0.13372572 0.20904185 -0.00068606314 -0.15005699
-0.18752368 -0.01416997 0.15011886 0.037329704 -0.023077538 -0.06889838 -0.04163484 -0.06415071
-0.09535385 -0.022801768 -0.18438451 -0.06332035 -0.14457738 -0.09626989 0.075619906 -0.025454564
-0.019916795 0.01686678 0.38540396 -0.07775811 0.035007093 -0.0580638 -0.027448326 -0.027857872
0.21162066 0.12567516 -0.006713811 0.113402456 -0.0147314295 0.25567862 -0.10191083 0.06289937
0.018391524 0.14903398 -0.040789183 0.15887268 0.18794245 -0.07283506 -0.047701824 0.13227966
0.0066287895 0.07724724 0.058888346 0.16044037 0.30689856 -0.042954423 -0.031254273 -0.006841899
-0.020146143 0.09116127 0.00059663336 -0.26261216 0.0015038563 -0.047366895 -0.1464374 -0.017466923
0.037957314 0.18110874 0.034079745 -0.27654183 0.01580419 0.021525396 0.038557857 0.21942735
0.2212821 -0.04184778 0.087025814 0.017354634 -0.09703124 0.058974963 0.099786885 -0.042420972
-0.1605341 -0.14586909 0.067693055 -0.01751885 -0.09221299 0.09147029 0.080473065 0.036777575
0.0076902425 0.13675973 -0.17269772 0.1237066 0.0885936 -0.13155372 0.05832003 0.07822268
0.11824996 0.10832404 -0.14027189 -0.07679296 0.15311562 -0.020033933 0.20320494 -0.053472053
-0.013611178 0.009275681 -0.0037275748 -0.12298714 0.009388236 -0.074262366 -0.012142861 0.02600573
0.103252135 -0.16689113 0.059213392 0.122023076 -0.04919807 -0.12907355 0.011239112 0.10866117
-0.060766224 -0.04627266 -0.094663054 0.06554828 0.14281578 0.04709248 -0.0044002896 -0.020921037
0.057375155 0.04105126 -0.013833886 0.11676333 0.08865308 0.05043645 -0.03785707 0.12564379
0.13500515 0.08025021 -0.0067209764 0.086980276 -0.042869005 -0.15269308 0.128298 -0.049570296
-0.08975848 -0.018362656 0.07791756 0.034078836 -0.045322776 0.14067584 -0.033586577 0.10230084
0.05514643 0.12656763 -0.039481383 -0.06430751 -0.11596851 0.057068314 -0.059809044 -0.043027498
0.06492947 0.31595054 -0.06723097 0.035132173 0.060465902 -0.12259123 0.051767524 -0.009446396
0.08518117 0.09144824 -0.06556185 0.15955003 0.008490168 0.14291643 -0.13582684 -0.009853937
0.17587039 0.060518675 0.31129962 0.056379683 0.17357922 0.23736387 0.08758858 -0.1500837
-0.03831107 -0.041830562 -0.05242192 0.23171678 -0.023957513 -0.07373338 -0.08672277 0.10842256
0.14411426 0.16908987 0.0036079497 0.23825884 -0.055761777 0.31670472 0.09683436 0.09495589
0.11417931 0.31101036 -0.005174903 0.17378859 0.021944312 0.16334169 0.16490664 -0.0579313
-0.0038109168 0.085636295 0.066843145 0.054592773 -0.1809396 0.046750326 -0.035192486 0.026678115
0.16137809 0.025075022 0.4177539 0.29873493 0.19275355 -0.08631927 0.007134827 0.010992174
00000000: 5b5a 13be 6bde 3f3e 462d 503c 34ca b9bd
00000010: 1906 b53c f0fb b6bd 1ba6 713c 702a f8bd
00000020: 6506 4abd 6af1 45bc 3ddb 1cbe b667 3ebe
00000030: 30d8 883c 6ca0 843b d0c0 55be 455d 03be
00000040: 7e56 9dbb 95c8 c63a dab3 b83d 2d09 1e3e
00000050: 082b 0cbe 800d 363d f4f0 943b dfb9 4cbe
00000060: 1e50 a6bd 4c64 f33c 4c6f 8fbd d918 1b3e
00000070: 880d bebd 3ff5 de3c 3b74 9e3d 3d8e 223e
00000080: 26f7 14be 34da ba3d d258 0c3e 8b57 fa3e
00000090: 65ef 08be 110f 563e ebd8 33ba 8aa8 19be
000000a0: 3506 40be 2929 68bc c2b8 193e 08e7 183d
000000b0: 1b0d bdbc 981a 8dbd 4b89 2abd 7361 83bd
000000c0: e148 c3bd c6ca babc 4bcf 3cbe 1aae 81bd
000000d0: 180c 14be 2629 c5bd 9cde 9a3d 1786 d0bc
000000e0: 8c28 a3bc 342c 8a3c ab53 c53e a53f 9fbd
000000f0: 9963 0f3d 4fd4 6dbd 50db e0bc 3136 e4bc
00000100: 16b3 583e fdb0 003e 87ff dbbb 8c3f e83d
00000110: 185c 71bc 4fe8 823e a0b6 d0bd 63d1 803d
00000120: d2a9 963c 5d9c 183e 8f12 27bd 85af 223e
00000130: fc73 403e 8c2a 95bd fd62 43bd 5274 073e
00000140: 5136 d93b cd33 9e3d e834 713d 7b4a 243e
00000150: cf21 9d3e faf0 2fbd 7b04 00bd 0232 e0bb
00000160: 8609 a5bc c3b2 ba3d 6367 1c3a 1a75 86be
00000170: 0b1d c53a ca03 42bd b0f3 15be cb16 8fbc
00000180: 2179 1b3d 9274 393e 3497 0b3d e496 8dbe
00000190: ca77 813c 0756 b03c d8ee 1d3d 90b1 603e
000001a0: c697 623e 9468 2bbd 973a b23d 4e2b 8e3c
000001b0: 51b8 c6bd bb8f 713d 115d cc3d 9dc1 2dbd
000001c0: 0d63 24be b55e 15be a8a2 8a3d b183 8fbc
000001d0: 2ada bcbd c754 bb3d 10cf a43d 15a4 163d
000001e0: 6efe fb3b be0a 0c3e acd7 30be e359 fd3d
000001f0: 9070 b53d 05b6 06be fce0 6e3d 3633 a03d
00000200: 092d f23d ffd8 dd3d 6fa3 0fbe a145 9dbd
00000210: 57ca 1c3e 341e a4bc f514 503e 8305 5bbd
00000220: 6b01 5fbc 07f9 173c 544a 74bb afe0 fbbd
00000230: 1ed1 193c de16 98bd daf2 46bc f809 d53c
00000240: db75 d33d 82e5 2abe be89 723d 3ce7 f93d
00000250: ea83 49bd db2b 04be 4124 383c bf89 de3d
00000260: 01e6 78bd 6788 3dbd b4de c1bd 2d3e 863d
00000270: 4d3e 123e 0be4 403d 4e30 90bb 9862 abbc
00000280: 3602 6b3d 5e25 283d 86a7 62bc 9d21 ef3d
00000290: bf8f b53d 7396 4e3d 0410 1bbd c4a8 003e
000002a0: ca3e 0a3e 395a a43d a33b dcbb b722 b23d
000002b0: 6997 2fbd 935b 1cbe 8d60 033e 390a 4bbd
000002c0: 4bd3 b7bd 486d 96bc 3e93 9f3d 4096 0b3d
000002d0: 60a4 39bd 540d 103e 1492 09bd 1a83 d13d
000002e0: 39e1 613d f29a 013e 3bb7 21bd a8b3 83bd
000002f0: e680 edbd 77c0 693d 54fa 74bd 9a3d 30bd
00000300: bef9 843d 45c4 a13e 64b0 89bd c1e6 0f3d
00000310: 18ab 773d 1c11 fbbd 2f0a 543d 0ec5 1abc
00000320: 7773 ae3d 3749 bb3d 4b45 86bd 1561 233e
00000330: 581a 0b3c af58 123e 3116 0bbe 6872 21bc
00000340: 5e17 343e 6ee2 773d aa62 9f3e 62ee 663d
00000350: c0be 313e 840f 733e a461 b33d 8baf 19be
00000360: 12ec 1cbd 8656 2bbd 5eb8 56bd 2a47 6d3e
00000370: 8c42 c4bc 8701 97bd b59b b1bd a60c de3d
00000380: b092 133e e525 2d3e 5a73 6c3b 20fa 733e
00000390: 7666 64bd 1f27 a23e 1851 c63d 3c78 c23d
000003a0: d8d6 e93d c03c 9f3e 3c92 a9bb a3f5 313e
000003b0: 8fc4 b33c 0b43 273e 49dd 283e 5f49 6dbd
000003c0: 93c0 79bb 1562 af3d 0fe5 883d ac9c 5f3d
000003d0: 3b48 39be 457d 3f3d ff25 10bd 108c da3c
000003e0: 4c40 253e 226a cd3c d7e3 d53e c9f3 983e
000003f0: 3061 453e 28c8 b0bd 44cb e93b 8518 343c
