Forex/lstm_wgan/G.pt (torch, 313567 bytes, 41 tensors)

encoder.lstm.weight_ih_l0 f4 [128, 1]
00000000: 7204 01be 44b1 1dbe 38e1 d8bd 26a4 aabc
00000010: 6802 123d 1ee7 cbbd 488f 453e ae70 1a3e
00000020: 4e1a f1bd 26f5 dabc c0a1 29be 8ffb 82bb
00000030: 6e84 03be 4f4f c4bd ac75 193d 33fe 373e
00000040: 487c e2bd 7fe4 953d 96cc 0f3e 484e 923c
00000050: e3e3 16bd f9a2 463c 7386 c7bc a4bf e23c
00000060: 4cd7 473d bcfa 053e be0d 7ebd 0e26 09bd
00000070: b08b 263e 9c45 6c3d a88b 313e 0d30 6bbd
00000080: 5fcd 61bd ea5d c83d 87f1 873c fb87 1b3e
00000090: f17c 6dbc f630 d83d 8a78 c93c faa3 e03c
000000a0: bc34 6b3c 7556 5c3c 346e c93d cc23 b23c
000000b0: 3eda 3fbc e79d 2e3e c314 9fbd 35e5 01be
000000c0: a043 e33b e934 2fbd a8a7 283e cfb6 ea3b
000000d0: ed6c f23c d41b ebbd a705 c63d 0a41 b93d
000000e0: 499e 2fbe 53cd afbd c1b5 0ebe 6c00 3abd
000000f0: 2075 a4ba 4c4f 203e 3704 273d 0545 bc3c
00000100: e8db 233e 7cc5 25bd f244 19bb e702 c6ba
00000110: c9ef 2cbd 98ed 303e 427d ec3c 6052 023e
00000120: d8fa f9bd ca9b 0f3d a88d 89bd 05df 90bd
00000130: 3f07 203e a671 1abe 33b5 debd 697a bb3d
00000140: b462 013e 6371 3e3e 7f52 1ebe 868c 333e
00000150: 58bf 49bd 4c2f 2bbd cb86 373d 8806 833d
00000160: 70a3 003d 7268 cbbc 02b0 57bd 26d0 e6bc
00000170: 8c4d 1f3e 29fa 81bd 8b5d cbba 1693 123c
00000180: f1e8 07bd b136 c3bd 25d0 a03d 6778 e3bd
00000190: fe1b 193e c407 363d 1474 423d 009b ba3d
000001a0: 522c 0abe f8c6 8c3d c3a4 5bbc e87a 5d3d
000001b0: 3c71 3d3e 615f 28be 3951 3dbd f56f e6bc
000001c0: 016e 34be a900 a4bd 4629 fbbd 552c a0bd
000001d0: 97ef 133e c2b2 1b3e f9e2 75bd a541 f83b
000001e0: dbc3 0b3e 4c9f 82bd 3e8e 303e eae7 04bd
000001f0: 1207 d73d 30a9 f13c 8270 d63c 0578 a5bd
-0.12599352 -0.15399653 -0.10589832 -0.020830225 0.035646826 -0.099561915 0.19292939 0.15082046
-0.11772595 -0.026728224 -0.16565609 -0.0039972733 -0.12843487 -0.095854394 0.037465736 0.17968063
-0.11058861 0.07318973 0.14042887 0.017859593 -0.036838423 0.012123817 -0.024356103 0.027679272
0.048789307 0.13083929 -0.062024824 -0.033483557 0.16264224 0.057683572 0.17338431 -0.05741887
-0.055127498 0.09783538 0.016594661 0.15188591 -0.01449512 0.105562136 0.02459361 0.02742194
0.014355835 0.013448347 0.09835473 0.021745585 -0.011709748 0.17052422 -0.07767632 -0.12685092
0.0069355518 -0.04277507 0.16470206 0.0071629058 0.029592955 -0.11479917 0.09669047 0.09045608
-0.17150225 -0.08584084 -0.13936521 -0.04541056 -0.0012547113 0.1565525 0.040775504 0.02298213
0.16001856 -0.04047154 -0.0023387042 -0.0015107066 -0.042220864 0.17278135 0.028868321 0.12726736
-0.12206048 0.03506068 -0.06716472 -0.070737876 0.15627764 -0.15082416 -0.10874405 0.09154207
0.12635309 0.18597941 -0.15461157 0.17534074 -0.049254745 -0.041793153 0.044806283 0.0639773
0.031405866 -0.024830077 -0.05265809 -0.028175425 0.15556926 -0.063465424 -0.0015515549 0.008946201
-0.033181135 -0.09531916 0.078522004 -0.11106949 0.14952084 0.044441 0.047473982 0.09111595
-0.1349347 0.06873888 -0.0134059815 0.05407229 0.18500227 -0.16442634 -0.046220038 -0.028129557
-0.17620088 -0.080079384 -0.12263732 -0.07820956 0.14446865 0.1520491 -0.06003091 0.007576185
0.13648932 -0.0637804 0.17241761 -0.032447733 0.104993954 0.02949962 0.026176695 -0.080795325

encoder.lstm.weight_hh_l0 f4 [128, 32]
00000000: 74d3 e8bd 3053 8fbd 3308 b1bd 355a 2bbe
00000010: c875 be3d 9602 123d 58ae 563b 71f5 2d3e
00000020: 9048 edbd cdcb 04be f8a4 8a3d 829b 033e
00000030: 7da2 f4bd 96a1 4d3d 665b b3bd 7669 03be
00000040: 9127 efbd beb3 343e 8c03 343e 7a1a 493e
00000050: 71fa c53c 9ba6 273d 1079 eb3d ad01 1dbe
00000060: dc1c 0bbd 7ecd bfbb 7e4c 0c3e fb39 88bd
00000070: 69d2 a1bd aab0 5bbd 471b 01be 2af0 3b3e
00000080: d9d2 7b3d 65ca 3bbd 24f4 973c 5f9f 333d
00000090: 7b26 d33d de0e b1bd f2a4 c8bd a9f3 093b
000000a0: a15c ffbd cd50 f9bd 2fcd d43c 23a1 df3d
000000b0: 1422 e83d 5913 f53d b508 1cbe 81f8 1f3e
000000c0: e9f9 91bd 6cde 0ebd 7578 e43d f530 3a3e
000000d0: 49bc c53d d338 e4bd 1b76 11be d835 2e3d
000000e0: 2ad6 683b d0fd 363d b3bc 1b3e 55c7 8e3b
000000f0: c710 0b3e c86d 08be 4d43 66bd b879 b5bd
00000100: 4a21 e43c 7e44 00be 053e 19be 3bb6 e4b9
00000110: 9648 90bc 1ac7 c8bd 160b 073e 54c6 663d
00000120: 0e48 903d 1257 a63d f148 203e 3c8b 9cbc
00000130: 1156 26be e191 c0bb fa22 e13b afad 05be
00000140: 0992 1dbd 326b e53c 91d5 243d 1b49 2ebe
00000150: 1e8d 5dbd 9974 363d ac83 03be c26f 123e
00000160: 3df9 933d b1b0 d8bd d430 afbc 4e74 03bd
00000170: 1be6 54bd 8bf3 69bd 1466 d83c 160c 26bb
00000180: b4b2 ce3c 7aa8 1dbd 0d6c af3c 01a1 a6bd
00000190: dff1 44bb 4864 19be ee87 b3bd 1a50 12be
000001a0: 9c8b 363e f4b5 e3bd f0c7 10be 828d 823d
000001b0: e7dd 273e e461 36be 03c7 8fbd a000 2d3e
000001c0: 61cf 263e 16f5 963d 5ba2 213e 02bf 1fbe
000001d0: b624 1e3e 088e 893d 9ccd 583d 81ba 283e
000001e0: 7bf4 d83d f180 1e3e e91a 9abd aaae c7bc
000001f0: 5ff7 923d 9a4c 1f3e 26bf c73d 6e61 c4bd
00000200: b59d 0b3e 329c a8bd 5c73 66bd 2cf5 ec3d
00000210: 5608 d4bd adc7 8f3d bd1c d43d 960f 0ebe
00000220: 62be 2dbe 0eeb 89bd e966 97bc 6f9c d43d
00000230: b63b 8ebd ad7f 1d3e bfab 0b3d 3859 c2bb
00000240: 2663 a0bd fb4c c83b 1fc0 21be b01b 0bbd
00000250: 6d1e 0f3e 5a86 bcbd fa88 4fbd 5bdf 7d3b
00000260: 7c01 273e e4fe 08bd f09a 23be 55fb 033d
00000270: ea7c 963d 7806 b93d 8432 253e 789c cdbc
00000280: 5cad a43c 9a5d 98bd 035c bfbd a219 993d
00000290: 8b69 f9bd 97fa c3bd 02ea fbbc d8ba fc3d
000002a0: c417 823d 4fa6 08be 4e1b b73c e959 ce3d
000002b0: 30a8 e7bd a203 14bd e1d0 873d 5b1e cebd
000002c0: b869 ddbd 1fb3 5d3d e816 abbc bfdc b53d
000002d0: 735d 0ebe e67c a93c 3315 a33c 4638 25be
000002e0: 00bf edbb 9c38 203e 3f13 8d3d a21e 1e3e
000002f0: 2b5a f0bb 8f49 90bd cde0 9fbb bbfb f5bd
00000300: 19be cc3d 4f4b 04be 12cd 123e ed9e a23d
00000310: 41db febd 13c8 b1bd 19bf 4dbc 4706 a4bd
00000320: 7f41 0bbe 075c 593d f25e fd3c 643d 7e3d
00000330: 8b67 2c3e ae0d c1bd 677c 12be 4eb5 dd3d
00000340: 84dd 03be 0226 e1bd e710 343e d723 db3c
00000350: 24dd 1b3e 0ddf 9dbd d76a 16be 42da b73b
00000360: 1754 2f3e ceee 08be f9e8 2cbe 9756 85bd
00000370: 51f6 00be c8fd 1bbe f478 3ebd 3784 993d
00000380: f940 683d a966 8fbd bac4 2fbe 1a25 9dbd
00000390: aae6 883d 613b 5fbd 391c 47bb 8eff 1d3d
000003a0: f83c 32be 73a1 3dbe 3a25 c63c a4f1 2cbd
000003b0: c2ea 26be 78c8 a7bd 4d37 9a3d 6521 1fbe
000003c0: e8e3 0e3e 9a9d 5ebd 8127 29be a327 88bd
000003d0: 2d9a 1f3e 3186 233e e8c9 96bd ed65 8f3d
000003e0: 557a 11be 533e 0f3e d2da 02be 5b0b 21be
000003f0: 1b15 85bc f903 15bd 83cb e6bc 9c1a ee3d
-0.113684565 -0.06998289 -0.08644142 -0.1673363 0.09299809 0.035646997 0.0032757726 0.1698816
-0.11586106 -0.12968369 0.067697465 0.1285229 -0.11945055 0.05020293 -0.08757667 -0.12833199
-0.116774686 0.17646691 0.17579478 0.19639006 0.024167271 0.04093037 0.114977 -0.1533267
-0.03396307 -0.005853354 0.13701054 -0.06651684 -0.07901461 -0.053635277 -0.12608062 0.18353334
0.061480377 -0.045847315 0.018549033 0.04385316 0.10310074 -0.08645414 -0.09797086 0.0021049774
-0.124688394 -0.12173615 0.025976745 0.10919406 0.11334625 0.11966581 -0.15237696 0.1562214
-0.07127745 -0.034880087 0.11155788 0.18182738 0.09655053 -0.11143651 -0.1420521 0.04253182
0.0035528042 0.04467565 0.15208702 0.0043572583 0.13580619 -0.13323128 -0.056216527 -0.08861107
0.027847905 -0.12526128 -0.14965065 -0.0004362332 -0.017612737 -0.098036006 0.13187823 0.056341484
0.07044993 0.08122076 0.15652825 -0.01910936 -0.16243769 -0.005876765 0.0068706246 -0.13054536
-0.038469348 0.028005216 0.040242735 -0.17020075 -0.054089658 0.04454479 -0.12843198 0.14300445
0.07225273 -0.10580576 -0.021385588 -0.03209334 -0.05197726 -0.057117026 0.026415862 -0.0025336794
0.025231697 -0.03849075 0.021413827 -0.08136178 -0.0030051393 -0.1497966 -0.08766161 -0.14288369
0.17826694 -0.11118689 -0.1413877 0.06374647 0.16393243 -0.1781078 -0.0702038 0.1689477
0.16290046 0.07370965 0.1578459 -0.15600207 0.15443692 0.067165434 0.05293046 0.16477396
0.10593506 0.15478875 -0.07524664 -0.024375279 0.071760885 0.15556565 0.097532555 -0.09588896
0.13634379 -0.08232917 -0.05626236 0.115702 -0.103531525 0.07020507 0.10357044 -0.13873133
-0.16967157 -0.06734286 -0.018481689 0.103814 -0.06944983 0.15380736 0.034099337 -0.005931046
-0.07831411 0.0061126924 -0.15795945 -0.03396195 0.1397645 -0.09205313 -0.05066774 0.0038737867
0.1630916 -0.033446208 -0.15977073 0.03222211 0.07348044 0.09034437 0.16132551 -0.025099024
0.020102195 -0.07439728 -0.09343722 0.07475592 -0.12178334 -0.095692806 -0.030751232 0.12340325
0.06352189 -0.13344692 0.022351887 0.10075743 -0.11311376 -0.036136277 0.06631637 -0.100643836
-0.1081118 0.0541259 -0.020884946 0.088799946 -0.13902836 0.020689439 0.01990757 -0.16134748
-0.007255435 0.15646595 0.068884365 0.15441373 -0.0073349676 -0.0704528 -0.0048790933 -0.120109044
0.09997196 -0.12919353 0.1433604 0.07940469 -0.12444163 -0.08680739 -0.012557768 -0.0800901
-0.13599204 0.05306628 0.030929063 0.062070265 0.16836374 -0.09426437 -0.14305268 0.10825597
-0.1287747 -0.109935775 0.17584573 0.026750488 0.15221077 -0.07708559 -0.14689194 0.005610735
0.17121921 -0.13372347 -0.16885747 -0.06510656 -0.12593962 -0.15233529 -0.04650207 0.07495921
0.056702588 -0.07002003 -0.17164889 -0.07673092 0.06684621 -0.054499988 -0.0030381812 0.038573794
-0.1740607 -0.18518619 0.024187673 -0.042222634 -0.1630049 -0.08192533 0.07530079 -0.15540083
0.13954127 -0.05434952 -0.16518976 -0.06648185 0.15586157 0.15969159 -0.07362729 0.07001863
-0.14206822 0.13988619 -0.12778786 -0.15726988 -0.016245415 -0.03638074 -0.028173214 0.11626169

encoder.lstm.bias_ih_l0 f4 [128]
00000000: a8a7 523d ed5e a4bd 0d1d 403e 0df4 a03c
00000010: 0f4e 043e 17b3 333d d81e 9d3d fbf8 60bc
00000020: 5e3c 31be 5064 993d 798b 36ba 75a2 c13a
00000030: 649a 83bd 8212 433d e267 2b3e 57f9 393e
00000040: 4338 b7bd 66a8 243e 9c3b ff3d 5bdf 063e
00000050: db4b 46bd fc54 4cbd 5c59 adbd 9d42 e43c
00000060: 2766 9fbd 50bf c3bc b7a1 c9bd e788 17bd
00000070: 151f 253e 15f7 833d 6d77 02be fb38 c3bd
00000080: 18f1 92bc 8bee 973c 0278 2fbd af26 1ebc
00000090: 1434 5f3d 5216 f7bd 1517 e5bc b6ee 5cbd
000000a0: d5b9 a0bc 82d4 23be 5b30 de3d d797 85bd
000000b0: 845f e9bd 0717 6dbd 324c 14bb d486 c53d
000000c0: 500f d53b d669 bbbd 7799 553b 66b2 3d3d
000000d0: 2db3 503d 18da 013e 9de0 353e e1ce 55bd
000000e0: 6e46 f83d 88fa bbbd e2b9 323e b132 28bd
000000f0: 346c f83d 9222 153e 4eb6 be3d 1f80 ea39
00000100: df12 0abe aa23 cdbd 86c1 c7bc 80d1 673d
00000110: 123e a73d c908 09be 71de 57bd 6930 c2bd
00000120: f49d d23a 1013 29be dc10 f73c 6eaa 4dbc
00000130: 80e5 b0bd 449a 29be da06 ccbd ff1f a93d
00000140: 441c c8bc 05eb 37bb 79e4 0dbe 5729 9d3d
00000150: 3198 aebd d9df 22be bb00 243e 50f5 c53d
00000160: 5610 0cbe 85d0 103d 6b5a f43d 3942 f63d
00000170: a823 bdbd 28fd c6bd c1e0 373e e697 053e
00000180: 0c55 94bd 8585 e23d 17f4 9a3d 1848 183e
00000190: 3eea 60bd e26b c23d c964 b33d 13ed 3cbd
000001a0: bab2 f4bd a042 dfbd f086 e3bb 45e9 393d
000001b0: 130e f3bd 8856 f4bb 5793 f63d 72d3 05bd
000001c0: 2a1c 553d c51a adbd 2276 ce3c edc4 223d
000001d0: af39 17be 2d8b 063e 1dbb 8fbd a7f1 663d
000001e0: 7c8b 2c3e 9337 0e3e 2e96 aa3d ddba 0abe
000001f0: 2486 25be d378 933c d36f fdbd c483 1e3e
0.05142942 -0.08025918 0.18761082 0.019647622 0.12920402 0.043871965 0.076718986 -0.013731237
-0.17308185 0.07489836 -0.0006963532 0.0014773147 -0.06425932 0.047625072 0.16738847 0.18161522
-0.08946278 0.16079864 0.124625415 0.13171141 -0.048412185 -0.049885735 -0.084643096 0.027863795
-0.07783156 -0.023894936 -0.09845298 -0.036995795 0.16125138 0.064436115 -0.1274087 -0.095323525
-0.017937228 0.018546363 -0.042839058 -0.009652778 0.054493025 -0.12064804 -0.027965108 -0.05393859
-0.019619862 -0.15999034 0.10849067 -0.06523102 -0.11395171 -0.05788329 -0.0022628424 0.09644857
0.0065020695 -0.09151046 0.0032592693 0.046312712 0.050952125 0.12680852 0.17761464 -0.05219925
0.121228084 -0.091786444 0.17453721 -0.041063968 0.12130013 0.14563969 0.093121156 0.00044727416
-0.13483761 -0.10016568 -0.024384271 0.05659628 0.08166136 -0.13382258 -0.05270237 -0.0948189
0.0016068802 -0.16511178 0.030159406 -0.012552841 -0.08637524 -0.16562754 -0.09962244 0.08258056
-0.02442754 -0.0028063667 -0.13856687 0.076739006 -0.08525122 -0.15905704 0.16015904 0.0966593
-0.13678107 0.03535511 0.11931308 0.1202435 -0.092353165 -0.097162545 0.1795683 0.13046226
-0.07242784 0.11060623 0.07566088 0.14871252 -0.05491089 0.09493233 0.087594576 -0.04612453
-0.11948152 -0.109013796 -0.006943576 0.04538848 -0.11867919 -0.0074566044 0.120398216 -0.032672353
0.052028812 -0.084523715 0.025202814 0.039738584 -0.14768098 0.13139029 -0.07018111 0.0563828
0.16850084 0.13888387 0.08329426 -0.13547845 -0.16164452 0.01800195 -0.123748444 0.15479952

encoder.lstm.bias_hh_l0 f4 [128]
00000000: 375a 883c a23a 04be 2a16 9abd e7ec 9c3d
00000010: e76f 8c3d dd22 5ebd f072 46bd c660 353e
00000020: 7a85 123e bbf5 bbbc abab 29be f50e 45bb
00000030: 95eb f7bd 38c7 283e e112 e7bd 665a f9bd
00000040: 0468 313e 798e a43d cdcf 173e f08e 333d
00000050: 02b4 a03b 9a44 8abd 8e47 24be 7dde febd
00000060: fc29 613d e7be 2f3e 7672 be3d 8792 0cbe
00000070: c619 923c df37 ff3d 059e 553d 18d3 42bd
00000080: 5af7 6c3d 67f7 fc3d db7b f63d 0297 b53d
00000090: fb85 e1bd 78d9 f33d 11e3 1dbe d8c8 e43d
000000a0: de63 a4bd fdca ab3d e6be 113e 4bd7 21bd
000000b0: eae1 d1bd 5d7c e8bd 1a99 f93d f4c3 5bbd
000000c0: 82b8 0c3e 2df7 a63c 5d4a c1bd b841 20be
000000d0: 9a72 e83c b479 5ebd bd36 413e dfd1 35be
000000e0: 540b 943d 2031 fe3d 3e16 07be 45bd 32bd
000000f0: 44e9 f13d 771c 1bbe 2326 583d 4ed9 16bd
00000100: da9b ef3c 9735 593b e6fe 63bc 4406 11bd
00000110: 5fce 2c3e 41f7 07be e2a3 9ebd f77c bebc
00000120: 7832 e8bd 53ca 9ebd 8e88 12be c0b7 29be
00000130: a769 28be 947a f73d 51ee b3bd 115a 083e
00000140: ec73 28be ffb6 823d bfa5 e1bd 6dc3 f4bd
00000150: 5617 283e 5f5c 1e3d a575 ef3d 1131 eebc
00000160: 9c13 d03d dac7 03bd 5c7a 6b3c 521e c5bd
00000170: 3f36 b9bc d0c8 a23d 882e 1cbd fe61 cfbd
00000180: 2c04 3abd 127c 563d dbe6 fc3d e5ed f5bd
00000190: 69b8 1e3e 8df0 2abe 7d35 a5bd 6aff b0bd
000001a0: e90d e6bd 4162 f7bd f34a 36be ce41 8ebd
000001b0: 895c 16be b522 0cbe 6443 15be aed1 b63b
000001c0: 254e 143d dc9c df3d dc47 f73d dee5 193e
000001d0: a9b7 f7bd e8eb da3d 16a8 1abe 57b0 3c3d
000001e0: 9e4b 3abc 53f9 babd c69c 253d ddaf ba3d
000001f0: bb5f 83bd c36a bf3d 2fe9 5fbd f9db 24be
0.01664458 -0.12912992 -0.07523759 0.07662373 0.06857281 -0.054232467 -0.048449457 0.17712697
0.1430873 -0.022944322 -0.16569392 -0.003006873 -0.121054806 0.16482246 -0.11282898 -0.12175445
0.17324835 0.08034987 0.14825363 0.043837488 0.004904271 -0.06751366 -0.16042921 -0.1244478
0.05497168 0.17162667 0.092991754 -0.13727771 0.017834555 0.124618284 0.052152652 -0.047564596
0.05785308 0.12351876 0.12035342 0.08866693 -0.11011883 0.11906713 -0.1541865 0.111711204
-0.08026861 0.08388326 0.14232978 -0.03951196 -0.10248168 -0.113518454 0.12187405 -0.053653672
0.13742259 0.020381534 -0.09438012 -0.1565007 0.028374959 -0.054315284 0.18868537 -0.1775584
0.07228723 0.124117136 -0.13192078 -0.043637533 0.1181207 -0.15147577 0.052770745 -0.03682833
0.02924912 0.0033143514 -0.013915753 -0.035406366 0.168756 -0.13277914 -0.07746102 -0.023252947
-0.11337751 -0.07753434 -0.14309904 -0.16574001 -0.16446553 0.12083927 -0.087856896 0.13315608
-0.1645047 0.0638256 -0.11017942 -0.11951337 0.16415152 0.03866231 0.11692361 -0.029076131
0.1015999 -0.032173015 0.0143724345 -0.09624924 -0.022608874 0.07948458 -0.038130313 -0.101261124
-0.045414135 0.052364416 0.1234872 -0.120082654 0.15500034 -0.16693325 -0.08066843 -0.08642466
-0.11233122 -0.12079287 -0.17802028 -0.06946145 -0.14683737 -0.13685115 -0.14576489 0.005579195
0.036207337 0.109185904 0.12074253 0.15029094 -0.12095577 0.10689527 -0.15103182 0.04606661
-0.011370568 -0.09129586 0.040432714 0.091155745 -0.064147435 0.09346535 -0.05466574 -0.16099538

encoder.lstm.weight_ih_l1 f4 [128, 32]
00000000: df5b 00be d11a bbbd af88 f8bd 4671 d23d
00000010: b153 823d 4292 40be 67a8 07be a7d7 b5bd
00000020: bd7f 1e3e 48aa 5e3d 830d ff3d 7704 00bd
00000030: 0363 d53d db65 b63d c669 46bc 2e1f 09be
00000040: 3566 26be 4be5 f8ba 9196 133e 33ff 8fbd
00000050: e5f2 3d3b a02f d6bd fa3f 21be 7b08 5abd
00000060: cb6e 33be e022 cebd aa14 24bc d9e6 cbbc
00000070: 7dd3 193e 973a aebd 4e26 853c ec0f 243e
00000080: b6fe 10be 5404 293e a46d b63d c015 843d
00000090: f8c3 ed3c fc73 0cbe 3a0b 74bc 4d98 343d
000000a0: 007a 243e 8586 1c3e c0b7 2ebd 58f9 afbd
000000b0: 1f43 b0bc d87d bd3c 8950 41bd 2968 ed3c
000000c0: 81ec 51bc 84f5 82bd ffdd f33d 5aa8 263e
000000d0: ff8a da3c c428 c13b 7862 623d dc76 dc3d
000000e0: 9664 10bd 2d52 2b3d de0e a93d 3f76 2a3e
000000f0: dd4b 1cbe b1e7 903b 19a2 56bd fc79 35be
00000100: 5b69 d33d 3589 233d e695 00bd 6614 5dbc
00000110: 6de6 ea3c 42a9 6dbd 2de1 d73d 48c0 0a3e
00000120: 15db 813d 9dc0 02be 1c0b 1ebe 4343 1bbe
00000130: 8b15 a13c d64f 8e3c 48a2 b33d 5c31 67bd
00000140: 824d bbbb 55cb 063e 59a2 67bd 2ad3 28be
00000150: b6b1 5fbd 90b7 7d3d 8d6f 673c 8564 293d
00000160: e578 a4bd 1086 b63d 6b35 17bb 21e5 10bc
00000170: 97bd 1f3d e092 3dbd b549 f33d 46ac aeb7
00000180: 499e 343d dd72 2bbe b9c6 d13c 2447 0cbe
00000190: ae99 143a c997 9b3c 488f f8bd af42 dbbd
000001a0: 3087 1a3e 751a 233d 65dc 64bc f012 b8bd
000001b0: 9c34 2dbd faa5 85bd 6d89 7b3c 1f05 2cbe
000001c0: 5aea 96bd c9bb 22be dfad 0b3e ff08 2cbe
000001d0: 2d5e 16bd 2667 15be 8f4e 7c3d 4ae4 02be
000001e0: e4bc c53d c5aa 283d 8b5a b13d 57cd 273e
000001f0: 3acc b33d 5050 13be 7fab 23be 5609 da3d
00000200: 186c 043e 52f2 8dbd 86d8 e73d deb0 1f3d
00000210: 8cd6 533d ba32 233e 5d89 b93d 3dc3 3b3e
00000220: b9a7 fd3d 2872 bf3d e2bb 01bd f25b 0bbe
00000230: 9df6 a93d 8929 2dbc a18f f03d d19a 103e
00000240: 89c3 ff3d 2d12 b3bc cf5d 0fbc 259a 653d
00000250: bdac adbc 826e 2cbe 77e1 093e a8d8 1e3e
00000260: 2948 c7bd d4cb 8d3d 70fb f13d da3e 36be
00000270: 1242 9abd d51e ccbd ed29 0bbe 7517 123e
00000280: 3f3f 373e 7ae4 09be 18d7 e6bd 6599 c9bd
00000290: 25c5 a43d 49a8 89bd 5ec3 033e 0b3f b1bd
000002a0: 63e9 f43c 6292 d53d da0e a63d 0641 393e
000002b0: 65c7 e1bd b2ce d33d 2dc2 f1bd 011b 05be
000002c0: 09c0 9ebd 5492 913d 7bb0 2d3e dee7 eb3d
000002d0: b7cb 19bd 5805 633c 99d5 1d3e e1c3 08be
000002e0: 51c4 80bd 43f2 3a3e 9ede 7e3d d7cd a5bc
000002f0: 3ee5 8a3d eade bcbd 2c9e 0ebe a297 21be
00000300: 184a 1f3e 2ddc 0d3e 644b adbd 6985 f1bd
00000310: 9f7a 28be d24d 25be 459b f93d 917a 37be
00000320: ff41 003e 3a0d eebd 38a5 cebc 53a3 27bd
00000330: 4bc1 35be 9195 9bbd ee07 00be d5e6 f7bd
00000340: 259d 3cbe a142 0c3d e2ef dcbc 11db ee3d
00000350: c206 33ba f195 6f3c 258f 6ebd 19fd ef3d
00000360: 6e40 983d 4c53 df3d 3347 66bd 1bd0 1f3d
00000370: d9e8 fc3c 7287 863d 9714 e7bd 1895 16be
00000380: 74b2 7dbd 209b 4dbd f360 cb3b 725a 80bd
00000390: d7df 0fbe ace1 313d e9f6 14be f562 29be
000003a0: 867e a23c 9515 0bbe b3a6 ff3d 34ee 4cbe
000003b0: 327d 3fbd b5f8 2d3e 618d 033d 5673 b6bc
000003c0: 234f c13d 1ad6 03bd fba9 4fbe 8ded a4bd
000003d0: fcc4 343e b5df 073e 28ff 0b3e 1855 06be
000003e0: ba6c 78bd 539e 863d b20e db3c e59c 11be
000003f0: de46 eb3c a511 ae3d 0f09 553d 4200 0ebe
-0.12535046 -0.09135974 -0.12135445 0.102755114 0.06363619 -0.18805793 -0.13247834 -0.08879023
0.15478416 0.05436161 0.12453749 -0.031254258 0.104192756 0.08906146 -0.012110179 -0.133908
-0.16249926 -0.0018989233 0.14412905 -0.07031097 0.0028983888 -0.104583025 -0.15747061 -0.053230744
-0.17522733 -0.10065246 -0.010014692 -0.02489035 0.15022083 -0.08507269 0.016253617 0.16021699
-0.14159665 0.16505557 0.08907631 0.06449461 0.02902411 -0.1371612 -0.014895255 0.044090558
0.16062164 0.1528569 -0.042655706 -0.085924804 -0.02151638 0.023131296 -0.047195945 0.028980331
-0.012812735 -0.06394485 0.11907577 0.16275159 0.026677607 0.005894752 0.05526969 0.10764858
-0.035252176 0.041826416 0.08254789 0.1664667 -0.15263315 0.004422151 -0.052400682 -0.17722315
0.10322829 0.039925773 -0.031392954 -0.013493633 0.028674329 -0.058022745 0.10540996 0.13549912
0.06340615 -0.12768789 -0.15433925 -0.15162377 0.019663593 0.017372053 0.08771187 -0.056443557
-0.0057160268 0.13163503 -0.05655131 -0.16486803 -0.054612838 0.061942637 0.014125717 0.04135563
-0.08030871 0.08912289 -0.002307261 -0.008843691 0.038999166 -0.04628265 0.11879293 -2.0822637e-05
0.044096265 -0.16743036 0.025607454 -0.13699013 0.0005668652 0.018993275 -0.12136704 -0.10706078
0.15090632 0.039820153 -0.013968562 -0.08987987 -0.0422865 -0.06525798 0.015352589 -0.16798829
-0.07368918 -0.15891947 0.13640545 -0.16800307 -0.036710907 -0.1459013 0.061598357 -0.12782398
0.09655169 0.041178484 0.08659848 0.16386925 0.087791875 -0.14386106 -0.1598339 0.10646312
0.1293186 -0.069309846 0.113205954 0.038987033 0.05171828 0.1593732 0.09059403 0.18336196
0.12385506 0.093479455 -0.03167332 -0.13609293 0.08298991 -0.010568985 0.11746145 0.14121558
0.12488467 -0.021859253 -0.008750393 0.056055207 -0.021200532 -0.1683903 0.13464914 0.15512335
-0.0973056 0.06923643 0.11815536 -0.17797413 -0.07532133 -0.09966818 -0.13590212 0.1426676
0.1789522 -0.13466063 -0.112714946 -0.09843711 0.08045415 -0.06721551 0.12867495 -0.086546026
0.029896444 0.10428311 0.081083015 0.1809121 -0.110243596 0.103421584 -0.11804614 -0.12998582
-0.077514715 0.07107988 0.16961853 0.115188345 -0.037547793 0.0138562545 0.15413512 -0.13355972
-0.062874444 0.18256478 0.062224023 -0.020239754 0.06782006 -0.09222205 -0.13927525 -0.157805
0.15555608 0.13853522 -0.08461645 -0.11793024 -0.16453026 -0.16142967 0.121878184 -0.17917849
0.12525176 -0.116236165 -0.025225267 -0.040927242 -0.17749517 -0.07596887 -0.12503025 -0.121045746
-0.18419321 0.03424323 -0.026969854 0.11662877 -0.0006829315 0.014623151 -0.058241982 0.117181964
0.07434164 0.109045595 -0.056220245 0.039016824 0.03087275 0.06568803 -0.11283224 -0.14705312
-0.061937764 -0.050196767 0.0062066256 -0.06267251 -0.14050232 0.043428108 -0.14547314 -0.16541655
0.019835722 -0.13582452 0.12482967 -0.20012742 -0.046750255 0.16989405 0.03211725 -0.022271793
0.09438922 -0.032186605 -0.20279686 -0.08053122 0.17653269 0.13268931 0.13671553 -0.13118398
-0.060650565 0.06573167 0.026740406 -0.14220007 0.028720316 0.08499459 0.052010592 -0.13867286

encoder.lstm.weight_hh_l1 f4 [128, 32]
00000000: d639 acbd 08de 9d3d 862f 8bbd 5efc 1c3e
00000010: 92ba e43d 545a 113d 4cec 403d 0635 bc3d
00000020: d1eb fe3d 790e bd3d 260d 113e 5884 e23d
00000030: 7088 c3bd 0942 393e 7d7f e7bd a05e 593d
00000040: 8e85 523d bddf 59bd 4f35 e1bd d2bb 213b
00000050: 1032 2fbe fdd1 0c3e 7d05 973d 7a15 45bd
00000060: 6f07 a5bd f2ec 253e d687 d63d e301 b8bd
00000070: 8b1e f0bd 684b edbd 1fe9 1f3e 89c0 0c3d
00000080: 42c3 0b3e f2fd 4f3d 1ec3 0cbe d145 92bd
00000090: 0059 9c3d 35ac f03d c0dc 283e d4a6 943d
000000a0: a814 4d3d 3fcc c6bd 1cc3 8abd f21f 103e
000000b0: f63d 80bd 9928 4b3d 9a7e bdbd 406a 0ebe
000000c0: f29a 06be 85be d13d 30da 063e 6f6a c2bb
000000d0: 11b5 273e f9f6 ef3c 98e7 243e 4892 4abe
000000e0: 29e2 103e 25f0 d53c db68 24be fe9c 963d
000000f0: 20d2 9e3c 8dae babd 94eb a7bd 3219 22be
00000100: 1420 47bd fe4b 07be 08a8 073e be53 6ebd
00000110: 581c 793d 545d f23d 690a 833b 90b7 163e
00000120: 9d95 8c3d e7f1 a33d 39c0 933d 89e5 d9bd
00000130: 81d9 1f3c a1a1 03be 5a8a a13c 07bc 353e
00000140: 524a 243c 3405 3d3e 1f85 23be 499f 693c
00000150: 2fb0 7ebd 9b69 e53d bdcf 1b3e 56ba 973a
00000160: b0e2 3dbe 0862 4dbd b300 06bd 477e d0bd
00000170: aeff 96bc 90da 903d 75b4 d63d f278 243e
00000180: 1ba1 ce3d 7f2b 9d3d 2594 bfbd b5a0 4abc
00000190: 49ce 4dbd 9e25 f03d 7594 89bd 6d00 4dbd
000001a0: 9361 72bd c238 02be 3e72 85bd 0d2e 5cbd
000001b0: 9e11 a8bd 55ac 273e 72e6 9cbd 73cf 2d3d
000001c0: 5581 21be e497 753d 0c3e 09be 05fc 1f3e
000001d0: 657a 13be be23 b0bd abec ff3d 5e1e cfbd
000001e0: 2e1b 68bd 7ba2 283b 594a 0dbe c6ee 26be
000001f0: bdb2 e33d 54e5 063d 2870 41bc d8d6 e03d
00000200: d558 c83b 507d 47bb ba17 573d 3bed bf3d
00000210: e220 e23c f609 7e3d ab00 473d 7782 bdbd
00000220: 1aee fb3d b06c 313e c2a8 8ebc f5ae 7e3d
00000230: e0be ce3d 33af c23d eb16 78bb 02f1 c13d
00000240: 289c b43d 84e0 a73d 6348 ef3d 4bc6 09be
00000250: 9db1 643a 8c0f 83bd 8917 dc3d 8bc5 d0bd
00000260: 4c9e 65bd 9947 533d 4d37 efba 2ae8 823c
00000270: 5012 6fbc e03b 8ebd ebac 96bd b0cd c73c
00000280: a67a 0fbe 0e95 f5bd 44f1 ce3d 5a4e 18be
00000290: 8bcc a43b a334 e13d a90b 69bd 4aa3 323e
000002a0: 20d1 d8bd a26c 05be be29 fabd 5bb4 45be
000002b0: e2e9 eabc 859f 213e f5e5 24bc 7517 bebd
000002c0: 59a3 c23d fc72 e8bd 0019 113e e0c1 d03d
000002d0: 402d d43d e728 cb3d a366 bebc 48fc 7f3d
000002e0: a36d e73d 453a 9d3d 1e5e a0bd 9ef4 093e
000002f0: 0fd4 07bd 92a9 d13d a21e eb3b 6c6c 31bd
00000300: 6847 0b3e 1ddb b73c d53b 35bd f37a 613d
00000310: 0ed8 823d a657 7cbd 726c 0e3e 33b1 1f3e
00000320: 128a 3c3e afea ef3d 7a2b f4bd 5629 30be
00000330: bdd3 313e 68b0 22be 4d57 77bd e2a1 093c
00000340: 89c7 1d3e 0f05 0cbe debd 853d 737d 6cbd
00000350: 34ba a43d e65a b5bd c5ae 0d3e 968a c6bd
00000360: 7aa9 c03d 7f85 29be 1d6d 74bd 44b3 1d3d
00000370: a76c a3bd 523d 87bc 8b1e 103e 4f76 c4bc
00000380: 5901 113e 7f63 0cbc 6cc8 143e 18ca 353d
00000390: 6241 093e 6f6e b73b f061 793d 8769 ed3d
000003a0: d302 f33d d32f 9dbd e8bb 5d3d 16be 993d
000003b0: 7d7d 71bd 86d1 8f3d de96 bfbd 873f 733d
000003c0: 58cb 243e a5bd eb3d 9470 debd 3210 c5bd
000003d0: 3591 b23c a7eb 14be a07e 20be bf22 ac3d
000003e0: 280f 4c3d a829 003e 5703 623d 793d 65bd
000003f0: 833c 9ebd 7c6e 103e 5f8e 0ebd 53d8 09bc
-0.08409469 0.07708365 -0.06796174 0.15330645 0.11168398 0.035486534 0.04710035 0.09189801
0.12447322 0.09231276 0.14165172 0.11060399 -0.09547508 0.18091597 -0.11303613 0.053068757
0.0513969 -0.05319189 -0.10996496 0.00246786 -0.17108941 0.13751979 0.07374094 -0.048116185
-0.080580585 0.16203669 0.104751274 -0.08984735 -0.117245756 -0.11586648 0.15616272 0.034363303
0.13648704 0.05077929 -0.13746306 -0.07142223 0.07634163 0.11751596 0.1649046 0.072583824
0.050068527 -0.097069256 -0.067754954 0.14074686 -0.06261818 0.049599264 -0.09252663 -0.13907719
-0.13145044 0.10241417 0.1316917 -0.005933098 0.16377665 0.02929257 0.16103971 -0.19782364
0.14148773 0.026115486 -0.16055624 0.07354163 0.019387305 -0.09115324 -0.0819923 -0.15829924
-0.048614576 -0.13212582 0.13247693 -0.05818533 0.060818046 0.11834207 0.0039990437 0.14718461
0.06864474 0.080051236 0.07214398 -0.106394835 0.009756447 -0.12854625 0.019719291 0.17747508
0.010027485 0.18459016 -0.1596875 0.014259168 -0.06217974 0.11201783 0.15215965 0.0011575918
-0.18543506 -0.050142318 -0.03271551 -0.101803355 -0.018432464 0.070729375 0.10483638 0.16061762
0.10089322 0.07674312 -0.09354428 -0.012367417 -0.050245557 0.11725925 -0.06717769 -0.050049234
-0.059175085 -0.12716964 -0.065159306 -0.053754855 -0.08206485 0.16374333 -0.076611415 0.042434167
-0.15771993 0.059959307 -0.13402575 0.15623482 -0.14402159 -0.08600567 0.12496313 -0.10113214
-0.056666546 0.0025731612 -0.13797893 -0.16302022 0.11118076 0.032933548 -0.011806525 0.10978478
0.006114105 -0.0030439682 0.05251286 0.0937142 0.02760357 0.06202122 0.04858462 -0.092534
0.12301274 0.17326617 -0.017414454 0.06217857 0.10095 0.09506073 -0.0037855457 0.09469797
0.08818847 0.0819712 0.116837285 -0.13454549 0.0008723976 -0.0639945 0.107466765 -0.10193928
-0.056059167 0.051581953 -0.0018250734 0.015979845 -0.014591768 -0.06945014 -0.073572 0.024390072
-0.1401163 -0.119913206 0.101046115 -0.14873639 0.0050292662 0.10996368 -0.056895886 0.17445102
-0.105867624 -0.13029721 -0.12214993 -0.19307081 -0.028675977 0.15783508 -0.010064592 -0.09281818
0.09503812 -0.113500565 0.14169693 0.10193229 0.10360193 0.09919911 -0.0232423 0.062496454
0.113002084 0.0767713 -0.078304514 0.1347222 -0.03316122 0.10237421 0.0071752826 -0.04331629
0.13601458 0.022443349 -0.044246513 0.055048894 0.063888654 -0.061607026 0.13908556 0.1559494
0.18412045 0.11714684 -0.11922355 -0.17203268 0.17365928 -0.15887606 -0.06038599 0.008400412
0.15408148 -0.13673805 0.06530355 -0.057736825 0.08043328 -0.08855228 0.138362 -0.09694402
0.09407325 -0.16554831 -0.05967437 0.03850104 -0.07979708 -0.016508732 0.14074151 -0.023982195
0.1416067 -0.008568644 0.1452958 0.044382185 0.13403848 0.0055978815 0.060884416 0.11592393
0.11865773 -0.07675137 0.05413428 0.07506959 -0.058957566 0.07022385 -0.093549475 0.059386756
0.16093194 0.11510781 -0.10861316 -0.0962223 0.021797756 -0.14543019 -0.15673304 0.08405065
0.04981914 0.1251589 0.055178966 -0.055966828 -0.077263854 0.14104646 -0.034803744 -0.008413392

encoder.lstm.bias_ih_l1 f4 [128]
00000000: a0f6 063e ae3d c8bc 4690 08bd 1c87 5fbc
00000010: 160e 0dbe 77a0 2cbe d72c 163e 4b0a 453e
00000020: c3fb 243e b8d9 2e3e c6af 273d f9f0 a13d
00000030: 6493 3fbc 4cf7 79bd 1677 d2bd fe3c eb3d
00000040: 73bc 973d f8ea 113e 0e95 67bc 3ffb 16be
00000050: 4bb3 183d 7d0a ec3c 55d4 44be 81f3 dfbd
00000060: 9f44 873d 0121 32bc 5301 33be 9cf6 803d
00000070: 642a bf3d aa1f 0d3e 1a98 d539 5359 14be
00000080: 7497 f4bd 992a 37be 3f7b 3a3c b414 f1bd
00000090: 88e0 23bd 460b c63d 5532 273d 639d 833d
000000a0: da02 6a3d a2cc c9bb fee8 bc3d 2775 243e
000000b0: d615 433e e3f1 34be f0f1 2c3e a4a3 fcbc
000000c0: 16b3 593d 584d 5e3d 9dbf f43c 1b94 143e
000000d0: 7e74 17be 619a 2cbe ac7f 913d bfe2 2b3e
000000e0: 4e69 513c ad9b d03d 0f21 da3d 1121 10be
000000f0: 45b9 6ebd 493a fd3d 581e 233d 4c51 dabd
00000100: dd1d bb3d 1ecd e13d 3fae 73bd 0f36 183e
00000110: 2a6d b9bd ac59 07be 4064 eabd b21d 3cbe
00000120: 7a2b a2bd 4011 d53c c9f1 2c3e 42cb 21be
00000130: d97c 303e e2d6 673c 75ed e53d 06e7 8fbd
00000140: 1514 b63d 1c65 1bbe 2f52 223e 4f8d 563d
00000150: 6997 29be 09bf 58bd cdac 16be 3508 5ebd
00000160: a1fc d63d 486c 01be 5b48 303e e133 0d3e
00000170: d837 14be 4737 1cbd 2b4d 2bbe db0c bebd
00000180: 6c94 383d c6b5 cdbd 427b 06be dcdc 173e
00000190: f107 4e3d f88b 5cbc 87c8 fa3d 29a7 12be
000001a0: 6e46 973d 87c5 20be 9f4b 52bd 04a3 7ebd
000001b0: 5320 85bd 245c c03c 6923 2ebe b0eb e83d
000001c0: 144e ad3d bfec aa3d 6f7c 313c 4eea 1c3d
000001d0: ca1d 0f3e c10e 0bbe 6e16 d2bd 6f6e 23be
000001e0: 4d49 2d3c e04f 1abe c186 4ebd 5580 9d3d
000001f0: 731b 2d3e ecd7 213e e857 7e3d c764 0f3e
0.13180017 -0.024443474 -0.033340715 -0.013643052 -0.13774905 -0.16858087 0.14665543 0.19242208
0.16111664 0.1707524 0.040939115 0.0790729 -0.0116928555 -0.061026856 -0.1027662 0.11486243
0.07408991 0.1424979 -0.0141346585 -0.1474428 0.037280362 0.028813595 -0.19221623 -0.109351166
0.06604885 -0.010872127 -0.17480974 0.06297037 0.09334257 0.1378161 0.0004073985 -0.144872
-0.1194295 -0.17887343 0.011381923 -0.11771527 -0.04000905 0.09670119 0.040819485 0.064265035
0.057131626 -0.0061584273 0.09224127 0.16060315 0.19051298 -0.17670397 0.16889167 -0.030839749
0.053149305 0.05427298 0.029876525 0.14509623 -0.14790532 -0.16855766 0.071044296 0.16785716
0.012781454 0.10185943 0.10650837 -0.14075114 -0.058282156 0.12364633 0.03982386 -0.106600374
0.09136555 0.11025451 -0.059492346 0.14864372 -0.090540245 -0.13217801 -0.114449024 -0.18370703
-0.07918449 0.026009202 0.16889109 -0.15800193 0.17235126 0.014150353 0.11226932 -0.07026486
0.08890549 -0.15175289 0.15851663 0.052380856 -0.16561665 -0.05291656 -0.14714356 -0.054207046
0.10497404 -0.12638962 0.17215101 0.13789321 -0.14474428 -0.038138654 -0.16728656 -0.09279796
0.04506342 -0.10044436 -0.13132957 0.14830345 0.050300542 -0.0134611055 0.12245279 -0.14321579
0.0738648 -0.1570035 -0.05134165 -0.062167183 -0.06500306 0.023481436 -0.17005695 0.11373079
0.08462158 0.08345937 0.01083289 0.038309388 0.13976207 -0.13579847 -0.102581844 -0.15960096
0.010576558 -0.15069532 -0.05042148 0.07690493 0.16905002 0.15805024 0.062095553 0.14003287

encoder.lstm.bias_hh_l1 f4 [128]
00000000: 9fd4 1e3d afdc 023e 3e7f ddbc e715 233e
00000010: 551a edbd 4fca fabd 5491 1c3d 9009 08bd
00000020: f4e3 b8bd 9b30 cabd 7eac 05be c362 92bd
00000030: af37 373e 3778 723d 5ec9 22be b6df 42bb
00000040: 9749 eebd 815b 593d ebd0 ad3d c734 073e
00000050: 79db 14bd d360 0fbd 71df 083e 1199 d93d
00000060: e76e ccbc ec39 0f3e 0123 35be 76ab 2cbe
00000070: 27df 183e bfa2 afbc 9ad4 023e 1b7d 753d
00000080: 47a7 023d c362 863d cba9 b0bd df99 c8bb
00000090: afa3 2b3e 8515 5dbb 3dd7 a8bc 21a6 893c
000000a0: 357c a2bd 344a b4bd 3383 37be 1fe6 9e3d
000000b0: 94cb 1e3e 00e3 6bbd 38af 07be 7ffc e7bc
000000c0: 3276 913d f3cd fe3d 82d8 513c d9ea 97bd
000000d0: b37f f5bd 127d cc3d 446d d73d 03e5 413e
000000e0: 8238 bb3c 6f92 20be 7f00 0cbc 94a4 49bd
000000f0: 641c b3bd 9cc1 083d 90c4 df3c ad72 82bc
00000100: 89dd e93d 57ca 923c f997 27bd ddd4 5bba
00000110: d094 643d e205 5dbb 75bb c4bd 2954 94bd
00000120: bb62 df3d f149 87bd e078 ed3d eb0f 033e
00000130: a7e0 20be 64fb e2bd f7e5 27bb 05bc 1cbe
00000140: 3e97 d43d 9f6c f4bd 8894 05be 0cfa 75bc
00000150: 9d1d 74bb aa24 bc3b 320b 183e e48a cd3d
00000160: 1b0c 3c3e c040 d0bd e1a0 b73d e1cc 4b3d
00000170: beb6 2dbc 3264 cebc a91f 0bbe d591 d1bc
00000180: 8ad1 2c3e a4f8 eabd 51b6 1c3e ded3 1f3e
00000190: f667 263e 224d 96bd d834 c13c 4943 823d
000001a0: 0a3e 0ebe e139 80bd 8171 2bbb 808b 0a3d
000001b0: 1caa 413c c8e0 7abc 3a88 983d 5d1e cbbc
000001c0: 60b8 b7bd 8ca4 17be cb8d c93d 0e4d ee3d
000001d0: 47cc 0dbe e60c 083e 8f62 cfbd d040 d43d
000001e0: d45f 893d 234f ff3d 6cfb 1b3e 33a5 03be
000001f0: e957 233e 5825 c7bd bf2a 023d a90e e93d
0.03877699 0.12779497 -0.027038213 0.15926324 -0.11577288 -0.122456186 0.038224533 -0.033212245
-0.090278536 -0.09872552 -0.13054082 -0.071477436 0.17892335 0.059196677 -0.15897128 -0.0029735393
-0.1163513 0.05306578 0.084871136 0.13203727 -0.036342118 -0.03500445 0.13366486 0.10624898
-0.024955226 0.13986939 -0.17689134 -0.16862282 0.14928876 -0.021439908 0.12776414 0.059933763
0.03189781 0.06561806 -0.086261354 -0.0061218585 0.16761659 -0.003373475 -0.020610446 0.01680285
-0.07933847 -0.088032156 -0.17921142 0.07758736 0.15507346 -0.05758953 -0.13250434 -0.028318642
0.07102622 0.124416254 0.012807967 -0.074178405 -0.11987247 0.09984793 0.10518888 0.18935017
0.022854093 -0.1568086 -0.00854504 -0.04922922 -0.087456495 0.033387765 0.027315408 -0.015923822
0.114192076 0.017918749 -0.040916417 -0.0008385906 0.05580598 -0.003372543 -0.09606067 -0.07242615
0.10907503 -0.066059 0.11595321 0.12799041 -0.15710698 -0.11083105 -0.0025619247 -0.15306099
0.1038041 -0.1193478 -0.13044941 -0.015013229 -0.0037249096 0.0057416754 0.1484802 0.10036257
0.18363993 -0.101686 0.08966232 0.049755935 -0.010602651 -0.025194261 -0.13586296 -0.025582233
0.16876808 -0.11473206 0.15303923 0.15608165 0.16250595 -0.07338931 0.023584768 0.0636049
-0.13890854 -0.062610395 -0.0026160183 0.033824444 0.011820342 -0.015312381 0.07447858 -0.024794752
-0.089707136 -0.14808863 0.09841498 0.11635791 -0.13847457 0.1328617 -0.101262204 0.103639245
0.06707731 0.12466266 0.15232629 -0.12855987 0.15951504 -0.0972392 0.031779047 0.11379749

encoder.lstm.weight_ih_l2 f4 [128, 32]
00000000: f587 6e3d 58dc 283e e630 2f3e 6578 81bd
00000010: 31ec e3bd 614b ac3d 6dc5 cf3d bee0 353e
00000020: 49c7 9f3d 27fa e8bc da78 203d df02 2c3d
00000030: 5b4a 23be 30f4 28be 2284 34be 94c4 cc3b
00000040: 105c e73d 8989 9cbd 9a95 d0bd eb9b 5abd
00000050: 24ff 7ebd 685d 1dbe d1f3 58bd 8772 c13d
00000060: d24c 06be f372 d7bd 2834 1d3e c9dc a7bd
00000070: a680 063e 569e 053e 5728 243d d0e1 ef3d
00000080: 157f e33d 508c fe3d 64d4 5e3d 9a94 dd3d
00000090: 61ae f2bd 392e 803d a246 f8bd 41a8 d2bd
000000a0: f359 2fbd 28b5 2f3e c42f 3ebc d2da 253d
000000b0: dd91 bc3d 8973 eebd ea32 873c 736f 0b3e
000000c0: d680 c93d 1a83 f3bd 466c 3cbe 46c7 373d
000000d0: a669 14be 74f8 a4bc eb11 09be 736c 003d
000000e0: 9b5a 3ebd efb7 2d3e 24f1 27be 54a1 e13b
000000f0: ccd9 133c 8139 86bc 41f1 aa3d e5cb afbd
00000100: 59bb 3ebe d65d d43d 0dea 233d a6a3 c13c
00000110: d72a ee3d 5ae8 b1bd 3dad 2b3e 945b 1dbe
00000120: ffac e7bd d14f c73d 4bc2 003e d02f 30be
00000130: 6923 a2bd 0343 ce3d 4eaf ad3d 4664 47bd
00000140: acd5 88bd da30 e5bd e75f bfbd 1596 3b3d
00000150: 4399 e03d 4a6e d0bd 77c5 8abb fcac b23d
00000160: a9f6 03be ead5 fd3d 41c9 02be 3bfb 4e3d
00000170: e31d 203e 6be5 cb3d 8c74 febc 385d 0b3e
00000180: 2c74 f73d a38b 13be fc4d 74bc 189a 213e
00000190: 9308 1dbe 59d2 b13d 59d0 fb3d b709 caba
000001a0: c8fa dd3c 9bd7 fdbc 466a 2cbe cc22 35be
000001b0: f0a5 8a3c a877 8d3a 9e20 a5bc b468 b33d
000001c0: 7746 a23d 6108 df3d d71d 103d 15ca 1fbd
000001d0: 53e3 883d 339b 05be 3226 d8bd eaf6 0dbe
000001e0: 0976 ecbd 18cc e1bb c2d7 533d 4c37 66bb
000001f0: 672e 78bd 630b 64bc 7440 13be bdad 45bd
00000200: 63e9 6a3d 3fd5 2f3e 1b18 b4bd 673f b1bd
00000210: beff 17be 76db 7c3c 26a9 51be 21ef 07bd
00000220: 7529 f7bd 6d3a 1fbe fc57 8cbc c11b f23c
00000230: 8844 133e d476 48be 45d8 e8bd 0421 073e
00000240: 91e9 353e c36e 43be d976 3d3e 65d7 fd3d
00000250: 5326 833d c596 863d 72e1 02be 4dfb 39bd
00000260: d1fa 4b3e a9ab 8a3c 62a6 70bd 0507 d4bd
00000270: c7cb 05be 3bbb fcbd 83da 49be ca37 c93b
00000280: d1ab 1d3e 494b e9bd 9613 1f3d 36b1 2cbe
00000290: d909 b33b d22b 96bd 19cc 17bd 5d84 1e3d
000002a0: 0915 d33c 767a 18be eecf f73c f371 73bd
000002b0: dd02 aabb 9c84 1a3e d27c ea3c 2318 5b3b
000002c0: 3936 9cbb 5331 33be 6aa8 2a3d f788 bb3d
000002d0: 5e6c f73d 7d9f 1b3e ed72 263d 285f 17be
000002e0: 816d 7f3d 8089 693d 761c 24be 419c 0abe
000002f0: 8ad8 c6bd ff5d 533d 2151 b13c 87f7 073e
00000300: b12a 9c3d 3b79 4e3d 5159 d23d 49e5 cbbd
00000310: 6d99 5bbd 7739 f93d 1ead 0cbe 194c 733d
00000320: 3224 053e b743 883d f487 f83c 1c58 e0bc
00000330: 30b5 123d 3a3a 1bbd 80d4 eb3d 692c 253e
00000340: 5a5b 13bd 5ffb e5bd 32c3 38be 6bea e4bd
00000350: 7c6f 7dbd f8ee 6a3d 2216 a13c cc76 0c3e
00000360: 56d8 8b3d 8d70 4a3d e1c4 a83d c175 213e
00000370: ff12 c1bb 4058 49bd 974b 0ebe ea24 233d
00000380: 0c6d 913d 29e0 9f3d 11cf e63d f3f0 b5bd
00000390: 38e3 dcbd 5896 003e 5c0a 063e 4cbb 273e
000003a0: f5f0 8abd 12e0 f43c 70c8 c8bc 9ab9 353d
000003b0: 2fcb 813d 317f 9abd a0e1 60bd 7eb5 b3bd
000003c0: 09a1 ccbd 3b7f af3d 75a7 24bb c9bf 04bd
000003d0: 541a c7bd aaef 1f3e 52d0 a4bc 0548 0b3e
000003e0: 0826 31bb 0630 3c3d 0198 e5bd f450 b03d
000003f0: 7be3 38be ad90 aabd 4a10 8c3d 1434 e93d
0.058235127 0.16490304 0.17108497 -0.063217916 -0.11129034 0.08412815 0.10145078 0.17761514
0.078016825 -0.028439594 0.039177753 0.041994926 -0.15946333 -0.164994 -0.1762853 0.00624902
0.112968564 -0.0764342 -0.10184784 -0.05337135 -0.06225504 -0.15367663 -0.052966896 0.094456725
-0.13115242 -0.10519972 0.15351927 -0.08196408 0.13135013 0.13048682 0.040077534 0.11712992
0.11108223 0.12429106 0.05440177 0.10819359 -0.118496664 0.06258816 -0.12122847 -0.10285998
-0.04281039 0.1715895 -0.011608068 0.040491886 0.09207509 -0.1164313 0.01650377 0.13616733
0.09839027 -0.1189024 -0.18400678 0.044867776 -0.14493427 -0.020138003 -0.13385741 0.031353425
-0.046473127 0.16964696 -0.16400582 0.006885687 0.009024095 -0.016384842 0.08346797 -0.08583812
-0.18626155 0.1036946 0.04001813 0.023637604 0.11629265 -0.08686896 0.16765304 -0.15366966
-0.11312293 0.09732021 0.12574117 -0.17205739 -0.0791691 0.10071375 0.08480702 -0.048679613
-0.0668138 -0.11190958 -0.09344464 0.045797426 0.10966732 -0.10177286 -0.0042349654 0.087244004
-0.12887062 0.123943165 -0.12772085 0.05053256 0.15636401 0.099558674 -0.031061433 0.13609779
0.12082705 -0.14408736 -0.014911171 0.15781438 -0.15335302 0.08682699 0.122955985 -0.0015414272
0.02709712 -0.030986598 -0.16837415 -0.17689055 0.016924828 0.0010793107 -0.020157155 0.08760205
0.07923596 0.1089027 0.035184707 -0.03901108 0.06683984 -0.13047485 -0.1055416 -0.13863721
-0.11545951 -0.006890785 0.051719435 -0.0035128174 -0.060591128 -0.01391873 -0.14380056 -0.048261393
0.05735148 0.1717119 -0.0879366 -0.08654671 -0.14843652 0.015433183 -0.20474681 -0.033187035
-0.12068454 -0.15549631 -0.017131798 0.02955425 0.14381611 -0.1957658 -0.11369375 0.13196188
0.1776488 -0.19085221 0.18502368 0.12394599 0.06403794 0.06571726 -0.12781313 -0.045405675
0.19919898 0.016927557 -0.058752425 -0.10352901 -0.13066016 -0.12340399 -0.19712262 0.006140684
0.15397574 -0.11391313 0.038837038 -0.16864476 0.0054638204 -0.07332577 -0.037059877 0.03870045
0.025766866 -0.14890465 0.030250516 -0.059434842 -0.0051883296 0.15089649 0.028623972 0.0033431135
-0.004767206 -0.17499284 0.04166452 0.09156983 0.12081216 0.15197559 0.040636946 -0.14782393
0.06236029 0.057015896 -0.16026482 -0.13536169 -0.0970927 0.051603314 0.02164513 0.13278018
0.0762533 0.050408583 0.10270942 -0.09955842 -0.053613115 0.12169164 -0.13737914 0.059398744
0.13002089 0.066535406 0.030338265 -0.027385764 0.035817325 -0.037897326 0.115151405 0.16130222
-0.03597579 -0.11229586 -0.18043211 -0.11177524 -0.061873898 0.057356805 0.019663874 0.13717192
0.06828372 0.049423743 0.08240677 0.15767576 -0.005892157 -0.049156427 -0.13896023 0.039830126
0.07100877 0.07806427 0.112699635 -0.08883848 -0.10785526 0.12557352 0.1308989 0.16380042
-0.0678424 0.029892001 -0.024509639 0.044366457 0.06337582 -0.07543791 -0.054902673 -0.08774851
-0.099916525 0.08569189 -0.0025124226 -0.032409463 -0.097218186 0.15618768 -0.020118866 0.13601692
-0.0027030725 0.045944236 -0.11210633 0.086091906 -0.18055527 -0.08328376 0.068390444 0.11386886

encoder.lstm.weight_hh_l2 f4 [128, 32]
00000000: 267c db3c 011b f33d 1e82 133e b221 1dbe
00000010: 95be f5bd e474 bebd ff9c 8bbc dddf fa3c
00000020: 4583 19be b7a3 a93b bbbf 023d 6103 39be
00000030: c503 44be 7ae1 43be 712e fc3d fe37 7bbd
00000040: 199b e63d a70b 93bd 8e6d eebd eb1c 15be
00000050: 3a5e 84bd 527d b93d 6f20 0bbb 98ef 223e
00000060: f14a c83c 7dac 0b3e 267d d03d e660 d03c
00000070: 8b6d 0c3e 46cf e5bc fc94 4c3d 1969 ee3b
00000080: 25ad a63d fecd 20be 2d08 b13d f0d2 b03c
00000090: 726b dbbd aa83 12be 4d57 efbd 408e 1fbe
000000a0: f849 d43c b0d3 efbd 7dba 8a3d c0fc 34be
000000b0: 8258 0ebe 6b05 843d 4a48 033e 23b2 253e
000000c0: f3b6 c43b ebd4 22bd 789e 24bc b97b abbd
000000d0: cf15 833d cf30 2bbe fadd 07be 6b14 eb3d
000000e0: 1047 96bd cc1b 243e 34df 283e 63a5 6f3d
000000f0: 5178 2b3e 716e 383e 361a f03d a4d8 b53d
00000100: 990e 313c 95a7 0cbd 62ff f13d c514 dabb
00000110: fd66 15bd fdb7 f5bd db71 76bd e61a c8bd
00000120: a687 25be 42e8 c53d 84de cfbd dff3 1dbe
00000130: d766 073e 873a 393d 2095 03bd d58b ab3b
00000140: caa6 d1bd 74d1 6a3d bcc3 0dbe 7276 0b3e
00000150: e219 b3bd 99a6 41be 89f0 d5bd 6c4a 95bd
00000160: 2d20 043e 534a 5ebb aa34 f93d 8aaf b33d
00000170: 71a4 d4bc ae10 c03d 52f8 e6bc 1c42 5fbd
00000180: 0be2 6fbd d5df de3d 9b1a 00be 94e6 a7bc
00000190: 11b3 a7bd 018b cf3d 201b 2b3e a568 c3bd
000001a0: 83e6 ee3d e728 70bd 5033 00be 1250 f13d
000001b0: 0d13 31bc ce39 923d bb17 9bbc 9e3a 933d
000001c0: fc32 cf3d 2a82 32bd 453a b6bc b2d3 313d
000001d0: 6422 1bbe 51b1 de3d a397 5dbd 64eb 6abd
000001e0: 6db1 f5bd 281f 0a3e 0ae1 803d 57cf 343e
000001f0: cea2 12be e252 21be 2231 093e f3fa b3bd
00000200: 8a29 1cbe fbfa bb3d d0bf 893d 0544 dabd
00000210: 2bb7 7f3d 0aa7 08be 9b38 2bbd a2b6 c23d
00000220: bd12 05be 588e ccbc c778 4f3e d792 2a3e
00000230: c8b9 023e c371 1f3e d545 97bd cef0 373e
00000240: 991b 063e 5a4a 8c3d 643a acbb b282 fbbc
00000250: 893e 8cbd e37a 053e 3025 a83d 780b 453c
00000260: 61ca 11be 7ef8 973d bb7c 533e 0291 a3bd
00000270: 563c c23d f765 933d 68c2 e83c d9f5 f2bd
00000280: 5b99 0d3e 311e 2cbe d557 21be 2ecc 0cbe
00000290: d302 993d d8ac dabd c073 2ebe b0f0 0bbe
000002a0: 5019 993c 9698 f3bd 6460 12be 1c7c 7cbd
000002b0: d08b c93d 9937 023e 03a5 8c3b 0b90 94b8
000002c0: f4be f8bd 7e28 83bd 9d78 f43d deb7 533e
000002d0: 84b9 4fba 0ace 1bbe 5552 a63b c6c2 6b3d
000002e0: 1c59 193e 45e1 93bc 47dd 96bc c42f 143e
000002f0: 0260 063d a975 bdbc fead c1bc f753 0cbe
00000300: 7d5d 723d 4430 06be 680c 2a3e a651 cfbd
00000310: c5d9 ea3c ca4d 6e3c 78e8 473d 9dfc 643d
00000320: 0f52 953d 92b8 d83d 8054 533d 42ad ecbd
00000330: 08ff f2bd 237d dbbd 06c5 313e 764c cd3d
00000340: 081a c03d 0193 2d3e e5f2 f33d ade3 8dbd
00000350: 46ae b03d f639 903d 1636 07be 58da 89bb
00000360: 8425 e83d 59e3 d7bd 5df6 47bd 6d34 c33d
00000370: ec6f 843d f2c7 a5bd 6bb8 e0bd 3256 76bb
00000380: d40d bd3d 8daf 1fbe 90d7 a33a bc5a e53d
00000390: 99cf 0d3e 46e6 163e 0ee0 19be 9dd8 80bd
000003a0: 8f03 de3c ae44 1b3d 690a f4bc aec9 0b3e
000003b0: bcf5 c63d b51b 253e d54d be3d c5db 0ebe
000003c0: e059 83ba a006 0abe f10c a7bd c31e 023e
000003d0: 56d8 293e 10cb 34bd 12cc af3d 9eb7 88bd
000003e0: f47c 8ebd f634 eebd 3ca2 3fbd 0dc6 263e
000003f0: 94b2 bbbd 1536 0cbe c46c 5a3d 667b 84bd
0.026792597 0.11870385 0.14405105 -0.15344885 -0.11999241 -0.09299639 -0.017042635 0.030624324
-0.14991482 0.005176987 0.03192113 -0.18067695 -0.19142063 -0.19128981 0.123135455 -0.061332695
0.11260051 -0.07179957 -0.1164199 -0.14561813 -0.06463285 0.09057106 -0.0021229049 0.1591171
0.024449797 0.13640018 0.1018012 0.02543683 0.13713662 -0.028052937 0.04994677 0.007275712
0.081384934 -0.1570358 0.086441375 0.021584958 -0.10713853 -0.14308038 -0.11686573 -0.15581608
0.025914177 -0.11710298 0.06773851 -0.17674541 -0.1390095 0.06446346 0.12820545 0.16181235
0.0060032546 -0.039753836 -0.0100475475 -0.083732076 0.06400644 -0.16717838 -0.13268271 0.11478504
-0.07337773 0.16026229 0.16491395 0.058507334 0.16745116 0.1801088 0.11723749 0.088792115
0.010806703 -0.034339506 0.118162885 -0.006655308 -0.03647517 -0.119979836 -0.060167175 -0.097707555
-0.16165027 0.0966344 -0.10149863 -0.1542506 0.13222824 0.04522183 -0.03212464 0.005235175
-0.102368906 0.057328656 -0.13844198 0.13619402 -0.08745171 -0.18911208 -0.10446269 -0.072895855
0.12902899 -0.0033918812 0.12168248 0.08773716 -0.025957318 0.093781814 -0.02819458 -0.054506406
-0.05856518 0.10882536 -0.12510149 -0.02049569 -0.08188451 0.10133935 0.16709566 -0.09541444
0.1166506 -0.058632758 -0.12519574 0.1178285 -0.010807765 0.071399316 -0.018932214 0.07188915
0.101171464 -0.043581165 -0.022244582 0.04341478 -0.15149838 0.10873664 -0.05409969 -0.057353392
-0.11996732 0.13488448 0.06292923 0.17657219 -0.14319918 -0.15754274 0.13397649 -0.08788099
-0.15250221 0.0917873 0.067260385 -0.10657505 0.062430542 -0.1334497 -0.04180203 0.09507491
-0.1299543 -0.024970219 0.20260917 0.16657577 0.12766182 0.1557074 -0.07386366 0.17962953
0.13096465 0.06850119 -0.005255984 -0.030701969 -0.06847865 0.13035159 0.08210218 0.01202666
-0.14237358 0.07420443 0.2065305 -0.079866424 0.094841644 0.071971826 0.028413013 -0.11863298
0.13828032 -0.16808392 -0.15756162 -0.13749763 0.07471242 -0.106774986 -0.17036343 -0.13666034
0.018688828 -0.11894338 -0.14294583 -0.061641797 0.0984112 0.12716521 0.004292132 -7.08402e-05
-0.121457964 -0.06404208 0.11937068 0.20675609 -0.00079240673 -0.15215316 0.0050757327 0.057558797
0.14975399 -0.018051753 -0.01841606 0.14471346 0.032806404 -0.023127394 -0.023642536 -0.13703905
0.05917119 -0.1310435 0.16606295 -0.10122995 0.028668294 0.014544914 0.048805684 0.055904973
0.07291042 0.10582079 0.051594257 -0.11556484 -0.118650496 -0.10717227 0.17360315 0.100243494
0.09379965 0.16950609 0.11911563 -0.06928191 0.0862699 0.07042305 -0.13204226 -0.004206937
0.113352805 -0.1054141 -0.048818935 0.09531484 0.0646666 -0.08094777 -0.10972675 -0.0037587998
0.09231153 -0.15594311 0.0012500156 0.11198947 0.13848723 0.1473628 -0.15026876 -0.06291316
0.027101306 0.037907295 -0.02979012 0.13651153 0.09714839 0.1612385 0.09292189 -0.13951023
-0.0010021292 -0.1347909 -0.08156765 0.12707047 0.16586432 -0.044138968 0.08583845 -0.06675647
-0.06957427 -0.11631195 -0.046785578 0.16286488 -0.091649204 -0.13692506 0.053326383 -0.06468849

encoder.lstm.bias_ih_l2 f4 [128]
00000000: 6305 a63d 3c11 b23d d2f8 3c3b 24f2 243e
00000010: 96e4 e9bd e777 8c3d 76bd 0fbd 9c27 a53d
00000020: 9f9b 4dbd 3e67 9fbd 657d d4bd b7e6 adbd
00000030: 986e bb3d 5f7c 16be b9c0 a33d 8ffb e63c
00000040: 4259 23bd da7d 043e 749a e9bd 9d49 f83d
00000050: 0389 0cbe 7013 003d 067a f83d e9dd b43d
00000060: 470c 8cbd a9de 09be efc3 283e a098 a1bd
00000070: be4b 933d 488f 18be 7055 bebd 16ef 703d
00000080: 0fad 33be f9a8 07be 5465 21bd 8645 273e
00000090: cb40 533e 6741 17be 0102 3abd 67a0 d03d
000000a0: ed7a c6bd d5e5 c63d a0b1 2a3e 3082 1b3d
000000b0: 928f 9bbc 7b7c 143e e60a b23d 92d8 1dba
000000c0: 2b10 993d 37c7 1ebe 20ce 263e ead4 ecba
000000d0: df85 ebbd cef8 823d 6773 aa3d ac7f 10be
000000e0: 9e75 953d 9e2e 553d 2196 173e cee5 39be
000000f0: 9ffb c7bc 0db5 393c 9750 28be 59ef 673d
00000100: 753f 19be c274 633d 6524 153e 7b23 a93d
00000110: 6855 983d 3452 f33d edb4 9ebd 61e5 d83d
00000120: 10fd b13d 7be5 1d3e 3318 093e 7250 333e
00000130: 79dc 5a3d f761 b13d f807 acbd b589 bc3d
00000140: 2bd6 8f3b 8cc1 f33d c3c7 5ebd de6f 033e
00000150: 9c38 64bd 2d89 5b3d 1626 85bd 55fb 033e
00000160: 812d 873d ade0 913d bfb9 8d3d f3b2 cb3c
00000170: e97d 783d 9138 8b3d 533b 043d 3118 bbbc
00000180: 04b9 51bd 06bb 03be 79e8 033e c1dd a93d
00000190: c5cf 4dbd 58b5 93bd 2e56 bebd 8439 8b3d
000001a0: 0ae0 09be 4402 8bbd 0d21 42bd a039 d23d
000001b0: 1e87 f1bd 8f3f cc3c 1692 6b3d 2b09 cfbd
000001c0: d23f 3ebc 6e1a f93d 5027 9dbd c4d6 e2bd
000001d0: 9ce0 2dbc 5b0f ae3d 35ca 74bd 63e9 df3d
000001e0: bdca 2bbe 6d2c cdbd 1213 0fbe 5c7e f43d
000001f0: 519c 913a 7320 6bbd 5570 fe3c 7623 edbd
0.08106496 0.086946934 0.0028834832 0.16107994 -0.114205524 0.06858807 -0.035092793 0.080641955
-0.05019724 -0.07783364 -0.103754796 -0.08491271 0.091519535 -0.14695881 0.07995743 0.028196124
-0.039880045 0.12938634 -0.11406413 0.121234156 -0.13724141 0.031268537 0.12132649 0.088313885
-0.06838279 -0.13463844 0.16480993 -0.07890439 0.07192181 -0.14898407 -0.0929364 0.05882176
-0.17546485 -0.13248052 -0.039403275 0.16335115 0.20630185 -0.14771043 -0.045412067 0.10186844
-0.09691415 0.09711806 0.16669321 0.037965953 -0.018989358 0.1450061 0.08693485 -0.0006021346
0.07473787 -0.15505682 0.16289568 -0.0018068824 -0.11500143 0.06395112 0.083227925 -0.14111203
0.07297824 0.05204641 0.14803363 -0.1815407 -0.024411974 0.01133467 -0.16436993 0.056624744
-0.14965613 0.05553127 0.14564665 0.082587205 0.07438165 0.118809134 -0.077493526 0.105906256
0.08690846 0.15419571 0.13388138 0.17511156 0.053432915 0.086612634 -0.083999574 0.09205953
0.0043895445 0.119021505 -0.054389726 0.12835643 -0.05571805 0.053597618 -0.06501405 0.12888844
0.06600476 0.07122932 0.06920194 0.024865603 0.060666952 0.067978986 0.03228314 -0.022838684
-0.051201835 -0.12864313 0.1288165 0.08294249 -0.050246973 -0.07212323 -0.09293781 0.067980796
-0.1346437 -0.067875415 -0.0473948 0.10264897 -0.1179335 0.02493265 0.057512365 -0.101091705
-0.011611896 0.12163244 -0.07673514 -0.110761195 -0.010612633 0.084990226 -0.059763152 0.10933187
-0.16776557 -0.10018239 -0.13972118 0.11938164 0.0011109208 -0.057403993 0.031059423 -0.11579029
