Seattle Weather/lstm_wgan/G.pt (torch, 313567 bytes, 41 tensors)

encoder.lstm.weight_ih_l0 f4 [128, 1]
000000 5f c9 5f 3f e6 c4 51 bf 9f c6 06 3f d6 77 9a 3f
       0.8741664 -0.8194107 0.5264682 1.2067821
000010 ef 4f 95 bf 24 fa 99 bf fa 2e 71 bf a2 be a7 3f
       -1.1665019 -1.2029462 -0.94212306 1.3105052
000020 c8 51 b0 bf be 77 66 3e c0 93 d2 be 5f 86 e1 3f
       -1.3774958 0.22506616 -0.4112835 1.7619132
000030 a2 0d 93 3f 52 61 84 bf d9 27 1b bf 6b aa e7 be
       1.1488535 -1.03422 -0.6060768 -0.45247206
000040 03 c3 20 bf 81 7c 80 be 32 ed a0 bf 3d 25 a8 bf
       -0.62797564 -0.2509499 -1.2572386 -1.3136364
000050 d4 73 3e bf 85 73 9c 3e a2 89 93 3f 42 c0 bc bf
       -0.7439549 0.30556884 1.1526377 -1.4746172
000060 a6 62 f4 3e c5 5f 80 bf c3 8b b8 3f 49 d8 11 3f
       0.47731513 -1.0029227 1.4417652 0.5697065
000070 c6 2d cd 3f c9 a0 17 3f fe e3 da bf cb 39 9e bf
       1.6029594 0.59229714 -1.7100828 -1.2361387
000080 ec 41 5c bf 78 50 c3 be ad a1 96 be c5 7f 4e 3f
       -0.8603809 -0.3814733 -0.29420224 0.8066371
000090 84 cd b7 3f c4 8f 8d bf 5d 3c c1 bf a6 2e 90 be
       1.4359593 -1.1059499 -1.5096546 -0.2816059
0000a0 51 b7 2c 3d 14 1b 49 3f f8 e3 9d bf fa 8d ce bf
       0.04216701 0.7855694 -1.2335196 -1.6137078
0000b0 cd f0 43 bf bc 24 bc bf fd e5 a3 3e 59 68 de bf
       -0.7653931 -1.469871 0.32011405 -1.7375594
0000c0 40 f0 8b bf 62 9f 46 3f 5e 85 b8 3d 5e c3 b0 bf
       -1.0932693 0.7758695 0.09009813 -1.3809621
0000d0 8d 4c d2 bd 47 6b 73 3d 65 e9 a4 3e 06 a5 c0 3f
       -0.10268507 0.05942848 0.32209316 1.5050361
0000e0 cb 0a aa 3f 09 16 98 bf 07 54 85 3f be 5d 56 bf
       1.3284544 -1.1881725 1.0416268 -0.8373679
0000f0 99 db be bf fe cc 36 3f aa 8f cc 3f 7d 8f 66 3f
       -1.4910766 0.71406543 1.5981343 0.90062696
000100 27 9b e6 bf 9f 17 3a 3f 2e bb e2 bf b4 c6 7f bf
       -1.8016099 0.7269229 -1.7713373 -0.9991257
000110 a2 38 e6 3e 3c 1c 12 3e 4f 47 01 3d f2 ba bc 3f
       0.44965082 0.14268583 0.031562146 1.4744551
000120 89 a4 cf 3f 6e 3f 16 be 43 11 5e bf b3 c0 a0 bf
       1.6222087 -0.14672634 -0.8674509 -1.2558807
000130 1d f0 34 3f 3d 88 40 bf a9 b1 2c bf 51 ab 76 bf
       0.70678884 -0.75207883 -0.6745859 -0.9635516
000140 b8 47 b0 3f 6a 62 a1 3f 8d d0 61 3f b1 a0 8c bf
       1.3771887 1.2608159 0.8820885 -1.0986539
000150 0b c6 c8 bf 73 b0 85 bf ce ae 35 bf 94 9f 78 bf
       -1.5685438 -1.0444473 -0.70969856 -0.97118497
000160 f6 87 95 3f 13 fc b4 bf 28 7e 54 3f 06 e1 79 3f
       1.1682117 -1.4139427 0.83005 0.97608984
000170 48 a2 87 3f 86 d2 87 3f c5 a2 b3 3d 02 e3 ec be
       1.0596399 1.0611122 0.0877128 -0.46266943
000180 d6 aa 9e bf 4c 53 22 3d cc 10 3e 3f a3 fa 74 bf
       -1.2395885 0.03963022 0.7424438 -0.9569494
000190 e0 bb 96 bf ef e8 30 bf 3d e3 cc 3e e7 1d d8 3e
       -1.1776085 -0.6910543 0.4001712 0.42210314
0001a0 04 de 96 bf 0a 28 bd bf 1d af a6 be 84 9c 1c 3f
       -1.1786504 -1.4777844 -0.32555476 0.61176324
0001b0 27 17 81 bf 71 ac 99 3f fa 4d 62 3d 6a fe 64 bf
       -1.008519 1.200575 0.055250145 -0.89450705
0001c0 3a ea d5 bf 9b 55 d8 3f e5 73 2c 3f d9 5a 89 3f
       -1.6712105 1.6901125 0.6736434 1.073085
0001d0 d9 fa 4d bf 78 7e d0 3f 70 52 de bf 5a 17 80 3f
       -0.8046089 1.6288595 -1.7368908 1.0007126
0001e0 ae 77 cf 3f 54 70 1c 3f 82 62 ab bf 05 ac 07 be
       1.6208398 0.611089 -1.3389437 -0.13249214
0001f0 fd 2b 93 be 39 05 03 be a1 d2 81 be 22 00 6f bf
       -0.28744498 -0.12794961 -0.2535601 -0.9335958

encoder.lstm.weight_hh_l0 f4 [128, 32]
000000 59 77 ad bf a3 a8 d8 3f bd c0 9f 3f 11 15 4a 3f
       -1.3552047 1.6926464 1.2480694 0.78938395
000010 00 9a 23 3e cf 33 18 3f f5 96 b3 3f ca aa c6 3e
       0.15976715 0.59454054 1.4030443 0.38802177
000020 16 be 09 bf 7f 6a 25 3e 74 e5 0e 3e cf 9a ef be
       -0.53805673 0.16153906 0.13954717 -0.46797797
000030 52 62 81 3f c3 5a b3 be df 3f 3f 3f 32 ff 96 3f
       1.010813 -0.35030183 0.74706835 1.179663
000040 60 2c d6 bf e7 ee d1 3d a9 c1 ac bf 8e 60 ff be
       -1.6732292 0.10250645 -1.34966 -0.49878353
000050 8a 53 d1 3f 3e 57 03 3f 22 c4 b6 3f be ff 49 bc
       1.6353619 0.51304996 1.4278605 -0.01232904
000060 00 39 c3 3f 75 9e a3 be cf 2b e1 3f 1c 01 b9 bf
       1.525177 -0.3195683 1.7591494 -1.4453464
000070 dc e8 9d 3f e3 56 22 be 92 84 23 bf 23 88 77 bf
       1.2336688 -0.15853457 -0.6387416 -0.96692103
000080 d5 f3 56 3f dc 97 7e bf 4d 1e 18 3d 67 48 d4 bf
       0.8396581 -0.9945047 0.037138272 -1.6584595
000090 b7 01 95 3f b1 72 52 bf b9 e9 03 3e b4 4e 19 3e
       1.1641148 -0.82206255 0.12882127 0.14971429
0000a0 95 25 fb 3e d3 0e 8c bf ff 5f 43 bf 86 43 51 bf
       0.4905211 -1.0942024 -0.76318353 -0.8174366
0000b0 a3 21 88 3f 89 b2 fb be d3 dd 7e 3f 3c 1b 82 bf
       1.0635265 -0.4915965 0.99557227 -1.0164561
0000c0 7b 75 9d bf 6c 4f c7 3f 4d 4e 19 bf c7 35 96 3f
       -1.2301477 1.5571113 -0.598851 1.1735162
0000d0 e6 c2 83 bf 4f 21 cf 3f 72 28 36 bf 88 fe 41 bf
       -1.0293853 1.618204 -0.71155465 -0.7577901
0000e0 26 b0 be bf b0 a3 64 3f 6f 6b dd 3e 63 ba a3 bf
       -1.4897506 0.8931227 0.43246028 -1.2791256
0000f0 18 fe ca bf 75 2f d5 3f a1 c4 c6 3d 73 18 98 3f
       -1.5858793 1.6655108 0.09705473 1.1882461
000100 ba 8f a2 3f 4a ce c9 3f 29 4c de 3e 65 60 87 3f
       1.2700112 1.576608 0.4341748 1.0576292
000110 66 f6 74 3f 65 9d 8f 3f 51 42 ee 3e 72 70 b8 3f
       0.95688474 1.1219908 0.4653497 1.4409316
000120 a6 35 de bf 7d 9f 55 bf 54 27 5a 3f 24 82 b6 3f
       -1.7360122 -0.83446485 0.8521626 1.4258466
000130 d1 ed 01 bf 39 c9 e7 3e 3c ff 9c 3f dc a3 c2 bf
       -0.50753504 0.45270708 1.2265391 -1.5206256
000140 65 ad c0 3d 52 d4 5f 3f 35 04 50 bf 78 5e c2 3f
       0.094080724 0.8743335 -0.8125642 1.518508
000150 2c 61 bb bf a0 41 00 bf bb c5 16 bd 7d 18 0c 3f
       -1.463903 -0.50100136 -0.036809664 0.54724866
000160 51 db 07 3f f8 76 c2 be 99 19 30 3f ae 19 24 3f
       0.53069025 -0.3798139 0.6878906 0.64101684
000170 4c 5e ad 3f 90 cb d6 3e 0c 70 4b bf 4e 32 d4 bf
       1.3544402 0.4195218 -0.79467845 -1.6577852
000180 13 0a 89 bf b9 a7 d7 3e 27 65 82 3f 3c d2 9e bf
       -1.07062 0.4212015 1.0187119 -1.2407908
000190 e9 dd d3 3f 0f f5 aa bf fa 0b 15 3e d4 35 1c be
       1.6552097 -1.3356036 0.1455535 -0.15254909
0001a0 f2 be 40 3f c6 fc 82 3f 30 1b c7 3f 7d 76 37 bf
       0.7529136 1.023339 1.5555172 -0.71665174
0001b0 77 62 1c 3f 97 23 94 bf 2e 66 0c 3f c9 df 94 3f
       0.61087745 -1.1573361 0.54843414 1.1630794
0001c0 df 8d d1 3e 66 8e 90 bf c6 4e 8d 3e 5c e8 d0 3f
       0.40928552 -1.1293457 0.27599162 1.632091
0001d0 c4 af 86 3d 16 7c 8e 3f 3d 27 9b bf 5b 91 88 bf
       0.065764934 1.1131618 -1.212135 -1.0669359
0001e0 54 78 5a 3f 60 db f6 3e a0 f2 ac bf 74 05 d2 3f
       0.85339856 0.48214245 -1.3511543 1.6407914
0001f0 9e d7 73 bf 94 b8 97 be 65 fa 7d be a7 61 b3 bf
       -0.9525088 -0.2963301 -0.24802549 -1.4014176
000200 e4 48 17 3f dc 7c b5 bf 9b 2a c5 3f de da 15 3f
       0.590956 -1.4178729 1.5403627 0.5853709
000210 26 7f a2 3e 3f b5 38 bf 06 1d c8 3f b9 a8 39 3f
       0.31737632 -0.7215156 1.5633857 0.72523075
000220 8d ce d4 3f aa 0f 65 bf 80 54 a5 bf af ab 8c 3f
       1.6625534 -0.89477026 -1.2916412 1.0989894
000230 f7 c8 9f bf b0 4e e0 bf cc 4b 1e 3f 1a 85 70 3f
       -1.2483205 -1.7524014 0.61834407 0.93953097
000240 ff a2 8d 3f fd 9b 58 bf e7 7e f3 bc 46 13 35 3f
       1.1065367 -0.8461302 -0.029723598 0.70732534
000250 ba 8b 99 bf 18 1b 36 bf 46 4f 56 3f 0a b6 c6 3f
       -1.1995766 -0.7113509 0.8371471 1.5524304
000260 b6 e6 88 be 63 47 0b 3e af e3 d1 be 23 c2 84 3f
       -0.26738518 0.1360145 -0.4099402 1.0371746
000270 2c 4b c8 bf 7a e1 b8 bf 60 ed 5c 3f b6 9a 81 3f
       -1.5647941 -1.444381 0.86299706 1.0125339
000280 79 b0 8e 3e 87 04 76 3d cd 8d 65 3f 95 81 2d bf
       0.27869013 0.06006291 0.89669496 -0.6777585
000290 04 19 48 3f 3b 21 b3 3f 5f 5a 9d 3f c4 e5 c2 3f
       0.7816317 1.3994516 1.2293204 1.5226369
0002a0 93 42 de bf 4f 27 b8 bf 88 02 60 3f d1 9a 6b bf
       -1.7364067 -1.4386996 0.8750386 -0.92033106
0002b0 c5 4f 98 bf a9 73 be bf c3 bb 94 3f 80 95 a1 bf
       -1.1899344 -1.4879047 1.16198 -1.2623749
0002c0 98 fe 5e 3f a0 d7 52 bf f5 de 39 3f 7d 82 a0 3f
       0.8710723 -0.8236027 0.7260583 1.2539822
0002d0 0c 1f 17 bf 3e ff 6a bf 85 29 86 bf 3b 2f 66 3e
       -0.5903175 -0.9179572 -1.0481421 0.22478954
0002e0 36 c9 70 bf 3c 1c 65 be db 35 7f 3f 10 7e b8 3f
       -0.94057024 -0.22374052 0.9969155 1.4413471
0002f0 7f 04 4e bf 31 ec a4 bf 8a 1f 6a bf e0 8e d5 be
       -0.8047561 -1.288458 -0.91454375 -0.41710567
000300 82 82 59 bf 0c 72 c9 3f 93 ad 78 bf e9 be 32 3e
       -0.84964764 1.5737929 -0.97139853 0.17455639
000310 06 ff cb bf 4a 8c dc bf 2a d8 06 3f 22 70 13 bf
       -1.5937202 -1.7230313 0.5267359 -0.57592976
000320 7c 88 82 be da 07 5a bf fe fe a5 bf 19 41 d6 bf
       -0.25494754 -0.8516823 -1.2968442 -1.6738616
000330 a5 1b 20 3e a6 cf d0 3f 0d d4 8e bf 0f b7 d8 bf
       0.15635546 1.6313369 -1.1158463 -1.6930865
000340 26 da dd bf 59 56 c6 3e 72 91 81 3f 70 6c 68 be
       -1.7332199 0.38737753 1.0122511 -0.22697616
000350 a3 b6 cb bf cf 61 84 be 14 7e 02 be 13 20 f9 be
       -1.5915111 -0.25855872 -0.12743407 -0.48657283
000360 68 14 1b bf a5 b6 8f bf e9 de 96 3f 03 28 94 bf
       -0.6057801 -1.1227614 1.1786777 -1.1574711
000370 6c 22 7b 3e 35 61 bb bf 29 34 7f be 5d 7f d0 bf
       0.2452485 -1.463904 -0.24922241 -1.6288868
000380 9e 56 25 bf 55 d6 93 bf 96 29 61 3e 96 17 b7 bf
       -0.6458529 -1.1549784 0.2198852 -1.4304073
000390 d6 5f bf 3f da f2 21 bf 6b 0d d0 3f e5 18 cf be
       1.4951122 -0.6326119 1.6254095 -0.4044868
0003a0 c5 9d 0c 3f 30 10 9b bf 60 4b 5e bf 5d de 62 3f
       0.5492824 -1.2114315 -0.86833763 0.8862055
0003b0 7a a0 c7 be 25 80 8f 3e f3 49 e2 bf 49 22 b0 3f
       -0.3898962 0.28027454 -1.7678818 1.3760463
0003c0 39 3e 87 3f ca ad b1 bf 34 3e 7f 3f 28 9e 54 3e
       1.0565864 -1.3881161 0.9970429 0.20763457
0003d0 10 82 03 3f 6d fd 8e bf 28 3d 9b 3d 2f f0 4b be
       0.51370335 -1.117109 0.07580024 -0.19915842
0003e0 3f 40 47 bf 57 d7 cf bd 62 ec 29 3f fb a4 84 3f
       -0.77832407 -0.10148495 0.66376317 1.0362848
0003f0 90 ab d0 bf c3 85 32 bf 15 43 52 bf e1 c0 00 3e
       -1.6302357 -0.69735354 -0.8213361 0.12573577

encoder.lstm.bias_ih_l0 f4 [128]
000000 46 ed 4b bf d8 a2 35 bc e6 43 23 3f 95 09 9c 3f
       -0.79658926 -0.011086188 0.6377548 1.2190424
000010 57 89 b1 3f 0e a7 4f 3f 75 13 ac 3f c1 dc 93 bf
       1.3870038 0.8111428 1.3443438 -1.1551744
000020 38 7f dc 3f 61 0b 1a bf f1 6d d2 bf 10 44 8e 39
       1.7226324 -0.6017361 -1.6439801 0.0002713506
000030 9e 2c 8b 3f 87 b1 52 3f 2b bc d5 be dd 49 9a bf
       1.0872991 0.82302135 -0.41745123 -1.2053791
000040 71 a3 83 bf 1c d0 82 3f 77 f0 e3 3f 0c e6 9c bf
       -1.0284253 1.021976 1.7807759 -1.2257705
000050 55 c7 c3 bf 0b db b5 bf 74 82 9a bf d9 cb 15 3f
       -1.5295206 -1.4207472 -1.2071061 0.5851417
000060 50 13 a3 bf 0b 95 d5 3f 97 46 2c 3f 2a 5a a3 3e
       -1.2740269 1.6686109 0.6729521 0.31904727
000070 74 a6 01 be 14 e1 67 3f ce 93 ba 3f 62 ef ca 3d
       -0.12661153 0.90577817 1.4576356 0.0990894
000080 5f c3 25 bf 38 dc 76 bf e0 7d a2 3f eb 1e 82 3f
       -0.6475124 -0.9642978 1.2694664 1.0165685
000090 5c 7a 90 be 84 45 44 3f 79 e4 54 3f ba 12 87 bf
       -0.28218353 0.7666857 0.8316112 -1.055259
0000a0 ab b1 10 bf e7 27 82 bf 39 c5 47 3f 34 ed 03 3f
       -0.565211 -1.0168427 0.7803531 0.5153382
0000b0 e6 0c a8 3e 62 c7 39 3f c0 6b 00 bf f3 17 e2 3f
       0.3282234 0.7256986 -0.50164413 1.7663559
0000c0 45 e9 d2 bf d0 ea e2 3e 42 45 6d bf 67 a4 0a 3e
       -1.6477438 0.44319773 -0.92683804 0.13539277
0000d0 2f 74 8a 3d b4 46 07 3f b8 a2 c0 3f bc 8a 73 3f
       0.067604415 0.5284226 1.5049658 0.95133567
0000e0 2b df 7f 3f 5f 45 92 3f 35 0b 0b bf 66 78 51 bf
       0.999499 1.142742 -0.54313976 -0.8182434
0000f0 10 aa 9f bf 2b e3 89 3f 4c e2 d9 be 7b 11 2f bf
       -1.2473774 1.0772451 -0.42555463 -0.6838605
000100 33 56 85 3f e2 52 87 3e 38 cd a3 bf 95 4c 9a be
       1.0416931 0.26430422 -1.2797003 -0.30136552
000110 b3 f9 14 3f 83 cf a9 be fb cd 96 3f 0a 0e 9f 3e
       0.5819351 -0.3316613 1.178161 0.31065398
000120 f4 7a 84 be 7d d8 49 bf d2 55 be 3f ed 3c d2 bf
       -0.25875056 -0.7884596 1.486994 -1.6424843
000130 c4 e1 25 bf ef 59 1c bf b7 94 36 3f 30 7c 9f 3f
       -0.64797616 -0.6107473 0.7132067 1.2459774
000140 f5 bd 7c 3e b3 ee 20 bf 8a 3b da 3e b7 2a 84 3d
       0.24681838 -0.62864226 0.4262355 0.0645346
000150 e4 34 33 3f d4 77 a3 bf e3 0d 65 3f ce c0 c7 3f
       0.7000258 -1.2770944 0.89474314 1.5605714
000160 31 6b c1 3f 69 db c1 bd 68 60 46 3f 9b 1a 35 3f
       1.5110837 -0.09465677 0.77490854 0.7074372
000170 48 be c9 be fe 75 7a be 99 b1 c1 bf 04 40 66 3e
       -0.39402986 -0.24459073 -1.5132324 0.22485358
000180 2b 24 89 3f 2d 63 1d be e9 25 f2 be e6 74 bc bc
       1.0714163 -0.15369864 -0.47294548 -0.02300496
000190 37 07 ac 3f 43 0e b3 3e 06 fc 85 bf 82 df 61 3f
       1.3439702 0.34971818 -1.0467536 0.8823167
0001a0 69 14 a0 be a7 46 cb 3f 87 5a 70 3f 59 ac b4 3f
       -0.31265572 1.5880936 0.93888134 1.4115096
0001b0 3d 35 08 3f a8 81 d6 3d af 05 85 bd 83 9d cf 3f
       0.53206235 0.10473949 -0.06495225 1.6219944
0001c0 f8 82 d5 3f b2 92 dd 3f b7 8b 06 bf 78 cb 46 3e
       1.6680593 1.7310393 -0.5255694 0.19413555
0001d0 70 94 b7 3f 7c 11 b2 bf 6c 1c d2 bf 5c 9b dd 3f
       1.4342175 -1.3911586 -1.6414924 1.7313037
0001e0 f4 8e ce 3f 56 78 98 bf 4b 42 b2 3f 22 06 2f 3d
       1.6137376 -1.1911724 1.3926481 0.042730458
0001f0 eb ab e1 3f 09 21 04 bc bd 51 9e 3f 11 33 59 3f
       1.763059 -0.008064517 1.2368695 0.84843546

encoder.lstm.bias_hh_l0 f4 [128]
000000 14 7b d7 3e b1 17 e0 3f d7 a8 c3 3f 47 7e cf be
       0.4208609 1.750723 1.5285901 -0.4052603
000010 3d 9a 71 3f b3 98 d9 3e a7 f3 aa 3f 8e 41 a0 bf
       0.94375974 0.42499313 1.3355607 -1.2520006
000020 12 58 b6 bf df 1c bf bf ad 35 ca bf 6c e3 38 3f
       -1.4245627 -1.4930686 -1.579763 0.7222202
000030 84 99 73 bf ed b7 b9 3f c8 83 1e bf f0 f6 91 bf
       -0.9515612 1.4509255 -0.6191983 -1.1403484
000040 c7 85 8e 3f ee 6c a3 bf 7e c3 73 3b d8 4a a8 bf
       1.1134576 -1.2767618 0.003719538 -1.314784
000050 9f 39 cd 3f de 8b 9e bf 4f 6a 99 3f 5b e2 e8 3e
       1.603321 -1.2386434 1.1985568 0.45485196
000060 61 64 c5 3f 14 ec 60 bf ec 55 83 3f 45 92 81 3f
       1.5421258 -0.87860227 1.0260596 1.0122763
000070 58 cd cb 3f 9e 26 31 3e d7 14 70 bf 10 c2 a8 3f
       1.5922041 0.17299888 -0.937818 1.3184223
000080 86 af 67 bf c5 42 1f bf a1 fa 86 3f 76 ec b3 3f
       -0.905022 -0.6221126 1.0545236 1.4056537
000090 1f 6c 83 bf de 1e 18 3f 81 aa 12 3c 30 68 02 bf
       -1.0267371 0.594221 0.008951784 -0.5094023
0000a0 d7 0e 79 3f 19 24 07 3d 63 ec dd 3d ab 55 22 bf
       0.9728827 0.03299341 0.10836103 -0.6341197
0000b0 0b 86 b3 3f 4e 97 21 3e ef ed b1 3f c3 4f bb bf
       1.4025282 0.15780374 1.3900737 -1.4633716
0000c0 a1 ee a5 3f 55 8f 83 3f ed cd a7 be d9 56 c4 bf
       1.2963449 1.0278116 -0.32774296 -1.5339004
0000d0 2e 6a 9b 3f 78 fb 9c be 00 5a 57 be f5 39 1f 3f
       1.2141778 -0.30660605 -0.21030426 0.6219781
0000e0 62 df 45 bf d9 57 90 bf bd 6e ab 3f b7 7e 8c bf
       -0.7729398 -1.1276809 1.339317 -1.097617
0000f0 6f d5 9f bf 65 81 98 bd 54 4a e7 be 07 de b1 bf
       -1.248701 -0.07446555 -0.45173895 -1.3895882
000100 14 b8 97 3e 24 46 22 bf 7c a3 42 bf 6b 0e 61 3f
       0.29632628 -0.63388276 -0.7603071 0.87912625
000110 ea e0 1c 3f b9 98 cc 3f d0 2d c1 3f 45 59 72 3f
       0.6128069 1.5984107 1.5092106 0.94667464
000120 bf b8 fd be 6b ae 0c 3f 3d c1 2d bf 3f 52 34 3f
       -0.49555013 0.5495364 -0.67872983 0.70438
000130 22 77 5f bf 83 3f 44 bf ec 74 a6 bc ea f5 ac bf
       -0.8729116 -0.7665941 -0.020319425 -1.3512547
000140 10 67 a6 3f db 90 f9 be ff 7b 94 3f 33 83 bf bf
       1.3000202 -0.48743328 1.1600341 -1.4961914
000150 7c a3 e7 be 61 ff 8b 3f 2c 38 5e bc 2e b6 d1 bf
       -0.45241916 1.093731 -0.013563197 -1.6383722
000160 f4 c1 a8 3e ba 97 37 be a1 fe 8d 3f b7 31 b0 bf
       0.32960474 -0.17928973 1.1093332 -1.3765172
000170 f5 a0 bd bf 1f 5b c7 3f b8 40 c2 bf 37 38 d9 bf
       -1.4814745 1.5574683 -1.5176 -1.697028
000180 ab cf 46 3f 01 1f 82 be 08 84 03 be 1f 6b 87 3f
       0.77660626 -0.2541428 -0.12843335 1.0579566
000190 b2 48 91 bf a7 a2 b2 bd a7 c1 a9 3f b6 ec 5b bf
       -1.135031 -0.0872243 1.3262223 -0.8590807
0001a0 4c a9 09 3b 0d 1d 67 be 73 b3 1e 3f 49 ae bb 3f
       0.002100545 -0.22569676 0.6199257 1.4662563
0001b0 c6 16 8f be 8f 04 57 3f 0d a6 1a 3f b5 1f 7f 3f
       -0.27947062 0.8399133 0.60409623 0.99657756
0001c0 b4 45 9a bf f9 73 ef 3e 20 7a db be cb 98 46 3f
       -1.2052522 0.46768168 -0.4286661 0.77576894
0001d0 47 6f 17 bf 61 23 9c 3f 6b 9e c1 bf 37 53 ca bf
       -0.5915417 1.2198297 -1.512647 -1.5806645
0001e0 bd a7 d6 bf cd d5 e0 3f 6c 42 61 3f f4 61 9b bf
       -1.676994 1.7565247 0.87991977 -1.2139268
0001f0 b4 11 32 bf eb ed b2 3e 40 22 bf bf 27 f8 d8 bf
       -0.6955826 0.34947142 -1.4932327 -1.695073

encoder.lstm.weight_ih_l1 f4 [128, 32]
000000 55 da f5 3d e3 41 6a 3f 01 99 da 3f 99 29 39 be
       0.12004534 0.91506785 1.7077943 -0.18082274
000010 22 fe 27 be 7c 9f d3 be 33 15 0a be a7 12 ca be
       -0.16405538 -0.41332614 -0.1348465 -0.39467356
000020 52 b1 96 3f fd 6c ca bf 1b 04 94 bf 5f 72 4b bf
       1.1772864 -1.581451 -1.1563753 -0.7947139
000030 40 7a a0 3e d2 c9 82 be 92 20 67 3d 95 ca cb 3e
       0.3134327 -0.25544602 0.056427546 0.39802995
000040 92 e2 b2 bf de 1e 34 3f 01 1d d5 3f 25 3e cc 3f
       -1.3975394 0.703596 1.6649476 1.5956465
000050 7b 83 7d be 3b 2a a7 3f 86 50 8f 3f 91 18 15 bf
       -0.24757187 1.3059763 1.1196449 -0.5824061
000060 d2 b6 82 bf 6a 3c 89 3f e6 9d f6 3e f9 25 94 3f
       -1.0212042 1.0721562 0.48167342 1.1574088
000070 a3 ca 9f bf 7e fe 99 be 7c d1 b4 3f 8e 7f c0 bf
       -1.2483715 -0.30076975 1.412643 -1.5038927
000080 54 00 c3 bf f1 0b bd bf 5d 45 bc bd 1a 07 08 3f
       -1.5234475 -1.4769269 -0.091929175 0.53135836
000090 b3 11 c3 3f 5b 3b 8c 3f eb fa b1 bf 27 bb bc bf
       1.5239776 1.0955614 -1.3904699 -1.4744614
0000a0 12 97 db 3f db 0d a0 3f 69 72 16 3f 7d b6 4e be
       1.7155478 1.2504228 0.58768326 -0.20186801
0000b0 87 90 ce 3c 71 07 ac bf 9e a7 5c bf 87 ed 82 bf
       0.0252154 -1.3439771 -0.86193264 -1.0228738
0000c0 2a 3f 98 3f 4b ef ff be eb 87 73 bf 9e 01 26 bf
       1.1894276 -0.49987254 -0.9512927 -0.6484622
0000d0 3f 93 48 be 30 cf a3 bf 3c fc e4 3e c1 65 11 bb
       -0.1958742 -1.2797604 0.4472369 -0.0022185894
0000e0 70 47 94 be 64 ac bf 3f 6b a4 ce bf e5 a1 74 bf
       -0.28960752 1.4974484 -1.6143926 -0.9555953
0000f0 c5 6c 8b bf 70 63 d0 bf 76 e2 db bf 80 29 12 bf
       -1.0892569 -1.6280346 -1.7178485 -0.57094574
000100 14 41 8b 3f f3 f0 56 3f 41 3b bc bf a9 01 c4 bf
       1.0879235 0.8396141 -1.4705583 -1.5313007
000110 e2 b3 4e bf 6f 63 b4 3f 24 d1 c0 bf 27 7b 82 3f
       -0.8074323 1.4092845 -1.5063825 1.0193833
000120 eb e8 48 3f 2f 39 b3 3f f3 16 05 bf cf 8b c8 bf
       0.78480405 1.4001826 -0.5198814 -1.5667666
000130 43 06 c8 bf ee 3d ca bf 2c d1 77 3f 3f db 1d 3f
       -1.5626911 -1.580015 0.96803546 0.6166267
000140 54 88 8d bf 73 1f 96 bf 24 3d d7 bf 84 63 a8 be
       -1.1057229 -1.1728348 -1.6815534 -0.32888424
000150 35 93 14 3f c9 9d 1c bd c8 f5 90 bf 57 5b 83 bf
       0.5803712 -0.038236413 -1.1325006 -1.026225
000160 35 9e eb 3d f0 9d d1 3f fc 71 9f bf ba 8e d7 be
       0.11504785 1.6376324 -1.245666 -0.4210108
000170 0e 15 85 3f dd 8c da bf 62 0e ef 3e 19 b4 35 3f
       1.039705 -1.7074238 0.4669066 0.7097793
000180 f5 09 c8 bf 39 d5 af bf f8 a1 9a bf 6b b5 e0 be
       -1.5628039 -1.3736945 -1.2080679 -0.4388841
000190 c2 cb 81 3f c6 96 34 3f 67 02 be bf 5e 94 ab bf
       1.0140307 0.7054256 -1.4844483 -1.3404653
0001a0 f8 58 a2 3f 5f b1 2e 3f 4e e8 63 3f 2e d8 4c bd
       1.2683401 0.68239397 0.89026344 -0.050010853
0001b0 c2 c5 56 bf 30 e3 d9 3d 01 5b 1d bf 64 bb 68 bf
       -0.83895504 0.10639036 -0.61466986 -0.90910935
0001c0 4c f0 ed bd 76 0e 94 bf 60 4c ae bf d4 01 8c 3f
       -0.116180986 -1.1566913 -1.3617058 1.0938058
0001d0 5d dc b8 bf 10 60 60 bf ff 4f a3 3f 4d 4a 6e 3e
       -1.444225 -0.8764658 1.2758788 0.23270531
0001e0 2b fd 7a bf 5f aa cf bf 36 ee de 3f 34 21 cc 3f
       -0.98042554 -1.6223868 1.7416446 1.5947633
0001f0 71 2b 62 be 3e f0 b9 3f 76 82 43 3f 52 2f b7 bd
       -0.22086884 1.4526441 0.7637094 -0.089445725
000200 78 6d 33 3f 1d be c3 3f 1c d6 aa bd cd 48 73 3e
       0.7008891 1.5292393 -0.08341619 0.2375824
000210 d1 15 19 bf 6b 08 77 3f 9e f1 ce bf 4a 60 3b 3c
       -0.59798914 0.9649722 -1.6167486 0.011436531
000220 9b 93 ae 3f 8a 6b 8d bf 7e 89 d4 3e 49 7e d9 3f
       1.3638796 -1.1048443 0.41511148 1.6991664
000230 2e 9e 12 bf 7b 62 05 bf 07 a7 81 bf fa a7 2b be
       -0.57272613 -0.52103394 -1.0129098 -0.16763297
000240 fe cb 91 3f 25 6f ea bf 42 fa d7 bf 4d 0c cf bf
       1.1390378 -1.8315169 -1.6873248 -1.6175629
000250 e6 af ae 3f 33 cc 53 3f 8a d1 56 bf 40 42 8f be
       1.364743 0.8273346 -0.8391348 -0.27980232
000260 96 d3 4c bf 2c 66 cd bf 4b 78 03 be 94 33 9a bf
       -0.80010355 -1.6046805 -0.12838857 -1.204699
000270 95 e9 e2 3d 6a a3 4f 3f 7b 43 a9 3e 98 84 ea be
       0.110797085 0.81108725 0.33059296 -0.45804286
000280 0b 6f b0 3e 47 d8 32 3e e9 b9 c2 bf 27 79 cf bf
       0.3445972 0.17465316 -1.5212985 -1.6208848
000290 d3 7a 4b 3f 6f dd 07 3f 01 45 b3 bf 4d 2e 93 bf
       0.7948429 0.53072256 -1.4005433 -1.1498505
0002a0 84 8a 8c bf b5 cc 75 bf b9 23 c0 bf 1a 08 31 3f
       -1.0979772 -0.96015483 -1.5010902 0.69152987
0002b0 72 56 98 bf 4e db 11 bf 13 50 19 bd e9 16 cd 3f
       -1.1901381 -0.5697526 -0.03742988 1.6022617
0002c0 16 28 9f 3f 69 ca 56 3f 4b 72 33 bf dd 24 b4 3f
       1.2434108 0.83902603 -0.7009627 1.407375
0002d0 d3 67 9c 3f 73 cc 25 3f e9 d8 76 3f a0 2d fa be
       1.2219185 0.6476509 0.9642473 -0.48862934
0002e0 80 03 4b be 9d fa bd 3f 02 c4 8f 3e 40 f4 df 3e
       -0.19825554 1.4842106 0.2807923 0.43741035
0002f0 ce c5 51 bf 37 61 ab 3f ac 65 21 be 4b 4e cb bf
       -0.8194245 1.3389043 -0.15761441 -1.5883268
000300 82 12 b6 3f 30 3b 22 bf b5 cf 84 bf bf 3a 3d bf
       1.4224398 -0.6337156 -1.0375887 -0.73917764
000310 2d 4c 96 bf 28 96 78 be bf bd dc be 11 78 5c bf
       -1.1741997 -0.2427603 -0.43113515 -0.86120707
000320 36 36 37 be 7b 5c e4 3f 07 08 92 bf 5e 47 24 bf
       -0.17891774 1.7840723 -1.14087 -0.641714
000330 f4 18 d4 bb 03 42 c1 bf 87 99 71 bf b3 cf 10 bf
       -0.006472701 -1.509827 -0.9437489 -0.56566924
000340 12 f5 1e 3f b8 f2 a4 bf f4 f1 f0 bd 2d 89 e3 bf
       0.620927 -1.2886572 -0.11764899 -1.7776238
000350 71 3b 29 bf db c4 86 3f ba 08 81 3f ba e7 58 3e
       -0.66106325 1.0528826 1.0080788 0.21182147
000360 2d 0a 0a bf 92 e2 db be ac 3b aa be 30 82 fd 3e
       -0.53921777 -0.42946297 -0.3324865 0.49513388
000370 18 13 cc bb 82 80 49 3e 49 38 b0 3f f8 a7 bf 3f
       -0.006227862 0.19677928 1.3767177 1.4973135
000380 3c 1a e3 bf 12 c4 96 bf 43 f0 b6 3f a6 ad 96 be
       -1.7742381 -1.1778586 1.4292072 -0.29429358
000390 e0 cf b4 3f 52 c9 89 bf 92 cf 62 be 93 13 9f 3f
       1.4125938 -1.0764563 -0.22149494 1.2427849
0003a0 79 38 22 be 98 f1 99 3d dd 1e 9d 3e 8c 44 bc 3f
       -0.15841855 0.075167835 0.3068761 1.4708419
0003b0 fa 93 9d bf 98 0b a6 3e c6 d8 17 3f ba 0b ab 3f
       -1.2310784 0.3243072 0.59315145 1.3362954
0003c0 1c f4 7f 3f 3e 8f b1 3f fa 4c 01 3f 90 b9 34 bf
       0.99981856 1.3871839 0.5050808 -0.70595646
0003d0 4d 0f c5 3f 0f b3 af 3f f7 32 4e bf 13 16 23 3e
       1.5395294 1.3726519 -0.80546516 0.1592639
0003e0 41 36 ae bf f0 03 bf 3f 31 36 ab bf d6 6e 30 be
       -1.3610307 1.4923077 -1.3375913 -0.1722978
0003f0 62 c8 09 3e 9e 1e 2f 3f 39 96 96 bf 1a f7 c1 3f
       0.13455346 0.68406093 -1.1764594 1.5153534

encoder.lstm.weight_hh_l1 f4 [128, 32]
000000 80 cf 88 3e 55 14 cc bf c6 81 20 bf 86 64 b2 be
       0.2672081 -1.5943705 -0.6269802 -0.34842318
000010 b3 7e b6 3f 83 dc bb 3f 94 58 ae 3f 12 4f ca bf
       1.4257416 1.467667 1.3620782 -1.580538
000020 a7 8f b4 3f b3 d1 08 bf 98 9c 5f 3f 68 a9 80 3e
       1.4106339 -0.53444976 0.8734832 0.25129247
000030 b1 b5 d2 bd c1 b4 5c 3f 90 6d 5e 3f 17 07 bc bc
       -0.10288561 0.8621331 0.8688593 -0.0229526
000040 0b 8c f1 be 45 8f 96 3f 98 38 8b 3f 43 30 a1 bf
       -0.47177157 1.1762472 1.0876646 -1.2592853
000050 8a 4e 76 3f d8 c9 53 bf b5 36 a5 be dd c5 4e bf
       0.9621359 -0.82729864 -0.322683 -0.80770665
000060 07 ff 66 bd de cc ba 3e 76 5b 57 bf 6f 9b 2a 3f
       -0.056395557 0.36484426 -0.84123933 0.6664342
000070 ab 9e 4e bf 4c 9e 9d 3f 18 58 6f 3f d9 b4 3f bf
       -0.8071086 1.2313933 0.93493795 -0.74885327
000080 73 0d 81 bd 38 ff 89 be e0 41 93 bf 8a 04 d4 bf
       -0.06301393 -0.2695253 -1.1504478 -1.6563885
000090 60 4d b7 bf 53 f0 1d bf d1 bd 01 bf 8d ed d5 3f
       -1.4320488 -0.6169483 -0.5068026 1.671312
0000a0 7f 71 04 bf 21 ef bc 3e 66 dd 2b bf 34 73 09 3e
       -0.5173568 0.3690119 -0.671347 0.13422853
0000b0 2c 3f 73 3f c3 c7 4a be 90 82 e6 bf 4a b5 87 3e
       0.9501827 -0.19802766 -1.8008595 0.265055
0000c0 56 95 c2 3f 63 ec 0a 3f 23 f7 81 3e fa c7 b1 3f
       1.5201824 0.5426695 0.25383863 1.3889153
0000d0 78 fa bb 3f 5e 79 0c bf 9e 0e 6c 3f b1 7d a7 bf
       1.4685812 -0.5487269 0.92209804 -1.3085233
0000e0 76 9d 4c bf fe a3 e0 bf fa 19 47 3f e9 0a 97 3f
       -0.79927766 -1.7550046 0.7777401 1.1800205
0000f0 f6 bd b0 bf 4b da c2 3f 89 4b d3 bf ed 09 39 bf
       -1.3807971 1.5222868 -1.6507427 -0.7228077
000100 a2 b8 3a bf 21 c5 41 bf 13 27 e2 3f bf be bd bf
       -0.7293798 -0.7569142 1.7668175 -1.4823836
000110 cc 4e d9 3f 5b ca b3 be 7a e6 12 3f 2c 52 d4 bf
       1.6977172 -0.35115322 0.5738293 -1.6587577
000120 d0 b6 e4 bd d6 d6 e6 3f ec fc ac 3f e1 8c 81 bf
       -0.11167681 1.8034313 1.3514686 -1.0121118
000130 da d5 23 3f 7d 6b c1 bf 7a 7d 37 bf 97 82 dc be
       0.63998187 -1.5110928 -0.7167584 -0.43068382
000140 8c a0 00 bf 3a 3b 6e bf b1 98 80 bf 62 3a 75 3f
       -0.50244975 -0.9305912 -1.0046598 0.9579221
000150 01 94 1c bf 75 e5 d4 3e ff 31 85 3f ad 41 cd bf
       -0.61163336 0.41581312 1.0405883 -1.6035668
000160 42 ce cb 3f b9 af bc 3f 16 82 cf 3f e2 88 8a 3f
       1.592232 1.4741126 1.6211574 1.0823023
000170 a5 cf ba 3f 36 d3 a8 bf 69 dc b7 bf bd ff 26 bf
       1.4594618 -1.3189456 -1.4364139 -0.65233976
000180 79 9c 6b bf 3c b4 d4 bf f0 b2 d6 be 44 9a bd 3f
       -0.92035633 -1.6617503 -0.41933393 1.4812703
000190 15 66 29 be 07 27 31 bf 23 21 ab bf 55 7d af 3e
       -0.16542847 -0.69200176 -1.3369488 0.34275308
0001a0 4a e6 e0 3f aa b8 74 bf b4 1f 6b 3e 31 f7 e2 bf
       1.7570279 -0.95594275 0.22961313 -1.7731687
0001b0 43 b6 d0 bf 5e 6f a7 3e fb 43 9d bf 4d ef 83 3f
       -1.6305622 0.32702154 -1.2286371 1.0307404
0001c0 f1 c3 6d 3f 4b 8e 43 3f 59 39 7a 3e 18 15 71 3f
       0.9287711 0.76388997 0.24435939 0.9417281
0001d0 6c 1d b6 3f 3b 4f e0 3f ed 78 78 bf f8 b4 d5 3f
       1.4227729 1.7524179 -0.9705952 1.6695852
0001e0 aa 3a 1c bf 2e b7 03 bf 9e ab c2 bf f4 34 4c bf
       -0.61027014 -0.51451385 -1.5208623 -0.797683
0001f0 34 86 92 be 56 a8 a2 3f d5 eb c2 bf bb 86 a3 3f
       -0.28618014 1.2707622 -1.522822 1.2775491
000200 77 bd dd 3f 6c 1a 88 bf 07 7b 68 3f fc 23 3b bf
       1.7323445 -1.0633063 0.90812725 -0.7310178
000210 f0 0e 0e bf ca bc ba 3f 60 21 61 3f 13 4f ce 3f
       -0.5549154 1.4588864 0.8794155 1.6117882
000220 d9 60 cf bf af cb bd 3f 7f cb 7f bf 85 79 46 3d
       -1.620143 1.4827784 -0.99919885 0.048455734
000230 68 74 c9 be 45 ec 30 3f 02 9c a5 bf 85 89 c8 3d
       -0.39346623 0.6911052 -1.2938235 0.09791855
000240 3a 32 6d bf 70 82 a8 3f 8c 55 57 3e e1 36 68 bf
       -0.92654765 1.3164806 0.21028727 -0.9070874
000250 02 e7 49 bf c4 84 95 3f de 53 96 bf 20 2d b0 3f
       -0.78868115 1.1681142 -1.1744344 1.3763771
000260 52 c1 01 bc ad 13 9b bf 77 60 e6 3e 22 83 2b bf
       -0.007919626 -1.211538 0.44995472 -0.6699697
000270 de 5c 89 3f c6 e5 98 3f 5d de 72 3e dd 29 d4 3f
       1.0731466 1.1945121 0.23717637 1.6575276
000280 54 b1 58 3f 46 c7 7e 3f 29 cb 62 3e c5 16 65 bf
       0.8464558 0.9952282 0.22147812 -0.8948787
000290 3e d6 47 3f d1 81 8d bf 1a 59 a2 be d5 dd e8 bf
       0.7806128 -1.1055242 -0.31708604 -1.8192698
0002a0 b8 96 9d 3e 97 86 50 3f a5 93 95 3e 1f b2 3e bf
       0.30779052 0.8145537 0.29214206 -0.7449054
0002b0 2d d2 57 3f af 2c a3 be 47 38 83 3f af be e5 be
       0.8430508 -0.31870028 1.025155 -0.44872043
0002c0 71 6d b7 bf 3c 6e ba bf 2c 45 62 bf e2 11 73 3e
       -1.4330274 -1.4564891 -0.883868 0.2373729
0002d0 ae d4 78 3e 38 e7 d5 3c 00 8d a2 3f b4 05 87 bf
       0.24299881 0.02611123 1.269928 -1.0548615
0002e0 bf c8 86 3e b1 83 72 be 84 9f cd 3f d3 1e 18 bf
       0.26325032 -0.23683049 1.6064305 -0.59422034
0002f0 b7 47 6b 3f 96 8b da 3f df 8c d9 3f eb 57 96 3e
       0.91906303 1.7073848 1.6996115 0.2936395
000300 b7 91 0a 3f 13 7b c9 3f 26 53 33 3f 3f 56 93 bf
       0.54128593 1.5740684 0.7004875 -1.1510695
000310 fd 13 16 3f 3f ec ee be ed 13 85 bf d9 4f c5 3f
       0.5862425 -0.46664616 -1.0396706 1.5414993
000320 e9 97 ab bf a9 f5 7d bf b8 53 0e 3f 2f 96 04 3f
       -1.3405734 -0.9920297 0.55596495 0.5179166
000330 fd 07 0c 3f cf 06 e0 be c6 0a a3 3d eb 28 8f bf
       0.5469969 -0.43755195 0.07961039 -1.1184362
000340 41 87 9d bf 79 99 7b be c3 4e e3 bf de cd 78 bf
       -1.2306901 -0.24570264 -1.7758411 -0.9718913
000350 5e 91 43 bf b0 38 d9 bf be 5e cd 3f b0 37 bf 3f
       -0.7639369 -1.6970425 1.6044538 1.493887
000360 f0 f8 b0 3e 90 1b c3 bf e4 18 cb 3f 4e 69 38 3f
       0.34564924 -1.5242786 1.5866971 0.7203568
000370 d3 36 92 3f 06 f0 ab bf 60 d8 d9 bf df 61 b5 3f
       1.1422981 -1.3432624 -1.7019157 1.4170493
000380 77 cf a4 bc 1c 38 bb 3e 57 9d 28 bf 36 ac be 3f
       -0.020118458 0.36566246 -0.6586508 1.4896305
000390 55 d2 a3 bf 42 5b df 3e 8d 98 69 3f 2d 87 e4 3f
       -1.2798563 0.43624312 0.912484 1.7853752
0003a0 28 ed d9 3f d6 49 38 bf 17 45 8f bf df 56 8b 3f
       1.7025499 -0.71987665 -1.119296 1.0885886
0003b0 e5 41 da 3f 05 e9 0b bd 4b 05 a9 bf 31 6a 38 3f
       1.705136 -0.03415777 -1.320474 0.72037035
0003c0 d1 17 0a 3e 28 a3 dd 3f 13 91 9c 3e 73 2b 30 3f
       0.13485648 1.7315416 0.30579433 0.688163
0003d0 1a 7c cc 3f 43 fa 83 3f 93 91 e4 bf 9e 8b fb be
       1.5975373 1.0310749 -1.7856926 -0.49129957
0003e0 43 03 9a 3f 21 5f 9c bf cf 19 58 be 2b 6e 06 bf
       1.2032245 -1.2216531 -0.21103595 -0.5251185
0003f0 27 f6 28 3f 94 6a bb bf 1e fb d8 be 02 98 47 3f
       0.660006 -1.46419 -0.42379087 0.7796632

encoder.lstm.bias_ih_l1 f4 [128]
000000 62 ec 15 bf 02 39 8c 3e c2 8f d3 3f 5b 02 1c 3f
       -0.58563817 0.27387244 1.6528246 0.60941094
000010 3a 97 8e bf f1 d5 4a bf 28 0d 1a bf 94 00 01 bf
       -1.1139901 -0.792327 -0.60176325 -0.5039151
000020 5f dc ca 3f 81 0c 65 bf 59 e8 5b 3d 90 53 9c 3f
       1.5848502 -0.89472204 0.05368838 1.2213001
000030 ae e1 91 bf bc 25 66 bf 25 61 4e bf 34 0e 40 3f
       -1.1396997 -0.8990133 -0.8061698 0.7502167
000040 4d 6f fc be 05 2d 70 bf 88 f1 c9 be d5 fd 29 3f
       -0.49303666 -0.93818694 -0.39442086 0.6640294
000050 fc 5a 8f bf 56 1d 4a 3e 85 9b cc be af b5 7d be
       -1.1199641 0.19737753 -0.39962402 -0.24776338
000060 c8 e9 c9 3f fe 0f 97 bf 9f 97 c2 bf f2 81 04 bf
       1.5774469 -1.1801755 -1.5202521 -0.5176078
000070 69 e3 15 3d 04 7d 0f bf 8f 8b 9c bf 44 6d d5 bf
       0.03659383 -0.56050134 -1.223009 -1.667397
000080 8d 4a 8c bf 8d 59 8e 3f 6f 37 97 bf a9 f1 4d 3f
       -1.0960251 1.1121079 -1.1813792 0.8044687
000090 e9 c1 ae bf 3d 30 09 3f 52 12 ff be 3e 70 34 3e
       -1.3652927 0.5358923 -0.49818665 0.17620942
0000a0 a6 b0 89 bf 7f 36 1e 3f ba d6 ae 3f f9 49 9d 3c
       -1.0757034 0.61801904 1.3659279 0.019200312
0000b0 cc db 8c 3f ae 47 ab bf 67 54 6c 3f 84 cf 0e 3f
       1.1004577 -1.338125 0.9231629 0.55785394
0000c0 89 22 ce 3f 17 99 2a 3f 27 6f d9 3f d4 e5 1f 3f
       1.6104289 0.66639847 1.6987046 0.62460065
0000d0 91 1d 8c be 1e 27 88 bf 4f 77 97 3f 77 9c 68 bf
       -0.27366307 -1.0636938 1.1833285 -0.90863746
0000e0 e4 0f 9d 3f a3 82 f3 bc c5 e9 d7 3e 30 e3 16 3f
       1.2270474 -0.029725378 0.4217054 0.5894041
0000f0 95 d7 24 bf c5 8c b0 bf 19 9b a5 3d 9f 26 d8 bd
       -0.6439145 -1.379296 0.08086223 -0.105542414
000100 03 5f dc 3f db 6e 5e 3e 81 0a 8d 3f 17 23 de be
       1.7216495 0.21721976 1.101883 -0.43386146
000110 11 95 8b 3f 19 f4 14 bd 09 cb 4c 3f b8 9b a0 3f
       1.0904866 -0.036365602 0.7999731 1.2547522
000120 b9 ac d6 3f a0 be 70 bf f6 82 b4 bf 78 8e c6 bf
       1.6771461 -0.9404087 -1.4102466 -1.5512228
000130 f6 04 1b bf 44 63 9f bf ea 10 d6 be 48 b7 73 be
       -0.60554445 -1.2452168 -0.4180978 -0.23800385
000140 34 6b dc 3e 34 09 05 bf 23 c3 0c bd 47 d4 58 3e
       0.4305054 -0.5196717 -0.034365784 0.21174727
000150 e3 38 c5 3f 76 2c 5c bf 9e dd fa bd a7 34 ac 3f
       1.5407985 -0.8600534 -0.122493014 1.3453568
000160 2d 7a d3 3f 33 23 9a 3f 94 93 ad be ab a4 82 3e
       1.652166 1.2041992 -0.33901656 0.25516257
000170 d2 4a 43 bf 2e 88 b3 bf e7 5f 4e 3f fc 74 dd 3f
       -0.7628604 -1.4025934 0.80615085 1.7301326
000180 62 55 cb 3f ca 15 9c 3f 34 d9 1e 3e 94 8d d4 3f
       1.5885432 1.219415 0.15512544 1.6605706
000190 f9 94 a1 3f fd 8c e2 bf b1 b8 77 be e3 b1 9a bf
       1.2623588 -1.7699276 -0.24191548 -1.2085537
0001a0 d5 5f 8e 3f 96 67 64 bf 9b 93 1e bf c4 e3 e3 bf
       1.1122996 -0.8922056 -0.6194398 -1.7803884
0001b0 28 39 95 3f 2d ed 90 bf d4 81 41 3f 53 14 c9 bf
       1.1658068 -1.132238 0.75588727 -1.5709327
0001c0 98 84 5b bf 01 14 68 be 5f c1 a4 bf 9a f5 94 bf
       -0.85749197 -0.22663881 -1.2871512 -1.1637452
0001d0 51 a0 39 bf cf 29 de bf 04 f1 af 3f 13 8c 10 bf
       -0.7251025 -1.7356509 1.3745427 -0.56463736
0001e0 f7 ed b3 3f b0 13 93 bf fa 9b 1a bf 3c 30 61 bf
       1.4056996 -1.1490383 -0.6039425 -0.87964225
0001f0 f5 1c 81 3f 54 da 7b 3f fe 24 bf 3f ae fb 92 3f
       1.0086962 0.9838002 1.4933164 1.1483057

encoder.lstm.bias_hh_l1 f4 [128]
000000 06 c9 a0 3f b9 f4 03 be 4e e9 19 3f 1e 3d 11 3f
       1.2561347 -0.12886323 0.6012162 0.5673388
000010 25 67 d3 3f 4f 89 37 3d c2 d1 86 be f7 c0 ba 3f
       1.6515852 0.044808682 -0.26331908 1.4590138
000020 94 7b 95 bf 01 66 bb 3e 06 63 b4 bf 6c bd fa 3e
       -1.1678338 0.3660126 -1.409272 0.48972642
000030 ad a7 e5 3e 66 49 54 3e 97 d1 29 bf 4a e2 59 bf
       0.4485449 0.20731124 -0.66335434 -0.85110915
000040 5e d6 97 be f6 5b 8d bf 74 00 c3 bd 71 24 12 be
       -0.29655737 -1.1043689 -0.09521571 -0.14271714
000050 be c2 a3 3f fd 07 df 3f d7 5d c2 3f 43 cc af bf
       1.2793806 1.7424313 1.5184888 -1.3734211
000060 ed a9 a8 3f ec 95 4f 3e 78 96 34 bf 3b fe d5 bf
       1.3176857 0.20272034 -0.705421 -1.671821
000070 fc 72 a1 3e 40 de b9 3f 7a d4 e6 be 78 d9 b5 3f
       0.3153304 1.452095 -0.45083982 1.4206991
000080 00 5e 8f 3f 36 b8 9a bf cc f8 4a bf 4f c2 15 3f
       1.1200562 -1.2087467 -0.79285884 0.58499616
000090 1d 14 98 3f 97 61 7c 3d eb a0 0a 3f 6c 7a d8 3e
       1.1881138 0.061616506 0.5415179 0.422809
0000a0 b4 a0 c7 be 0c 76 5e be a9 fa 74 3f 9b 7e cb 3f
       -0.38989794 -0.21724719 0.9569498 1.5898012
0000b0 ed 55 be 3d 9b 90 0c 3f fe 04 90 3f 66 33 87 bf
       0.09293733 0.5490815 1.1251523 -1.056256
0000c0 3e 74 78 bf 83 9e c9 3f 5f de 64 3f 18 4e c3 3e
       -0.9705237 1.5751499 0.8940181 0.38145518
0000d0 df bb b6 3f 01 b3 0c 3f 20 b7 40 bf 18 00 a6 3f
       1.4276084 0.5496064 -0.75279427 1.2968779
0000e0 bd 56 f7 bd 96 47 da 3e d9 bd 60 3e 7f 18 bc 3f
       -0.12077091 0.4263274 0.21947421 1.4694976
0000f0 9f f8 82 be c2 85 98 bf c9 15 eb bd d7 15 0c 3f
       -0.25580308 -1.191582 -0.114787646 0.54720825
000100 dd 5a 68 bf 82 3a 60 3e bc a6 5b bc bb c8 9d bf
       -0.90763646 0.21897319 -0.013406452 -1.2326883
000110 56 8a a1 be 33 4c 19 bf d8 2e bb bf c8 05 9a 3f
       -0.31550854 -0.59881896 -1.462367 1.2033014
000120 a2 d8 8d 3f cb 56 57 bd 9b 5d f4 3e d5 74 db bf
       1.1081736 -0.052573007 0.47727665 -1.7145029
000130 e6 4c 94 bd 12 01 bd bf 98 d7 1b bf 8b 8a 96 bf
       -0.0724123 -1.4765952 -0.60875845 -1.176103
000140 03 ee be 3f 72 a3 c6 3f 93 8a c5 be 16 7b d3 3f
       1.4916385 1.551863 -0.38582286 1.6521938
000150 11 67 aa 3f 90 17 e6 3f 20 ae 8f bf ec a3 28 bf
       1.3312703 1.7975941 -1.1225014 -0.65875125
000160 7e e6 84 be 4c d7 90 3f f0 7a ce 3d a7 b5 a4 bf
       -0.25957102 1.1315703 0.10082042 -1.2867936
000170 88 3f 1a be bb 17 43 3f 66 88 e6 bf 92 5e 32 bf
       -0.15063298 0.76208085 -1.8010375 -0.6967555
000180 a4 3e 8a bf cb 66 8e bf 53 95 7c bf 48 88 94 3f
       -1.0800366 -1.112512 -0.9866535 1.160409
000190 fe 5f dd 3f b4 b1 2a 3d e5 d6 a7 bf 9d 43 24 bf
       1.729492 0.041673377 -1.3112456 -0.6416567
0001a0 64 95 a7 bf 0e ca cd 3f c8 51 a4 bf af 03 0e be
       -1.3092465 1.6077287 -1.2837458 -0.13868593
0001b0 39 f8 90 3f a1 1f a3 bf 97 81 c5 bf d9 1a 4c 3f
       1.1325752 -1.2744027 -1.5430173 0.79728466
0001c0 1a 52 85 bf ab b9 ba 3f a9 41 c8 bf 4b d2 4b 3e
       -1.041568 1.4587911 -1.5645038 0.19904439
0001d0 47 9d ac 3f cf 71 df bf 74 0c dc be 43 0c 59 bf
       1.3485497 -1.7456607 -0.4297825 -0.84784335
0001e0 f6 7b 02 3f dc 61 8d bf cf 59 5a 3e 6b 4c 8b 3f
       0.509704 -1.1045489 0.21323322 1.0882696
0001f0 74 76 64 bf 82 ef 62 bf 04 7f 8e 3f 95 66 31 bf
       -0.89243245 -0.8864671 1.1132512 -0.6929715

encoder.lstm.weight_ih_l2 f4 [128, 32]
000000 66 8e bc 3f 9f e4 93 bf 7d 2b 5b 3f 13 dd 57 bd
       1.4730957 -1.1554145 0.8561323 -0.052701067
000010 d4 b5 b3 3f b2 fd 82 bf 5e ea 2f bf 86 16 88 be
       1.4039865 -1.0233672 -0.6871699 -0.26579684
000020 c3 59 96 bf 4e 2b e6 3d 6d 40 19 3e 0d 30 d0 bf
       -1.1746143 0.112387285 0.14965983 -1.6264664
000030 d9 f3 f5 be 32 98 aa bf 88 57 96 bf 0e b3 a5 3e
       -0.48037603 -1.3327696 -1.1745462 0.3236317
000040 bf e7 88 bf 56 de 20 3e 0a 8b b5 3f da 4e c3 3f
       -1.0695723 0.15709814 1.4183056 1.5258439
000050 bf 97 83 bf 91 51 83 bf 30 5d d7 bf c2 ab b1 3f
       -1.0280684 -1.0259267 -1.6825314 1.3880541
000060 38 59 0d 3f b2 62 57 3f 6c b6 ce bf a7 0d c3 3f
       0.5521426 0.8413497 -1.6149421 1.5238541
000070 3e d3 a4 be 66 4b c1 bf cc e9 a9 bf 84 e0 f4 be
       -0.32192415 -1.5101135 -1.3274474 -0.47827542
000080 36 8c 8a bf 99 2b 5e 3e c5 9b ad bf c8 04 40 3f
       -1.0824039 0.21696319 -1.3563162 0.75007296
000090 60 99 e1 be 1b ae b5 3e 2f 5c a5 3f 68 88 63 be
       -0.44062328 0.35484394 1.2918757 -0.22220004
0000a0 2e 06 53 3f 34 a9 cf bf 14 2b 9b 3f 28 59 c6 3f
       0.82431304 -1.6223512 1.2122521 1.5495958
0000b0 be 19 d9 bf d8 ea c6 3f b2 fb 3e be 44 af 97 be
       -1.6960981 1.5540419 -0.18650702 -0.29625905
0000c0 44 e8 75 3e 92 da af bf 9b 15 3b 3e 1e 43 89 3f
       0.24014384 -1.3738577 0.1826996 1.0723608
0000d0 1c 68 d2 bf 3e 6a 8c 3f 63 85 37 3e 2c 1b f6 3e
       -1.6438022 1.0969923 0.17921977 0.48067605
0000e0 0c d5 cf 3f 13 9a 2a bf de 6c 0a be 55 0b 29 3f
       1.6236892 -0.6664135 -0.13518092 0.66032916
0000f0 6c 5c c8 bf 9d c6 51 bc 82 1f 7f 3f 44 56 ff be
       -1.5653205 -0.012803701 0.9965745 -0.49870503
000100 8b ae 59 3f 78 36 b0 3f e3 51 c7 bf f3 5c 9e 3f
       0.85031956 1.3766623 -1.5571865 1.2372116
000110 42 42 ab bf f7 6d 91 3f a3 1a 29 3d 0d 5b 94 3f
       -1.3379595 1.1361684 0.04128517 1.1590286
000120 11 3f 96 3f 9e 4e c1 3e ad 30 36 bf b2 33 69 3f
       1.1737996 0.37755293 -0.71168023 0.91094506
000130 71 db 36 3f 5c f6 94 3f 11 8c 9d bf af f5 23 3f
       0.7142859 1.1637683 -1.230837 0.6404676
000140 2b 55 b3 3f 19 a6 90 3f 50 71 e2 3e 7b 8e c1 be
       1.4010366 1.1300689 0.44227076 -0.37804016
000150 dd 37 7a be 92 76 d1 bf 9f f9 84 3e ad 17 99 be
       -0.24435373 -1.636431 0.25971696 -0.29900876
000160 17 77 b6 3f 34 97 9b 3f 65 cc 98 bf f0 0d 2d 3e
       1.4255093 1.2155519 -1.1937376 0.16899848
000170 07 a5 11 3e ff 9e e6 be 0c 28 e8 be 2b c0 c4 3f
       0.14223109 -0.4504318 -0.45343053 1.5371145
000180 e6 80 9a 3f c2 8f 96 3f f8 83 7d 3f 56 53 cd bf
       1.2070587 1.1762621 0.99029493 -1.6041057
000190 a6 77 c7 bf a8 f5 d6 3f 6f 38 c1 3f af 18 fb be
       -1.5583389 1.6793718 1.5095347 -0.4904227
0001a0 7b 20 b9 bd 9d 0b d0 bf 56 02 94 bf d6 7e 86 3d
       -0.09039398 -1.6253544 -1.1563213 0.06567161
0001b0 b1 05 d9 3f 4a fa 7c 3e dd 19 9a 3f 8a 26 1f bf
       1.6954862 0.24704853 1.2039143 -0.6216818
0001c0 dd 54 82 3f 35 bd 0b bf db c8 c5 bd 19 47 7c 3f
       1.0182148 -0.5458558 -0.09657451 0.98545986
0001d0 71 b8 90 3f f9 f2 51 bf 58 b8 63 3f cb 9a e0 bf
       1.1306287 -0.8201137 0.8895316 -1.7547239
0001e0 f1 8b 2e 3f aa d2 cf bf d3 8d 9c 3f 92 27 a6 3f
       0.68182284 -1.6236165 1.2230781 1.2980826
0001f0 cd 29 01 bf 73 16 29 bd 73 d2 53 3f 0b 8a bf 3e
       -0.5045441 -0.041281175 0.82742995 0.37410006
000200 0d 44 48 bf ea 6b b5 3e df 77 ba 3f a3 3a c3 3e
       -0.7822884 0.35433894 1.4567832 0.38130674
000210 b3 3d 31 bf 65 82 99 bf 73 bb 6c 3f d9 7f a5 3e
       -0.6923477 -1.1992918 0.92473525 0.32324103
000220 41 dc 2a bf 40 00 5a 3f 12 6b 0b bf 6a 60 9f bf
       -0.6674233 0.8515663 -0.5446025 -1.2451298
000230 da 58 2f bf e9 e9 2c 3f 60 70 8e 3f c3 b8 b7 3e
       -0.6849495 0.6754442 1.1128044 0.3588315
000240 b4 6a 21 3e bc c4 97 be 97 69 4c 3f 41 95 63 3f
       0.1576336 -0.29642284 0.7984862 0.8889962
000250 a7 90 8a be 46 e7 b4 3f 00 1c c3 3f 0f a9 bb bf
       -0.27063486 1.4133079 1.524292 -1.4660968
000260 bf ff 9e bf 2c 44 af bf f1 7a 87 bf fd 0f 7e 3f
       -1.2421798 -1.369268 -1.0584394 0.99243146
000270 c9 82 9f bf 42 67 1f 3f 34 79 bc bd 0f 02 9d 3f
       -1.2461787 0.62266934 -0.09202805 1.2266253
000280 ea 44 ad bf 4c 10 c2 3f 1c fa 17 3e 53 c8 a3 bf
       -1.3536656 1.5161223 0.14841503 -1.2795509
000290 e2 b5 5c 3f a8 27 30 bf 5a e8 db 3f a0 fd ac bf
       0.8621503 -0.6881051 1.7180283 -1.35149
0002a0 39 2e 5c 3f a1 c6 56 bf 38 ae 18 3f 31 37 d5 3f
       0.8600803 -0.83896834 0.59640837 1.6657468
0002b0 a9 f4 97 be 15 c8 1a 3f 77 66 af bf e9 39 29 bf
       -0.29678848 0.6046155 -1.3703145 -0.6610399
0002c0 38 37 27 be d1 b1 8a 3f a1 65 0d bf fb 9d 44 3f
       -0.16329658 1.0835515 -0.552332 0.7680356
0002d0 7b c4 8d 3f 2c a3 b5 bf e4 84 ed 3e 40 e5 98 bc
       1.1075586 -1.4190421 0.4639045 -0.018664002
0002e0 4c 70 a5 bf 5f 45 aa bf 4a 60 b6 3e 54 61 52 bf
       -1.2924895 -1.330242 0.35620338 -0.8217976
0002f0 61 e4 cc bf 21 ee 38 bf ca fe 9b 3f ac 6e 16 bf
       -1.6007196 -0.72238356 1.218713 -0.5876262
000300 d8 a9 3e 3f 7c 36 71 bf 9d 8b d8 3f 83 9a 02 bf
       0.7447791 -0.9422376 1.6917607 -0.51017016
000310 82 0f bb 3f 14 d2 19 3f d6 fe 4b 3f 89 e6 a6 3f
       1.4614108 0.6008618 0.79685724 1.3039104
000320 07 a9 9a 3f f1 54 c0 3f 8f 49 f6 be ac 7e c4 bf
       1.2082833 1.5025922 -0.48102996 -1.5351157
000330 62 c5 d4 3f 7c 6c 8e bf 4a 68 2d bf 6c ec 71 bf
       1.6622736 -1.1126857 -0.6773726 -0.94501376
000340 bf d0 60 3f 1c ad 7d bf af 07 f5 be 7e 19 a8 3e
       0.8781852 -0.9909227 -0.47857425 0.3283195
000350 15 bc 49 be 20 38 8d bf 11 10 b3 bf dd 1f 8c bf
       -0.19700654 -1.1032753 -1.3989278 -1.0947224
000360 69 33 82 3f 5f c3 a5 bd 21 bc 96 3f fa 7d 05 3f
       1.0171939 -0.08093905 1.1776162 0.5214535
000370 2c a2 c3 3f 6f 7b 4c 3f 2e 2d 8d be 2f 4e 96 3b
       1.5283866 0.79875845 -0.27573532 0.004586957
000380 50 e1 4e 3e d7 ac 8e 3f e1 44 99 3e 9e 0d b0 3f
       0.20203137 1.1146497 0.29935363 1.3754156
000390 38 a8 64 bf 75 af b3 3f f6 ef 35 3e 6f 36 c6 bf
       -0.8931918 1.403792 0.17767319 -1.5485362
0003a0 a9 7b a9 3f 2a 34 52 bd b1 f4 fb 3d 86 80 95 bf
       1.3240863 -0.05131928 0.123025306 -1.1679847
0003b0 c5 c0 68 3f 0e 6e f5 be 1d dd c2 3e ac 85 86 3f
       0.9091914 -0.47935528 0.3805932 1.0509543
0003c0 f1 4a 3d be e0 c1 4e bf e5 24 8f 3f a5 a1 ef be
       -0.18485619 -0.8076458 1.1183134 -0.46803012
0003d0 6b bd 83 bf b3 b4 c0 be 52 b5 70 3f a2 e6 f4 3d
       -1.0292181 -0.37637863 0.9402667 0.11958052
0003e0 ad 4b 89 3e c4 3f bb bf 9b 27 96 3f e6 12 c7 3f
       0.2681555 -1.4628835 1.1730837 1.5552642
0003f0 9a 15 d2 bd c9 b7 1b bf 9a a1 86 be 84 6e 8b bf
       -0.102580264 -0.6082731 -0.26295167 -1.0893102
