AR/lstm_wgan/G.pt (torch, 313567 bytes, 41 tensors)

encoder.lstm.weight_ih_l0 f4 [128, 1]
00000000: d4f0 9abd 98cc 48bf 64cc 913f 5950 a13e
00000010: 93a7 5a3f 5170 a93f 435e d73e a447 e0bf
00000020: 42e4 aabf 859b c23d 585a 9bbf a503 52bf
00000030: 0df6 283f 5536 fdbb 3e20 adbf 1532 723f
00000040: 2885 2f3f e31b 773f 0a33 be3f ba5b 27bf
00000050: 4b66 c03e fb81 cb3f 1f54 b7bd d764 cfbe
00000060: 642c d03d f7cd 0ebf 2194 66bf d174 483f
00000070: af8b 553d ff23 03bf a547 63be 00c6 b0be
00000080: 7904 e03f 5fe2 77bf a1ec e33e 02d7 233f
00000090: 2da3 1b3f 69ea a53f 6c19 3e3f 029f 703f
000000a0: ff03 d4bd e0e6 c5bf 9309 74bf 12cd 943f
000000b0: 9d65 c23f 6066 b2bf 2668 7ebd c245 983f
000000c0: cb28 88bf a4bc d13c 213e a83f 3cdf 80bf
000000d0: dad8 cc3f 72c1 d5bf 0b79 c6bf 94bd a5be
000000e0: 13b3 143e 0ad1 4abe efae 57bf ccf8 00bf
000000f0: 62aa d23e 2f09 73bf 05a2 c43f 8737 8fbf
00000100: 8300 e13f cfaa 86bf 4f73 9dbf d4d6 353e
00000110: 1e99 c8bf c9d7 113f 203c 6bbf 6515 25bf
00000120: a4bc 453f 14b2 8ebf 0afa 04be 1cb7 843f
00000130: cfa3 2e3f 3874 ab3f 42d3 d03f f901 973f
00000140: 18d3 d23e 3e8f 333c e3c9 6dbf 0421 da3f
00000150: 6195 d2bb ddda d03f 5b78 c9bf d120 c8bf
00000160: 78ed ca3f 977e fa3e aeb6 e7be 0a75 5c3d
00000170: 9e48 88be b7ed c93f 1ac9 0fbf b990 c2bf
00000180: 4dd0 0abe ad92 45be 579c 0f3f 92a2 b03e
00000190: e311 883f 442e 663e 09fa 94bf d1e9 b8bf
000001a0: cd06 a13f d2fc 283f aa96 a7bd f03f c3bf
000001b0: 927e 84bf 6711 a53f 6902 473f 5e62 bebf
000001c0: ad79 8bbf 5601 443f fe3a 203f 62f4 d4bf
000001d0: 615e e7be a476 433f f66b cb3f 45eb 62be
000001e0: 7ff1 c1be d7f3 d43f a48e 253f bee6 273f
000001f0: 7952 c1be c69b d3bf 843a 11bf 2dc2 843e
-0.075654656 -0.78437185 1.13905 0.31506613 0.8541195 1.3237401 0.42064103 -1.7521863
-1.3350909 0.09502319 -1.2136946 -0.8203681 0.66000444 -0.007727424 -1.3525465 0.9460767
0.68562555 0.96526927 1.4859326 -0.6537434 0.37578043 1.5899042 -0.08951592 -0.40506622
0.10164717 -0.5578303 -0.90069777 0.7830325 0.052135166 -0.512268 -0.22195299 -0.34526062
1.7501365 -0.9682979 0.4451647 0.6399995 0.6079586 1.2962161 0.7425754 0.93992627
-0.10352325 -1.5461082 -0.9532711 1.1625082 1.518726 -1.3937492 -0.062111042 1.1896288
-1.0637449 0.025602646 1.314396 -1.0068126 1.6003678 -1.669966 -1.5505689 -0.323712
0.14521436 -0.19806305 -0.842513 -0.50379634 0.41145617 -0.9493589 1.5361944 -1.1188821
1.7578281 -1.0520877 -1.2300814 0.17757732 -1.5671728 0.56969887 -0.9188862 -0.6448577
0.7724097 -1.1148095 -0.12986007 1.036838 0.682187 1.3394842 1.6314471 1.1797477
0.41176677 0.010959445 -0.9288618 1.7041326 -0.0064264988 1.6316792 -1.5739855 -1.5635015
1.585372 0.48924705 -0.4525656 0.053822555 -0.26617903 1.577567 -0.5616623 -1.5200416
-0.13556023 -0.19294234 0.5609793 0.3449903 1.0630459 0.22478586 -1.1638805 -1.4446355
1.25802 0.66010773 -0.08183034 -1.5253887 -1.0351126 1.2895936 0.7773805 -1.4873769
-1.0896508 0.7656454 0.62590015 -1.663708 -0.45189193 0.76352906 1.5892322 -0.2216006
-0.3787956 1.6636914 0.6467078 0.6558646 -0.37758234 -1.6531913 -0.5672991 0.25929394

encoder.lstm.weight_hh_l0 f4 [128, 32]
00000000: d962 863f 6900 51bf c00d 35bf 9de0 0dbe
00000010: f36e 173f 178a 51bf 449c 593f 86ef 4ebf
00000020: 375f d03f 4ee5 5a3f bc3b 66bf 23ec ac3f
00000030: b994 453d d33f a53e a317 93bf ce2b 84bd
00000040: 6d3b 123f f044 84be 0d1c cc3f ce00 ecbe
00000050: 49f3 9fbe 3aee 50bf 12f9 ce3e d11f 53bf
00000060: 3339 d33f 8ece 263c 083b 393e 9a6d bb3f
00000070: 8f67 d1bf 1938 f93d f7dc 663f a8f3 8f3f
00000080: 4cf7 a83f f77f 7e3f 2aa6 3abf a6ca 543e
00000090: b5b4 833f 6f2a 2abe 9a18 9ebe 4004 91be
000000a0: ff94 c3bf 3fe0 cc3f b8a0 1b3e 786a 9abf
000000b0: a246 33bf dae2 89bf cb61 e43e 959b 88bf
000000c0: a5b0 6ebf d5d1 d2bf b267 d43f 4c78 b0bf
000000d0: 64ca 77be bece 08bd bca9 c4be 1fae 28bc
000000e0: 9655 1bbe 49ee 173d c0c3 b2bf 0788 a03f
000000f0: 9371 2dbf fab7 323f 291a e4bf a8e6 c13f
00000100: cfe0 34bf feb3 413f ff9d cebe 13da ba3f
00000110: 4bcd 783f 7b77 cb3e b6b1 6d3f e602 b2bf
00000120: 1161 d13e d78c a13f c15f 9c3f bb70 48be
00000130: 0cd6 57bf 83b8 d0bf df1a 49be 6d69 b9bf
00000140: 040c 3fbf 6805 783f 268e a53f a92a c93b
00000150: 92a9 ad3e 1aa3 783f 148d d9bf f14c a9be
00000160: 82af 8b3f c58f a4bf 6574 b2bf 5568 dabf
00000170: 06bb 303f d6dd 523f b75c 41bf bcd4 d63f
00000180: 7c45 98bf 627a d83f 112e 553f c74e ad3f
00000190: 48af 40bf 67e9 c9bf 1993 7f3f 4344 ac3e
000001a0: 9e06 cfbf c2c2 963e db38 bdbe baf3 c13f
000001b0: db3f c03e 4894 a1bd c1b9 843f 7845 b0bf
000001c0: 44d6 0dbc 9890 7cbe 8336 c1bf e6f4 083f
000001d0: b115 87be c870 4b3f 54fc 953d 949a 9f3f
000001e0: 53a2 9dbf d4cc 83be 5731 57bf 78e4 e13f
000001f0: 6f06 aa3d f1dd 4cbf 2c64 5fbf d7a3 54bf
00000200: 4bdd 163f 13d8 803f 0c5e ca3f c11c 95be
00000210: 1e80 37bf ecc0 5b3f cd8b 763f 0efe 893f
00000220: 804c b53f 3e8e e63d e091 ba3f e824 8fbf
00000230: 6bcd 73bf d0b4 c53e f77f c73e 5fd2 52bf
00000240: a23e a03f 7ae1 763f fbcc c53f 9031 b93f
00000250: ae6b 6a3f d650 a3bf 9003 af3f 7fc8 2c3f
00000260: dc96 2c3f 4d3f 70bf 6196 b2bf 475b a4bf
00000270: 34eb c83f 74e1 9ebf 38d9 cdbf 9a57 923f
00000280: 8652 a5bd 0244 d53f 4bd6 393f 3481 9d3f
00000290: 5197 cebf d3fe ab3e 4dd6 473f 8f7a d03f
000002a0: d272 913f e288 de3f 2da7 db3f 699d d8bf
000002b0: 9182 e9bd 365a bb3f 4f9b 853f c1f5 04bf
000002c0: 0bf1 043f ddb8 91bf 4437 64bf 7e74 ab3f
000002d0: e8cf 79bf 48e7 afbf 938e 153f e806 843f
000002e0: 33b6 6d3f e71d d53f 4a5b d3bf 7383 77bf
000002f0: 3628 6b3e eb7f ac3e a3b9 e2bf 742e 89bf
00000300: 14fa 9ebf b6e0 bb3f bbaf 173f 9d03 56bf
00000310: 3b46 d6be 4b7a 433f 472e a53e f7c1 083e
00000320: 2d48 233f 4774 d2bf a83a c23f f69d b5bf
00000330: a67c d4bf 6f8a d33e 55e4 cdbf 159a 8d3e
00000340: da3c c93f 6acc 083f 8693 12bf bf27 a33f
00000350: 5f94 a0bf 84ef adbf 8e88 a8bf 9dd3 e03e
00000360: da5a 3fbf 675a bdbf dabb b1be 11f0 92bf
00000370: e438 a23f a659 c83f ac6c 01bf 8b85 c0bf
00000380: 954b 073f ad61 b5bf eb04 6b3f 0e1f fbbc
00000390: 63b9 d23f 4a07 6abf e73b 193f 480b a43d
000003a0: 43e0 97bf dd7b f9be 358f ce3f 37de 82bd
000003b0: 411f 493f 1dd7 ab3f be64 0abf 0341 84be
000003c0: 4759 8bbf b22e 993f ba1f 6e3f 7251 43bf
000003d0: 7966 92bf 7644 f33e 9900 253f 9cec 9bbf
000003e0: e68c 9abf ffb2 b53f c11f a93f 38a5 88bf
000003f0: 3400 b8be 829a 643e 6a10 6e3f bb44 acbf
1.0498916 -0.8164125 -0.70724106 -0.13855214 0.5915367 -0.81851333 0.8500407 -0.80834234
1.6279057 0.8550614 -0.899349 1.3509563 0.048237536 0.32275257 -1.1491588 -0.064536676
0.57121927 -0.25833845 1.594606 -0.46094364 -0.312403 -0.81613505 0.404244 -0.82470423
1.6501831 0.010181082 0.18088925 1.4642823 -1.6359729 0.12168903 0.90180916 1.1246233
1.3200469 0.9941401 -0.72909796 0.20780429 1.0289522 -0.1661775 -0.30878145 -0.28323555
-1.5279845 1.6005934 0.15198028 -1.2063742 -0.7002965 -1.0772355 0.4460586 -1.067248
-0.9323829 -1.6470286 1.6594145 -1.3786712 -0.241983 -0.03340029 -0.38410747 -0.01029542
-0.15169367 0.03709248 -1.3965988 1.2541512 -0.67751426 0.69811976 -1.7820483 1.5148516
-0.7065553 0.7566527 -0.40354916 1.4597801 0.9718825 0.39739594 0.9284929 -1.3907135
0.40894368 1.2621106 1.2216722 -0.19574253 -0.84310985 -1.6306309 -0.19639157 -1.4485298
-0.7462771 0.9688325 1.2934005 0.0061391187 0.33918434 0.97123873 -1.6996179 -0.33066514
1.0912936 -1.2856375 -1.3941771 -1.706309 0.69035375 0.82369745 -0.75532097 1.6783671
-1.1896205 1.6912348 0.83273417 1.3539666 -0.7526746 -1.5774354 0.9983383 0.3364583
-1.6173894 0.29445463 -0.3695744 1.5152504 0.37548718 -0.078896105 1.0369188 -1.37712
-0.008657042 -0.24664533 -1.5094761 0.53498685 -0.26383737 0.79468966 0.073235184 1.2469049
-1.2315162 -0.2574221 -0.8405966 1.7647848 0.08302008 -0.80026156 -0.87262225 -0.830625
0.58931416 1.0065941 1.5809951 -0.291235 -0.71679866 0.8584125 0.9630707 1.0780656
1.4163971 0.11257599 1.4575768 -1.1183138 -0.9523532 0.3861451 0.38964817 -0.8235225
1.2519114 0.964378 1.545318 1.446825 0.91570556 -1.2759044 1.3672962 0.6749343
0.67417693 -0.9384659 -1.3952142 -1.2840356 1.5696778 -1.2412553 -1.6081915 1.1432984
-0.08072381 1.6661379 0.7259261 1.2305055 -1.6139928 0.33592853 0.7806137 1.6287402
1.1363165 1.7385523 1.7160393 -1.6923038 -0.11401857 1.4636905 1.0438021 -0.5193749
0.519303 -1.1384541 -0.8914683 1.3394926 -0.97582865 -1.3742456 0.58420676 1.0314608
0.9285614 1.664975 -1.6512234 -0.9668495 0.22964558 0.33691344 -1.7712902 -1.0717301
-1.2420068 1.4677951 0.5925252 -0.83599263 -0.41850457 0.7635848 0.3226187 0.13355242
0.63782007 -1.6441735 1.517415 -1.4188831 -1.660054 0.41316554 -1.6085306 0.27656618
1.5721695 0.5343691 -0.5725635 1.2746505 -1.2545279 -1.3588719 -1.3166673 0.43911448
-0.74748003 -1.4793214 -0.34713632 -1.1479512 1.2673612 1.5652359 -0.50556445 -1.5040754
0.52849704 -1.4170433 0.9180438 -0.030654456 1.6462826 -0.9141737 0.5985703 0.08009964
-1.1865314 -0.48727313 1.6137453 -0.0639004 0.78563315 1.3425022 -0.5405997 -0.2583085
-1.088662 1.1967375 0.9301716 -0.7629615 -1.1437522 0.4751317 0.64454037 -1.2181582
-1.2074249 1.419525 1.3212816 -1.0675421 -0.35937655 0.22324565 0.92993796 -1.3458475

encoder.lstm.bias_ih_l0 f4 [128]
00000000: 83d5 6f3f 05d2 0b3f 310a 11bf 2785 bbbf
00000010: e3fd ba3f 757b 2bbf 7564 9bbf 59d1 343e
00000020: 1ee0 dfbf a513 c23f 5847 a9bf 5517 94bf
00000030: d396 28be 5e2a 913d 6664 093f 258e f13d
00000040: 99d3 7b3f 4468 9c3f 49fe a2be fc7e c23e
00000050: 2f46 5f3f 7599 73be 5806 b83f a3fc a53f
00000060: 006c 08bf e5ed 003f 6a5a debf f68d 90bd
00000070: 9200 1a3f 4599 cf3f 1d2e 8d3f b4e6 333f
00000080: 1837 da3f 1847 cabf 769c 943f 9fd2 80bf
00000090: 48a5 143f d9d7 b2bf ebe3 a33f 3401 cc3f
000000a0: ce16 203f 1b7e 2fbf 4fbf 863f e0fd 45bf
000000b0: 1b42 ccbf 784b dfbe 1ef6 993f 41ff da3e
000000c0: ba09 b4be 2aea 253f e944 8abf cdbe 88bf
000000d0: af79 b53f 875b 8bbf cfdb e23f 57dc bb3d
000000e0: f311 763e cc4c a6bf 98eb f53e b4ba a13f
000000f0: 480d a9bf 9f2a 42bf 64a5 e43e cba0 09bc
00000100: 902c d63f 355b 6fbf 3236 f1be 08f3 91bf
00000110: f643 9bbf 0c53 8fbf cef2 98bf 4bbb 57bf
00000120: aa1b 01bf f259 29bf ae3d b13f 0158 1dbf
00000130: 5b2f 323f 10cc 453f c078 55bf 8d54 4abf
00000140: 8a19 9a3f f05a d43e e45b 8cbf b5bb cabf
00000150: b6d0 44be eb68 863e 7a38 693f b5f5 aa3e
00000160: a63d a3be 6bfe 9ebe b5ea bf3f d941 b5bf
00000170: 029c 0cbf e9b1 df3f d418 bc3f 9b13 163d
00000180: 4df6 60bd 3880 cebf 1da4 8f3f 70f3 a7be
00000190: b900 263f bf85 61bf e33d f4be 013f 5abf
000001a0: c304 afbf 9382 16bf 658a 33bf 3e0a 13bf
000001b0: 913b 84be 170b db3e 45bc 5f3f fb24 1a3e
000001c0: dbe7 d13f fe07 b83f 145c 94bf dd82 c23e
000001d0: 03c9 ea3e 5a90 c23f 23e9 cb3f c214 d83e
000001e0: 93fb ab3e 423b 2cbf 4e62 1d3f 1c09 a0be
000001f0: 5d01 a93e a08f e83c ab55 983d 4dec 80bf
0.9368517 0.5461734 -0.56656176 -1.465001 1.460873 -0.66985255 -1.2140032 0.17657985
-1.749027 1.5162245 -1.3224897 -1.156962 -0.16463785 0.07088159 0.5366882 0.1179469
0.9836975 1.2219319 -0.3183463 0.37987506 0.87216467 -0.23789008 1.4376936 1.2967724
-0.53289795 0.50363 -1.7371342 -0.07058327 0.6015712 1.6218649 1.1029698 0.702739
1.7048063 -1.5802946 1.1610248 -1.0064276 0.580647 -1.3972121 1.280393 1.5937867
0.625348 -0.68551797 1.0527133 -0.7734051 -1.5957674 -0.43612266 1.2028234 0.42772868
-0.3516367 0.6481043 -1.080228 -1.0683228 1.417776 -1.0887307 1.772333 0.09172886
0.24030285 -1.2992187 0.48031306 1.2635102 -1.3207178 -0.75846285 0.44657433 -0.008400152
1.6732349 -0.93498546 -0.4711166 -1.1402292 -1.2130115 -1.1197219 -1.1949098 -0.8427016
-0.50432837 -0.6615287 1.3846948 -0.6146241 0.6960351 0.772645 -0.83387375 -0.79035264
1.2039044 0.4147563 -1.0965543 -1.5838534 -0.19220242 0.2625192 0.911018 0.33390585
-0.31882972 -0.3105348 1.4993502 -1.416072 -0.5492555 1.7476169 1.4695077 0.03663979
-0.05492239 -1.6132879 1.1221958 -0.32802916 0.6484485 -0.88094705 -0.47703466 -0.85252386
-1.3673328 -0.5879299 -0.7013305 -0.57437503 -0.25826696 0.42781898 0.8739665 0.1505317
1.6398882 1.4377439 -1.15906 0.37990466 0.45856485 1.5200303 1.5930523 0.42203337
0.33590373 -0.6727792 0.61478126 -0.3125695 0.33008853 0.028388798 0.07438215 -1.0072113

encoder.lstm.bias_hh_l0 f4 [128]
00000000: b5cf 5d3f 6f36 403f 87f5 e13f afaf fcbd
00000010: 8a4c bebf 05d2 6dbd db33 d6bf 0bb9 5c3d
00000020: 0efc 1a3e cd72 793f b47b eabd fbe0 033e
00000030: d09c cdbe dbbf b6bf 3bdf 333c c0a4 0fbf
00000040: 8178 28bf aeae a83f c19a be3f e70b 003f
00000050: b044 b2bf 9006 0abf 386e 483f a407 d2bf
00000060: a6fe 363e d8df 8cbf 9309 71bf 76d0 eebb
00000070: aab2 a73e ab09 bbbd 5344 33bf 3447 ff3d
00000080: 1741 163f c37b d7bf 66b8 9e3f c4ec c9bf
00000090: 9d2d cbbf c322 34bf 6643 a13f 9758 b93f
000000a0: 9d76 c4bf ab39 de3e 04fc b2be 300b 75bf
000000b0: a95e 9fbf da62 ec3e ce13 2f3f 7876 dc3f
000000c0: 2a23 65bc 6140 8dbf 4262 96bf 2c52 6dbf
000000d0: 15e1 99bf a680 343f 0467 5abe 4a17 56bf
000000e0: 6dad c9bf 7315 93bf adac 6e3f d4a5 ca3f
000000f0: 1b22 dbbf ba23 5e3f 3f76 f1be 0c28 413e
00000100: 8764 7ebf 6b98 1abf 7c3e 8bbf aa88 c83e
00000110: 74f9 773f 9aed 11be 718f c3bf 3063 c0bf
00000120: 6f6c a13f 72e7 493f 9fae bcbf 81a5 51be
00000130: b341 a83f 1cc6 e0bf 4a2a ad3f 0eec d5bf
00000140: 8130 7cbf c58b fa3e 9e91 73bf f94b d73f
00000150: 0b7c 2fbf 1a42 e03e d196 913f 592b b4bf
00000160: 1417 5abe cf2f b63f aff6 92bf ca90 58bf
00000170: e54e 8cbf 81c6 573f 5619 a33e 3d06 a8bf
00000180: a5df fb3e 8d93 593f e089 cb3f a401 603f
00000190: a0a3 e8be a67f 18be c841 5c3f 3689 8b3f
000001a0: 32b3 5f3f 9101 11bf 40f5 88bf e9b4 df3e
000001b0: cb20 3a3e b3d3 4bbf 58b2 b53f dbb5 2ebf
000001c0: b8fe 3d3f 2ac0 89bf 5f06 c4bf 0528 c63f
000001d0: 8bbb 833e b887 8d3f f945 4a3e 512c 2dbf
000001e0: 9619 bfbe 4ccf 243f fba1 11be d95a 36bf
000001f0: e027 91bf 9613 67bf 0774 2bbf f414 e23d
0.8664506 0.7508306 1.7653054 -0.123381965 -1.4867108 -0.05806162 -1.6734575 0.05388741
0.15135214 0.974408 -0.11449376 0.12878792 -0.401587 -1.42773 0.010978515 -0.56110764
-0.65808874 1.3178308 1.4890977 0.5001816 -1.3927212 -0.53916264 0.7829318 -1.6408582
0.17870578 -1.1005812 -0.94155234 -0.007288034 0.32753497 -0.091327034 -0.7002613 0.12464753
0.5869307 -1.6834644 1.2400024 -1.577538 -1.5873295 -0.7036554 1.2598693 1.448016
-1.5348698 0.43403372 -0.34957898 -0.95720196 -1.2450763 0.46169168 0.68389595 1.7223654
-0.013985435 -1.1035272 -1.1748736 -0.9270351 -1.2021815 0.705088 -0.2132836 -0.83629286
-1.575605 -1.1490921 0.9323223 1.5831857 -1.7119783 0.86773264 -0.47160527 0.18862933
-0.9937214 -0.6038882 -1.0878444 0.39166766 0.9686501 -0.14250794 -1.527815 -1.503027
1.2611216 0.7886878 -1.474079 -0.20473291 1.314505 -1.7560458 1.3528531 -1.6712663
-0.9851151 0.4893476 -0.9514407 1.682006 -0.6854865 0.4380043 1.137415 -1.4075729
-0.21297866 1.423334 -1.1481532 -0.8459593 -1.0961577 0.8428727 0.31855267 -1.3126904
0.49194065 0.8499077 1.5901451 0.87502503 -0.45437336 -0.14892444 0.86037874 1.0901248
0.87382805 -0.56643015 -1.0699844 0.4369271 0.18176572 -0.796199 1.4195051 -0.6824624
0.74216795 -1.0761769 -1.5314444 1.5480963 0.2572902 1.1057043 0.19753255 -0.67645746
-0.37324208 0.6437881 -0.14221947 -0.7123237 -1.1340294 -0.9026426 -0.6697392 0.11039153

encoder.lstm.weight_ih_l1 f4 [128, 32]
00000000: 9159 b8be aa69 91bf a9b3 4c3f 0376 87be
00000010: 6305 acbf 7b8b 783f 90c1 af3e 9e2b 5a3f
00000020: 1be1 f5be 00e6 c03f 3007 e0bf c03d 2e3f
00000030: ec3c bebf 1470 00bf 9904 8b3f e182 cb3f
00000040: 43fb c0bf c71e 4c3f 014d 4e3e f10a 833e
00000050: a58a f4be 7555 0fbf 44a9 893f eaa7 78bf
00000060: 6384 643f a234 133f 45c4 24bf cd2c 773f
00000070: 9e8c b3bf ed86 243f 95ea d53f 6351 dc3f
00000080: 7168 243e 139e c5be b99b 78be 8f94 55bf
00000090: 0c7d 943e fed6 80bf 285a e1bf 4010 a63f
000000a0: b55b 9b3f d8f7 6bbf 4e10 8fbf 628d d5bf
000000b0: fa78 04bf b53b 54bf 468c 4abf a8ae b43f
000000c0: b522 edbd 3c26 053f 1bcd d33f 1112 c23e
000000d0: 0407 b1bf ffe3 c13f 8e46 213e 7992 adbf
000000e0: 1b55 943e c4a3 ef3e 8f93 c73f 0085 383f
000000f0: 3b56 283f 61ae 833f 3fcf abbf 9a25 84bf
00000100: 377a be3d 855b ad3f 367c 173e 271e b03f
00000110: 36d1 b93f 56dd d03f eba0 20bf 0fdc e73e
00000120: fb12 b0bf d6dc 403f f602 16bf ba18 b03f
00000130: 6ac5 dbbf ced5 a13e 4261 303e 162e 353f
00000140: c415 b13c 4b15 863f 21e0 b8bf ac22 8d3f
00000150: 9b7a cb3e 405d 5f3f 6a3b 10bf 69e7 babf
00000160: 2835 8ebf 9220 e7be 3e1a 703e adfa a6bf
00000170: d298 d9bf 1ded 7ebf 98ed 143e 433f abbf
00000180: 90e1 f8be 582b c13f 7562 d13d 416c 1d3e
00000190: f7af 8cbf d774 dabf 853e c83f cdd4 be3f
000001a0: 369b 01bf c190 71be 63d1 d2bf fa08 36bf
000001b0: d80f afbf 3fd3 7bbf f4b5 af3e 80ec 85bf
000001c0: b385 933d 2220 abbe 4aa6 b83f 7f76 40be
000001d0: 5457 bb3f 4c9b d1bf 3091 e43e dc89 e1bf
000001e0: bb9c b83f f31a 3ebf 3606 6dbf 119d c13f
000001f0: 371e 21be e105 b43f 20bb abbf dcbe 8dbf
00000200: f7df 15bf 6024 743e f2aa 7d3f e030 c73f
00000210: 8f2f 753f 4041 af3f 926e 053f 1429 dbbf
00000220: 4394 db3f d340 133f 0ea2 46bf 5278 05bd
00000230: 75d2 d33f d6f6 d53f 2051 b4be 5979 f33e
00000240: 9f98 d8bf 46bc 97bf b28e 02bf 7ef6 61bf
00000250: 9e60 19bf 9583 e33e 734d 463f 66f8 d3be
00000260: 499c 88bd 6504 c1bf fae5 30be 89c0 8c3f
00000270: ae15 9ebf 086e eb3e 099d 613f 5443 0e3f
00000280: 5134 2e3e 5b49 8c3f 0d58 3fbf 39ec babf
00000290: c177 72bf 3f52 e2bd 26e7 9d3f 46cb c9bf
000002a0: d2df f63e 4abc 86bf f76f da3f 3ada c63e
000002b0: 78ad 973f 13b5 db3f 48b0 c6bf 9b2a 9f3f
000002c0: 5baa 0e3f 4778 01bf c6ce a4bf 3a4d 99bf
000002d0: 9415 343f c11c ecbd 1389 83bf 03f5 83bd
000002e0: ecdb b2bf 7a68 d0be ee33 6abf a549 dabe
000002f0: 79b4 d23f d30f d13f 523f 443f 46cb 64bf
00000300: a54b 66bf 1289 4d3f f4d9 47bf 5f28 363c
00000310: 1993 363f 9a2d 9a3e 60f2 7c3f b3dd 60be
00000320: 5c9f 583f a0c1 dfbf 0f49 e43c 4fa8 c33f
00000330: 5f7c c13f 9c54 3fbf 0399 783e 49a1 a63f
00000340: 2056 48bf 5c3d e33e 1cf6 0dbf 312b 45bf
00000350: 0356 58be 338a 9a3d ac93 843f a4d4 1bbf
00000360: e9b6 86bf 394e 123f 1a80 583f cf17 b3bd
00000370: aa99 d83f dc36 303e d50a 793f 30c9 b5bf
00000380: 71ea ac3d bb0c 773f 036f d1bf 8fcd 38be
00000390: 42fd 753f 5d4b b3bf 6d31 c9bf 609c 3e3d
000003a0: 0526 263f cdc1 7dbf 1997 6c3f 4136 47bf
000003b0: 591f 543f 7e94 b13e 7b0d 7c3f 27cc a63e
000003c0: 518b 143f 8a07 83bf 94e1 06be 955f 7b3f
000003d0: deed b23f ba34 223f ed1a 983f 1ebd d63f
000003e0: c6f5 5d3f 0a0d ddbf b97b c4bf e952 be3f
000003f0: 68e8 abbf 892b df3f 5983 16bf 359b 903f
-0.36005834 -1.1360371 0.7996164 -0.26457223 -1.3439144 0.9708783 0.34327364 0.85222805
-0.48023304 1.507019 -1.7502193 0.68062973 -1.4862342 -0.5017102 1.0860778 1.5899316
-1.5076679 0.7973446 0.20146562 0.25594285 -0.47762027 -0.5598977 1.0754781 -0.97131217
0.89264506 0.57502186 -0.64361984 0.96552736 -1.4027288 0.6426838 1.6712214 1.7212337
0.16055466 -0.38597164 -0.24278153 -0.8342981 0.29001653 -1.006561 -1.7605639 1.2973709
1.2137362 -0.92175055 -1.1176851 -1.6683772 -0.51747096 -0.82903606 -0.7912029 1.4115801
-0.115788855 0.52011466 1.6546968 0.3790441 -1.3830266 1.5147704 0.1574957 -1.3560325
0.2897118 0.4680463 1.5591906 0.7207794 0.6575658 1.0287591 -1.3422621 -1.0323975
0.093006544 1.3543555 0.14793476 1.3759202 1.4516971 1.6317546 -0.6274554 0.4528508
-1.3755792 0.7533697 -0.5859827 1.3757546 -1.7169621 0.31608433 0.17224601 0.70773447
0.021616824 1.0475248 -1.4443399 1.1026206 0.39741978 0.87251663 -0.5634066 -1.4601871
-1.1109972 -0.45142037 0.2344751 -1.304525 -1.6999762 -0.99580556 0.1454376 -1.3378681
-0.4860959 1.5091352 0.10223857 0.15373327 -1.09912 -1.7066907 1.564408 1.4908692
-0.5062746 -0.23590375 -1.647015 -0.7110745 -1.367671 -0.9836921 0.34318507 -1.0462799
0.072032355 -0.33422953 1.4425747 -0.18795203 1.4636025 -1.6375518 0.4464202 -1.7620196
1.442283 -0.7425987 -0.925876 1.5126058 -0.15734182 1.4064294 -1.3416481 -1.1073871
-0.5854487 0.23842001 0.99088967 1.556179 0.95775694 1.3691788 0.5212184 -1.7121911
1.7154621 0.5752079 -0.77591026 -0.03258545 1.6548601 1.6715953 -0.35218143 0.47553518
-1.6921576 -1.1854331 -0.50998986 -0.8826674 -0.5991305 0.44436327 0.7746193 -0.4140045
-0.06670434 -1.5079466 -0.17275229 1.0996257 -1.2350366 0.45982385 0.8813024 0.55571485
0.17012145 1.0959886 -0.7474373 -1.460334 -0.9471398 -0.110508434 1.2336166 -1.5765159
0.48217636 -1.0526211 1.7065419 0.3883837 1.1849813 1.7164634 -1.5522547 1.2434877
0.5572869 -0.50574154 -1.2875602 -1.1976693 0.70345426 -0.11528922 -1.0276207 -0.06443217
-1.3973365 -0.4070471 -0.9148549 -0.4263431 1.6461326 1.6332954 0.7665912 -0.8937267
-0.89959174 0.8028728 -0.78066945 0.011118024 0.71318203 0.30112916 0.98807335 -0.21959572
0.84618163 -1.7480965 0.027866868 1.5285739 1.511608 -0.7473848 0.2427712 1.301797
-0.78256416 0.4438275 -0.5545366 -0.7701903 -0.21126561 0.07545891 1.0357566 -0.6087134
-1.052457 0.5715061 0.8457047 -0.087447755 1.6921895 0.17208427 0.97282153 -1.4202023
0.08443154 0.965038 -1.6362003 -0.18047164 0.96089566 -1.4007374 -1.5718209 0.04653585
0.64901763 -0.9912384 0.92418057 -0.7781716 0.8286033 0.34683603 0.9845807 0.3257763
0.5802508 -1.0236676 -0.13171989 0.9819272 1.3978841 0.63361704 1.1883217 1.6776464
0.86703146 -1.7269604 -1.5350257 1.4869052 -1.34303 1.7435161 -0.5879417 1.1297365

encoder.lstm.weight_hh_l1 f4 [128, 32]
00000000: 696f 81bf a78d 103f 62a2 be3e 0d53 d33f
00000010: a42d 9cbe e911 85bd b702 ab3f 0777 aabf
00000020: c3c8 e63e c159 e03f 925c 20be 58d8 473e
00000030: 20a5 983f 28e9 56bf ec8d a7bf 42a4 89bf
00000040: 4762 c7bf ebf8 b13f b904 e93e c960 c7bf
00000050: 47ef c83f 1c7c 1cbe ab5f 2ebf 98a0 8c3f
00000060: 324b 9bbf aadb 6d3e 9d29 46bf b218 c23f
00000070: 5748 9e3f 67b1 db3e 2cf1 8f3f 9dcc a33f
00000080: b6cb b63f 50ce 29bf 9409 b23d 0e0a 1abf
00000090: df9d 383f 2e65 a6bf d087 17bf ae54 93be
000000a0: 3631 ca3f aabb c5bf 2799 82be 0531 dbbf
000000b0: bc2d 89be 85e6 94be adb4 cfbf 14b1 a8bf
000000c0: 8672 81be 29ab 003f f1eb 40bf 8d92 bb3f
000000d0: ac33 b0bf 4868 773f 5cbd f03e 003c f13e
000000e0: 0f42 bbbf dfd8 0e3e 00e6 2a3e b3f0 793e
000000f0: de57 803f e4ef c1bf 0ff6 853f d273 c63f
00000100: 8fbd 23be 82ee 4b3f a013 d6bd b8bf 9f3f
00000110: 9fc6 733f 3c9a 75bf 9607 6b3f 4fea adbf
00000120: c018 5ebf 870c fdbd 63bc 9dbf 3e36 253f
00000130: 5d61 cb3f c0b3 dd3f e4a7 373f 0322 a33d
00000140: f977 fbbe a148 1f3f e376 513f 74fd dc3e
00000150: aaa7 9e3d fe45 22bf c034 033f 5f73 ebbe
00000160: e667 773f 7894 3c3f 431e 9cbf 29f7 3cbf
00000170: 38b2 8bbf c5ea a6bf cfad 4bbf 9b15 dcbf
00000180: 6e68 debf 041d b9bf f6d1 94bd a2f3 c23f
00000190: 56b1 8b3e a247 f43e c32a 9b3d 41a9 adbf
000001a0: 34ed b23e 9555 cd3f 4feb 6f3f 69bf 2a3f
000001b0: 038b c1bf 2738 c9bf 9e11 80bf c008 a93f
000001c0: 20aa 38be ae19 17bd 617b 9cbe 4037 b9bf
000001d0: 00cb c63f b9bb 48bf 8002 4dbf 3314 b0bf
000001e0: 5379 8c3f 8eb6 9abf 0f61 993f 52e7 193e
000001f0: ab4a 7fbf 4696 b6bf 2d5f 833f 0eea 8abe
00000200: 10a4 8b3e 2655 b03f 3d30 5abf f906 1ebf
00000210: 2138 17bf 346c b1bf 0846 dcbf 2c9f d43f
00000220: 8253 91be ec06 10bf 2f3e 8fbf 697f a63e
00000230: c591 933f 66f5 893e ef77 22bf a296 8ebd
00000240: 5ac5 debf b55d 0cbf b7a0 e7bd 1c07 c83f
00000250: 27b9 b2be 96a2 a53f 794d c0be eb5c b2bf
00000260: 45ee a83f c5f3 bcbd 04c9 25bf 99c1 063f
00000270: 40a8 5cbf cf11 19bf 9e22 b03e 025d 95bf
00000280: e958 983f db40 d2be 60d8 143f 59f0 e5be
00000290: 57fc a93f 5472 693f 9a3d 8ebe ff4c 883f
000002a0: 6a7d 9b3d 4fd3 aebf d1ff 97bf 3b1d d9bf
000002b0: baf1 11bf 3c53 693b 4d31 c83f dbad 14be
000002c0: 0966 b0bf 00a7 96bf e456 c0bf e93b 94bd
000002d0: 8bcd a73e 6c00 943f 007e 6dbf 1e11 28bf
000002e0: 619c 7e3d 7128 c8be d05d fc3e 0e0a 2cbe
000002f0: 2eee b7bf 4eaf cc3f cc24 9dbf 1bc6 5fbe
00000300: 9709 9abf 8160 22be d6f2 993f baca 84bf
00000310: f2db 393f ebee 8a3f 0026 2fbe 497d 8bbf
00000320: bbc3 9f3f f636 7b3f 29a4 823f fc84 56bf
00000330: f3e2 8cbf 9f5e 4d3f 572d 553d 0d0c c8bb
00000340: c1d7 61bf fca0 103f 0752 94be f54e d6bf
00000350: 74b8 a73f 50f7 04be e69e 1cbf d3c1 cd3f
00000360: 0177 1d3f 1e74 94bc 8032 b83f 8b8d 41bf
00000370: 26dd d5bf 3fb9 063d 03ba 7d3f 368c 8a3f
00000380: 3259 993e 806a 89be 8018 743e 1b93 ca3f
00000390: 44f8 9a3e c2a6 a23f e6ad bbbf 0f76 d03e
000003a0: 437d a4bf 1475 703e 031d 90bf 6d03 da3f
000003b0: 4555 7b3d 0791 c73f 2700 d8bf 5e69 b0be
000003c0: 6be6 ff3e 6e74 a8bf a956 d9bf b008 e73f
000003d0: a044 0b3d 6d82 06bf 1b26 babf 93d4 793f
000003e0: f56a 3a3f 965f 50bf 9d9d 193f a0bf b3bc
000003f0: 7f90 983e f045 9b3f 2f48 10bf 9a03 ecbd
-1.0112125 0.56466144 0.37233263 1.650972 -0.3050357 -0.06497557 1.3360204 -1.3317574
0.45075044 1.7527391 -0.15660313 0.19516122 1.1925392 -0.8394952 -1.3090186 -1.0753253
-1.5576867 1.3904089 0.45511416 -1.5576411 1.5698022 -0.15281719 -0.6811473 1.0986509
-1.2132323 0.23228326 -0.77407247 1.5163786 1.2365826 0.42908785 1.1245475 1.2796818
1.4280918 -0.6633043 0.08693233 -0.6017159 0.7211589 -1.2999628 -0.5919161 -0.28775543
1.5796268 -1.5447896 -0.2550747 -1.7124335 -0.26792705 -0.29082122 -1.6227013 -1.317904
-0.25282687 0.5026117 -0.7536002 1.4654099 -1.3765769 0.96643496 0.4701947 0.4711609
-1.4629534 0.13949917 0.166893 0.24408226 1.0026815 -1.5151334 1.0465716 1.5504096
-0.1599028 0.7966081 -0.10452962 1.2480383 0.95224947 -0.9593847 0.9180845 -1.358713
-0.86756516 -0.12355905 -1.2323116 0.6453589 1.5889088 1.732048 0.71740556 0.079654716
-0.4911497 0.622202 0.8182203 0.4316212 0.07746823 -0.6338805 0.51252365 -0.4598646
0.9664291 0.73664045 -1.2196735 -0.73814636 -1.0913763 -1.3040396 -0.79562086 -1.7194093
-1.737562 -1.446198 -0.07266609 1.5230601 0.27283734 0.47710901 0.075765155 -1.3567277
0.34946597 1.6041743 0.9371843 0.6669832 -1.5120548 -1.5720261 -1.0005376 1.3205795
-0.18033648 -0.036889724 -0.3056288 -1.4469986 1.5530701 -0.7841144 -0.8008194 -1.3756164
1.0974525 -1.2086961 1.1982745 0.15029648 -0.9972331 -1.426461 1.026342 -0.27131695
0.27273607 1.3775985 -0.85229856 -0.6172939 -0.5907002 -1.3861146 -1.7208872 1.6611075
-0.28384024 -0.5626056 -1.1190852 0.3251908 1.152886 0.26945037 -0.63464254 -0.06962325
-1.7403977 -0.54830486 -0.11309951 1.562717 -0.34906885 1.2940242 -0.37559107 -1.3934606
1.3197714 -0.09226183 -0.6475985 0.52639157 -0.8619423 -0.597928 0.3440141 -1.1669009
1.1902133 -0.41065106 0.5814266 -0.44909933 1.3280133 0.91190076 -0.27781373 1.0648497
0.0759228 -1.3658236 -1.1874944 -1.6962045 -0.5700947 0.003560259 1.5640045 -0.14519446
-1.3781139 -1.1769714 -1.5026517 -0.072379895 0.32774004 1.1562629 -0.92770386 -0.6565112
0.062160853 -0.39093354 0.49290323 -0.1680071 -1.4369562 1.5990999 -1.2276855 -0.21852915
-1.2034177 -0.15857126 1.2027233 -1.0374367 0.72601235 1.0854162 -0.1710434 -1.0897609
1.2481607 0.9813074 1.0206348 -0.8379667 -1.100676 0.80222505 0.052045193 -0.006104952
-0.8821984 0.5649564 -0.28968832 -1.6742846 1.3103166 -0.12984967 -0.6117996 1.6074775
0.6150971 -0.018121775 1.4390411 -0.756066 -1.6708114 0.03289151 0.99111956 1.0824039
0.29950863 -0.26839066 0.23837471 1.5826143 0.30267537 1.270714 -1.4662445 0.40715072
-1.2850727 0.23482162 -1.1258854 1.7032295 0.061360616 1.5591134 -1.6875046 -0.3445539
0.49980482 -1.3160532 -1.6979572 1.8049526 0.034000993 -0.52542764 -1.4542879 0.9758999
0.72819453 -0.8139585 0.60006124 -0.02194196 0.29797742 1.2130718 -0.56360143 -0.115241244

encoder.lstm.bias_ih_l1 f4 [128]
00000000: 608e 4a3f b8b0 9c3e ecf9 a53e 007e 39be
00000010: 70b8 d4bf 3e96 47bf 6032 5b3e 163c 8c3f
00000020: 9726 763f b00d 43bf a3d0 a13f bbb4 e53e
00000030: b5e2 30be d2f0 b03f 8cb1 103f cc84 a3bf
00000040: 33c4 303e 8655 38bf 0091 8a3f 213a 9cbf
00000050: a885 a03f 9f24 dc3e 2383 e13e 6dc8 c13f
00000060: 740d c03e 6a15 b3bf 03fa acbf e8d6 a33f
00000070: 6b53 c83f c0ed 87bf 73ad 933d cb4d 883f
00000080: 7cfe 6fbf 8182 4f3f 43c4 fc3e 1d78 4d3f
00000090: 8b5b 15bf e028 41bf 5aab 33bf 7dc6 b3bf
000000a0: 816e 6ebf 8519 38be 5664 94bf 312f af3f
000000b0: 98ed 763f a211 9ebf cb04 a23e bdd2 d83e
000000c0: 8085 b5bf 6707 303f 57c3 83bf 85dc d53f
000000d0: ad80 86bf 8a16 f73e 5c03 95bd 9f53 c73f
000000e0: 75e9 8c3f 2c77 acbf 36dc 053f 53f3 c7bf
000000f0: 2bdf 0cbf 38ee 613e b48e ab3f 1b3b cb3f
00000100: fd1c b13f 9286 913f e97c b1bf 933c 38bf
00000110: 8016 a6bf 5b54 ec3e c4a8 663d cdda 8e3f
00000120: 84b8 ad3f 47c8 d6bf 4e6b fabe 8e48 95be
00000130: 7273 28bf 9e22 69be 14ab 94bf 1769 f43e
00000140: bad7 83bf 2d2a 8ebf 6510 a7bd a14f 3dbf
00000150: db91 b43d c35c 12bf 1843 ae3e 7e2b 8ebf
00000160: 1260 6c3f 7d4d b2be 11eb 053f 9bfc a23e
00000170: 437f a53f 2b85 e93e 61c9 a73f e2d3 43bf
00000180: 3af4 8ebe fb81 ffbe 57e1 1f3f 5c52 e63e
00000190: 1576 b93e c242 0ebe 61ce 82bf 0fb6 81be
000001a0: c878 94bd a962 ea3e 94c2 683e 17ae 363e
000001b0: e3ab d7bf ada4 a3bf ccf2 d8bf cfe6 6ebf
000001c0: 4605 3d3f 18f4 67be cf52 d9bf 941f d9bf
000001d0: 18d1 f4be f45b b5bf 1751 0c3f 34c7 52bc
000001e0: d804 9dbf 4ebd 8fbf 2ebf 5cbf 2ab5 e7be
000001f0: 7620 0a3f 283a 9abf b438 6dbf 1a86 563e
0.79123497 0.30603576 0.32417238 -0.18114471 -1.6618786 -0.77963626 0.21405935 1.0955837
0.96152633 -0.7619276 1.2641796 0.4486445 -0.17273982 1.3823493 0.56520915 -1.2774901
0.17262344 -0.720055 1.08255 -1.220524 1.2540789 0.4299669 0.44045362 1.513929
0.37510264 -1.399091 -1.3513798 1.2799959 1.5650457 -1.061943 0.07210817 1.064874
-0.9374769 0.8105851 0.49368486 0.80261403 -0.5834281 -0.75452995 -0.70183337 -1.4044949
-0.93137366 -0.17978485 -1.159312 1.3686277 0.9645629 -1.2349131 0.31644282 0.4234828
-1.4181366 0.68761295 -1.0293988 1.6707922 -1.0508019 0.48259383 -0.072760314 1.5572394
1.1008745 -1.3473868 0.5228914 -1.5621132 -0.5502803 0.2206353 1.3402925 1.5877413
1.3836972 1.1369193 -1.3866245 -0.7196743 -1.2975616 0.46158108 0.05631329 1.1160523
1.3571935 -1.677987 -0.48909992 -0.29156917 -0.65801156 -0.22767112 -1.1614709 0.47736427
-1.030021 -1.1106621 -0.08157424 -0.7394963 0.08816882 -0.57172793 0.34035563 -1.1107023
0.9233409 -0.34824744 0.5231181 0.31833348 1.2929462 0.45609412 1.3108331 -0.7649518
-0.27920705 -0.49903855 0.62453216 0.4498471 0.36222902 -0.13892654 -1.0219232 -0.25334212
-0.072496 0.45778397 0.22730476 0.17839848 -1.6849331 -1.278463 -1.6949096 -0.93320936
0.7383617 -0.22651708 -1.6978396 -1.6962762 -0.47815776 -1.4168687 0.54811233 -0.012864877
-1.2267103 -1.1229646 -0.8622922 -0.45255405 0.5395578 -1.2048998 -0.9266465 0.20949593

encoder.lstm.bias_hh_l1 f4 [128]
00000000: b25b 593f 1c06 c53e 59d5 b3bd e6ea 573f
00000010: eac0 a5bf 1b0b 9dbd 4553 e3bf 59be cdbe
00000020: 5c0f 9dbf a865 8b3e 5608 eabe edc9 92bf
00000030: 2747 8e3f 08ce d7bf 7f85 6bbf ca2f c6be
00000040: 756c 9c3f cd15 553f 149c 09be 1f51 923e
00000050: 073b 713f 2bfc 81bf 3466 b4be 6c72 c33f
00000060: 36aa 103d 0595 cdbf 42c2 d23e 985f 3b3f
00000070: d2f1 dabf 389b 063f 9d72 f2be 5a53 7dbf
00000080: d918 d33f 583b f23e 97c3 34bf ad75 bd3f
00000090: dd0f ec3e c0c3 72bf cc3b c6be 8783 b53f
000000a0: 7491 c73f 6e07 94bd 7e77 553f eff1 0e3f
000000b0: 5291 b83f cedf f8be 70dd 543e 1f1c d1bf
000000c0: be7e bebe 6443 863e 1520 c23f 407f b9bf
000000d0: 6346 d83f d1a8 bb3f 0742 793f cc06 fa3d
000000e0: c086 d63f 41fd 81be d410 cc3f 958a 963e
000000f0: 8091 b8bf 6b00 9fbf 18fb 0a3f e80e 93bf
00000100: 3bf7 21bf 1437 96bf 5649 23bf 4978 053f
00000110: 9a5c a7bd 88d1 b83f db1f 383f 14ae 2f3e
00000120: 65e4 8c3e 773e 73bf 2023 d33f ed40 1fbf
00000130: 43b6 9a3f 4d11 e43f fb72 a0be ee27 df3f
00000140: 175c 08bf 8fb6 cd3f 7a42 97bf 1696 c1bf
00000150: c93d d2bc bb2b 4abf b4f0 0f3f 796c 553f
00000160: 5f4a 0cbe ea36 dd3f f56c 72bf bb05 a4bf
00000170: a080 463f b0fd 903f 9de0 76bf a047 803f
00000180: e4df e63f 1f34 7cbf 8a40 8d3f 7932 8bbf
00000190: aa7a 0abf 041f ad3e ebd5 58bf 3a82 dcbf
000001a0: 60c0 923f 9d6d 0e3f e584 7c3f 2a7e 3e3f
000001b0: ee4d ca3f 1d30 4d3f 2b24 1bbf e261 8bbf
000001c0: d905 84bf d773 7abf dafb 8fbf f145 afbf
000001d0: 3c24 5cbf a040 68bc 252c b1bf 06ac 2cbf
000001e0: 7cdd 89bf 60b8 b1bf 2b6b a83f 0ba5 9ebf
000001f0: e07f 883f 066a b5be 76fa f03e 6bbf 7dbf
0.8490554 0.38481224 -0.08780927 0.843428 -1.2949498 -0.07668134 -1.7759787 -0.40184286
-1.2270312 0.27225995 -0.45709485 -1.1467873 1.1115464 -1.6859751 -0.92000574 -0.38708335
1.2220598 0.8323639 -0.13438445 0.28577515 0.94230694 -1.015508 -0.35234225 1.5269294
0.035318576 -1.6061102 0.41163832 0.7319274 -1.7105048 0.52580595 -0.47353068 -0.9895531
1.6491958 0.473109 -0.70610946 1.4801537 0.46105853 -0.9482994 -0.38717496 1.4180764
1.5591264 -0.072279796 0.83385456 0.5583791 1.4419348 -0.4860825 0.20787597 -1.6336707
-0.37206072 0.2622329 1.5166041 -1.4491959 1.689648 1.4660894 0.97366375 0.12208328
1.6759872 -0.2538853 1.5942636 0.29402605 -1.4419403 -1.2422003 0.5428939 -1.1488924
-0.6326787 -1.1735559 -0.63783777 0.52136666 -0.08171959 1.4438944 0.7192361 0.1715625
0.27518 -0.9501719 1.6495094 -0.62208444 1.2086872 1.781778 -0.31337723 1.743406
-0.5326552 1.6071337 -1.1817162 -1.5123928 -0.025664227 -0.7897298 0.5622666 0.8336864
-0.13700245 1.7282383 -0.94697505 -1.2814249 0.77540016 1.1327419 -0.9643648 1.0021858
1.8037076 -0.9851703 1.1035321 -1.0874778 -0.5409342 0.33812726 -0.8470141 -1.7227242
1.1464958 0.55636007 0.9864028 0.7441126 1.5805032 0.8015154 -0.6060206 -1.0889246
-1.0314285 -0.9783301 -1.1248734 -1.369322 -0.8599279 -0.014175564 -1.3841597 -0.67449987
-1.0770717 -1.3884392 1.3157705 -1.2394117 1.0664024 -0.35432452 0.47066087 -0.99120206

encoder.lstm.weight_ih_l2 f4 [128, 32]
00000000: 9937 933c a900 96bf 9e96 18bf 45c2 a83e
00000010: 54c0 ec3e 7498 b83f a67c c23f 2f95 c8bf
00000020: 5178 5c3f 2e0c 643f df65 08bf 69ea c3bf
00000030: 5153 3fbf 3ebc 523f e3d4 09bf 706d 933f
00000040: 8425 92be 586d c6bf c0c0 dbbe 762d af3e
00000050: ed23 8e3f 1d35 edbc 55f9 c43e 001d 5ebf
00000060: fa75 dbbf d8ca 83bf 4721 583f 735d 343f
00000070: 79c6 d23f eab1 be3f 0bde 623f 06cc 703f
00000080: d211 33bf 3205 6ebf 0f6a ca3f b68b 6b3f
00000090: 91ba 67bf db30 9f3f d157 d13f 4c7b 993e
000000a0: 4895 c6be 04ed dabf 6b53 b03f fb55 3a3e
000000b0: 3dc5 303f 1a82 c13f b06b dfbf ca44 8d3f
000000c0: 397a a4bd 68ec 043f cedf ab3f b356 ee3e
000000d0: 4d23 d2bf 657c 88bf b0c5 d53e b710 313f
000000e0: ec1c b43f 4660 b73f de87 8dbf 20d3 bcbe
000000f0: 8a50 23bf fa73 a3bf b058 ccbf 9e99 2dbf
00000100: 47bd d93f 3ee6 1abf 40ec 26bf 19e3 92bf
00000110: 3927 d43f 8a7e 20bf 59ee 7a3e 1131 c1be
00000120: 3ada a6bf a792 a03f c1c5 223f 625f b23e
00000130: 9629 7d3f 6269 e33d 1407 593f a094 aebe
00000140: bcc2 38be d522 89bf 7c4b 5f3e e273 40bf
00000150: a6a7 253e 61f1 863f 2535 bdbf 9844 90be
00000160: 8466 0dbf 1ef0 d3bf 234a 11bf 48df ab3f
00000170: 9c48 06bf 00d4 d03f ac2c 0ebf 8e82 bebe
00000180: 98cd f63e 6f75 97bf dd4d 9f3f 3ec6 cb3f
00000190: cb16 2f3f 6539 febe eb1a 003e 478d 2f3f
000001a0: 23b5 14be 20d1 03bf 44b8 cd3f c94a 6dbf
000001b0: b4c0 c93e 8598 153f e53e 9e3f fcab 82bf
000001c0: 5397 9dbe 0c70 b3be b33b c73e d8c9 c8bf
000001d0: cbb6 e43f 9146 d4bf fdbd 533f 470f c23f
000001e0: d2f6 09be 11ae aebf 3f84 82be 8b29 343f
000001f0: 5e63 98bf 7dd7 483f 1d38 b8bf 5fcc 4b3f
00000200: 47f2 e73e cb1c ee3e c91c 4e3d f91f a3be
00000210: a373 1d3f 296a e03f a27a 9cbe 2f51 57bf
00000220: 6bd5 cdbf 1ba0 293d 5829 ccbf 6518 d03f
00000230: fe2a f0be 4895 80bf 046e c93f c89a 83bf
00000240: 5323 94be 435f 6ebf 85e2 0a3f 4453 d3bf
00000250: 57fb d3bf 00d2 61be 38b2 773f fa1e c2bf
00000260: e077 d8bf 808f 493f c98e 8ebe 4adc 65bf
00000270: 41d1 bc3e f153 8fbf 14f1 4b3e a889 92bf
00000280: c48b 44be 34dd 5abe 6994 44bf 702c da3e
00000290: a858 4d3e 623c e2bf 66df 3abf 6849 8e3f
000002a0: 68b2 82be 3517 3e3f 9194 6b3f 7e0a bdbe
000002b0: 41d9 58bf e8ac bfbf 3baa 10bf 4f95 dfbf
000002c0: aea2 dd3f 03b0 68bf b522 3ebf cc44 efbe
000002d0: 9c5c ec3c 507a 98bf abdd d6bf c942 043e
000002e0: 47e0 9d3f f6a7 ac3e 24b9 1cbf 137f 623e
000002f0: b754 85bf 5827 89be 6553 043f 02c9 f33e
00000300: e54c 2e3f 224c 4e3f ba52 d13f 2eaf ea3e
00000310: 56a5 d2bf 34fa 0cbf 4a89 093f 3ebe b23b
00000320: b375 babf 2300 033e 5b78 55bf 3339 553f
00000330: 9125 db3f cdb7 cbbf b74b 723f e85b 243f
00000340: f1d0 61be f5d7 bb3e bc50 13be 4da1 983f
00000350: 0675 59bf ebd3 a83f 9704 1b3f fc45 93bf
00000360: 1392 89bf b23c 983e ab33 d93f 6c48 143f
00000370: 7be9 44be 6c9d 76bf c3af dcbf 9f77 a83f
00000380: c28c 803f bc7f 443f 72ba 743d 534f 3dbf
00000390: 1060 d3bf cd6a 243f 31fc a93f 5ad7 aebd
000003a0: 1af3 75bc dbc1 8c3f f3b5 a13f 9588 b53f
000003b0: 47bd 98bf 794c abbf e30b 0bbc 8d87 c13f
000003c0: a124 ee3d c9e6 953e 30d0 aebf 9539 8cbf
000003d0: c628 d5be 1963 673e 4bac 9c3f 0dec d03f
000003e0: 5c3e 603f 3e5e a2bf f908 c6be d275 bebf
000003f0: d5f2 ac3f 6404 dd3f 69c1 2abf ed59 823f
0.017970847 -1.1718951 -0.59604824 0.32960716 0.46240485 1.4421525 1.519429 -1.5670527
0.8612109 0.89081085 -0.5328044 -1.5305911 -0.74736506 0.82318485 -0.53840464 1.1517773
-0.28544247 -1.5502119 -0.42920494 0.3421437 1.1104714 -0.02895599 0.38471475 -0.86763
-1.7145379 -1.0296278 0.8442578 0.7045509 1.6466819 1.4898045 0.8862006 0.94061315
-0.69949067 -0.9297668 1.5813617 0.92010057 -0.9051905 1.2436785 1.6354924 0.2997688
-0.38785768 -1.7103581 1.3775457 0.18196861 0.6905096 1.5117829 -1.7454739 1.1036618
-0.080311246 0.5192323 1.3427675 0.4655052 -1.6417023 -1.0662962 0.41752386 0.6916613
1.4071326 1.4326255 -1.1057088 -0.36879826 -0.6379477 -1.2769768 -1.5964565 -0.67812526
1.7010888 -0.6050757 -0.6520424 -1.1475555 1.657447 -0.62693083 0.24504985 -0.37732747
-1.3035347 1.2544755 0.63583 0.34838396 0.9889158 0.111040846 0.84776425 -0.34097767
-0.18043035 -1.0713755 0.21806139 -0.75176823 0.16177234 1.0542413 -1.4781843 -0.28177333
-0.5523455 -1.6557653 -0.5675375 1.3427515 -0.52454543 1.6314697 -0.55536914 -0.3720898
0.4820373 -1.1832713 1.2445637 1.5919874 0.68394154 -0.49653164 0.12510268 0.6857495
-0.14522223 -0.51490974 1.6071858 -0.9269224 0.39404833 0.5843585 1.2362944 -1.0208735
-0.30779514 -0.35046422 0.38912734 -1.5686598 1.7868284 -1.6584035 0.82711774 1.5160912
-0.1347306 -1.3646871 -0.2549152 0.7037589 -1.1905324 0.7845381 -1.4392124 0.7960872
0.4530203 0.46506342 0.05032042 -0.3186033 0.6150457 1.7532398 -0.3056231 -0.8410825
-1.6080755 0.041412454 -1.5950117 1.6257445 -0.469078 -1.0045557 1.5736699 -1.028161
-0.289332 -0.9311411 0.5425189 -1.6509786 -1.6561078 -0.22052765 0.96756315 -1.5165703
-1.6911583 0.7873459 -0.2784331 -0.8978926 0.36878398 -1.1197492 0.19916183 -1.1448259
-0.19193941 -0.21373445 -0.76788956 0.42612028 0.20053351 -1.7674677 -0.7299713 1.1116152
-0.25526738 0.7425416 0.9202357 -0.36922067 -0.84706503 -1.4974642 -0.5650975 -1.746744
1.7315271 -0.9089357 -0.7427171 -0.46732175 0.028852753 -1.1912327 -1.6786398 0.12916102
1.2334069 0.33721894 -0.6122 0.22118787 -1.0416478 -0.2678783 0.5168975 0.47614294
0.6808608 0.8058492 1.6353371 0.45836776 -1.6456707 -0.5506928 0.5372511 0.0054548075
-1.4567169 0.12793021 -0.8338677 0.83290404 1.7120839 -1.5915467 0.9464678 0.6420274
-0.22052361 0.366882 -0.14386266 1.1924225 -0.8494419 1.3189672 0.6055388 -1.1505733
-1.0747703 0.29733807 1.6968893 0.57923007 -0.1922969 -0.96333957 -1.7241138 1.3161505
1.0042956 0.7675741 0.05974812 -0.73949164 -1.6513691 0.64225465 1.3280088 -0.08537169
-0.015011573 1.099666 1.2633651 1.4182307 -1.1932763 -1.3382713 -0.008486721 1.5119492
0.1162808 0.29277638 -1.3657284 -1.0955073 -0.4163267 0.22596397 1.224008 1.6322037
0.8759515 -1.268501 -0.3867872 -1.4879706 1.3511606 1.7266965 -0.6670137 1.0183693

encoder.lstm.weight_hh_l2 f4 [128, 32]
00000000: 9872 a1bf 8a24 dd3e 5035 b5bf 55c4 c4bf
00000010: 7268 073f a79a cebf cae6 98be e827 763d
00000020: d456 dc3f 9e12 493f 38b4 d53f 610d 85bf
00000030: 1ec1 373f c6ee af3f 7fb4 3f3f 3690 7a3f
00000040: bb67 d4bf d878 d3bf c244 db3f 0ba3 22bf
00000050: 540a 27bf 238b 843f 9125 c33f b53a 943f
00000060: a0af b63f 6c46 4a3f ef0f bfbf 4945 163f
00000070: 4ad7 dc3f 1817 edbd 1260 a9bf a8ed 4dbf
00000080: 20e9 c33e f8a2 acbe 5bdf 38bd a671 a13f
00000090: c664 3c3f 43e5 8fbf 48b5 16bf c7fc b63f
000000a0: e3a0 0b3f cb1b 4b3f 4056 4e3f 0fec dcbf
000000b0: fe49 823f 3a37 96bf c4e9 3d3f 055d b4bf
000000c0: 004b c13f c871 083e 5c26 a8bf 2e96 a53e
000000d0: ba50 ddbd 6a43 b63f 8d6a 8e3f 3385 d3be
000000e0: a15a 333f 51a7 923f 0ee5 d2bf 93c9 7b3f
000000f0: d699 a93e 3579 b33e 5948 ad3d 4c2e b8bf
00000100: 2769 2d3c d00a 9bbe e064 a53f deca 9d3f
00000110: 363c b4bf 636e b73f 4494 943f 4a52 2ebf
00000120: 9f80 b63f a477 673f 96d5 0f3f 1752 943f
00000130: eebf de3f 4b3f 3cbe 93d5 83bf b77d ed3d
00000140: 4a91 1abf bbb6 d33f 267a d7bf a3c2 803f
00000150: 93e7 b6bd 55e5 143f 8a5b e8be a5dd cdbf
00000160: 998c c7bf 4fc5 8ebf 852a 6e3f 3a58 283e
00000170: 359c 99bf 03ce 9bbf b765 53bd 8d82 463f
00000180: 7f86 8a3f a16e 26bf e7ed c83f 3463 61bf
00000190: e7c2 cfbc 315e 483f d385 dfbf 0dd0 373f
000001a0: 50a3 ce3f c10f d73d 4b2f 18bf e4bd 563f
000001b0: f300 08bf 734b cebe 82a7 a73e c7a6 1bbf
000001c0: 12ae 273e 70ab 643f 6d82 96bd 8f82 59bf
000001d0: 6afc d43f cdcd 6ebf e290 c6bf 61d8 2e3f
000001e0: 324e c3bf 4dac 643f 488a b13e debe 7dbe
000001f0: 1548 093e 5e97 c53f 291e 99bd eed7 ca3f
00000200: c199 9b3f b67f 793e 1935 1fbf 4058 793f
00000210: 8f7c 1cbf d476 b6bf 79bb 893f eaad 10bd
00000220: cd14 9c3f e6e8 d5bf e231 dcbf 1bb1 1bbf
00000230: ed40 083f 0d91 b1be b269 abbe ab26 74be
00000240: e837 5a3f e9d2 89be e4aa d83f 811a d7bf
00000250: e4f5 973f 7b8c 90bf 9d28 dcbf 25f2 acbf
00000260: 8ea3 0e3f 8988 733f 5ade 6a3f 1878 69bf
00000270: 4f90 ecbe 3193 0abf fe2a 0fbf a7e7 80bf
00000280: 02d0 f83e 63b9 fabe a09f ffbe 8ae5 b1bf
00000290: 44a9 603f ca26 02bf a1e3 1dbf 9141 4d3f
000002a0: 5460 f8be 517b e1bf 4672 273f bfb6 d6bf
000002b0: 0c9d 6ebf d80d 44bf ff27 2e3f 4da7 b53d
000002c0: 0417 c8bf 9b3b 463e e86b 1a3f 9b86 843f
000002d0: 5b39 da3d 6d49 ce3d 44e5 1a3f b0a4 a83f
000002e0: 6389 d8bf 25ec d83f 2f8f 223f 76b9 513e
000002f0: d004 b73f fb9c 9d3f 71bd b53f 4e8f a3bf
00000300: 9ebc d93f ae36 a5be a552 ab3f d487 7f3f
00000310: 0fe0 e2bf 53c0 9fbe 32f3 193f e072 45be
00000320: c9ae d2bf 1567 31bf 1fa5 f2be ae91 d4bf
00000330: c9df 7c3f 8741 c4bf f180 80be a051 f7be
00000340: 3ef6 a53f cb14 9abf 876e 8b3f 42c8 b3bf
00000350: 922b a1be 3a38 033e ba33 0cbf 352e 0bbf
00000360: 1c20 fcbe d398 0f3d 740f c9bf 8d3d db3f
00000370: d066 20bf b0d1 8f3f 65c2 24bf 79dd 95bf
00000380: 0114 173f bf68 8fbf f38f 6bbf 045f d53f
00000390: f10e 253e 3b65 b33f e558 583f 762d b13f
000003a0: 9b8e 233f 098b 8b3f 8fd7 b33f 5b2a 853f
000003b0: e261 bcbe fa76 de3f d46a 1bbe 3c88 8ebf
000003c0: 4750 a6bf 10b3 033f 4a70 073e f94d 3bbe
000003d0: d086 8bbf 1c88 b5bf a276 e63d 2044 d03f
000003e0: 70aa d53f 967c 81bf 9a99 cdbf 500f 58be
000003f0: a67f 8d3e 0b2b aa3f a92b 953f edfb 633e
-1.2613096 0.4319194 -1.4156895 -1.5372416 0.52893746 -1.6140946 -0.29863578 0.06009665
1.7213998 0.7854403 1.6695623 -1.0394708 0.7177905 1.3744743 0.7488479 0.978763
-1.6594156 -1.6521254 1.7130358 -0.63530034 -0.65250134 1.0354961 1.5245839 1.1580416
1.4272346 0.79013705 -1.4926738 0.5869947 1.7253201 -0.115766704 -1.3232443 -0.8044076
0.38263798 -0.33718085 -0.045134883 1.2612808 0.7359127 -1.124184 -0.58870363 1.4295892
0.5454237 0.79339284 0.8060036 -1.7259539 1.0178831 -1.1735604 0.74184823 -1.4090887
1.5101013 0.13324654 -1.3136706 0.3234114 -0.10806413 1.4239323 1.1126267 -0.4131256
0.70060164 1.1457311 -1.6476152 0.9835445 0.3312518 0.3505341 0.08461065 -1.4389129
0.010584152 -0.30281687 1.292141 1.2327535 -1.4080875 1.4330562 1.1607747 -0.68094313
1.4258002 0.9041693 0.5618528 1.1587552 1.7402322 -0.1838352 -1.0299553 0.11596244
-0.60377944 1.654014 -1.6834152 1.0059398 -0.08930888 0.5816243 -0.4538234 -1.6083266
-1.5589782 -1.1153964 0.9303363 0.16439906 -1.2000796 -1.2172245 -0.051610675 0.77542955
1.0822295 -0.65012556 1.5697602 -0.88041997 -0.025361491 0.78268725 -1.7462715 0.71801835
1.6143589 0.10501052 -0.59447163 0.838835 -0.5312645 -0.40291938 0.32744986 -0.6080136
0.16374996 0.8932409 -0.073490955 -0.8496484 1.6639531 -0.9328278 -1.5512965 0.6829892
-1.5258238 0.8932541 0.34675813 -0.24779841 0.13406403 1.5436819 -0.07476456 1.5847147
1.2156297 0.24365124 -0.62190396 0.97400284 -0.6112756 -1.4255013 1.0760337 -0.035322107
1.2193848 -1.67117 -1.7202723 -0.60817116 0.5322407 -0.34680977 -0.33479077 -0.23842876
0.85241556 -0.26918724 1.6927152 -1.6804963 1.1871915 -1.1292871 -1.7199894 -1.3511397
0.55718315 0.9513021 0.9174553 -0.91198874 -0.4620385 -0.54130846 -0.55924976 -1.0070695
0.48596197 -0.48969564 -0.49926472 -1.3898175 0.8775828 -0.5084044 -0.6167546 0.8017817
-0.48510993 -1.7615758 0.6540874 -1.677452 -0.93208385 -0.76583624 0.6802978 0.08869801
-1.5632024 0.19358675 0.603209 1.0353578 0.10655471 0.100725986 0.6050608 1.3175259
-1.6916927 1.6947066 0.6349973 0.20480904 1.4298344 1.2313532 1.4198438 -1.2778108
1.7010686 -0.3226828 1.3384596 0.9981663 -1.7724627 -0.3120142 0.6013671 -0.19282103
-1.645959 -0.69297916 -0.47391602 -1.6606958 0.9877897 -1.5332497 -0.25098374 -0.48304462
1.2965772 -1.2037596 1.0893105 -1.4045489 -0.31478554 0.12814417 -0.5476643 -0.5436738
-0.49243248 0.035057854 -1.5707841 1.7128159 -0.6265688 1.1235867 -0.6435912 -1.1708213
0.590149 -1.1203841 -0.92016524 1.6669621 0.16118981 1.4015268 0.8451064 1.3841999
0.63889474 1.0901805 1.4050158 1.0403551 -0.3679343 1.7380059 -0.1517747 -1.1135325
-1.2993249 0.514451 0.13226429 -0.18291463 -1.0900517 -1.4182162 0.11253096 1.627079
1.6692638 -1.0116146 -1.60625 -0.21099591 0.2763645 1.3294386 1.1653949 0.22264071

encoder.lstm.bias_ih_l2 f4 [128]
00000000: 8b0d 5e3f e995 b1bf fd76 cf3f 1dd7 d0bf
00000010: a9fc 6abf 89b7 40bf e64f d23f dddd 61bf
00000020: 1380 cb3e 1fb1 bebd 33a9 813f 222a 15be
00000030: 6ea3 603f 59f5 853f 58f0 233f ed0d b23f
00000040: 923a aabe 338d b9bf ac53 633e 7841 6b3f
00000050: 4508 cf3f 06cf a7bd 7a17 98bf 0f7f 963f
00000060: b1f9 013f c0d4 ce3f e062 9bbe 8243 32bf
00000070: 2dd4 dcbf 6495 dabd 3690 d93f cd8d c3bf
00000080: 8503 623c 3424 373f 2029 efbd 33c2 97bf
00000090: 73ca fcbe 8e87 313f 7e30 f73e 89d0 93bf
000000a0: 4f24 b83f 3a3c 933f 959b 8ebf 0bc2 953e
000000b0: c4a1 fd3e cd92 7d3f c6b0 a5bf 0cd0 e3bf
000000c0: 5c5f be3e 5492 a13f 8c06 98bf 3a8b 61be
000000d0: 4719 57bf 7312 39bf 59ba d0bf 9bd9 9abe
000000e0: 9814 6ebf c231 42bf 7739 623f b17c 573f
000000f0: cd1f ddbf 2c4f 3d3f 59b2 b2bd 0c8f ecbd
00000100: eb06 87be 4341 a03f b2da 8cbf dc2a e43f
00000110: 9356 97bf e3fb 243f 2072 9fbf 8891 87be
00000120: 094b 163f 8289 7e3e 2988 b2bd c6f9 11be
00000130: 1d5e a43f 9614 2e3f 6115 adbf fb48 c93e
00000140: e234 b33f 5531 9ebf aae2 b1bf c3f9 80bf
00000150: 28e2 cc3f b5e9 01bf 230f 8ebe be1a e63f
00000160: 1dc2 0dbf 9353 6d3f 2fca 79bf 92e3 71bf
00000170: 52cf a73f 784e 1a3f 1acd f63e 56c4 4a3f
00000180: c3d8 32be 3e42 613f dca8 2c3f 4f7c c63f
00000190: 46c9 f9be 7bce 263b 1176 29be a9c0 063d
000001a0: 3caf e53e c8e9 b5bf 680a e33f c08b c23f
000001b0: 236b aabf 836c d5bf 6174 d5be 525f e9be
000001c0: aa77 e4be 733d a4be a20d 98bf 9536 95bf
000001d0: a719 babf 4ace 35bf ee3b 36bf a48b 33be
000001e0: a6d8 803f 951c a13f 7c3c a0bf ee80 d3bf
000001f0: a2bf a8bf 4c8a f23e 40d5 e6be 4187 0f3f
0.86739415 -1.3873874 1.6208187 -1.6315647 -0.9179178 -0.7528005 1.6430633 -0.8822916
0.3974615 -0.09311127 1.012976 -0.14566854 0.87749374 1.0465499 0.6403861 1.39105
-0.3324781 -1.4496216 0.22199887 0.9189677 1.6174399 -0.081937835 -1.1882164 1.1757525
0.50771624 1.6158676 -0.30348873 -0.6963426 -1.7252251 -0.10673025 1.6997135 -1.5277649
0.013794784 0.71539617 -0.11677766 -1.185614 -0.49373206 0.69347465 0.48279184 -1.1548015
1.438608 1.1502755 -1.114123 0.29249606 0.4953748 0.99052125 -1.2944572 -1.7797866
0.37182128 1.2622781 -1.1876998 -0.22025767 -0.84022945 -0.72293776 -1.6306869 -0.30244145
-0.93000174 -0.75857174 0.88368934 0.8417464 -1.727533 0.7394893 -0.08725423 -0.115507215
-0.26372465 1.2519916 -1.100424 1.782558 -1.1823295 0.6444685 -1.2456703 -0.2647822
0.58708245 0.24857143 -0.08717377 -0.14255437 1.2841221 0.6800016 -1.3522149 0.39313492
1.4000514 -1.2358805 -1.3897297 -1.0076221 1.6006517 -0.50747234 -0.27745923 1.7976911
-0.5537432 0.9270565 -0.9757413 -0.9448787 1.3110144 0.60275984 0.48203355 0.79205835
-0.174655 0.879917 0.6744516 1.5506686 -0.48786372 0.0025452662 -0.16548945 0.03289858
0.44860256 -1.4211969 1.7737551 1.5198898 -1.3313946 -1.667374 -0.41690353 -0.45580536
-0.44622546 -0.32078132 -1.187916 -1.1657282 -1.4539078 -0.710179 -0.71185195 -0.17533737
1.0066116 1.2586848 -1.2518458 -1.6523721 -1.3183482 0.47371137 -0.45084572 0.56065756
