Forex/nsde_sigwgan/G.pt (torch, 146293 bytes, 15 tensors)

_conditioner._linear.weight f4 [32, 363]
0.044771306 -0.003825768 -0.03189966 0.022372276 0.0063622817 0.019989217 0.039528683 0.02023583
0.02280648 0.038352203 0.027366174 -0.040823936 0.010899022 0.03392888 0.045987967 0.02715697
0.023125838 0.044397496 -0.015266227 -0.038717225 0.032581788 0.04609808 0.046165243 0.04044285
0.0011733843 0.034838717 0.021435248 0.047940996 0.01124448 -0.05237081 0.027134743 0.018949214
0.046042684 -0.015369103 -0.03735792 -0.046987377 0.016438134 -0.027844578 -0.0017722184 0.010328993
0.025731854 0.047287896 0.0049367077 -0.038600378 0.028328924 0.02289319 -0.053233035 -0.04140358
0.01741796 -0.016019972 -0.03248424 -0.01208817 0.03316398 0.0073451917 0.011957889 0.05450775
0.043124534 0.051589034 0.038833067 0.028602082 -0.055368517 -0.0035009726 -0.04671576 0.04440604
-0.05903363 0.009834084 -0.052765176 -0.04077923 -0.052961912 -0.023938816 -0.036115713 -0.028321851
0.009860857 0.034763165 -0.048008956 -0.016266394 0.019817907 -0.045482587 0.047870323 -0.021519313
-0.03143203 -0.034335166 -0.060135994 0.00063564704 0.009900908 0.030539589 -0.049172524 -0.024957292
-0.05104319 -0.018552734 -0.018606976 -0.023012448 0.012589386 0.020066826 0.017285792 -0.00580109
0.012677198 0.042296242 -0.02085026 0.04321385 -0.045074172 -0.010878634 0.009483647 0.033577394
-0.016104307 0.029709307 -0.008211469 -0.05159291 -0.051021967 0.041857734 0.0044940133 -0.031424303
-0.04105094 -0.0484172 0.030055065 0.04878105 -0.045451075 0.050679583 0.0130113745 -0.019524472
0.0012615174 -0.034744974 0.028679311 0.027844375 0.017751299 0.01970136 0.042619403 -0.03383149
-0.030051723 -0.0016652412 0.038798746 -0.01833477 -0.041473147 -0.028288897 0.033591155 0.051835716
0.03761444 -0.017683567 0.021281341 -0.012111585 0.024102768 0.051025562 0.016625822 0.015004455
0.062635034 0.030249951 -0.041548613 -0.024625514 -0.007314309 -0.039051943 0.031107115 0.013923053
0.004053556 -0.006182375 -0.050675243 0.0020422805 -0.012571736 -0.03649354 0.00247517 -0.035188127
-0.025633104 0.04393161 -0.054854885 -0.036583394 -0.034289412 -0.02476882 -0.043459233 -0.034325473
0.041269038 0.05540346 0.039825063 0.012074832 0.0042860275 -0.012532892 -0.033820923 -0.0417822
-0.046477273 -0.03488798 -0.0550389 0.043807954 0.009620626 -0.031374633 -0.031251155 0.0007214423
-0.051872246 0.04023059 -0.036998127 0.040368006 0.0010579425 0.039866608 -0.017263839 -0.0656758
0.04787751 0.017380428 -0.020476276 -0.02787224 -0.019924458 0.03760899 0.02819886 0.023778401
-0.033714406 -0.0384664 -0.040486548 0.023435399 -0.051085338 -0.041266423 0.042621158 -0.0021281422
0.04134368 -0.007463725 0.046575397 -0.0088082 -0.044774752 -0.0049165436 -0.0335857 -0.03963196
0.0272661 -0.033913877 0.0034713743 0.010200503 0.005563999 -0.008081877 0.016112104 -0.0187031
0.04307056 0.01292245 -0.034959633 0.049501806 0.024894923 -0.02157422 0.03161621 -0.04687617
-0.006173936 0.016946621 0.041776918 -0.051639106 0.032225896 -0.0399358 -0.00074983673 0.02019954
0.029338844 0.039565675 0.016267592 -0.033594582 -0.04942001 -0.013324926 -0.016848015 -0.040463842
-0.052141126 0.0047063334 -0.0054710247 -0.011246664 -0.039844472 -0.048967447 0.009738109 -0.002366109
00000000: 1e62 373d bcb9 7abb 38a9 02bd 1046 b73c
00000010: b07a d03b 6dc0 a33c d4e8 213d 9dc5 a53c
00000020: a8d4 ba3c 3317 1d3d 072f e03c 0037 27bd
00000030: d091 323c 02f9 0a3d e15d 3c3d 4b78 de3c
00000040: 6672 bd3c 26da 353d 321f 7abc f495 1ebd
00000050: 7b74 053d 57d1 3c3d c417 3d3d 67a7 253d
00000060: 3ecc 993a 0bb3 0e3d f998 af3c c75d 443d
00000070: c43a 383c c682 56bd ae49 de3c 623b 9b3c
00000080: 4197 3c3d b1ce 7bbc 9e04 19bd d675 40bd
00000090: 44a9 863c 501a e4bc c849 e8ba f03a 293c
000000a0: 9ccb d23c f4b0 413d 1bc4 a13b 6e1b 1ebd
000000b0: 0f12 e83c 808a bb3c e20a 5abd cd96 29bd
000000c0: 1cb0 8e3c 513c 83bc 320e 05bd 760d 46bc
000000d0: f4d6 073d efaf f03b 06eb 433c 8543 5f3d
000000e0: 5aa3 303d 064f 533d 6c0f 1f3d ea4e ea3c
000000f0: 19ca 62bd 9370 65bb 0659 3fbd 1ce3 353d
00000100: 3fcd 71bd 231f 213c 4c20 58bd 1f08 27bd
00000110: 97ee 58bd 561b c4bc 12ee 13bd 3a03 e8bc
00000120: 6f8f 213c d263 0e3d 0aa5 44bd 1a41 85bc
00000130: 2a59 a23c f34b 3abd ac13 443d 4549 b0bc
00000140: dfbe 00bd 08a3 0cbd 2951 76bd 8da1 263a
00000150: 6b37 223c 292e fa3c 2169 49bd 3c73 ccbc
00000160: aa12 51bd e7fb 97bc a86d 98bc 9a84 bcbc
00000170: b643 4e3c 2f63 a43c ef9a 8d3c 1217 bebb
00000180: 06b4 4f3c d33e 2d3d 2ace aabc 0201 313d
00000190: b29f 38bd 4c3c 32bc 4c61 1b3c 7388 093d
000001a0: 2eed 83bc ef60 f33c 6689 06bc 1653 53bd
000001b0: 69fc 50bd 0473 2b3d 8442 933b c5b6 00bd
000001c0: 0825 28bd 1d51 46bd 0a36 f63c a3ce 473d
000001d0: e82a 3abd 6595 4f3d a92d 553c c9f1 9fbc
000001e0: 8059 a53a bf50 0ebd e0f0 ea3c e319 e43c
000001f0: 2c6b 913c bf64 a13c af91 2e3d e392 0abd
00000200: 082f f6bc 3944 daba 6feb 1e3d cd32 96bc
00000210: bfdf 29bd 1ebe e7bc e196 093d b051 543d
00000220: 9911 1a3d 21dd 90bc 3556 ae3c ab6f 46bc
00000230: 2b73 c53c 2e00 513d e032 883c 3fd5 753c
00000240: cc46 803d bfce f73c e12e 2abd 72bb c9bc
00000250: dfac efbb eef4 1fbd 59d4 fe3c 841d 643c
00000260: b1d3 843b 8595 cabb d890 4fbd c8d7 053b
00000270: aff9 4dbc 407a 15bd 7636 223b 6d21 10bd
00000280: 84fc d1bc a2f1 333d 84af 60bd 78d8 15bd
00000290: 0e73 0cbd fbe7 cabc 4f02 32bd de98 0cbd
000002a0: b909 293d bdee 623d 9b1f 233d 84d5 453c
000002b0: ce71 8c3b c256 4dbc cf87 0abd d023 2bbd
000002c0: f45e 3ebd b3e6 0ebd 7870 61bd f86f 333d
000002d0: d59f 1d3c b082 00bd 3601 00bd 2c1f 3d3a
000002e0: fe77 54bd d5c8 243d 598b 17bd ec58 253d
000002f0: a9aa 8a3a 2b4b 233d e56c 8dbc 0981 86bd
00000300: 351b 443d 6661 8e3c ddbd a7bc 5354 e4bc
00000310: 9e38 a3bc e20b 1a3d 4c01 e73c ecca c23c
00000320: 1e18 0abd f28e 1dbd 39d5 25bd 98fb bf3c
00000330: dc3e 51bd fb06 29bd 8693 2e3d 4d78 0bbb
00000340: fe57 293d 4392 f4bb d8c5 3e3d 4550 10bc
00000350: bb65 37bd f51a a1bb 2991 09bd 1f55 22bd
00000360: 285d df3c 47e9 0abd ff7f 633b 0320 273c
00000370: 3552 b63b d969 04bc 88fd 833c 3e37 99bc
00000380: c16a 303d afb8 533c d531 0fbd 68c2 4a3d
00000390: 70f0 cb3c 6bbc b0bc 0080 013d 3a01 40bd
000003a0: bb4e cabb a4d3 8a3c 461e 2b3d 8783 53bd
000003b0: 4dff 033d b993 23bd b190 44ba 8179 a53c
000003c0: 0458 f03c 9e0f 223d 9d43 853c 799a 09bd
000003d0: a36c 4abd ca50 5abc d904 8abc 6abd 25bd
000003e0: ef91 55bd 9637 9a3b 4846 b3bb ee43 38bc
000003f0: f533 23bd 1792 48bd 978c 1f3c b910 1bbb

_conditioner._linear.bias f4 [32]
-0.045876335 -0.03794131 -0.012199602 -0.00037893493 0.005421856 -0.040878974 -0.01961056 0.015945356
0.056909095 -0.025300704 0.005411467 0.014170085 -0.04579648 -0.05445143 -0.0019245204 -0.029387558
0.043721434 -0.00050148397 -0.04818775 0.04357773 0.02035443 0.04434193 -0.027233241 0.0041426565
0.029282873 0.041694146 -0.0076486957 -0.01667186 -0.039366055 -0.030376926 0.022729967 -0.041006017
00000000: d3e8 3bbd 5968 1bbd d7e0 47bc c9ab c6b9
00000010: d3a9 b13b b670 27bd 53a6 a0bc d69f 823c
00000020: 8319 693d 6c43 cfbc ad52 b13b a529 683c
00000030: 1795 3bbd 7608 5fbd 3040 fcba 2dbe f0bc
00000040: 3f15 333d 0576 03ba 8560 45bd 907e 323d
00000050: 55be a63c e29f 353d 3f18 dfbc 1fbf 873b
00000060: a3e2 ef3c 7bc7 2a3d e9a1 fabb 6d93 88bc
00000070: 4d3e 21bd 08d9 f8bc 3234 ba3c edf5 27bd

_conditioned._func._drift._model.0.weight f4 [84, 64]
-0.014124779 -0.0086608045 0.008290147 -0.007755387 -0.0019045249 0.010149879 -0.0010830078 -0.019180894
-0.006160736 0.005843607 0.018617384 0.01249962 0.0075389305 -0.0043116054 -0.0027140232 -0.0026801382
-0.010254795 0.005833 -0.01396962 -0.0055135307 0.005290964 -0.011609053 -0.0055089695 -0.01705585
-0.010289161 0.007589755 -0.011510846 -0.007613777 -0.009176165 -0.006767281 -0.00016616177 -0.0019589548
0.010362354 -0.010832344 0.011262825 0.006127409 0.003907461 -0.0071345237 -0.006028537 -0.0042868773
-0.009024625 -0.007721245 0.010752683 0.0010165538 0.0075121503 -0.01380106 -0.005643777 0.011502742
-0.0012162139 -0.008757828 0.0063574705 -0.010183674 -0.001971472 -0.012181358 0.00065264205 0.01044646
0.00062676216 -0.006630944 -0.0072619366 -0.006101389 0.0109634185 0.014443688 -0.011215394 0.004231726
-0.0044011115 0.012619981 0.0031985387 0.0058456603 -0.009376282 -0.011009498 0.006734959 -0.0019095027
0.0055551627 -0.007251849 0.002312254 0.011531626 -0.010378419 -0.006107159 0.01523042 -0.009605303
-0.009148409 -0.0026177303 0.011681114 0.0065320986 0.0005554419 0.0040287394 0.006364441 0.005748241
0.0001898453 -0.008922932 -0.0028363203 -0.008258006 -0.0021752862 0.011329387 -0.013188463 0.0049841134
0.008463427 0.008861042 0.00890296 0.008415008 -0.0033069188 0.007885182 -0.0076019536 -0.0010814802
0.0019921986 0.0036980151 0.005775827 -0.0017128972 0.012178462 0.010164909 0.007316057 -0.010974187
-0.011599053 -0.011895136 -0.0052391435 0.0018851863 -0.014440597 0.01597282 -0.0037729088 -0.009891904
0.0036828485 0.0127732605 -0.007509064 -0.001705267 -0.0044513256 0.0007663958 -0.010319492 0.00060644915
0.013930236 0.010239868 -0.007644867 -0.0026018282 -0.0056109666 0.010885391 -0.004571813 0.0020145688
0.009202165 -0.0010876299 0.0038827995 -0.0007714746 0.012913369 -0.013079753 -0.020334838 0.0060822098
-0.0003615729 0.014386596 -0.014477443 0.001587303 -0.0030488593 0.013318479 -0.00034985514 -0.0124100465
0.013647717 -0.0019229054 -0.0006958777 0.01065484 -0.0039664027 -0.018136302 0.0014373467 -0.002484706
0.0030960683 -0.0008516225 0.01046729 -0.011833308 -0.004039745 -0.019291062 -0.009503856 0.005135134
-0.007747049 -0.0047717365 -2.112503e-05 0.012488179 -0.009099344 0.0048539047 0.005728705 -0.017256405
-0.009045477 -0.017133543 -0.00314715 -0.026013426 -0.010333418 0.011265908 -0.0065172687 -0.0027885658
0.00059110177 0.008010318 -0.0066582216 -0.010836015 -0.004614083 -0.008725459 0.008322181 0.0140433
-1.1975065e-05 0.010856414 0.006266925 0.001825762 0.005780458 -0.0039775716 0.0056351074 -0.010250865
-0.0021041634 0.008269236 -0.0020243614 -0.007829344 0.0005134571 0.0010100154 -0.00773108 -0.00710761
0.013057246 0.008403121 0.00056989025 -0.008681815 0.006111043 -0.008440873 -0.012058903 0.0055205617
0.00011941235 -0.0050761434 0.002770625 -0.0001084705 -0.004159692 0.010270811 -0.0073458487 0.008371167
0.0091897175 0.0020894469 0.0063088043 -0.009975423 0.005946214 -0.006046155 -0.013564764 0.0027344616
0.0019685975 0.009239269 -2.1584157e-05 7.115202e-05 -0.0020371384 -0.00077211356 -0.010041953 -0.0030100718
-0.0032400223 0.002840586 0.012972468 -0.004452578 0.008587151 -0.010409648 -0.011000716 -0.0061350735
-0.018083857 -0.0010012997 0.0061833546 -0.0079542 -0.014382003 0.016335268 -0.009228805 -0.00991308
00000000: 9e6b 67bc 0ce6 0dbc 66d3 073c e720 febb
00000010: 40a1 f9ba ae4b 263c b6f3 8dba 4021 9dbc
00000020: 00e0 c9bb ba7b bf3b 7c83 983c 35cb 4c3c
00000030: 2209 f73b 5e48 8dbb c1dd 31bb 42a5 2fbb
00000040: ba03 28bc c022 bf3b d5e0 64bc d9aa b4bb
00000050: d35f ad3b e633 3ebc 9684 b4bb b6b8 8bbc
00000060: de93 28bc 7bb3 f83b fd97 3cbc fe7c f9bb
00000070: a057 16bc 11c0 ddbb b63b 2eb9 cf61 00bb
00000080: ddc6 293c 257a 31bc b687 383c 6fc8 c83b
00000090: 290a 803b b9c8 e9bb 098b c5bb ef78 8cbb
000000a0: 05dc 13bc 7f02 fdbb 052c 303c e33d 853a
000000b0: 7c28 f63b d71d 62bc 6fef b8bb ff75 3c3c
000000c0: 5e69 9fba fe7c 0fbc 5452 d03b 6dd9 26bc
000000d0: d033 01bb 5294 47bc 1116 2b3a a127 2b3c
000000e0: 4c4d 243a 6448 d9bb 8af5 edbb 29ee c7bb
000000f0: e99f 333c 38a5 6c3c c6c0 37bc 4aaa 8a3b
00000100: 3337 90bb 09c4 4e3c 939e 513b f48c bf3b
00000110: fa9e 19bc 2e61 34bc eeb0 dc3b 4748 faba
00000120: 1508 b63b eba0 edbb 2f89 173b 25ef 3c3c
00000130: 3f0a 2abc 901e c8bb 0389 793c 905f 1dbc
00000140: 35e3 15bc 3a8e 2bbb 2562 3f3c 370b d63b
00000150: 139b 113a 8403 843b cd8c d03b be5b bc3b
00000160: 3611 4739 7d31 12bc 8fe1 39bb 964c 07bc
00000170: 3f8f 0ebb e59e 393c 6c14 58bc c651 a33b
00000180: 30aa 0a3c e72d 113c b9dd 113c 1adf 093c
00000190: e4b8 58bb da30 013c cf19 f9bb 74c0 8dba
000001a0: 8c8f 023b 665a 723b 2643 bd3b 4b83 e0ba
000001b0: 2c88 473c b88a 263c 89bb ef3b 14cd 33bc
000001c0: f409 3ebc d1e3 42bc 1fad abbb 5b18 f73a
000001d0: 4198 6cbc 6ed9 823c e842 77bb a711 22bc
000001e0: f25b 713b f046 513c 980e f6bb 4483 dfba
000001f0: 6ddc 91bb f4e7 483a 1613 29bc 1dfa 1e3a
00000200: a53b 643c 1fc5 273c cb81 fabb 6f83 2abb
00000210: 33dc b7bb a458 323c 26cf 95bb db06 043b
00000220: adc4 163c ce8e 8eba 9176 7e3b c93c 4aba
00000230: 9892 533c 764c 56bc 3f95 a6bc 464d c73b
00000240: 7e91 bdb9 c2b5 6b3c cc32 6dbc 0d0d d03a
00000250: 5fcf 47bb c035 5a3c c36c b7b9 8253 4bbc
00000260: ad9a 5f3c 000a fcba 906b 36ba a391 2e3c
00000270: 99f8 81bb 9592 94bc 5a65 bc3a 73d6 22bb
00000280: 68e7 4a3b 6b3f 5fba ff7e 2b3c 7ee0 41bc
00000290: d65f 84bb 4a08 9ebc 10b6 1bbc a044 a83b
000002a0: f5da fdbb 3a5c 9cbb a835 b1b7 389b 4c3c
000002b0: 6a15 15bc 810d 9f3b dcb7 bb3b 4e5d 8dbc
000002c0: 7b33 14bc a55b 8cbc 6a40 4ebb 1c1a d5bc
000002d0: 7f4d 29bc a594 383c d08e d5bb 5fc0 36bb
000002e0: 2bf4 1a3a b53d 033c 362d dabb 8b89 31bc
000002f0: bc31 97bb 3af5 0ebc c259 083c df15 663c
00000300: 83e8 48b7 1adf 313c c75a cd3b 684e ef3a
00000310: ff69 bd3b 4a56 82bb b5a6 b83b 3ef3 27bc
00000320: 01e6 09bb b17b 073c 26ab 04bb a646 00bc
00000330: 8699 063a 7e62 843a 0055 fdbb f4e6 e8bb
00000340: 0fee 553c 3ead 093c b064 153a 2c3e 0ebc
00000350: 253f c83b 964b 0abc b592 45bc d4e5 b43b
00000360: 046d fa38 c755 a6bb 6093 353b a87a e3b8
00000370: 074e 88bb e746 283c 72b5 f0bb 3827 093c
00000380: 7890 163c 1aef 083b 16ba ce3b f56f 23bc
00000390: 75d8 c23b d31e c6bb be3e 5ebc a734 333b
000003a0: 9603 013b 4e60 173c a00f b5b7 7337 9538
000003b0: 8381 05bb aa67 4aba 0187 24bc a044 45bb
000003c0: 8e56 54bb 2029 3a3b 798a 543c eee6 91bb
000003d0: 1fb1 0c3c 3a8d 2abc 593c 34bc ba08 c9bb
000003e0: 9924 94bc 0b3e 83ba bd9d ca3b 5552 02bc
000003f0: 7ea2 6bbc 8ad1 853c 6a34 17bc 796a 22bc

_conditioned._func._drift._model.0.bias f4 [84]
-0.008630444 -0.0034492137 -0.013589873 -0.009182298 0.0025588532 0.004946196 -0.0051025907 0.00739035
-0.00045961986 -0.01073476 0.0152449515 0.011793015 0.0013403143 -0.0075778123 0.001459596 0.0076396023
0.012577945 -0.00046440988 -0.0050881295 0.003751595 0.00530859 -0.00066395104 0.0058757337 -0.010041673
0.0032099287 0.0027162738 -0.013052814 0.007849717 0.0057457825 -0.007184535 0.004409103 -0.0057725618
0.0069548655 0.005743434 0.009586493 -0.0120641515 0.0071026995 0.010821727 0.0077521396 -0.009981121
-0.010724683 -0.003933426 -0.005972159 -0.0014949755 -0.008707316 -0.0066965288 0.010745463 0.01019745
-0.0036560812 -0.010099999 0.008589973 -0.00083369314 -0.010871996 8.310916e-05 -0.001096455 -0.009742671
-0.0077214544 0.0047920533 -0.012210807 -0.006079233 -0.001052994 -0.00011167711 0.009977555 0.010780942
0.0095705185 0.007755942 -0.006455107 0.0034482705 0.0069251047 0.0069149616 -0.010049062 -0.007973859
0.009051925 0.0054235216 -0.0015712833 -0.01343097 0.008019799 0.005731788 0.008103744 -0.011513298
-0.008732592 -0.014581107 -0.0021325292 0.0018346688
00000000: b566 0dbc 340c 62bb 0fa8 5ebc 5971 16bc
00000010: 6fb2 273b b313 a23b a233 a7bb c02a f23b
00000020: 22f9 f0b9 d9e0 2fbc f6c5 793c 7d37 413c
00000030: 7cad af3a 4c4f f8bb ea4f bf3a a155 fa3b
00000040: ba13 4e3c 0a7c f3b9 53ba a6bb 52dd 753b
00000050: aef3 ad3b 000d 2eba 3a89 c03b d485 24bc
00000060: ab5d 523b 8303 323b 78db 55bc 199c 003c
00000070: 1e47 bc3b 3f6c ebbb 3d7a 903b c227 bdbb
00000080: a4e5 e33b 6b33 bc3b aa10 1d3c b8a8 45bc
00000090: c3bd e83b 9d4d 313c a905 fe3b db87 23bc
000000a0: 95b6 2fbc f8e3 80bb 1ab2 c3bb 0ef3 c3ba
000000b0: 21a9 0ebc 8e6e dbbb bd0d 303c 3513 273c
000000c0: dd9a 6fbb 777a 25bc f5bc 0c3c 338c 5aba
000000d0: 7520 32bc e44a ae38 edb6 8fba b99f 1fbc
000000e0: 4104 fdbb a806 9d3b d60f 48bc 4d34 c7bb
000000f0: 9e04 8aba 3134 eab8 e678 233c 8ca2 303c
00000100: aacd 1c3c 8f25 fe3b 5d85 d3bb 61fc 613b
00000110: fdeb e23b e796 e23b d2a4 24bc caa4 02bc
00000120: 864e 143c ccb7 b13b 85f3 cdba 920d 5cbc
00000130: 7a65 033c b9d1 bb3b 91c5 043c 46a2 3cbc
00000140: 2513 0fbc 98e5 6ebc e7c1 0bbb 4579 f03a

_conditioned._func._drift._model.2.weight f4 [64, 84]
0.014476162 0.0010546306 -0.018236596 0.0007630971 -0.005400371 0.007802617 0.0031818214 -0.0005076329
0.0010217399 -0.009067648 0.0006892827 0.010336324 -0.015143254 0.014462275 -0.0051813154 -0.003103966
0.0017987652 0.0034740795 0.0018481725 -0.00096806587 0.007846269 -0.015059084 -0.012462393 0.0013194743
0.0041074287 -0.002075563 0.006140899 -0.0126772635 0.01652427 0.0039683017 0.0039106198 3.8230235e-05
0.0015339947 0.004999248 -0.0002453862 -0.008379543 0.010338388 -0.0004754324 0.00090960984 -0.018723432
-0.0038384364 -0.0088995965 0.0016490954 -0.016721426 -0.014067228 -0.0010168658 -0.0055254083 -0.0018844766
-0.0057589086 0.0052554146 0.0041560484 0.006946208 0.012441404 -0.016775839 -0.008124579 -0.010758623
0.0076172906 -0.013950006 0.0028017766 -0.0121675385 -0.019413423 -0.0039671906 0.009062761 -0.019259918
0.004150992 -0.008915722 -0.020250456 -0.015663037 0.012580806 -0.005616382 -0.0044363583 0.0066192183
0.0026606095 0.0025622062 -0.01465289 -0.0050571105 0.0069673904 -0.002274936 0.00015042948 0.003922107
-0.007952347 -0.0060455236 -0.0028273812 -0.0026778344 0.013335419 0.0063114986 0.0011742861 0.0013772498
-0.006115866 0.019894697 0.008602455 -0.014587857 0.0071061486 0.004006703 0.0058878814 -0.013540089
-0.0010140083 -4.5499793e-05 -0.00983481 0.0057315137 0.020957354 -0.013401735 0.008339909 0.004474127
0.008730717 0.00026202644 0.0031097871 -0.0050595067 0.0121943625 0.008592101 -0.0008745123 -0.00016094204
0.013976856 -0.010251344 0.0005528513 0.0144714415 0.004755413 0.01543896 0.0017619436 0.00019857353
-0.00755892 -0.0011709807 -0.016392685 0.0049746823 -0.0038764041 9.707912e-05 -0.0078659 0.007827133
-0.013398212 0.0044184574 -0.0060699 0.009651984 -0.011446886 -0.0065419753 -0.00024314065 -0.0040557953
-0.0066940854 -0.01298244 -0.00642055 -0.015146608 -0.0029733893 0.013206871 0.0014148842 -0.0014878055
0.007719725 0.008128537 0.0064463303 -0.0009450395 0.012621549 -0.0023640345 0.004673763 -0.018125998
-0.013722795 0.019762414 0.0052385237 -0.0028690598 -0.003727944 0.0029645055 -0.00087083166 -0.015472752
0.008459541 0.009872821 0.0007891256 0.0067611025 0.0073649385 -0.002876739 0.0024255284 0.0013653678
-0.0065817162 0.0034212573 0.01242149 -0.0003127839 -0.008822949 0.0017639898 0.004123654 -0.0062643583
-0.0043673697 0.009580152 -0.00092057086 0.009252964 -0.009905526 0.0022849145 0.0041532596 -0.0046534385
-0.00018794087 0.009272731 -0.0038031444 -0.0021601343 -0.0028577985 -0.011724231 0.00889169 -0.0012899626
-0.010529986 0.0022483366 -0.0072052237 0.0030431862 -0.008207426 0.004553642 -9.078948e-05 -0.0032527228
-0.0065039056 -0.009266148 -0.008965693 0.0007320761 0.002941573 0.011270492 -0.005848192 0.0061744177
-0.0009922133 0.0092707975 0.015728846 -0.00017783773 -0.0005927469 0.000105267834 0.0044314726 0.0014156768
0.014830755 -0.0013439205 -0.011271842 0.010121164 -0.0031379107 0.0009439052 0.0030788349 0.004034308
0.011310334 6.8076195e-05 0.009641025 0.011238301 0.015245122 0.008172797 -0.0026855739 -0.0040424005
-0.0057884227 -0.0057528852 0.011232233 0.008013104 -0.005814376 -0.0021782333 -0.0038670036 -0.003677998
0.0006354576 -0.00012108077 -0.007588865 0.0012684253 0.004163087 -0.00958371 -0.003146025 -0.0014142373
-0.0027034571 -0.005446531 0.0022991803 -0.004138479 -0.002638058 -0.007603245 0.010218086 0.0018553118
00000000: 6d2d 6d3c 883b 8a3a ea64 95bc 940a 483a
00000010: 98f5 b0bb 18ad ff3b 1b86 503b ab12 05ba
00000020: e7eb 853a 7990 14bc fbb0 343a af59 293c
00000030: 691b 78bc 2ef3 6c3c 06c8 a9bb e86b 4bbb
00000040: 8bc4 eb3a 62ad 633b 613e f23a cdc5 7dba
00000050: a38d 003c 60ba 76bc 112f 4cbc 36f2 ac3a
00000060: 9c97 863b 2b06 08bb 9839 c93b 4cb4 4fbc
00000070: e85d 873c 8708 823b a824 803b 6759 2038
00000080: 5210 c93a bbd0 a33b 2ea7 80b9 5a4a 09bc
00000090: 5862 293c 7543 f9b9 e272 6e3a e261 99bc
000000a0: 478e 7bbb 9dcf 11bc 7626 d83a 5ffb 88bc
000000b0: 3b7a 66bc 5b48 85ba 7c0e b5bb 8b00 f7ba
000000c0: 3ab5 bcbb 9d35 ac3b 762f 883b 049d e33b
000000d0: 08d7 4b3c 7c6d 89bc f41c 05bc ef44 30bc
000000e0: 779a f93b 918e 64bc 039e 373b 5b5a 47bc
000000f0: e608 9fbc 35ff 81bb fa7b 143c fac6 9dbc
00000100: 0b05 883b 4013 12bc 49e4 a5bc c54f 80bc
00000110: ba1f 4e3c a109 b8bb df5e 91bb 07e6 d83b
00000120: 9f5d 2e3b b0ea 273b ad12 70bc 1eb6 a5bb
00000130: b54e e43b 1817 15bb 9bbc 1d39 0585 803b
00000140: 904a 02bc 8719 c6bb 964b 39bb 9b7e 2fbb
00000150: cd7c 5a3c b0d0 ce3b 81ea 993a d684 b43a
00000160: 9a67 c8bb 34fa a23c 50f1 0c3c e801 6fbc
00000170: b2da e83b a94a 833b 21ef c03b 40d7 5dbc
00000180: 79e8 84ba 08d7 3eb8 2f22 21bc 6ccf bb3b
00000190: c2ae ab3c f392 5bbc 1da4 083c b39b 923b
000001a0: 480b 0f3c 9860 8939 92cd 4b3b 38ca a5bb
000001b0: ddca 473c e2c5 0c3c 873f 65ba 8dc2 28b9
000001c0: 2fff 643c 41f5 27bc 39ed 103a a019 6d3c
000001d0: 4cd3 9b3b b1f3 7c3c 04f1 e63a 2d38 5039
000001e0: d1b0 f7bb 987b 99ba f449 86bc a902 a33b
000001f0: 450b 7ebb f596 cb38 fadf 00bc 603d 003c
00000200: 2d84 5bbc b5c8 903b 03e6 c6bb 5b23 1e3c
00000210: b88b 3bbc 115e d6bb 92f3 7eb9 7ae6 84bb
00000220: 0f5a dbbb 4db4 54bc 7a63 d2bb 7b29 78bc
00000230: 32dd 42bb a261 583c a373 b93a 7802 c3ba
00000240: bff5 fc3b 8e2d 053c bd3b d33b 87bc 77ba
00000250: 9dca 4e3c ebed 1abb 5e26 993b f97c 94bc
00000260: 93d5 60bc c9e4 a13c eca7 ab3b d606 3cbb
00000270: 8650 74bb 2648 423b 8648 64ba 6d81 7dbc
00000280: e399 0a3c 9dc1 213c 53dd 4e3a 3d8c dd3b
00000290: 9555 f13b ac87 3cbb 9df5 1e3b 24f6 b23a
000002a0: 70ab d7bb 2c37 603b 8183 4b3c 25fd a3b9
000002b0: 218e 10bc ad35 e73a b81f 873b 3f45 cdbb
000002c0: 271c 8fbb 12f6 1c3c 7752 71ba be99 173c
000002d0: ca4a 22bc 81be 153b 1118 883b df7b 98bb
000002e0: fe11 45b9 a7ec 173c 2d3e 79bb 0a91 0dbb
000002f0: e749 3bbb fd16 40bc 73ae 113c f613 a9ba
00000300: f685 2cbc d458 133b cc19 ecbb 3170 473b
00000310: 7178 06bc b836 953b 3b66 beb8 a22b 55bb
00000320: b71e d5bb 0bd1 17bc d8e4 12bc cce8 3f3a
00000330: 68c7 403b dfa7 383c 31a2 bfbb c552 ca3b
00000340: 270d 82ba 8be4 173c c8d9 803c f479 3ab9
00000350: 9262 1bba 3dc3 dc38 e335 913b 3b8e b93a
00000360: b2fc 723c 7d26 b0ba 88ad 38bc 3dd3 253c
00000370: 68a5 4dbb 6870 773a 47c6 493b 3a32 843b
00000380: fb4e 393c 21c4 8e38 64f5 1d3c da20 383c
00000390: adc6 793c 32e7 053c 7400 30bb 1d76 84bb
000003a0: cfac bdbb b382 bcbb 6607 383c 6549 033c
000003b0: 8586 bebb b1c0 0ebb 8e6d 7dbb 910a 71bb
000003c0: d694 263a beec fdb8 03ac f8bb 4a41 a63a
000003d0: 816a 883b fe04 1dbc 8a2d 4ebb ee5d b9ba
000003e0: 7c2c 31bb d078 b2bb d8ad 163b 149c 87bb
000003f0: 45e3 2cbb a424 f9bb c269 273c ef2d f33a

_conditioned._func._drift._model.2.bias f4 [64]
-0.0091313 -0.002490703 -0.010605015 0.0028821263 -0.008215656 0.011241789 -0.001218087 -0.0022476248
-0.012498652 -0.008562235 -0.0022957968 0.004178841 -0.008744286 -0.009470066 -0.00013411482 0.002546389
-0.01471695 -0.008439622 0.010719552 0.006576305 -0.004313353 0.0014087998 0.0015480503 0.0029076263
0.008239894 0.0068253195 0.011146852 0.0031689464 0.0051021287 0.0036987942 -0.011555548 -0.009844721
0.0039066784 -0.012248589 0.009523984 0.009180239 -0.005631457 -0.0030712541 -0.005666332 0.0054530883
0.015301137 0.0009400513 -0.0016285677 0.0024700277 -0.003286503 -0.0049498943 0.00068291347 -0.007382259
0.010072777 0.0067319605 -0.0043035457 -0.0051514697 -0.00508738 -0.0076937587 0.013496444 -0.00044976798
0.007472358 0.0027877144 -0.009808988 -0.00826005 0.003920582 0.0040060724 -0.012655896 0.002473146
00000000: 739b 15bc 103b 23bb a8c0 2dbc 0ee2 3c3b
00000010: f59a 06bc 7b2f 383c 38a8 9fba e34c 13bb
00000020: 25c7 4cbc 9e48 0cbc 1475 16bb a9ee 883b
00000030: 3244 0fbc 5628 1bbc 2ca1 0cb9 51e1 263b
00000040: 5d1f 71bc 5746 0abc 0fa1 2f3c 0b7e d73b
00000050: 0757 8dbb 7aa7 b83a f3e7 ca3a e08d 3e3b
00000060: 9f00 073c eea6 df3b 49a1 363c 19ae 4f3b
00000070: c22f a73b 7867 723b 7b53 3dbc c14b 21bc
00000080: 9803 803b 4eae 48bc 7c0a 1c3c b768 163c
00000090: 1688 b8bb 1847 49bb a3ac b9bb d2af b23b
000000a0: 9fb1 7a3c c66d 763a aa75 d5ba 30e0 213b
000000b0: 5f62 57bb b932 a2bb 8c05 333a e0e6 f1bb
000000c0: 4a08 253c c797 dc3b c204 8dbb a9cd a8bb
000000d0: 09b4 a6bb ed1b fcbb 3020 5d3c d6ce ebb9
000000e0: afda f43b 16b2 363b e1b5 20bc 2955 07bc
000000f0: 3a78 803b 5f45 833b ad5a 4fbc 8114 223b

_conditioned._func._diffusion._model.0.weight f4 [84, 64]
0.098797664 0.035113312 0.027160175 0.080682375 -0.110766 -0.0752907 -0.084997125 0.08272281
-0.040448066 -0.0028945233 -0.10385231 0.057326015 -0.063463844 0.010007343 0.08853537 -0.010222871
-0.08621036 -0.12268312 -0.0049562957 0.01399134 0.08086803 0.10946834 -0.10047618 -0.07905919
-0.059806276 -0.056205463 0.10715377 -0.09437751 0.0062959613 0.09006846 0.08280934 -0.03819806
-0.062121745 -0.031064814 -0.1137335 0.09471674 -0.0046369387 0.0054648826 -0.062047355 0.073499374
0.03712183 -0.014491278 0.025830386 -0.10646735 0.017857997 0.0005454038 0.07458966 0.078780256
-0.020177202 -0.047003094 0.11569335 0.077404454 -0.10364336 -0.04627742 -0.11445078 0.0147825135
0.08992987 -0.0768281 0.012862736 0.041002758 -0.038652677 -0.05068109 -0.06624461 0.062556624
-0.003457114 -0.022765817 -0.007366855 0.030447735 -0.018323492 -0.043878146 -0.06149953 -0.078488424
0.006491352 0.06393316 0.030357623 0.006240002 0.11232045 -0.09414313 -0.07905771 -0.106161006
-0.09459143 0.105414145 -0.042387873 -0.09393129 0.10617606 0.0011369942 -0.0498466 0.026632152
-0.08063185 0.07373638 -0.114546336 -0.020635013 0.11387034 -0.1119237 0.055674817 -0.038267948
-0.063893065 0.05567337 0.12127277 -0.060717355 -0.025953544 0.089327835 -0.022645341 -0.06417628
0.11177504 -0.022639638 0.05632714 0.06938027 0.016695753 -0.05878734 0.055136442 0.02056092
0.049362253 -0.017647797 -0.072017334 -0.12064839 0.00076085905 0.08462343 0.047285415 0.10021077
0.0020494773 -0.08284831 0.06411118 0.07979714 -0.12239343 0.0633735 -0.0037315777 0.054149564
-0.007331121 -0.10811967 -0.0034503457 -0.018934662 -0.015237103 -0.00850568 0.08910602 -0.014618192
-0.077749096 0.057272807 -0.029523756 -0.04403264 0.0992625 0.07312279 0.079936855 -0.116353884
-0.029374102 0.06601303 0.10258716 0.0650882 -0.01610571 -0.04164367 -0.08457071 -0.1031247
0.00689573 0.07090658 -0.0035960064 0.03313752 -0.037546452 0.009186723 -0.09091892 0.043861564
0.120353095 -0.076140456 -0.09232039 -0.04429956 0.013755888 -0.10459506 -0.01866849 0.08637359
-0.0025943886 -0.020432232 -0.015335716 0.047557 0.069474 0.03802038 -0.062140003 -0.11441293
-0.104639105 -0.09890522 0.07861248 -0.079736464 -0.051242735 -0.10966964 -0.031314254 -0.066537395
0.054279786 0.09948046 0.08569329 0.05834407 0.06347322 -0.064983465 0.102671266 0.017748075
0.12255551 0.028561825 0.04308095 0.029455472 0.057050463 0.06612008 -0.07587897 -0.0033257464
0.09909356 -0.04284297 0.10417213 0.011203496 0.022483809 0.040265087 -0.029976638 -0.018137433
-0.094760045 -0.10944934 0.08396512 -0.03721425 0.108686335 0.032379918 0.03579076 -0.08269299
0.09673184 -0.062933326 -0.08358615 0.017289843 -0.017429296 0.050079923 -0.06087323 0.11037442
0.0155746685 0.11634776 0.10883271 0.044809636 -0.05727435 -0.013232707 -0.052989006 -0.0198245
0.06137037 -0.07440014 0.07239716 -0.03693217 0.046571583 -0.10720411 -0.0565649 0.047901038
-0.11403966 0.08014802 -0.009093481 0.017880991 0.07016053 -0.10366535 -0.04887938 -0.044809848
-0.00074502494 -0.11066008 -0.094526 -0.11792594 0.032757875 -0.048290104 -0.1228249 -0.048305694
00000000: 6e56 ca3d fad2 0f3d 047f de3c cd3c a53d
00000010: 49d9 e2bd 0332 9abd f912 aebd 946a a93d
00000020: dfac 25bd 0bb2 3dbb 85b0 d4bd afce 6a3d
00000030: 55f9 81bd d7f5 233c 0852 b53d d47d 27bc
00000040: 0f8f b0bd 4a41 fbbd 6c68 a2bb ef3b 653c
00000050: 239e a53d f030 e03d 75c6 cdbd c9e9 a1bd
00000060: 6df7 74bd b337 66bd 7073 db3d ff48 c1bd
00000070: 5a4e ce3b d075 b83d f197 a93d 9275 1cbd
00000080: 5f73 7ebd a37b febc 1ced e8bd dafa c13d
00000090: 76f1 97bb c212 b33b 5e25 7ebd d786 963d
000000a0: 0f0d 183d d36c 6dbc 3f9a d33c 8e0b dabd
000000b0: ef4a 923c 6ef9 0e3a 77c2 983d 8b57 a13d
000000c0: a94a a5bc 5186 40bd a3f0 ec3d 3a86 9e3d
000000d0: f842 d4bd 648d 3dbd 2c65 eabd 5b32 723c
000000e0: 272d b83d 0d58 9dbd 3abe 523c 82f2 273d
000000f0: 4552 1ebd fa96 4fbd 41ab 87bd b01d 803d
00000100: c090 62bb 617f babc a965 f1bb 876d f93c
00000110: 261b 96bc 92b9 33bd eee6 7bbd 8abe a0bd
00000120: 68b5 d43b 63ef 823d 8db0 f83c ee78 cc3b
00000130: 4408 e63d 1dce c0bd 02e9 a1bd f16a d9bd
00000140: 27b9 c1bd 5fe3 d73d e89e 2dbd 0c5f c0bd
00000150: d672 d93d 3207 953a f32b 4cbd ac2b da3c
00000160: 5022 a5bd 1903 973d 4597 eabd c20a a9bc
00000170: da34 e93d 4138 e5bd 470b 643d dabe 1cbd
00000180: 5eda 82bd c209 643d dc5d f83d c3b2 78bd
00000190: 879c d4bc 83f1 b63d b982 b9bc da6e 83bd
000001a0: 50ea e43d c376 b9bc 4ab7 663d 3e17 8e3d
000001b0: 88c5 883c feca 70bd c0d6 613d 606f a83c
000001c0: 1330 4a3d 1d92 90bc d37d 93bd 8116 f7bd
000001d0: 6374 473a 0d4f ad3d 5aae 413d 4e3b cd3d
000001e0: 8650 063b 60ac a9bd b94c 833d af6c a33d
000001f0: 68a9 fabd f7c9 813d 7c8d 74bb efcb 5d3d
00000200: e639 f0bb d86d ddbd 321f 62bb dd1c 9bbc
00000210: 0ba5 79bc 685b 0bbc 387d b63d 2481 6fbc
00000220: eb3a 9fbd e496 6a3d cedb f1bc 925b 34bd
00000230: 234a cb3d 67c1 953d efb5 a33d f24a eebd
00000240: f5a1 f0bc d731 873d 3819 d23d f64c 853d
00000250: 1ff0 83bc 8e92 2abd 6933 adbd 0b33 d3bd
00000260: 93f5 e13b 7837 913d faaa 6bbb 35bb 073d
00000270: 4fca 19bd e983 163c b333 babd 2fa8 333d
00000280: af7b f63d 87ef 9bbd 7912 bdbd 7573 35bd
00000290: 6060 613c ef35 d6bd a9ee 98bc a3e4 b03d
000002a0: 9e06 2abb 7f61 a7bc a842 7bbc 21cb 423d
000002b0: 6248 8e3d 42bb 1b3d 8486 7ebd 5451 eabd
000002c0: 074d d6bd d28e cabd 94ff a03d df4c a3bd
000002d0: e7e3 51bd 7a9a e0bd 6043 00bd c244 88bd
000002e0: 7b54 5e3d 69bc cb3d f77f af3d 31fa 6e3d
000002f0: 3ffe 813d 0d16 85bd 5045 d23d 6964 913c
00000300: 62fe fa3d 7dfa e93c a675 303d 9a4c f13c
00000310: bfad 693d f769 873d 6f66 9bbd c4f4 59bb
00000320: 90f1 ca3d 1c7c 2fbd 3358 d53d de8e 373c
00000330: f72f b83c 01ed 243d 9191 f5bc f494 94bc
00000340: 8e11 c2bd fa26 e0bd e8f5 ab3d f86d 18bd
00000350: f196 de3d cea0 043d 5599 123d f15a a9bd
00000360: 581b c63d 30e3 80bd 372f abbd 6ea3 8d3c
00000370: e2c7 8ebc 9b20 4d3d 3556 79bd fc0b e23d
00000380: e52c 7f3c bc47 ee3d afe3 de3d 4f8a 373d
00000390: 8298 6abd ffcd 58bc 000b 59bd fd66 a2bc
000003a0: 7f5f 7b3d 1a5f 98bd f644 943d 3046 17bd
000003b0: d8c1 3e3d d48d dbbd 99b0 67bd e133 443d
000003c0: a08d e9bd a524 a43d d3fc 14bc 287b 923c
000003d0: 53b0 8f3d 804e d4bd bf35 48bd 888a 37bd
000003e0: c74d 43ba c1a1 e2bd d996 c1bd 2883 f1bd
000003f0: 1f2d 063d d8cb 45bd 9f8b fbbd 31dc 45bd

_conditioned._func._diffusion._model.0.bias f4 [84]
0.027213106 0.08644737 -0.09956853 0.036787555 -0.0124511905 0.08130036 -0.025795048 0.034006782
-0.05846015 0.06052269 -0.032125346 0.00095545634 -0.01132647 -0.00955201 -0.022335947 -0.06283725
0.1056853 -0.035656247 -0.078018546 -0.017211061 -0.08022048 -0.007431289 0.07648608 -0.11156051
0.022170046 -0.04732102 -0.026819667 -0.09750305 -0.056125253 0.055310123 -0.06165418 0.032420974
-0.050709043 -0.10976634 0.071588956 0.039556414 -0.07050431 -0.07677107 0.0651522 -0.01580017
-0.017033309 -0.01075039 -0.1061508 -0.06868773 0.12541538 -0.01588331 -0.057796743 0.011967265
-0.038052827 0.014396368 -0.049675524 0.061686777 0.0031176533 0.052262712 0.115229286 -0.056061722
-0.021446884 0.034042116 0.109724216 -0.021474116 0.0615701 0.06524309 -0.11590122 -0.028098306
-0.056725394 -0.0092274975 0.08790115 -0.006111328 -0.085285015 -0.018178534 -0.0058929827 0.035463672
-0.09541254 0.03637365 -0.0041253446 0.077930816 -0.028892986 -0.036544587 -0.030441271 0.03070492
-0.02124095 -0.08451488 -0.024993453 0.045470025
00000000: 05ee de3c 520b b13d 96ea cbbd 8cae 163d
00000010: 1400 4cbc ce80 a63d 2350 d3bc b24a 0b3d
00000020: e973 6fbd a4e6 773d de95 03bd 9777 7a3a
00000030: a992 39bc 0980 1cbc e0f9 b6bc d1b0 80bd
00000040: 8971 d83d 490c 12bd 30c8 9fbd 36fe 8cbc
00000050: a34a a4bd 2c82 f3bb bca4 9c3d d679 e4bd
00000060: f59d b53c b0d3 41bd ebb4 dbbc aeaf c7bd
00000070: 98e3 65bd de8c 623d 1889 7cbd dbcb 043d
00000080: 49b4 4fbd 2dcd e0bd 3b9d 923d e805 223d
00000090: 9064 90bd 273a 9dbd 846e 853d 5c6f 81bc
000000a0: 7089 8bbc 6722 30bc 9765 d9bd 27ac 8cbd
000000b0: e46c 003e b71d 82bc 47bc 6cbd 5912 443c
000000c0: 48dd 1bbd bede 6b3c 9078 4bbd 46ab 7c3d
000000d0: 8b51 4c3b 6d11 563d 55fd eb3d faa0 65bd
000000e0: 60b1 afbc bf6f 0b3d 17b7 e03d 7cea afbc
000000f0: ee30 7c3d 2b9e 853d 9e5d edbd 6b2e e6bc
00000100: e358 68bd ee2e 17bc 8505 b43d 8941 c8bb
00000110: e9a9 aebd 26eb 94bc ec19 c1bb 5b42 113d
00000120: a667 c3bd 89fc 143d e62d 87bb 319a 9f3d
00000130: fcb0 ecbc c7af 15bd f95f f9bc e288 fb3c
00000140: 8001 aebc 2316 adbd 12bf ccbc c73e 3a3d

_conditioned._func._diffusion._model.2.weight f4 [64, 84]
-0.07821835 0.054287348 -0.07142632 0.07376971 -0.079963915 0.0113076065 -0.08448309 0.047632784
0.05832433 -0.0324869 -0.029636735 -0.07450121 0.005955376 -0.077769145 -0.02143989 0.021025246
0.058059312 -0.03511036 -0.013715223 0.079736136 -0.09550653 -0.07980885 -0.06987015 0.09418849
-0.07321759 0.0579368 -0.08518315 -0.06088848 0.07853903 0.012215596 0.0886588 -0.06008409
0.029382361 0.07800244 -0.048818305 0.0016732988 0.024747211 0.020219443 0.06981596 0.06845339
0.043275204 -0.01418562 0.040933717 0.013536492 0.013722408 -0.060460236 -0.06802485 0.08057187
0.09738022 -0.078632414 -0.07941868 -0.06259282 0.036049448 -0.09413734 -0.001238319 -0.066340156
0.08474334 0.107800394 0.007975936 0.067137174 0.030662809 -0.09680534 -0.08280155 -0.028545532
0.032965753 0.05788659 0.050570153 0.10334068 -0.0018240431 -0.1094424 0.024454251 -0.0498948
-0.02670765 0.0774503 -0.07256378 0.0027388947 -0.010177018 -0.096485965 -0.07047693 0.064202346
0.030388448 -0.08231611 -0.08081654 0.012109109 -0.023181278 0.036870033 -0.031909566 -0.079742976
0.09010193 -0.07896898 0.0013003342 -0.024470596 -0.016128907 -0.0144915655 -0.058511395 0.07066317
-0.091752976 0.0073408224 -0.05214604 0.012263712 -0.1106559 0.06486813 0.0072903833 0.09723421
0.09345027 -0.05679576 0.08690194 -0.07045295 0.056902383 0.07746908 -0.040755436 0.09679023
0.010430131 -0.06740015 -0.008823147 0.00037298485 -0.05424361 0.07364008 0.0976817 0.021617185
0.048837394 -0.055709045 0.04796332 0.033284437 -0.007694029 -0.076609075 0.08457846 0.013204635
0.04026921 -0.08455066 0.04311951 0.014142215 -0.033685748 -0.08920634 0.08242903 -0.06557098
0.08295759 -0.0047479863 -0.030301921 -0.07289107 -0.021607932 -0.040374935 0.07857434 0.035400607
0.10442824 0.07917004 -0.067310296 -0.0059385565 -0.0128841335 -0.057898104 0.06422093 -0.1086673
0.0068662465 0.051068645 -0.06804981 -0.09565539 -0.09236317 -0.08077043 0.05157665 -0.080654986
-0.028591912 0.0502845 -0.060940064 0.032333925 0.08332624 0.07567172 -0.06434723 0.055627216
0.035395063 -0.022277381 0.0885889 -0.057449892 -0.023252415 0.07683941 0.055265095 0.048900004
0.06980132 0.0767817 0.091912895 -0.043901224 0.04738664 0.046310868 0.048466418 -0.011012931
0.007009004 0.027625956 -0.019204356 -0.0855791 -0.09555095 -0.09414884 -0.10193775 -0.048063267
0.0918388 -0.09057893 0.07307962 -0.024599982 0.089968845 0.10612455 0.03198645 -0.01587634
-0.06903314 -0.05936566 -0.020063488 0.0642693 0.09004407 0.089858875 0.024907028 -0.07094726
0.03057529 -0.021824906 0.005560547 -0.107463926 -0.0110035855 -0.039687146 0.0024952618 -0.067387916
0.089162454 0.083303206 0.09971656 -0.040750112 0.087355845 0.087417215 -0.013152514 0.07569339
-0.06872272 -0.09270774 -0.005061725 -0.054663844 -0.086161226 0.083806686 0.06935267 0.06029717
0.011405551 0.005955333 0.052683074 0.028733777 -0.097519115 -0.0035222734 0.031668413 -0.0872562
0.033146303 -0.04852483 0.04056608 -0.0016609253 -0.0040401504 -0.088422745 -0.08289985 -0.055064257
0.07599263 -0.08239444 -0.024436237 -0.049197923 -0.10487982 0.022517843 -0.07157983 0.06985712
00000000: f130 a0bd 695c 5e3d f647 92bd 9314 973d
00000010: 1fc4 a3bd 8a43 393c 7805 adbd 981a 433d
00000020: 7ee5 6e3d fc10 05bd bdc8 f2bc 1794 98bd
00000030: 5125 c33b 6e45 9fbd b5a2 afbc 233d ac3c
00000040: 9acf 6d3d e1cf 0fbd d1b5 60bc b34c a33d
00000050: ed98 c3bd d372 a3bd 1518 8fbd e5e5 c03d
00000060: 1bf3 95bd 234f 6d3d 8174 aebd 3366 79bd
00000070: 12d9 a03d ec23 483c bf92 b53d bc1a 76bd
00000080: 47b3 f03c bebf 9f3d b4f5 47bd 9752 db3a
00000090: aaba ca3c 3fa3 a53c acfb 8e3d 4a31 8c3d
000000a0: 5741 313d cd6a 68bc 1daa 273d 2ac8 5d3c
000000b0: f3d3 603c 27a5 77bd 9d50 8bbd dd02 a53d
000000c0: 486f c73d 080a a1bd 43a6 a2bd aa30 80bd
000000d0: 96a8 133d 14cb c0bd 174f a2ba 59dd 87bd
000000e0: eb8d ad3d 74c6 dc3d 80ad 023c 377f 893d
000000f0: 9230 fb3c e141 c6bd dc93 a9bd 52d8 e9bc
00000100: 1907 073d 7d1a 6d3d a622 4f3d 47a4 d33d
00000110: bb14 efba 5623 e0bd 4854 c83c 7d5e 4cbd
00000120: 00ca dabc 439e 9e3d 529c 94bd 077f 333b
00000130: 82bd 26bc 6f9a c5bd 3556 90bd 857c 833d
00000140: 32f1 f83c 5995 a8bd 2483 a5bd 4965 463c
00000150: aae6 bdbc 0805 173d 9bb3 02bd 4950 a3bd
00000160: 5c87 b83d 7dba a1bd fa6f aa3a 8f76 c8bc
00000170: c520 84bc 086e 6dbc a5a9 6fbd dab7 903d
00000180: fce8 bbbd 488b f03b 1697 55bd bced 483c
00000190: 8f9f e2bd 95d9 843d 2be4 ee3b bb22 c73d
000001a0: db62 bf3d aca2 68bd a5f9 b13d a349 90bd
000001b0: 7912 693d 1ca8 9e3d 2cef 26bd f539 c63d
000001c0: 24e3 2a3c 1709 8abd f68e 10bc 2e8d c339
000001d0: 8c2e 5ebd 9cd0 963d 580d c83d 8616 b13c
000001e0: b809 483d 2b2f 64bd 3075 443d 4355 083d
000001f0: 311e fcbb 38e5 9cbd 7937 ad3d 4158 583c
00000200: 54f1 243d e528 adbd 159e 303d c0b4 673c
00000210: 11fa 09bd d0b1 b6bd 8dd0 a83d 144a 86bd
00000220: abe5 a93d ff94 9bbb bc3b f8bc ea47 95bd
00000230: 1e03 b1bc 3060 25bd 95eb a03d 3a00 113d
00000240: 79de d53d e723 a23d fbd9 89bd 3998 c2bb
00000250: f917 53bc 9026 6dbd 4386 833d f68c debd
00000260: 40fe e03b 5b2d 513d b35d 8bbd f9e6 c3bd
00000270: e728 bdbd f86a a5bd 0a42 533d 712e a5bd
00000280: 9639 eabc 1ff7 4d3d 4a9c 79bd 9470 043d
00000290: f3a6 aa3d c6f9 9a3d 7bc8 83bd 5dd9 633d
000002a0: 6afa 103d 0e7f b6bc 196e b53d 9450 6bbd
000002b0: d97b bebc fb5d 9d3d a75d 623d 5f4b 483d
000002c0: fff3 8e3d b93f 9d3d d43c bc3d c5d1 33bd
000002d0: 7e18 423d 77b0 3d3d b984 463d 956f 34bc
000002e0: c9ab e53b d44f e23c 7452 9dbc 1844 afbd
000002f0: 37b0 c3bd 1bd1 c0bd bdc4 d0bd fddd 44bd
00000300: fb15 bc3d 7281 b9bd c5aa 953d e785 c9bc
00000310: 9641 b83d d457 d93d 3904 033d 190f 82bc
00000320: 3f61 8dbd 6829 73bd 2f5c a4bc 9f9f 833d
00000330: 0669 b83d ee07 b83d d309 cc3c cc4c 91bd
00000340: 0879 fa3c 25ca b2bc 4035 b63b 0c16 dcbd
00000350: 6248 34bc fd8e 22bd 8c87 233b ad02 8abd
00000360: ce9a b63d df9a aa3d 3238 cc3d 97e9 26bd
00000370: 9fe7 b23d cc07 b33d a47d 57bc 2305 9b3d
00000380: 7fbe 8cbd 8edd bdbd d4dc a5bb 32e7 5fbd
00000390: 4c75 b0bd d7a2 ab3d c608 8e3d 2afa 763d
000003a0: 59de 3a3c f424 c33b 35ca 573d 1963 eb3c
000003b0: 1ab8 c7bd f1d5 66bb bdb6 013d 61b3 b2bd
000003c0: 6bc4 073d f9c1 46bd 9e28 263d 68b3 d9ba
000003d0: 3d63 84bb fc16 b5bd 66c7 a9bd 0f8b 61bd
000003e0: 06a2 9b3d 6bbe a8bd 812e c8bc c383 49bd
000003f0: 3bcb d6bd 5777 b83c 7298 92bd 4011 8f3d

_conditioned._func._diffusion._model.2.bias f4 [64]
0.05218168 0.07093261 -0.07035802 0.0015545595 -0.07984199 -0.058364343 0.02268559 0.10060123
-0.005879963 -0.02448745 -0.13339432 -0.043955766 -0.08864985 0.089952655 0.014025348 0.07967355
0.08382742 -0.060796246 0.0023219225 0.07574997 -0.049088877 0.07093826 -0.027641768 -0.091059364
-0.06585828 -0.056499448 0.06502305 -0.067031346 0.041975494 -0.06106352 0.06256841 -0.079068795
0.07690009 -0.080178775 -0.07162856 -0.023559818 0.06174359 0.01428293 0.0137879625 0.0497545
-0.062235717 -0.062586725 0.02910676 0.01678576 0.021028506 -0.044316586 -0.00022252944 -0.0744687
0.03137951 0.077906184 -0.0712138 -0.014123195 0.07098416 -0.0003910988 -0.0027725527 0.071931
-0.0800011 -0.016087435 0.042508595 -0.015172789 0.03500199 0.0005412253 0.034170996 -0.06578226
00000000: 75bc 553d 1e45 913d de17 90bd 5cc2 cb3a
00000010: 3284 a3bd 730f 6fbd 21d7 b93c 0508 ce3d
00000020: b4ac c0bb e899 c8bc 8598 08be f60a 34bd
00000030: 0d8e b5bd 1939 b83d 93ca 653c e32b a33d
00000040: b6ad ab3d 7c05 79bd 652b 183b cd22 9b3d
00000050: 6b11 49bd 1448 913d fd70 e2bc 557d babd
00000060: b5e0 86bd f76b 67bd ce2a 853d bb47 89bd
00000070: 7fee 2b3d be1d 7abd de23 803d d2ee a1bd
00000080: cb7d 9d3d c534 a4bd ffb1 92bd 8500 c1bc
00000090: d9e6 7c3d f302 6a3c e8e6 613c 60cb 4b3d
000000a0: e1ea 7ebd 782d 80bd 4d71 ee3c 4a82 893c
000000b0: f943 ac3c 4f85 35bd cb56 69b9 0c83 98bd
000000c0: cd87 003d 478d 9f3d 8ad8 91bd f964 67bc
000000d0: 2560 913d 640c cdb9 b7b3 35bb 8f50 933d
000000e0: 9ed7 a3bd ccc9 83bc 7e1d 2e3d 4a97 78bc
000000f0: 3f5e 0f3d 04e1 0d3a e3f6 0b3d d9b8 86bd

_conditioned._initial._model.0.weight f4 [32, 16]
-0.010092287 0.08032191 -0.18683451 -0.040743135 -0.09008318 -0.024090532 -0.101823054 0.21123785
-0.17191415 -0.038773797 -0.12405679 0.12223905 -0.13878083 -0.09537213 -0.19675735 0.08855676
-0.018069617 0.22627778 -0.060063295 0.08370963 -0.03245125 -0.12982671 0.21627785 -0.17992595
0.050888844 -0.045080937 0.07477905 0.108183265 -0.01665405 0.05466627 -0.2124913 -0.11232903
-0.22433193 -0.08334187 0.0013266045 0.048180886 0.2339198 -0.15926714 -0.22080989 -0.21347582
0.11099889 -0.23043104 0.12959866 -0.19712111 -0.19666657 -0.19675939 -0.018700263 -0.012649099
-0.066232726 0.082182035 -0.052137256 -0.1117841 0.10380785 -0.23068291 0.07618073 0.10239577
-0.014956401 -0.058804277 0.113880076 0.017081574 0.108732834 0.07710211 -0.10256502 0.17633611
-0.013159716 0.045525793 0.0377233 0.04960788 -0.116210006 -0.109555505 0.018332541 0.16596384
0.0056980234 -0.20392787 -0.160489 -0.076022245 0.17070037 -0.18379189 -0.21114084 0.17682938
-0.09443102 0.1485874 -0.17359535 0.24929999 0.09121191 -0.21645519 -0.06752228 0.10013636
0.18924275 -0.1559785 0.18071689 -0.20811452 0.17017725 0.102039404 0.06374593 0.15846105
0.1975217 -0.18331026 0.014976802 0.1797954 0.12839258 0.016212683 0.009306019 -0.012549163
0.18406539 0.139414 -0.12975603 -0.058797214 -0.172531 0.016817594 0.051661745 0.04749888
0.06891967 0.03314373 0.07634923 -0.17851964 -0.22268812 -0.119994506 0.07037625 0.11935875
0.073827066 0.2084914 -0.17560881 -0.06671119 -0.071856655 -0.15839937 0.19359858 -0.22930056
-0.2186383 0.07740801 0.24743412 0.00962575 -0.14633846 -0.15617062 -0.055114456 -0.18108562
-0.058002163 -0.19687006 -0.16715941 -0.011242826 0.20839912 0.132324 0.12782031 0.17237361
0.06755267 0.09842319 0.09707418 0.19842382 -0.085046135 -0.10420553 0.02780488 -0.045255955
-0.027382072 0.025011964 0.0046600588 -0.07959731 0.16458085 0.17131959 -0.2085811 -0.23476598
-0.025825437 0.13815168 -0.01675082 0.055510636 -0.09644848 -0.011306838 -0.03323708 0.06584614
0.11603064 -0.11705541 0.12875985 0.12650602 0.014664623 -0.04947005 -0.11062805 -0.20215075
-0.13870211 -0.031507827 0.08124353 -0.13316543 -0.20807865 -0.00680338 -0.22381826 0.21913582
-0.11299788 0.08632242 0.09648715 0.044402853 0.052915893 0.0902037 0.0758964 -0.022350263
-0.23823008 -0.0682494 -0.14097221 -0.06572666 0.14074405 -0.21849261 -0.108715646 -0.007824813
-0.09182738 -0.10923983 0.21701936 0.035207283 -0.18343788 -0.206419 -0.15755625 -0.19798632
0.00670978 -0.016448779 -0.14839272 0.027831102 -0.19006643 -0.11432286 -0.16933914 0.20856051
-0.12547758 0.06840743 -0.105459824 0.010468155 -0.009984642 0.19198929 0.15126124 -0.15329455
0.011468074 0.033016242 0.09274043 -0.2004656 0.22691719 0.11119477 0.031647865 0.13084675
0.10689428 -0.046043906 -0.0904971 -0.22214301 -0.013832199 -0.15142657 -0.14160106 -0.13384348
-0.12460042 0.049920414 -0.085035264 -0.15855782 0.15478326 -0.15538341 0.11896614 0.05035629
0.049453005 0.177209 0.052018367 -0.11029653 0.0015019865 0.10637345 -0.2231672 -0.2234126
00000000: 1f5a 25bc d07f a43d 8c51 3fbe 46e2 26bd
00000010: 887d b8bd 8259 c5bc 9b88 d0bd bc4e 583e
00000020: 430a 30be 46d1 1ebd 7c11 febd 7858 fa3d
00000030: 901c 0ebe 7752 c3bd c27a 49be 3f5d b53d
00000040: bc06 94bc 5db5 673e ee04 76bd f46f ab3d
00000050: 9aeb 04bd 4bf1 04be f177 5d3e 823e 38be
00000060: d270 503d caa6 38bd c225 993d 308f dd3d
00000070: 136e 88bc bde9 5f3d 5297 59be c30c e6bd
00000080: 45b7 65be 24af aabd 76e1 ad3a 5259 453d
00000090: ac88 6f3e ed16 23be fd1b 62be 6899 5abe
000000a0: 6353 e33d 1df6 6bbe 83b5 043e 1eda 49be
000000b0: f662 49be 4b7b 49be 4b31 99bc 2b3e 4fbc
000000c0: 06a5 87bd 0e4f a83d e08d 55bd 10ef e4bd
000000d0: 3699 d43d 2438 6cbe a404 9c3d e0b4 d13d
000000e0: b10b 75bc c1dc 70bd f539 e93d a8ee 8b3c
000000f0: 52af de3d b6e7 9d3d 9c0d d2bd 7491 343e
00000100: d99b 57bc 4179 3a3d bf83 1a3d a231 4b3d
00000110: 83ff edbd a35e e0bd 202e 963c 6df2 293e
00000120: 7cb6 ba3b 78d2 50be 3a57 24be 8db1 9bbd
00000130: 14cc 2e3e f133 3cbe 4e35 58be c312 353e
00000140: 0d65 c1bd 4c27 183e fbc2 31be 7f48 7f3e
00000150: 4fcd ba3d 6ea6 5dbe 1f49 8abd 4b14 cd3d
00000160: dac8 413e d4b8 1fbe d90d 393e f91b 55be
00000170: f242 2e3e 09fa d03d 3a8d 823d 9d43 223e
00000180: 2143 4a3e afb5 3bbe 4361 753c 491c 383e
00000190: 5879 033e 76d0 843c 4678 183c 019b 4dbc
000001a0: a37b 3c3e 8bc2 0e3e c4de 04be 59d5 70bd
000001b0: f7ab 30be 0dc5 893c 449b 533d 308e 423d
000001c0: c225 8d3d b8c1 073d fc5c 9c3d dacd 36be
000001d0: 5b08 64be aebf f5bd 6c21 903d 5c72 f43d
000001e0: a532 973d c57e 553e ccd2 33be e09f 88bd
000001f0: 9529 93bd 7233 22be b53e 463e c4cd 6abe
00000200: b8e2 5fbe 1788 9e3d 5f5f 7d3e 52b5 1d3c
00000210: c0d9 15be 31eb 1fbe b2bf 61bd 826e 39be
00000220: ad93 6dbd 4e98 49be d62b 2bbe d433 38bc
00000230: 9466 553e f17f 073e 54e3 023e b582 303e
00000240: 0e59 8a3d 1992 c93d d4ce c63d 9d2f 4b3e
00000250: ab2c aebd b569 d5bd 0fc7 e33c 4f5e 39bd
00000260: 5e50 e0bc e4e5 cc3c 68b3 983b ea03 a3bd
00000270: e287 283e 676e 2f3e 4996 55be 7e66 70be
00000280: de8f d3bc a277 0d3e 0439 89bc 1f5f 633d
00000290: c886 c5bd 5140 39bc 9b23 08bd 57da 863d
000002a0: 79a1 ed3d bfba efbd 9fd9 033e cb8a 013e
000002b0: e343 703c 1ba1 4abd f690 e2bd 9b00 4fbe
000002c0: ed07 0ebe 5a0e 01bd 0263 a63d 855c 08be
000002d0: 9212 55be e3ee debb 9d30 65be 2465 603e
000002e0: 6f6b e7bd cfc9 b03d 0e9b c53d c4df 353d
000002f0: 56be 583d b8bc b83d 926f 9b3d e617 b7bc
00000300: 96f2 73be 57c6 8bbd 055b 10be b39b 86bd
00000310: 351f 103e 87bc 5fbe 4fa6 debd a533 00bc
00000320: fe0f bcbd 22b9 dfbd 533a 5e3e 8335 103d
00000330: 24d7 3bbe 815f 53be 6d56 21be edbc 4abe
00000340: b7dd db3b 97bf 86bc 43f4 17be 0dfe e33c
00000350: c6a0 42be 1b22 eabd 3d67 2dbe e390 553e
00000360: 327d 00be 3219 8c3d 52fb d7bd a082 2b3c
00000370: a096 23bc d798 443e 3ae4 1a3e 3ff9 1cbe
00000380: 97e4 3b3c 0a3c 073d b2ee bd3d db46 4dbe
00000390: fb5c 683e 15ba e33d 31a1 013d b1fc 053e
000003a0: 63eb da3d 8998 3cbd 8b56 b9bd 7579 63be
000003b0: 73a0 62bc 910f 1bbe deff 10be 440e 09be
000003c0: 812e ffbd 5979 4c3d f826 aebd fb5c 22be
000003d0: 817f 1e3e d41c 1fbe 85a4 f33d 6642 4e3d
000003e0: 3c8f 4a3d 4776 353e 3611 553d 26e3 e1bd
000003f0: 4ede c43a 53da d93d f185 64be 46c6 64be

_conditioned._initial._model.0.bias f4 [32]
-0.14771724 -0.21618332 -0.036351413 -0.06712005 -0.109700575 -0.23716116 0.08270528 -0.14680494
0.14148717 0.074352905 0.10470674 0.16482355 0.14380193 -0.24870114 -0.056040704 -0.21503067
-0.19532204 -0.1869178 -0.0012338703 -0.17918168 -0.14572595 -0.24099602 0.14698362 0.010149765
0.13744415 0.22556153 -0.14198129 0.07952009 -0.18766892 0.048056446 0.23613481 0.24624133
00000000: 3043 17be 295f 5dbe 38e5 14bd 3d76 89bd
00000010: b2aa e0bd 60da 72be 6361 a93d 0954 16be
00000020: 03e2 103e 5646 983d 7d70 d63d 81c7 283e
00000030: d040 133e 83ab 7ebe f08a 65bd 0031 5cbe
00000040: 8002 48be 6167 3fbe d1b9 a1ba 677b 37be
00000050: 2f39 15be a9c7 76be e082 163e 334b 263c
00000060: 29be 0c3e 9af9 663e 8b63 11be 6edb a23d
00000070: 482c 40be d6d6 443d 53cd 713e b026 7c3e
