Seattle Weather/lstm_sigwgan/G.pt (torch, 313567 bytes, 41 tensors)

encoder.lstm.weight_ih_l0 f4 [128, 1]
0	0x3d6ec59e	0.05829393
1	0xbcff4475	-0.031160573
2	0xbd5a8226	-0.053346775
3	0x3cfa8aae	0.030583706
4	0xbd0b28df	-0.033974525
5	0x3ddde36f	0.10834395
6	0xbd480bb6	-0.048839293
7	0xbdc9770e	-0.09837161
8	0x3e30bb74	0.17259008
9	0x3e083d6b	0.13304679
10	0xbd80ee04	-0.06295398
11	0xbce48367	-0.027894689
12	0x3d98ec37	0.074669294
13	0x3c508923	0.012728008
14	0x3e2a2118	0.16614187
15	0x3e0cf9d0	0.13767171
16	0x3dfd1be3	0.123588346
17	0x3d97b301	0.07407189
18	0xbdce7e34	-0.10082665
19	0xbdec57fa	-0.11540218
20	0x3dc1fbda	0.09471865
21	0xbe4d3989	-0.20041479
22	0x3e64f917	0.22360645
23	0x3da27bac	0.07933745
24	0x3ddf54fc	0.10904881
25	0x3e33883a	0.17532435
26	0x3e0716cc	0.1319229
27	0xbdeea09e	-0.11651729
28	0xbd7a287b	-0.06107376
29	0x3d5a56d6	0.05330547
30	0x3e096943	0.1341906
31	0xbba5f809	-0.0050649685
32	0xbe3eaf6b	-0.18621604
33	0xbdb46b70	-0.088095546
34	0x3aa81e0c	0.0012826337
35	0x3c2c5dc6	0.010520404
36	0x3de42780	0.111403465
37	0xbd99fb0c	-0.075185865
38	0xbdbdcc0d	-0.09267435
39	0xbbe5cfd7	-0.007013302
40	0x3dbeb324	0.09311512
41	0x3ded80d9	0.11596841
42	0xbd9a6252	-0.07538284
43	0x3c4da001	0.012550355
44	0x3df7124b	0.12064036
45	0x3d599656	0.053121887
46	0xbdf24430	-0.11829412
47	0xbe404edb	-0.18780081
48	0x3e1b26ae	0.15151474
49	0x3ddcfc5b	0.107903205
50	0xbe2d7ab9	-0.16941346
51	0xbe4e2e8b	-0.20134942
52	0xbd867601	-0.06565476
53	0x3e0950ee	0.13409778
54	0x3e3a4019	0.18188514
55	0xbc91cc40	-0.01779759
56	0x3d8fe3bf	0.07025861
57	0x3dcf96fb	0.10136219
58	0xbdcdd078	-0.10049528
59	0xbe3fc78e	-0.18728468
60	0xbe5ba398	-0.21449125
61	0x3e1e8d35	0.15483554
62	0xbe2856b8	-0.1643933
63	0x3dc91ba3	0.098197244
64	0x3e063dcc	0.13109511
65	0xbd481041	-0.048843626
66	0xbe756f2b	-0.23968188
67	0x3e79928f	0.24372314
68	0x3e3f61a8	0.18689597
69	0x3be691f4	0.007036442
70	0xbdb0396b	-0.086047016
71	0x3d8f4ba5	0.0699685
72	0xbe205065	-0.15655668
73	0x3d0afbb5	0.033931453
74	0x3e181167	0.14850388
75	0xbe299197	-0.16559444
76	0x3e1bb0b5	0.15204127
77	0x3c074068	0.008255102
78	0xbc1a9ce0	-0.009436816
79	0x3dc37971	0.095446475
80	0xbe871689	-0.2638438
81	0xbdfccc30	-0.12343633
82	0x3e4113bc	0.18855184
83	0xbe21eb71	-0.1581247
84	0xbcce8f62	-0.025214855
85	0xbd5154ab	-0.051106136
86	0xbe6bbf26	-0.23022136
87	0x3e827714	0.25481474
88	0x3e35d7c3	0.17758088
89	0x3d81e45e	0.06342386
90	0xbdfe3565	-0.12412528
91	0xbe901ca0	-0.2814684
92	0xbe1ef5e0	-0.15523481
93	0x3b8a2b36	0.004216577
94	0x3d72c568	0.059270293
95	0xbe3aad6c	-0.18230218
96	0x3d8b947e	0.06815432
97	0xbd8bac3e	-0.06819962
98	0xbd8a4cdf	-0.06752943
99	0x3dfda2a2	0.12384535
100	0xbd56f636	-0.0524809
101	0x3e0fa21f	0.14026688
102	0xbe90a447	-0.28250334
103	0xbbc16a13	-0.0059025376
104	0xba9933d5	-0.0011688421
105	0x3dc89453	0.097939156
106	0x3d053eea	0.032530703
107	0xbd5f4dec	-0.05451767
108	0x3e0c149e	0.1367974
109	0xbdac893d	-0.084246136
110	0xbd8efb68	-0.06981546
111	0x3e12dc2f	0.14341806
112	0x3e5267e8	0.2054745
113	0x3e197a97	0.1498817
114	0xbe166ceb	-0.14689986
115	0xbe85ef1a	-0.26158983
116	0x3e222fae	0.15838501
117	0xbe2e05a2	-0.16994336
118	0x3df42a59	0.1192214
119	0x3defb1fc	0.1170387
120	0x3e9bd4cd	0.30435792
121	0x3e04423e	0.12915894
122	0x3db6b13c	0.089205235
123	0xbe0b5d8b	-0.13609903
124	0xbe3cdb6f	-0.18443082
125	0xbdc79868	-0.09745866
126	0x3d3c46a6	0.045965813
127	0x3d8619bd	0.06547878

encoder.lstm.weight_hh_l0 f4 [128, 32]
0	0x3e7fc09b	0.24975817
1	0xbe07138a	-0.13191047
2	0xbcd14e89	-0.025550144
3	0x3d197419	0.037464235
4	0x3e5a4be8	0.21318018
5	0x3d14f9a0	0.036370873
6	0xbd64fa80	-0.055902958
7	0xbda2aa96	-0.07942693
8	0xbe1d25d4	-0.15346462
9	0xbcd94298	-0.026521012
10	0x3baaa901	0.005208135
11	0x3d9e76c2	0.07737495
12	0xbe0632cb	-0.13105313
13	0x3d8505c1	0.06495238
14	0x3b4e49c0	0.0031477064
15	0x3e398eb7	0.18120848
16	0xbe941daa	-0.28928882
17	0xbddd2dfa	-0.10799785
18	0xbdb71c65	-0.08940963
19	0x3dba8212	0.0910684
20	0xbda3f394	-0.08005443
21	0xbceef80e	-0.029171016
22	0xbe0c75ef	-0.13716863
23	0xbdfb11b3	-0.12259235
24	0xbdedf634	-0.11619225
25	0x3c8442d6	0.016145151
26	0xbdbe5ebb	-0.09295412
27	0x3b2e425a	0.0026589842
28	0xbe208a7b	-0.15677826
29	0x3d26ef3d	0.0407555
30	0x3e3ea95d	0.18619294
31	0x3e1eefb7	0.15521131
32	0xbdcc1da2	-0.099665895
33	0x3e00231f	0.12513398
34	0xbddb19aa	-0.106982544
35	0xbd8954a5	-0.06705598
36	0xbe4f5fda	-0.20251408
37	0x3dfbc110	0.12292683
38	0xbd0df1df	-0.034654494
39	0x3c36d38a	0.011158833
40	0xbdcaf045	-0.09909109
41	0x3dfe104e	0.124054536
42	0x3d9d1f92	0.07672037
43	0xbd397d78	-0.045285672
44	0xbd3e8a5c	-0.04651867
45	0x3e6a309d	0.22870107
46	0xbd8b0825	-0.06788663
47	0xbe254b56	-0.1614202
48	0x3d7763c9	0.060397897
49	0x3d7c60f5	0.061615903
50	0xbe312f99	-0.17303313
51	0x3d7b70df	0.06138694
52	0xbd8c49be	-0.06850003
53	0x3bdba10e	0.006702549
54	0x3e4c456d	0.19948359
55	0x3e183a7e	0.14866063
56	0xbe41c7f5	-0.18923934
57	0xbccd793b	-0.025082221
58	0x3e8019ed	0.2501978
59	0x3d3e8237	0.0465109
60	0x3db325fd	0.0874748
61	0x3dfb5adc	0.122731894
62	0xbe40d774	-0.18832189
63	0x3e0804e1	0.13283111
64	0xbe171d85	-0.14757355
65	0xbe540ece	-0.20708773
66	0x3e64af1e	0.22332427
67	0xbdd14ed6	-0.10220115
68	0xbe288565	-0.16457136
69	0x3dbf8c2a	0.09352906
70	0x3e1deb02	0.1542168
71	0xbd07e69a	-0.033178903
72	0x3d6b3068	0.05741921
73	0xbbe7ed42	-0.007077844
74	0x3d072182	0.03299094
75	0x3e13f302	0.14448169
76	0xbe89bbc5	-0.2690107
77	0xbd0ee6d2	-0.034888096
78	0x3e54b9c4	0.20773989
79	0x3d1cea0d	0.038309146
80	0xbe00d4ff	-0.12581252
81	0x3d48014a	0.048829354
82	0x3cec4391	0.028840812
83	0x3df2eba3	0.118613504
84	0x3db01cf4	0.08599272
85	0x3e089337	0.13337408
86	0xbb905628	-0.004404802
87	0x3d87e55e	0.06635545
88	0xbe52f44e	-0.20601007
89	0xbda6d31d	-0.081457354
90	0xbd26ebc8	-0.040752202
91	0xbd628bb4	-0.055309013
92	0x3e61ed7e	0.22063252
93	0x3d866b1f	0.065634005
94	0x3e29faf8	0.16599643
95	0x3d715d9a	0.058927156
96	0xbdc9253d	-0.09821556
97	0x3c3d243b	0.011544283
98	0x3e46e69a	0.19423905
99	0xbd0645e5	-0.0327815
100	0x3cf4b8a2	0.029873196
101	0x3da23c1e	0.07921623
102	0xbd441d45	-0.047879476
103	0x3db6999a	0.08916016
104	0xbcca9070	-0.024727076
105	0x3d7dc8ef	0.061959203
106	0x3e019650	0.12654996
107	0xbd613ae9	-0.05498782
108	0xbea7ed58	-0.32798266
109	0x3e5fdf72	0.21862581
110	0xbe3365f1	-0.17519356
111	0x3d26628a	0.040621318
112	0xbd8068d4	-0.062699944
113	0xbd0a802a	-0.033813633
114	0xbd8c10c5	-0.06839136
115	0x3e19691e	0.14981505
116	0xbe2d56cf	-0.16927646
117	0xbd1145e8	-0.03546706
118	0x3d461ce4	0.048367396
119	0xbe3f3309	-0.18671812
120	0x3dcf791c	0.10130522
121	0xbdf0f881	-0.11766148
122	0x3dafdadd	0.08586667
123	0xbbe7b276	-0.0070708347
124	0x3e62d5de	0.22151896
125	0xbd91cb1a	-0.07118817
126	0xbe1fdf3b	-0.156125
127	0xbc99df32	-0.018783186
128	0x3dfa5a3e	0.122242436
129	0xbd0c389c	-0.034233674
130	0x3ea482ae	0.3213095
131	0x3e1a6b87	0.15080081
132	0x3c6e11a6	0.014530575
133	0x3db1cbd8	0.08681458
134	0xbe5780a0	-0.2104516
135	0xbe15d8fc	-0.14633554
136	0xbd4f0c2f	-0.05054873
137	0xbdc6a33e	-0.09699105
138	0x3de83bc5	0.11339525
139	0x3e885c2c	0.26632822
140	0xbe80e6ec	-0.2517618
141	0xbc419a41	-0.011816562
142	0xbdf0ca01	-0.11757279
143	0x3d34bed5	0.044127304
144	0x3b773361	0.0037719833
145	0xbda9303f	-0.08261155
146	0x3d188d47	0.037244108
147	0x3e6e0c1d	0.23246808
148	0xbdd37411	-0.10324872
149	0xbe99eb96	-0.3006255
150	0xbe808666	-0.25102538
151	0x3de93be2	0.11388375
152	0x3e6d45dc	0.2317118
153	0x3ddbc96c	0.107317775
154	0xbdc98d58	-0.09841412
155	0x3c9bb71a	0.019008208
156	0x3dcb9e74	0.09942332
157	0x3d87f59c	0.06638643
158	0x3dfc844f	0.12329923
159	0xbd096541	-0.03354383
160	0x3cb5872c	0.022159182
161	0x3de81435	0.11331979
162	0xbcca5b1f	-0.024701653
163	0xbd81a9aa	-0.06331189
164	0x3c90c8ef	0.017673938
165	0xbe034ee6	-0.12823066
166	0x3e371ac9	0.17881311
167	0x3df12cb1	0.11776102
168	0x3e7c24d2	0.24623421
169	0xbe63e565	-0.22255476
170	0xbc5f6879	-0.013635748
171	0x3c69596a	0.014242509
172	0x3c553db1	0.013015197
173	0xbdb19fa4	-0.08673027
174	0xbd01528a	-0.031572856
175	0xbd807c6b	-0.06273731
176	0x3e746d22	0.23869756
177	0x3e2e7057	0.17035042
178	0x3e57d69d	0.21077962
179	0x3d4ecdfd	0.050489414
180	0xb938659b	-0.00017585458
181	0x3e864d61	0.2623091
182	0xbd6a30e5	-0.057175536
183	0xbd187ba3	-0.037227284
184	0xbe0790ba	-0.13238803
185	0x3e165541	0.1468096
186	0xbde20c16	-0.110374615
187	0x3e4d40f8	0.20044315
188	0xbd7a4966	-0.061105154
189	0xbd5f4c70	-0.054516256
190	0xbe49fcff	-0.19725417
191	0xbbbc5793	-0.0057477443
192	0xbe0757a5	-0.13217027
193	0xbcf9f004	-0.030509956
194	0x3dc7f359	0.09763212
195	0x3d9081bd	0.070559956
196	0xbdbed63d	-0.093182065
197	0xbe0882e8	-0.13331187
198	0xbdfa9625	-0.12235669
199	0x3b169fce	0.0022983435
200	0x3e0065d0	0.12538838
201	0x3e099d93	0.13439016
202	0x3d982c44	0.07430318
203	0x3e5213d9	0.20515384
204	0xbd86c22d	-0.06580005
205	0x3de2ecb8	0.11080307
206	0xbd4b8cb0	-0.049694717
207	0xbbac706e	-0.005262426
208	0x3eb9a4f9	0.36258677
209	0xbc39dff6	-0.0113449
210	0xbe131078	-0.14361751
211	0x3c2a4fcc	0.010395002
212	0x3e33608b	0.17517297
213	0x3e50bb78	0.20384014
214	0x3e259b99	0.16172637
215	0xbe5c87a5	-0.2153612
216	0xbdc6f23a	-0.0971417
217	0x3cf7f160	0.030266464
218	0x3e0efb58	0.13963068
219	0xbc691b82	-0.01422775
220	0xbdeaac9f	-0.11458706
221	0x3d94aebf	0.07259893
222	0xbe4c20d3	-0.19934396
223	0xbc5ff1c1	-0.0136684785
224	0xbd8572bd	-0.06516025
225	0x3e6dd920	0.23227358
226	0xbe914825	-0.28375354
227	0xbd770b16	-0.060313307
228	0xbd096a99	-0.033548925
229	0xbe4898ac	-0.1958949
230	0x3b92c289	0.004478757
231	0xbd662462	-0.05618704
232	0x3e540eba	0.20708743
233	0xbc7db261	-0.015484423
234	0x3de3d9f4	0.11125556
235	0xbe34e11d	-0.17663999
236	0x3e361b98	0.17783964
237	0xbb9c5fd2	-0.004772165
238	0x3c3d9ffa	0.011573786
239	0xbd494257	-0.049135532
240	0xbb34a492	-0.0027563912
241	0x3e366363	0.1781135
242	0xbdacaaba	-0.08431001
243	0xbe54fb69	-0.2079903
244	0x3dc2f308	0.09519011
245	0x3d55bf43	0.052184355
246	0x3dc27a6f	0.094960086
247	0xbdf64139	-0.12024159
248	0xbe3393bc	-0.17536825
249	0xbe1c92ce	-0.15290377
250	0x3df341ed	0.11877809
251	0xbdbe7cb6	-0.093011305
252	0xbe8667c2	-0.26251036
253	0x3dc863b4	0.09784642
254	0xbe823dac	-0.25437677
255	0x3d22cc35	0.03974553

encoder.lstm.bias_ih_l0 f4 [128]
0	0xbdf52082	-0.11969091
1	0xbc318a25	-0.010836159
2	0x3ca4f5f0	0.020136803
3	0x3d9e6a51	0.07735122
4	0x3e8ed2e2	0.27895266
5	0xbe962b07	-0.29329702
6	0x3d9784ac	0.07398352
7	0x3c5f54ff	0.0136311045
8	0x3ce3b17c	0.027794592
9	0xbe42d469	-0.1902634
10	0xbe3c618c	-0.18396586
11	0xbe2882d7	-0.16456161
12	0x3d8ac713	0.06776252
13	0xbe14dc10	-0.14537072
14	0xbd64b523	-0.055836808
15	0xbe8694f3	-0.26285514
16	0x3e63b69e	0.22237632
17	0xbd311f06	-0.043242477
18	0xbd2b7c47	-0.041866567
19	0xbd78fc44	-0.060787454
20	0xbe3652ed	-0.17805071
21	0xbdc13631	-0.09434164
22	0xbda3e0a8	-0.08001834
23	0x3e49c132	0.19702604
24	0xbdb37d01	-0.08764077
25	0xbe181322	-0.14851049
26	0xbe7a7b2d	-0.2446105
27	0x3e051caa	0.12999216
28	0x3d2fc5fb	0.04291342
29	0xbd07a51d	-0.03311645
30	0x3daeb230	0.0853008
31	0x3d22dd43	0.039761793
32	0xbdf04eea	-0.11733802
33	0xbe18e480	-0.14930916
34	0x3e0ade3c	0.13561338
35	0xbd61750c	-0.055043265
36	0xbeb114c6	-0.3458616
37	0xbe44e460	-0.19227743
38	0xbdfc7630	-0.1232723
39	0xbe873fe8	-0.26415944
40	0x3ddc262f	0.107494704
41	0xbd4f94c5	-0.050678987
42	0xbddd5087	-0.10806375
43	0xbc1b974f	-0.009496524
44	0x3dc6d7be	0.09709118
45	0xbdf6dabd	-0.1205344
46	0xbd881453	-0.066445015
47	0xbe197a60	-0.14988089
48	0xbe8e5dab	-0.27805838
49	0xbe05e759	-0.13076533
50	0x3d199491	0.0374952
51	0x3e08d61d	0.13362928
52	0x3d4f2eba	0.05058167
53	0xbe4cb42c	-0.19990605
54	0xbd8b5d0b	-0.06804856
55	0xbe944c70	-0.28964567
56	0xbb03a510	-0.0020087399
57	0xbd812371	-0.06305588
58	0xbe3eae84	-0.1862126
59	0x3d04a3b7	0.032382693
60	0x3e0f9dc9	0.14025034
61	0xbe01ab15	-0.12662919
62	0xbdfad998	-0.12248534
63	0xbe68debe	-0.2274122
64	0x3d947219	0.07248325
65	0xbe258308	-0.16163266
66	0x3d8d0ba5	0.06886987
67	0xbdd5b72f	-0.1043533
68	0xbded8d40	-0.11599207
69	0xbd9e04f8	-0.077157915
70	0x3be4d6f5	0.0069836327
71	0x3df17380	0.11789608
72	0xbd02d5ef	-0.031942304
73	0x3c36edd2	0.011165099
74	0x3d3ec0c6	0.04657056
75	0xbdd7eb1b	-0.1054289
76	0xbd563a1f	-0.052301522
77	0x3c8625e6	0.016375493
78	0xbc724c13	-0.014788645
79	0x3ddc9dcf	0.10772287
80	0xbe3251a7	-0.1741396
81	0xbd3ac663	-0.045599353
82	0xbe2afe55	-0.16698582
83	0x3d4a7f7a	0.049437977
84	0xbad6d481	-0.0016390235
85	0x3d8a6018	0.0675661
86	0x3d88cda9	0.066798516
87	0x3c48ee33	0.012263822
88	0x3da41cad	0.08013282
89	0xbd013844	-0.0315478
90	0x3d52aaac	0.051432297
91	0x3ddf6cd9	0.10909433
92	0x3e562b6d	0.20915003
93	0xbb43f644	-0.0029901424
94	0x3e009cbe	0.12559792
95	0xbd7b53b9	-0.06135914
96	0x3dcac6ea	0.09901221
97	0x3da550d6	0.08072059
98	0x3d833cfd	0.06408117
99	0xbd6c85db	-0.057744842
100	0x3ddf81f2	0.10913457
101	0xbeab1a2d	-0.33418408
102	0xbdc9b207	-0.09848409
103	0xbe079b7f	-0.13242911
104	0x3c80b26c	0.015710078
105	0xbde7ac81	-0.113121994
106	0x3ddce986	0.107867286
107	0x3cbc2450	0.022966534
108	0x3d6d0468	0.05786553
109	0xbe3200e9	-0.1738316
110	0x3d7a45f8	0.061101884
111	0xbe292f31	-0.16521908
112	0x3dca87b2	0.09889163
113	0xbe6e5858	-0.23275888
114	0x3c861bde	0.01637071
115	0xbdb0a415	-0.08625046
116	0x3dd1b9f9	0.102405496
117	0xbd9ce1e9	-0.076602764
118	0xbc5f6481	-0.013634802
119	0x3dc691a2	0.09695746
120	0x3df50e42	0.1196561
121	0x3e3fef23	0.18743567
122	0xbd1ca8ce	-0.038246922
123	0x3db10fcc	0.08645591
124	0xbcbe89e6	-0.023259114
125	0xbe074632	-0.13210371
126	0xbde6dfb2	-0.11273135
127	0x3db0962f	0.08622395

encoder.lstm.bias_hh_l0 f4 [128]
0	0x3d9de5e8	0.07709867
1	0x3c8594ec	0.016306363
2	0xbca445c0	-0.02005279
3	0xbcf62380	-0.030046225
4	0x3e2af446	0.16694745
5	0xbd071f07	-0.032988574
6	0xbe1fa27b	-0.15589325
7	0xbb73cc20	-0.0037200525
8	0x3dea98b2	0.114549056
9	0xbe4b9b4f	-0.19883464
10	0xbe75442a	-0.23951784
11	0x3e16fe55	0.14745457
12	0x3e094c1a	0.13407937
13	0xbe1b8d35	-0.15190585
14	0xbe79a555	-0.24379475
15	0xbc4c5d10	-0.01247336
16	0x3dc17cc2	0.09447624
17	0xbdb8d18d	-0.09024344
18	0xbe035aef	-0.12827657
19	0xbde63e1d	-0.11242316
20	0xbdeb0b90	-0.11476815
21	0x3d8cb8a0	0.06871152
22	0x3e0b9625	0.13631494
23	0x3ecf5acb	0.40498957
24	0x3d9893de	0.074500784
25	0x3c9bd7cc	0.019023798
26	0xbd90414a	-0.07043703
27	0x3e816989	0.2527583
28	0xbda785c5	-0.081798114
29	0x3cde6b40	0.02715075
30	0x3d26871c	0.040656194
31	0xbde4a1c0	-0.11163664
32	0xbdeb91ea	-0.1150244
33	0x3e27623b	0.16346066
34	0x3e633c46	0.22190961
35	0xbe06a5b1	-0.13149144
36	0xbdaebef0	-0.08532512
37	0xbe980d5e	-0.29697698
38	0x3c686b3b	0.014185722
39	0xbe8bfe58	-0.27342486
40	0xb925d3e5	-0.00015814563
41	0xbc6c12e8	-0.0144088045
42	0x3c93bde1	0.018034877
43	0xbe0eb6e1	-0.1393695
44	0x3e2c3bf4	0.16819745
45	0x3dad366b	0.08457645
46	0xbe2bf918	-0.1679424
47	0xbe71b746	-0.2360507
48	0x3949e0d4	0.00019252609
49	0x3d446641	0.04794908
50	0xbdd4c8af	-0.1038984
51	0xbe35cc4f	-0.17753719
52	0xbdf043ac	-0.117316574
53	0xbdb625e5	-0.088939466
54	0x3dad7c07	0.08470922
55	0xbeab3165	-0.33436123
56	0x3e1429e4	0.14469105
57	0xbe657eb6	-0.22411618
58	0xbea5da1a	-0.3239296
59	0xbe2271aa	-0.15863672
60	0xbdf57e9a	-0.11987038
61	0xbd9ca873	-0.07649317
62	0xbe13f176	-0.14447579
63	0xbe2c5f14	-0.16833144
64	0xbe1f5c51	-0.1556256
65	0xbe50b044	-0.2037974
66	0x3e349ced	0.17637987
67	0xbd5c65f1	-0.053808156
68	0x3dbd17cd	0.09233055
69	0x3d4b6d0d	0.049664546
70	0xbd42c9e2	-0.04755581
71	0xbde367d4	-0.11103788
72	0xbe21e082	-0.15808299
73	0x3da1d1b5	0.079013266
74	0x3d1fcd99	0.039014433
75	0x3e6a10c0	0.22857952
76	0xbe44ed5e	-0.19231173
77	0xbd9eded8	-0.07757348
78	0x3b2a111f	0.0025950146
79	0x3d093956	0.033501945
80	0x3d962e78	0.07333082
81	0xbdc10041	-0.094238766
82	0xbdee4bfa	-0.11635585
83	0x3da58833	0.080826186
84	0x3c11c62b	0.008897345
85	0xbdbc0e84	-0.09182456
86	0xbda8f262	-0.08249356
87	0xbd15a8fe	-0.036538117
88	0x3dd7c1fd	0.10535047
89	0xbca2044a	-0.019777436
90	0x3cd8b28e	0.026452329
91	0xbdb2a7d5	-0.08723418
92	0x3d4b121c	0.049577817
93	0x3db440a2	0.0880139
94	0x3d07e553	0.033177685
95	0x3cb3cc9d	0.021948153
96	0xbd8ada5f	-0.06779932
97	0xbe1e6a1a	-0.15470162
98	0xbdf3a5c5	-0.118968524
99	0xbd43e844	-0.047828928
100	0x3e94294d	0.2893776
101	0xbd862e13	-0.06551757
102	0xbe26477c	-0.16238207
103	0xbe7bbfe4	-0.24584919
104	0xbe0491b0	-0.129462
105	0xbdd330cd	-0.103120424
106	0x3d7a3ddd	0.061094154
107	0xbe3172fd	-0.17329021
108	0x3d19d413	0.037555765
109	0xbdab15cc	-0.08353767
110	0x3da75182	0.08169843
111	0x39fa1d30	0.00047705462
112	0x3cf4d8e3	0.029888576
113	0xbdd2a3c5	-0.10285143
114	0xbdc6d1ed	-0.09708009
115	0x3e03cf10	0.12871957
116	0xbd9f91d5	-0.07791487
117	0xbde1534a	-0.11002214
118	0xbb984ed8	-0.004648071
119	0x3db4b811	0.088241704
120	0xbd8ad5f9	-0.06779093
121	0xbd0123d0	-0.031528294
122	0xbb512eec	-0.0031918837
123	0x3cbc3df5	0.022978762
124	0x3ca851fb	0.020546904
125	0xbd34b3ae	-0.04411667
126	0x3d925233	0.071445845
127	0xbde5a8c8	-0.11213833

encoder.lstm.weight_ih_l1 f4 [128, 32]
0	0xbd6b4eb4	-0.057448104
1	0xbe26acf1	-0.1627691
2	0x3db6de00	0.08929062
3	0x3e4f55b1	0.20247532
4	0x3e03bba1	0.12864543
5	0x3d11c811	0.03559119
6	0xbe461065	-0.19342192
7	0xbe334940	-0.17508411
8	0x3d1ca69d	0.038244832
9	0x3d7a26d6	0.061072193
10	0xbbaf5962	-0.0053512314
11	0x3d7639f7	0.060113873
12	0xbc57cf95	-0.01317205
13	0xbe3ee88b	-0.18643396
14	0x3c9db95e	0.019253429
15	0xbceee403	-0.029161459
16	0x3cdc7056	0.026909035
17	0x3da03491	0.07822526
18	0x3d53c63a	0.051702715
19	0xbc726f8a	-0.014797101
20	0x3c59bdd0	0.013289884
21	0xbc6eccba	-0.014575178
22	0xbd61ebbf	-0.055156466
23	0xbe6b370a	-0.22970214
24	0xbdcc96b5	-0.099896826
25	0x3e0a2043	0.1348887
26	0xbdcb9a8b	-0.09941586
27	0xbdf189ad	-0.11793838
28	0x3ca85370	0.020547599
29	0x3dc6e27b	0.097111665
30	0x3d140ca9	0.036144886
31	0xbc3a367e	-0.011365531
32	0x3e43d4c7	0.19124137
33	0xbe87d83d	-0.26532164
34	0x3da028e9	0.07820303
35	0x3d3a82d2	0.045534916
36	0x3ddd4428	0.108040154
37	0xbdda8457	-0.10669773
38	0x3e1345cc	0.14382094
39	0xbc5c56cf	-0.013448431
40	0xbca04df8	-0.019568428
41	0x3dab58e2	0.083665624
42	0x3cdb7f69	0.026794152
43	0x3db3bfbc	0.08776805
44	0x3e50292b	0.20328204
45	0x3d98e633	0.07465782
46	0xb81be74a	-3.7170284e-05
47	0xbd53eaf2	-0.051737733
48	0xbd2b51a2	-0.041825898
49	0x3e02899b	0.12747805
50	0x3cd2a783	0.025714641
51	0x3e6b1b66	0.2295967
52	0xbe2813f3	-0.1641386
53	0xbe1f8102	-0.15576556
54	0xbd8aa49b	-0.06769677
55	0x3dc5ce4d	0.096584894
56	0x3c274210	0.010208622
57	0x3e9993c0	0.29995537
58	0xbc9bb9fd	-0.019009585
59	0x3df318eb	0.11869987
60	0x3e246788	0.16055119
61	0xbc927407	-0.017877592
62	0x3c2a132f	0.01038055
63	0x3e14b2be	0.1452131
64	0xbd01fc2e	-0.031734638
65	0x3e16cbe5	0.14726217
66	0x3e175554	0.14778644
67	0x3b4a8289	0.003090056
68	0x3dca8432	0.098884955
69	0xbd84982a	-0.064743355
70	0x3e30fb93	0.17283468
71	0xbdf6ac78	-0.120446146
72	0xbda0a2e9	-0.07843573
73	0xbe2723c9	-0.16322245
74	0xbe73e9a1	-0.23819591
75	0xbd1c3f5c	-0.03814636
76	0xbe24a832	-0.16079786
77	0x3db2ba3c	0.08726928
78	0x3dff4e48	0.12466103
79	0xbdda60bc	-0.10662982
80	0x3e7429ce	0.23844072
81	0x3d4fd539	0.050740454
82	0xbe2e936a	-0.17048422
83	0x3cbdf167	0.023186399
84	0xbe1293e8	-0.14314234
85	0x3e1ffb84	0.1562329
86	0x3d181862	0.03713263
87	0xbea5141c	-0.32241905
88	0xbd22862c	-0.039678738
89	0xbe85126b	-0.25990614
90	0x3e51fdbc	0.20506948
91	0x3e204835	0.15652545
92	0x3e07e337	0.1327027
93	0xbe01b433	-0.12666397
94	0xbd6063c0	-0.05478263
95	0x3e12e0cc	0.14343566
96	0xbdc985ba	-0.098399594
97	0xbbf8fe23	-0.007598655
98	0x3c00f8ca	0.007871816
99	0xbdd6342a	-0.10459168
100	0x3d3789a7	0.04480901
101	0x3d355182	0.044267185
102	0x3d9a3b91	0.07530893
103	0x3da2cd9e	0.079493746
104	0xbe1ca588	-0.1529752
105	0xbd3563e9	-0.044284735
106	0x3d6bd979	0.057580445
107	0xbd3475e1	-0.04405773
108	0xbd8eb77e	-0.06968592
109	0x3e7d3167	0.24725877
110	0xbd3e9836	-0.04653188
111	0x3de0cae4	0.10976198
112	0x3dcaa8e1	0.09895492
113	0x3c3e91a5	0.011631404
114	0xbe7d95fd	-0.24764247
115	0xbd86924b	-0.06570872
116	0xbe4e95b8	-0.201743
117	0xbdd6e994	-0.1049377
118	0xbe5ddb49	-0.21665682
119	0x3d1bfff8	0.038085908
120	0xbd8d4d00	-0.06899452
121	0x3cf1a4ee	0.02949759
122	0x3e3e17bc	0.18563741
123	0x3da484e0	0.080331564
124	0x3e20a52b	0.15688007
125	0xbd925700	-0.071455
126	0xbdedd6e9	-0.116132565
127	0x3da8c4df	0.08240675
128	0x3d0daa2d	0.03458612
129	0xbd6abe31	-0.057310287
130	0xbe3ea6ae	-0.18618271
131	0x3e2d5216	0.16925845
132	0x3dfb332d	0.122656204
133	0xbd72945a	-0.05922351
134	0x3d02a9ab	0.03190009
135	0xbe895ef2	-0.2683025
136	0xbe1131a3	-0.14179091
137	0xbe236c7d	-0.15959354
138	0x3dfd6709	0.12373168
139	0xbd606d80	-0.054791927
140	0xbc8ce3fe	-0.017198559
141	0xbd99579c	-0.07487413
142	0xbb8acc9e	-0.004235818
143	0x3df70809	0.120620795
144	0xbe55b678	-0.20870388
145	0xbe0d4f21	-0.13799717
146	0x3cf38358	0.029725716
147	0xbe6b7ba0	-0.22996378
148	0xbe742a03	-0.23844151
149	0xbd5f2240	-0.054476023
150	0x3d433e4f	0.047666844
151	0xbdc648c2	-0.09681846
152	0x3dbe8889	0.09303386
153	0x3dd1ae5e	0.10238336
154	0xbdf3baff	-0.11900901
155	0x3bbeccd2	0.0058227563
156	0xbd191865	-0.03737678
157	0xbe3372f0	-0.17524314
158	0x3e223fee	0.158447
159	0xbbcbd28c	-0.0062201675
160	0xbde174b8	-0.110085905
161	0x3e14c978	0.14529979
162	0x3e8c7ab9	0.2743738
163	0x3dc8f850	0.09812987
164	0x3dca3910	0.09874165
165	0xbdf20337	-0.118170194
166	0x3e6944da	0.22780171
167	0x3db99645	0.09061865
168	0xbe064b6a	-0.13114706
169	0xbbde81ad	-0.006790361
170	0xbe7e42b6	-0.24830136
171	0x3b828e90	0.00398428
172	0x3d2dc36a	0.04242269
173	0x3d28ee49	0.04124287
174	0x3dc02872	0.09382714
175	0xbdb3db92	-0.08782114
176	0xbe212cba	-0.15739718
177	0xbbeb0bb9	-0.0071730283
178	0xbcc97be7	-0.024595214
179	0x3e44b9b7	0.1921147
180	0x3e1822d9	0.14857043
181	0xbe1dd06a	-0.15411535
182	0xbd7c8287	-0.061647918
183	0x3e24bed5	0.16088422
184	0xbe40be97	-0.18822704
185	0xbcb152f1	-0.021645995
186	0x3e2423c5	0.1602927
187	0x3db44915	0.08803002
188	0x3e14f471	0.14546372
189	0xbc9ffc34	-0.01952944
190	0x3de893b4	0.11356297
191	0x3e36f445	0.17866619
192	0xbc61e3cb	-0.01378722
193	0xbec316d9	-0.3810337
194	0x3e86c3a1	0.26321128
195	0xbbf12f68	-0.0073603876
196	0xbca316f4	-0.019908406
197	0xbe5306ea	-0.20608106
198	0x3de662fd	0.11249349
199	0xbcd083d6	-0.02545349
200	0xbec8a4e5	-0.39188305
201	0x3ea1427f	0.31496045
202	0xbd2a98a9	-0.041649494
203	0x3e8de10d	0.27710763
204	0xbea8a5e3	-0.32939062
205	0x3de0b612	0.10972227
206	0x3dd0fc93	0.10204425
207	0x3ed2e651	0.41191342
208	0xbe67b999	-0.22629394
209	0xbe040a17	-0.12894474
210	0xbe92e84e	-0.2869286
211	0x3eb17c41	0.3466511
212	0xbefb2d03	-0.4905778
213	0xbe6a0f95	-0.22857507
214	0xbedbabdb	-0.42904553
215	0x3d3096aa	0.043112434
216	0x3deb703e	0.11496018
217	0x3de72244	0.112858325
218	0xbd2d3cba	-0.04229424
219	0x3e956a0b	0.29182467
220	0x3e435e4e	0.19078943
221	0xbd2288b8	-0.039681166
222	0x3edef04c	0.43542707
223	0xbdf9a013	-0.12188735
224	0xbd036420	-0.03207791
225	0xbdc4cc83	-0.0960932
226	0x3da56211	0.08075345
227	0x3e7ed237	0.24884878
228	0xbd6ed7e5	-0.05831136
229	0x3da72f80	0.08163357
230	0xbdb927ae	-0.090407714
231	0xbd990a5c	-0.07472679
232	0xbe82b6a7	-0.25529978
233	0x3d87f5c1	0.06638671
234	0x3e235499	0.1595024
235	0xbcced3c4	-0.025247462
236	0x3e1a9cf0	0.1509893
237	0x3e0e994c	0.13925666
238	0x3e2eb83a	0.17062464
239	0x3e40eb12	0.18839672
240	0xbed0e324	-0.40798295
241	0xbdf62727	-0.120191865
242	0xbe878e17	-0.26475593
243	0x3e694be5	0.22782858
244	0x3d0970a4	0.033554688
245	0xbde161c9	-0.11004979
246	0xbe5b81e2	-0.21436265
247	0x3e14a1ec	0.14514893
248	0x3e22a0e8	0.15881693
249	0x3e00e762	0.12588266
250	0xbe6b397f	-0.22971152
251	0xbd37fd56	-0.044919334
252	0x3d1a655e	0.037694328
253	0xbe3857fd	-0.18002315
254	0x3e3d3b63	0.18479685
255	0xbdd24728	-0.10267478

encoder.lstm.weight_hh_l1 f4 [128, 32]
0	0xbdb2bdc3	-0.087276004
1	0x3d3ad2e8	0.045611292
2	0xbe0805bc	-0.13283437
3	0xbdb5690b	-0.08857926
4	0x3d2dfc83	0.042477142
5	0xbdd831a9	-0.10556347
6	0xbdc4f28e	-0.09616576
7	0xbe2600f7	-0.16211306
8	0x3d8fe9bd	0.07027004
9	0xbda79ce0	-0.081842184
10	0xbd88c077	-0.06677335
11	0xbcd18f47	-0.025581015
12	0x3dc85f14	0.0978376
13	0x3e4d0132	0.20019987
14	0xbd90a517	-0.070627384
15	0xbe092546	-0.13393125
16	0x3dfd428d	0.12366209
17	0x3e2f9029	0.17144836
18	0xbd90a121	-0.07061983
19	0xbe5e2b4d	-0.21696205
20	0x3e4671ef	0.193794
21	0xbe6b7050	-0.22992063
22	0xbd956c01	-0.07295991
23	0xbd540752	-0.051764794
24	0xbd2087ca	-0.039192
25	0xbc5458b6	-0.012960603
26	0x3de154b7	0.11002486
27	0xbe1646a6	-0.14675388
28	0xbdd7f810	-0.10545361
29	0x3a4fa62d	0.00079211855
30	0xbca59cf1	-0.020216437
31	0x3d29947d	0.041401375
32	0x3d9969b9	0.07490868
33	0x3b4399f6	0.0029846407
34	0x3e439c26	0.19102535
35	0xbd41d14d	-0.047318745
36	0xbe86f413	-0.2635809
37	0xbde9e349	-0.11420304
38	0x3dcf8a64	0.10133818
39	0x3e006be2	0.12541154
40	0xbd610d77	-0.05494448
41	0xbe349828	-0.17636168
42	0xbe235cdf	-0.15953396
43	0xbde0fbef	-0.109855525
44	0x3de1b3dc	0.110206336
45	0x3e7422c0	0.23841381
46	0x3dce76b4	0.100812346
47	0x3e1cce60	0.15313101
48	0x3db8903d	0.09011886
49	0x3e615620	0.2200551
50	0x3d68313f	0.05668759
51	0x3d7f8716	0.062384687
52	0x3dc330b4	0.09530774
53	0xbc260c7d	-0.010134813
54	0xbe5860cc	-0.21130675
55	0x3ea00d25	0.31260028
56	0x3bab2540	0.0052229464
57	0x3c25cc37	0.010119489
58	0xbc02b520	-0.007977754
59	0x3d9a5789	0.07536227
60	0xbded49ce	-0.11586343
61	0x3bad3d60	0.0052868575
62	0xbb8e95bd	-0.0043513463
63	0xbcfda5e8	-0.0309629
64	0xbe043b3c	-0.12913221
65	0xbe118b76	-0.14213356
66	0x3d38185b	0.044945102
67	0x3d4f6118	0.050629705
68	0xbd04125b	-0.032244068
69	0x3d9e9d89	0.07744891
70	0x3dff2b0d	0.12459383
71	0xbe6186db	-0.220241
72	0xbe0f02ba	-0.13965884
73	0x3dbc82cf	0.09204637
74	0x3d9d3d81	0.076777466
75	0x3e0c9659	0.13729228
76	0x3db10c6a	0.08644946
77	0x3c4921db	0.012276138
78	0xbc975dfb	-0.01847743
79	0xbe00c41b	-0.12574808
80	0xbdccf851	-0.100083
81	0xbdcf6323	-0.10126331
82	0x3d6ad280	0.057329655
83	0xbb935747	-0.0044964883
84	0x3e154e82	0.1458073
85	0x3e10516b	0.14093558
86	0x3e3bf164	0.18353802
87	0xbe2e72c0	-0.17035961
88	0x3d83c576	0.06434147
89	0xbd607a3d	-0.054804076
90	0xbddc2a7a	-0.10750289
91	0xbe5ab1ee	-0.21356937
92	0xbd7ae7b5	-0.06125613
93	0xbe2bf219	-0.16791572
94	0x3dd90c3e	0.10598038
95	0xbe1e5dfc	-0.1546554
96	0xbdf2a279	-0.118473954
97	0x3d8c2c76	0.06844418
98	0xbc2c8832	-0.010530518
99	0xbd3120fb	-0.043244343
100	0x3e58f2d3	0.2118638
101	0x3e9ea77f	0.30987164
102	0x3e52609d	0.20544668
103	0x3e535df4	0.20641309
104	0x3deb033d	0.11475227
105	0x3d716338	0.058932513
106	0xbcbf6b48	-0.023366585
107	0xbe1170a5	-0.14203127
108	0xbdd653bf	-0.10465192
109	0xbcce914b	-0.025215765
110	0xbde1b449	-0.11020715
111	0xbe0f6054	-0.1400159
112	0x3e5434cd	0.20723267
113	0x3e075f49	0.13219942
114	0x3caa3625	0.020777771
115	0x3d9087b5	0.07057134
116	0x3bea1395	0.0071434476
117	0xbd39dfb7	-0.045379367
118	0x3deeb651	0.11655868
119	0x3e253a70	0.16135573
120	0x3e78d637	0.24300466
121	0xbe3bb524	-0.18330818
122	0xbbf0248e	-0.0073285764
123	0x3e0ada8f	0.13559936
124	0x3c7133f7	0.014721862
125	0xbd5c01ae	-0.05371254
126	0xbd2c4bc4	-0.042064443
127	0x3c818d6e	0.01581451
128	0xbd532b3a	-0.051554896
129	0xbdc2b45c	-0.09507057
130	0x3e044e80	0.1292057
131	0x3e8cc1cb	0.27491602
132	0xbd0b74d4	-0.034046963
133	0xbe0e9617	-0.13924442
134	0xbe92461c	-0.28569114
135	0xbe82cdc6	-0.25547618
136	0xbc8dd390	-0.017312795
137	0xbd5df12a	-0.05418507
138	0x3e0c396f	0.13693784
139	0xbdd8ec0f	-0.105918996
140	0xbcb03878	-0.021511301
141	0x3e13dba6	0.14439258
142	0xbdde280f	-0.10847484
143	0xbda0892e	-0.07838665
144	0x3d9b19c5	0.075732745
145	0xbde1e5bd	-0.11030147
146	0xbdc95114	-0.098299176
147	0x3d694a74	0.05695577
148	0xbd2e604f	-0.042572316
149	0xbe8ab69b	-0.27092442
150	0x3b2b4f89	0.0026139936
151	0x3df72590	0.12067711
152	0xbd21f63d	-0.03954147
153	0x3e01c80b	0.12673967
154	0x3e11ede6	0.14250907
155	0x3c006a5b	0.007837857
156	0xbd6b3e8e	-0.057432704
157	0x3dd9085f	0.105973
158	0x3e056d22	0.13029912
159	0x3c2d64a5	0.010583078
160	0xbd1f639f	-0.038913365
161	0x3e2ea62e	0.1705558
162	0xbd2cfa0e	-0.04223066
163	0xbd097565	-0.03355922
164	0x3e94b510	0.2904439
165	0x3dc8a53a	0.097971395
166	0x3d0349f3	0.032052945
167	0x3e75bf70	0.23998809
168	0xbd785f43	-0.060637724
169	0xbd827094	-0.06369129
170	0xbd86a642	-0.0657468
171	0xbda21946	-0.07914977
172	0xbd1da70e	-0.038489394
173	0xbe6fd9a3	-0.23422866
174	0xbd4b836d	-0.049685884
175	0x3d7cde3e	0.061735384
176	0xbd23cfc9	-0.03999308
177	0x3e33f50c	0.17573947
178	0x3d63069a	0.055426218
179	0xbd07bfb9	-0.033141825
180	0x3d9babb3	0.076011084
181	0xbd98a489	-0.074532576
182	0x3cb968ef	0.022633044
183	0x3e48fca6	0.19627628
184	0xbc91bd41	-0.017790439
185	0x3d3d0b9c	0.04615365
186	0xbe15efc4	-0.14642245
187	0x3e8a0da7	0.2696354
188	0x3e2ba505	0.16762169
189	0xbe507e7f	-0.20360754
190	0xbe27b875	-0.16378959
191	0x3e74b21c	0.23896068
192	0x3e51cc7b	0.2048816
193	0x3dfe6094	0.124207646
194	0x3ed43f5b	0.41454586
195	0x3e98b597	0.29826042
196	0x3cfb8c93	0.03070668
197	0x3e4b01ac	0.19824857
198	0x3e18d18d	0.14923687
199	0x3df6779d	0.12034533
200	0x3e166712	0.14687756
201	0x3e1a7776	0.15084633
202	0x3e69ee21	0.22844745
203	0xbe327d7a	-0.17430678
204	0x3f00848a	0.5020224
205	0xbe3df3e4	-0.18550068
206	0x3e97134b	0.29506907
207	0xbd1174d8	-0.03551182
208	0x3eaa6d60	0.33286572
209	0x3f05f07e	0.52320087
210	0x3ea3f4a2	0.32022578
211	0x3eb73775	0.35784498
212	0x3eb770a0	0.35828114
213	0xbe99a8de	-0.30011648
214	0xbe3e524f	-0.18586086
215	0x3eb90db3	0.36143264
216	0x3ebd1f32	0.36937863
217	0xbea287f4	-0.3174435
218	0x3d4d20da	0.050080158
219	0x3edf2105	0.4357988
220	0x3eb943dc	0.36184585
221	0x3cc7748f	0.024347572
222	0xbf14cfea	-0.5812975
223	0x3df9b4d8	0.12192696
224	0x3e7a2a64	0.24430233
225	0x3b9577d2	0.004561403
226	0xbc5cb68b	-0.013471256
227	0x3e595552	0.21223953
228	0x3d8c3bf5	0.068473734
229	0xbd1ae907	-0.03781989
230	0xbe3578a5	-0.17721803
231	0x3d1ebcad	0.038754154
232	0x3e4b0b56	0.19828543
233	0x3e028e8b	0.12749688
234	0xbbb7930e	-0.005602247
235	0xbe0ed5d8	-0.13948762
236	0x3e871199	0.26380613
237	0xbd26b652	-0.040701218
238	0xbdc0a72b	-0.09406885
239	0xbe6d64df	-0.2318301
240	0xbcb47e60	-0.022032917
241	0x3df7ef1c	0.12106153
242	0x3e9653c2	0.29360777
243	0x3e32c913	0.17459516
244	0x3c66e0c1	0.014091671
245	0x3d596862	0.053078063
246	0xbe028041	-0.12744237
247	0x3e801585	0.25016418
248	0x3e8117ab	0.2521337
249	0xbd75dda6	-0.060025834
250	0xbdc5891a	-0.09645291
251	0x3e1cb3f2	0.15303019
252	0x3e4ceb46	0.20011625
253	0xbbda28b4	-0.006657684
254	0xbdd4883e	-0.10377549
255	0x3dc772a3	0.09738662

encoder.lstm.bias_ih_l1 f4 [128]
0	0xbdb4dfe2	-0.08831765
1	0x3e509d03	0.20372395
2	0xbd36a59a	-0.044591524
3	0x3e000468	0.12501681
4	0x3d22b475	0.03972288
5	0x3d117943	0.035516035
6	0x3e8068f9	0.25080088
7	0xbcade864	-0.021228977
8	0xbe8057f3	-0.250671
9	0xbe2a1573	-0.16609745
10	0xbe8d302e	-0.2757582
11	0x3bdf1ebe	0.0068090847
12	0xbdb6c1f6	-0.08923714
13	0x3d5a8638	0.053350657
14	0xbda2777b	-0.07932945
15	0xbe1b96dc	-0.15194267
16	0x3e203993	0.15646963
17	0xbc9eae62	-0.019370262
18	0x3d93bf2a	0.07214196
19	0xbe76c9bd	-0.24100395
20	0x3e364692	0.17800358
21	0x3dd1dd85	0.102473296
22	0xbc2cb5cb	-0.01054139
23	0x3d969e06	0.07354359
24	0xbbd11ae0	-0.0063813776
25	0xbd3ff70e	-0.04686647
26	0xbdf65b7f	-0.1202917
27	0xbd806d37	-0.06270831
28	0xbdb8930b	-0.09012421
29	0x3c8204c6	0.015871417
30	0x3d4a028c	0.049318835
31	0xbd020b2a	-0.031748928
32	0x3e24503e	0.16046235
33	0xbe7ab1f1	-0.24481942
34	0xbdcd2d2f	-0.10018384
35	0x3e1448d7	0.14480911
36	0x3e795da7	0.24352132
37	0x3e3ad447	0.1824504
38	0xbdac3a53	-0.08409562
39	0x3d7706af	0.06030911
40	0xbdaa1bc6	-0.083060786
41	0xbd03f694	-0.032217577
42	0xbe16f86c	-0.14743203
43	0xbd3091be	-0.04310774
44	0xbe3a8427	-0.18214475
45	0x3d91d0fd	0.071199395
46	0x3d66b55f	0.056325313
47	0xbe82f281	-0.2557564
48	0x3cffd57d	0.031229729
49	0x3e214a4e	0.15751001
50	0x3d854a3e	0.06508301
51	0xbe851a78	-0.25996757
52	0x3c7eaaee	0.0155436825
53	0xbda03736	-0.07823031
54	0xbe8291b0	-0.25501776
55	0x3e5c7cc6	0.21531972
56	0xbda70793	-0.081557415
57	0x3e348d9d	0.17632146
58	0x3d96132e	0.07327877
59	0x3e0d43ff	0.1379547
60	0xbdb4613e	-0.0880761
61	0x3ca5de83	0.020247703
62	0x3cd291e6	0.025704335
63	0xbe1170c3	-0.14203171
64	0x3e44b07e	0.19207951
65	0x3e2cf28a	0.16889396
66	0x3e26e88d	0.16299649
67	0x3df93527	0.12168341
68	0xbca840b4	-0.020538665
69	0x3d0ce398	0.034396738
70	0xbc81be7b	-0.015837898
71	0x3d028a7c	0.03187035
72	0x3c861389	0.016366737
73	0x3c989f28	0.01863058
74	0x3e13c929	0.14432205
75	0xbe17240b	-0.14759843
76	0x3e43aeb8	0.19109619
77	0x3d385b5b	0.045009
78	0xbc9fcce8	-0.019506887
79	0xbe3a00cb	-0.18164365
80	0x3d04880b	0.032356303
81	0x3e73efb5	0.2382191
82	0x3d68d94a	0.056847848
83	0xbddefa04	-0.108875304
84	0x3e103e38	0.14086235
85	0xbe210650	-0.15725064
86	0xbe0e499d	-0.13895269
87	0xbc42c04a	-0.011886666
88	0x3e12ceb9	0.14336671
89	0xbe39f39a	-0.18159333
90	0xbdb15058	-0.086579025
91	0xbd87fe89	-0.066403456
92	0x3e17e79c	0.14834446
93	0x3e2de732	0.16982725
94	0x3cd2666e	0.025683608
95	0x3dda4c53	0.10659089
96	0xbca2dfaa	-0.019882042
97	0xbe27c702	-0.16384509
98	0x3e2f1a01	0.17099763
99	0x3dfed5ed	0.12443147
100	0xbda6a7d7	-0.08137482
101	0x3dc783a0	0.09741902
102	0x3ed8bb2d	0.42330304
103	0x3d9bf881	0.07615758
104	0xbdf19ef1	-0.11797894
105	0xbdcd26ce	-0.10017167
106	0x3cd58465	0.026064107
107	0xbd75f67d	-0.060049523
108	0xbda0986c	-0.07841572
109	0xbdf5ffc2	-0.120116726
110	0xbd73fa62	-0.059564956
111	0xbe8ffba1	-0.28121665
112	0xbdd053e8	-0.10172254
113	0x3dd3a7e7	0.10334759
114	0xbc67d8f6	-0.014150849
115	0xbdc00cb3	-0.09377422
116	0x3e2c91e7	0.16852532
117	0x3e096502	0.13417438
118	0x3d1f59e9	0.038904104
119	0x3e22701a	0.15863076
120	0x3cb7b440	0.022424817
121	0x3e9918c3	0.29901704
122	0x3de99995	0.114062466
123	0x3daf2286	0.08551507
124	0x3e2657f4	0.16244489
125	0x3ddc81f7	0.10766976
126	0xbe221fad	-0.15832396
127	0x3d8a2e84	0.067471534

encoder.lstm.bias_hh_l1 f4 [128]
0	0x3e05036c	0.12989587
1	0x3e7d3980	0.24728966
2	0x3dcd9ec8	0.10040051
3	0x3c32c52e	0.010911269
4	0xbdcbaba9	-0.09944851
5	0xbdb49be7	-0.088187985
6	0x3eb6daf3	0.3571392
7	0xbd85b743	-0.06529095
8	0xbcb7177f	-0.022350071
9	0xbca9792f	-0.020687668
10	0xbe239e21	-0.1597829
11	0x3e3dc9ca	0.18534008
12	0x3a969802	0.0011489394
13	0xbe64bb62	-0.22337106
14	0xbdf1397a	-0.11778541
15	0xbd905fc6	-0.07049517
16	0x3db1d537	0.08683246
17	0xbdb392f5	-0.08768264
18	0x3e4ed1d5	0.20197232
19	0xbe2ed583	-0.17073636
20	0xbaa0bfd7	-0.0012264204
21	0xbcd58f42	-0.026069287
22	0x3cbbf280	0.022942781
23	0x3d477b8d	0.04870181
24	0x3e392c86	0.1808339
25	0xbd02c21c	-0.0319234
26	0x3d0749b5	0.033029277
27	0x3e39f75c	0.18160766
28	0xbca0072d	-0.019534672
29	0x3d510ae8	0.05103579
30	0xbbd85bfe	-0.006602763
31	0xbd9803d2	-0.07422604
32	0x3c192fa6	0.009349739
33	0xbda831c0	-0.08212614
34	0x3def02e3	0.116704725
35	0xbd25f0c0	-0.0405128
36	0x3e0829d1	0.13297202
37	0xbde42f19	-0.11141796
38	0xbe5d9b89	-0.21641363
39	0xbd7448ac	-0.059639618
40	0xbc7bc613	-0.015367049
41	0xbdb07eec	-0.086179584
42	0xbe731931	-0.23740079
43	0xbdbd798c	-0.09251699
44	0xbe374165	-0.1789604
45	0x3de85c86	0.113457724
46	0x3d29e28c	0.041475818
47	0xbe2aea1f	-0.16690873
48	0x3dfff1c2	0.124972835
49	0x3e41b5e8	0.18917048
50	0xbd45e1ab	-0.048310917
51	0xbd805a42	-0.06267215
52	0x3d4fd7d5	0.050742943
53	0x3d833633	0.06406822
54	0xbd935c2b	-0.07195314
55	0x3e19c440	0.1501627
56	0x3d87b46d	0.0662621
57	0x3e481a32	0.19541243
58	0xbe49941a	-0.19685403
59	0x3e140b93	0.1445754
60	0xbe2c5c9e	-0.16832206
61	0xbd2de2b9	-0.042452548
62	0x3e17317e	0.14764974
63	0xbe478061	-0.19482566
64	0x3e3384a2	0.17531064
65	0xbd8bbedd	-0.06823514
66	0x3e2d3c9f	0.16917656
67	0xbd64efa8	-0.055892617
68	0xbdf20490	-0.118172765
69	0xbce3071e	-0.027713355
70	0x3dee1048	0.11624199
71	0xbb545787	-0.0032400803
72	0xbe52b252	-0.20575836
73	0x3dbeb109	0.093111105
74	0xbcc7c873	-0.024387574
75	0x3d2e698d	0.04258113
76	0x3daac4fe	0.083383545
77	0x3d9e2696	0.077222034
78	0x3cc54a07	0.02408315
79	0x3cc0efea	0.0235519
80	0x3e1a48fc	0.15066904
81	0x3e47fbb1	0.19529606
82	0x3d3bffef	0.045898374
83	0xbe117f9a	-0.14208832
84	0x3e8bafb4	0.27282488
85	0xbd0f4a16	-0.034982763
86	0x3d152c4c	0.036419198
87	0x3d2c33ca	0.042041577
88	0x3e8353cf	0.25649878
89	0xbe41b687	-0.18917285
90	0xbe3c9904	-0.18417746
91	0x3da8a60e	0.082347974
92	0x3c53a0fd	0.012916801
93	0x3c6647bb	0.014055188
94	0xbdde5bd3	-0.10857358
95	0xbdddf018	-0.1083681
96	0xbdacbfec	-0.08435044
97	0x3e04a8c3	0.12955002
98	0xbdec8e93	-0.115506314
99	0xbcf14d3b	-0.029455772
100	0xbdf0119a	-0.11722107
101	0xbc846336	-0.016160589
102	0x3e784862	0.24246362
103	0x3ea156c4	0.3151151
104	0xbd91e048	-0.071228564
105	0xbe2e0915	-0.16995652
106	0x3db835c5	0.08994631
107	0x3e5a13e3	0.21296649
108	0xbe6af8af	-0.22946428
109	0x3d3041de	0.043031566
110	0x3e12cdf8	0.14336383
111	0xbe80fe99	-0.25194243
112	0xbe1943c9	-0.14967264
113	0x3c893dc0	0.016753078
114	0x3d71d885	0.05904438
115	0xbe3919a2	-0.18076184
116	0x3dc542b9	0.09631867
117	0x3e5e262c	0.21694249
118	0xbdd12f6a	-0.10214122
119	0x3df4166f	0.11918341
120	0xbda1a854	-0.07893434
121	0x3e487a4a	0.195779
122	0xbdce5dea	-0.100765064
123	0xbdaffc5e	-0.08593057
124	0xbddb42ed	-0.107061245
125	0xbdc7c43e	-0.09754227
126	0xbe009b65	-0.12559278
127	0xbc6c26c2	-0.014413537

encoder.lstm.weight_ih_l2 f4 [128, 32]
0	0xbe1e3ac3	-0.15452103
1	0xbb88fb9a	-0.004180384
2	0xbddb05e6	-0.106944844
3	0xbb95c055	-0.004570047
4	0xbdd3374a	-0.1031328
5	0xbe8d49cc	-0.27595365
6	0x3b4bd0a5	0.0031099704
7	0xbdcde4cf	-0.100534074
8	0xbd52b797	-0.051444616
9	0x3d56a9c5	0.052408
10	0x3e38ce1d	0.18047376
11	0xbe0becee	-0.136646
12	0xbd4b8bff	-0.049694058
13	0xbdd4421b	-0.10364171
14	0xbdda5e04	-0.10662463
15	0xbe139778	-0.1441325
16	0x3ded3307	0.11581998
17	0x3d843bec	0.06456742
18	0xbe3b7561	-0.18306495
19	0x3e4c2887	0.19937335
20	0xbdf0ea8c	-0.11763486
21	0x3da61d19	0.08111019
22	0x3cd3c5e6	0.025851201
23	0xbe08523d	-0.13312621
24	0xbe0efa80	-0.13962746
25	0xbd85e112	-0.065370694
26	0x3e43bdf3	0.19115429
27	0xbe6e5d9b	-0.23277895
28	0x3cdf6c5c	0.02727335
29	0xbd60461d	-0.054754365
30	0x3ba64c20	0.005074993
31	0xbe20d6ac	-0.15706891
32	0x3dbe483e	0.09291123
33	0xba16dd63	-0.0005755035
34	0x3e1cf0c4	0.1532622
35	0x3c390c29	0.011294403
36	0xbcd4f228	-0.025994375
37	0x3e8fe963	0.28107747
38	0x3ea4e2b0	0.322042
39	0x3ddd8f32	0.10818328
40	0xbd3bcce1	-0.045849685
41	0xbc31dcde	-0.0108558815
42	0x3e21cb16	0.15800127
43	0xbd04e7ce	-0.03244763
44	0x3d5fb318	0.054614156
45	0xbe914be5	-0.28378215
46	0x3e33d2d3	0.17560892
47	0x3bf3fa0e	0.0074455803
48	0xbd780bec	-0.060558245
49	0x3e368968	0.17825854
50	0x3eb72fba	0.357786
51	0xbc9cb780	-0.019130468
52	0x3d36397c	0.044488415
53	0xbbb25e89	-0.0054433984
54	0xbe06e1b2	-0.13172033
55	0x3e66b012	0.22528103
56	0x3d5d0c3a	0.05396674
57	0xbd3a1d99	-0.045438383
58	0xbe41d797	-0.18929897
59	0x3e41246e	0.18861553
60	0x3e7328d3	0.23746042
61	0xbd19d84f	-0.037559804
62	0x3d412886	0.047157787
63	0xbdda6b88	-0.10665041
64	0xbe75ad86	-0.23991975
65	0xbc872259	-0.01649587
66	0xbd494813	-0.049141
67	0x3e011d2d	0.12608786
68	0x3cf27b81	0.029599907
69	0x3d03c4ed	0.032170225
70	0xbc9e47a1	-0.019321265
71	0xbe0669d6	-0.1312631
72	0x3e1212c7	0.14264975
73	0xbe145f7d	-0.14489551
74	0x3dfd0c55	0.12355868
75	0x3df22ba7	0.11824732
76	0x3cbbd55a	0.022928882
77	0xbce660ae	-0.028122272
78	0xbde820c3	-0.11334374
79	0x3d91642f	0.07099187
80	0xbcdcd897	-0.026958747
81	0xbe7adf2e	-0.24499199
82	0xbe6baec5	-0.23015888
83	0x3d88ae2b	0.06673845
84	0xbe22da53	-0.15903597
85	0x3e027d39	0.12743081
86	0x3e61fa96	0.22068247
87	0x3d84401a	0.06457539
88	0xbd4a58ea	-0.0494012
89	0x3c2970cd	0.010341835
90	0x3e0f103e	0.1397104
91	0x3d0bda89	0.03414396
92	0xbdf6b205	-0.12045673
93	0xbc8350c3	-0.016029721
94	0x3e124b41	0.1428652
95	0xbdc37963	-0.09544637
96	0x3e464887	0.19363604
97	0x3c69e3fc	0.014275547
98	0x3da94d53	0.082667015
99	0xbd16e302	-0.036837585
100	0x3dc71d3e	0.097223744
101	0x3e9fabb0	0.31185675
102	0x3e96289a	0.29327852
103	0x3e8529b8	0.2600839
104	0xbe12e09b	-0.14343493
105	0x3dc1b81c	0.09458944
106	0xbe03e715	-0.1288112
107	0xbdaf30d6	-0.085542366
108	0xbd34a58b	-0.044103187
109	0xbd2e5831	-0.042564575
110	0x3e8aca74	0.27107584
111	0x3e20c10f	0.15698646
112	0x3b76e5ef	0.0037673672
113	0x3e9ec75b	0.3101147
114	0x3d027de7	0.03185835
115	0x3bef43f3	0.0073018013
116	0x3d297523	0.041371476
117	0xbe0cc211	-0.13745905
118	0xbe2ee111	-0.17078044
119	0x3dcb907c	0.099396676
120	0xbd3969ae	-0.0452668
121	0xbd8c7363	-0.06857946
122	0xbda75dd4	-0.08172193
123	0x3de9ab10	0.11409581
124	0x3e86a7ae	0.26299804
125	0xbd74acbb	-0.05973504
126	0x3d3fdbd4	0.046840504
127	0xbdc83b1c	-0.09776899
128	0xbd913401	-0.07089997
129	0xbd93f23a	-0.072239354
130	0x3d8829f2	0.066486254
131	0x3d85c210	0.06531155
132	0x3d0c865c	0.034307823
133	0xbc8989d3	-0.016789353
134	0x3e233e1e	0.15941665
135	0x3e66da9a	0.22544327
136	0xbda8e6d7	-0.08247154
137	0xbe7f0890	-0.2490561
138	0xbd3f6894	-0.046730593
139	0xbd5d6241	-0.05404878
140	0x3ca3b6d6	0.019984644
141	0x3cdfa492	0.027300153
142	0xbdd9f815	-0.10643021
143	0x3db90fb1	0.09036196
144	0x3dc8872b	0.09791406
145	0x3d82ce00	0.06386948
146	0x3d3da9ca	0.0463045
147	0xbc0914fe	-0.008366821
148	0xbe1f3c3e	-0.15550324
149	0x3d8ef7fd	0.06980894
150	0x3c1e84b6	0.009675195
151	0x3bd6d94a	0.0065566646
152	0xbd66d959	-0.056359623
153	0xbe014b60	-0.1262641
154	0x3b9598c3	0.0045653298
155	0x3d200042	0.039062746
156	0x3dd9c5e1	0.106334455
157	0xbda7ae45	-0.08187536
158	0xbe2daa7b	-0.16959564
159	0x3d6368e1	0.055519942
160	0x3b26cb3e	0.0025450732
161	0xbe27288b	-0.1632406
162	0x3d1ec7ba	0.038764693
163	0xbe41db18	-0.18931234
164	0x3d531f6a	0.05154363
165	0xbc46c4c9	-0.012131878
166	0xbda18dc7	-0.0788837
167	0x3dbed40d	0.09317789
168	0xbd6ac4a0	-0.057316422
169	0xbe019ffe	-0.12658688
170	0x3e07ccbd	0.13261695
171	0xbd5559a3	-0.052087437
172	0x3c8cb704	0.017177112
173	0xbdaaafc3	-0.08334305
174	0x3da5d29d	0.08096812
175	0xbd358f72	-0.044326253
176	0xbdd527a2	-0.1040795
177	0x3e7bd61b	0.24593394
178	0x3e0766a9	0.13222755
179	0x3e0101d7	0.12598358
180	0xbdaea444	-0.08527425
181	0xbe5d925c	-0.21637863
182	0xbdba35a7	-0.090922646
183	0x3e08ab2e	0.1334655
184	0x3c0dcfd8	0.008655511
185	0xbe4d03b7	-0.20020948
186	0x3dfcc13c	0.12341544
187	0x3e712f6d	0.23553248
188	0xbd14f3e3	-0.0363654
189	0x3d8b8014	0.06811538
190	0x3d2b3b77	0.041804757
191	0x3e762512	0.24037579
192	0x3e5391a3	0.20661025
193	0xbd794907	-0.06086066
194	0xbda4d35b	-0.08048125
195	0x3e6faded	0.23406191
196	0xbdab9b5f	-0.08379244
197	0xbdf922bd	-0.12164829
198	0xbe952f51	-0.29137662
199	0xbea40f44	-0.32042897
200	0x3e2959c4	0.16538149
201	0x3e865770	0.26238585
202	0xbd831839	-0.064011045
203	0xbe76aecc	-0.24090117
204	0x3e882593	0.26591167
205	0x3e663b42	0.22483543
206	0xbe7ac086	-0.24487504
207	0xbdbb3773	-0.091414355
208	0x3e073b5d	0.13206239
209	0x3e8ac6ea	0.27104884
210	0xbe43e9f3	-0.19132213
211	0x3e8a666e	0.27031273
212	0x3e9112f8	0.28334785
213	0x3dee8586	0.11646561
214	0xbce98d56	-0.028509777
215	0x3da7d73b	0.08195349
216	0x3e1437e4	0.14474446
217	0xbe231619	-0.15926398
218	0x3d199790	0.037498057
219	0x3e510b59	0.20414485
220	0x3da35e76	0.07977001
221	0x3e46c6d6	0.19411787
222	0xbcfcbdb0	-0.030852169
223	0xbe617273	-0.22016315
224	0x3e10917c	0.14117998
225	0x3e0fb014	0.14032012
226	0x3e4f3a16	0.20237002
227	0x3c75ed05	0.015010123
228	0xbe389c9a	-0.18028489
229	0xbe4264aa	-0.18983713
230	0xbbf1f060	-0.0073833913
231	0xbdb56f79	-0.08859152
232	0x3d1a87c0	0.037727118
233	0xbc235365	-0.009968613
234	0x3de09ee8	0.10967809
235	0x3c8f8f00	0.017524242
236	0x3e2e52e2	0.17023805
237	0x3e42dde0	0.19029951
238	0xbdd4e100	-0.10394478
239	0x3ddf67f4	0.10908499
240	0xbd72efd2	-0.05931074
241	0xbcb20e2f	-0.021735279
242	0x3e05b60b	0.13057725
243	0x3c8d98b6	0.017284732
244	0xbcb0be8a	-0.021575231
245	0xbe60a106	-0.21936426
246	0xbdb16e45	-0.0866361
247	0x3d7f8867	0.062385943
248	0x3d0b82ad	0.03406017
249	0xbd839b87	-0.06426149
250	0xbe72f9d7	-0.23728119
251	0x3e5629d3	0.20914392
252	0x3d9f30fa	0.077730134
253	0x3e339105	0.1753579
254	0xbe3e2bb9	-0.18571366
255	0xbd865ed8	-0.06561059
