Ibex/nsde_sigwgan/G.pt (torch, 299637 bytes, 15 tensors)

_conditioner._linear.weight f4 [64, 363]
000000 d8 13 e0 bc d8 b3 a5 bc 6b 3e 0d 3d c0 2f 4b bd
       -0.027353212 -0.020227358 0.034483355 -0.049606085
000010 af 43 8f bb 1e 7c 88 bc 63 0b 3a 3d 18 a2 d5 3b
       -0.004372082 -0.016660746 0.045421015 0.006519567
000020 92 16 25 3c 4c 8f 12 bd ef 6f 03 bd 23 d7 59 bc
       0.010076182 -0.03578119 -0.03208917 -0.0132959215
000030 e7 e3 3a bd d4 a4 d4 3c b7 d7 2b 3d 8c 73 1a bd
       -0.0456275 0.025957502 0.04195377 -0.03770785
000040 fa e2 ef 3c 16 e8 d3 3c 46 91 1d 3c 43 b8 25 3d
       0.029283036 0.025867503 0.009617155 0.04045893
000050 4b 11 4e bb 32 8a ff 3b 0d 5e cc 3c 74 7d ac 3c
       -0.0031443413 0.0077984566 0.02494719 0.021055914
000060 6a 67 e8 bc a0 39 e1 bb 1f 2a e0 3c 83 61 05 bd
       -0.028369624 -0.0068733245 0.027363835 -0.032563698
000070 b7 22 10 bc 74 2e fb 3c 28 6c 8b 3c 5c 38 c8 3c
       -0.008797339 0.030661799 0.017019346 0.024440937
000080 18 f9 51 3b 68 1e 1e 3d 60 3e c8 bc e1 68 5c 3b
       0.003203934 0.038603216 -0.024443805 0.0033631849
000090 cf 11 2f bc 74 56 f8 bb 83 f8 c6 3c c6 fe b0 bc
       -0.010685398 -0.0075786654 0.024288421 -0.02160586
0000a0 05 48 9d 3b f4 8f 07 3c c0 5a e5 bc 50 a8 8b 3c
       0.004799845 0.008274067 -0.027997375 0.017048031
0000b0 c6 8e d4 3c 29 c6 e2 3c 5f 27 49 3c ec 6a 61 3d
       0.025946986 0.02768238 0.012277453 0.05503361
0000c0 51 2a 3e bd a9 e5 bd 3c 1a 16 26 3d 70 20 10 bc
       -0.046427075 0.0231808 0.04054842 -0.008796796
0000d0 02 1d ff ba b4 3c 53 3c 7e 25 13 3c 53 a9 2c 3d
       -0.0019463601 0.012892891 0.008981107 0.042153668
0000e0 84 a3 ae 3b 99 8f fd 3b c4 53 db 3c c2 0a 57 3c
       0.005329551 0.0077380654 0.026773341 0.013125123
0000f0 9a 96 76 3c 6d ed 26 bd 56 68 05 3d 62 59 75 3c
       0.015050555 -0.04075377 0.032570206 0.014974924
000100 6a c8 ef bc 06 d2 31 3d 92 d7 a0 3c 51 33 2c bd
       -0.02927037 0.043413185 0.019634042 -0.042041127
000110 6c 42 92 bc 2f 02 23 bd 6f 6f 2a 3d fc 28 0e 3c
       -0.017853938 -0.039797004 0.041610178 0.008676764
000120 b9 c2 51 3d 5f 97 39 bc be f8 ee bc 76 6e 91 bc
       0.051211093 -0.011327594 -0.029171344 -0.017752867
000130 93 5d 2b 3c 24 0e 43 3d 7e 62 09 3d 90 ba 3c 3c
       0.010459322 0.047620907 0.033541195 0.011519089
000140 a6 62 f3 3b 71 58 19 bd 98 ce f9 bd 19 76 87 3d
       0.0074275313 -0.03743786 -0.12197608 0.06614322
000150 b7 4a a1 bc 17 87 44 bd 3f cb a2 ba 1a 76 67 3c
       -0.019688947 -0.047980394 -0.0012420191 0.014127279
000160 57 01 4a 3d 1a 44 07 3d 3c e6 12 bd 7e 9d db 3c
       0.049317684 0.03302393 -0.0358641 0.026808497
000170 9e 0f fd bc 9e 9f 18 3d 41 e9 81 3c 8f a6 4a 3d
       -0.030891236 0.037261598 0.015858294 0.04947525
000180 dd ee ab 3c 5e b4 3e 3d a5 d4 2e 3d d1 81 35 bd
       0.020987922 0.04655873 0.042683262 -0.044313256
000190 40 80 07 3d 03 74 49 bd 46 c5 e2 ba 9d 55 26 3b
       0.033081293 -0.049182903 -0.0017301224 0.002538062
0001a0 4a 15 2f bd d0 7e 05 3c 1f 38 00 3d de b7 d5 bb
       -0.042744912 0.00814791 0.03130352 -0.006522163
0001b0 da 50 c1 bc 29 13 de 3c fe 17 5a 3d 64 77 e2 3c
       -0.023598123 0.027108746 0.053245537 0.02764482
0001c0 9e a9 10 3d f0 ad 13 3d 72 5b ad 3c 0c 5a 0a bd
       0.03531801 0.03605455 0.021161769 -0.03377728
0001d0 15 b0 37 3c c4 a5 34 3d 39 f9 11 3d 34 00 33 3d
       0.011211415 0.0441034 0.035638068 0.043701366
0001e0 b1 7a 2b 3d 0e a5 63 3d 99 67 26 bb 4e aa 84 3d
       0.041865055 0.05557733 -0.002539134 0.064777955
0001f0 fd 06 96 bc fe b7 2a bd c3 ce e6 39 e2 e7 26 bb
       -0.01831388 -0.041679375 0.00044023068 -0.0025467803
000200 71 7c d0 bd 8e 54 b7 bc a5 70 ba bc e5 22 ea bc
       -0.10179985 -0.022379186 -0.022758791 -0.028581092
000210 86 85 c2 3c 98 0d 56 bd a8 14 bf 3c bf a9 be bc
       0.02374531 -0.052259058 0.02332528 -0.0232743
000220 48 cd 81 bd 81 7f 62 bd 64 78 d6 bd cf 4c 0a 3d
       -0.063379824 -0.05529738 -0.104721814 0.033764657
000230 b5 ff 35 bd 47 0f 40 3d 86 f0 dc 3a e3 27 5e 3d
       -0.044433314 0.04688957 0.001685635 0.054237258
000240 cd 5a 84 bd 5a 57 38 3d 1e 1b cf 3c fb a0 40 3d
       -0.064626314 0.04500518 0.025281485 0.047028523
000250 44 61 58 bd 94 6b b1 3c e6 33 75 3a 77 5e 0f bd
       -0.052827135 0.021657743 0.0009353742 -0.035002198
000260 5c 34 2e 3d bd 78 f0 bb 91 a8 86 bc 2d de 05 bd
       0.042530403 -0.007338612 -0.0164378 -0.032682586
000270 cd 20 95 bc 03 03 5d bb af 96 1a 3d 2d f9 97 bb
       -0.018204117 -0.003372372 0.03774136 -0.0046378584
000280 cb 4b 1b bd 35 6e 27 ba c9 99 c6 3c cf c9 95 bc
       -0.03791408 -0.00063869666 0.024243252 -0.018284706
000290 92 fe d3 3c f7 99 9b 3c 1f 35 5e 3d 6a ce c1 3a
       0.025878225 0.018994315 0.05424988 0.0014786248
0002a0 ab 6e 0a 3d e7 bc ad 3c 3e c1 53 3d 8b 7e 1d 3d
       0.033796947 0.02120824 0.051697962 0.03845076
0002b0 d7 f3 46 3d f0 3e d2 bd c3 6f a0 bc 12 72 df 3c
       0.048572388 -0.102659106 -0.019584542 0.027276073
0002c0 a5 71 82 3c a0 91 65 bd 63 49 2c 3c 25 de 7e 3d
       0.01592333 -0.056047082 0.010515544 0.062223572
0002d0 4f c4 5a bd a1 dc 13 bd 67 d0 a4 3d 9b c6 f1 bb
       -0.05340987 -0.03609908 0.08047562 -0.007378412
0002e0 ad 4e 59 b9 6a 0a 32 3c e9 9c 35 3d 25 4e 15 3d
       -0.00020724042 0.010866741 0.044339094 0.036451478
0002f0 1e 03 93 3c 60 24 bb 3c 13 32 f7 bc c4 eb a2 3d
       0.017945822 0.022844493 -0.030175244 0.07955125
000300 64 f4 5b 3c 16 f5 d5 bc 83 b3 8c bd ac 3a b2 3c
       0.0134249665 -0.026117843 -0.06870177 0.021756493
000310 85 2c d6 3c 2f bf 8b bd ee b4 3e 3d b1 89 12 bd
       0.026144275 -0.06823575 0.046559267 -0.035775844
000320 f0 2d 14 3d 3d f4 4b 3d e0 e3 61 bd b2 e9 fd 3b
       0.036176622 0.04979347 -0.05514896 0.007748806
000330 a6 8c f0 3b c1 7f 9d bc 48 32 8a bc 95 49 88 bd
       0.0073409854 -0.019225957 -0.01686968 -0.0665466
000340 53 13 00 bc 7f 5c 2c bd 49 24 4c 3c ed 7a 3c bd
       -0.007817107 -0.0420804 0.012459823 -0.04601567
000350 2f eb 4c 3c 27 07 34 bd 3a b2 52 bd ad 7e 81 bc
       0.012507244 -0.043952134 -0.0514395 -0.015807474
000360 23 94 a3 3c 08 e7 6d bd 60 7c 04 bd 80 7f 85 3d
       0.019968098 -0.058081657 -0.032345176 0.06518459
000370 8a b9 65 bc 95 f3 1a bd d6 de 7c 3d 57 a4 13 3d
       -0.014021287 -0.037829954 0.06173595 0.0360454
000380 12 97 4a bd 20 92 61 3d e6 7a 8b 3d f6 79 eb bd
       -0.049460478 0.055070996 0.068105504 -0.114978716
000390 3a 30 18 bd e4 bc d3 3c ff 24 cc b9 83 1f 0f bd
       -0.037155367 0.025846906 -0.00038937476 -0.03494216
0003a0 b7 39 14 bd 5b f7 0c 3d 66 7f 11 bd ca ba 47 3d
       -0.036187854 0.034415584 -0.035521887 0.04876212
0003b0 5f 07 20 3d 05 bb 9a bc d1 8a bc bb e8 3e c8 3c
       0.03906953 -0.018888006 -0.005753853 0.024444059
0003c0 b9 2d 14 bd 44 f8 ba 3c d2 cf d8 3d 82 7f c2 3c
       -0.036176417 0.02282346 0.105865136 0.023742441
0003d0 57 73 8b bd 5e 4e c9 3d ef a2 8a 3d 90 8a a2 bc
       -0.06809109 0.098294005 0.06769358 -0.019841462
0003e0 4b 03 1c 3d a0 4f 9d 3c 64 4b d4 bd 76 0d c5 bd
       0.038089078 0.019203007 -0.10365942 -0.09621708
0003f0 64 84 22 3c 52 29 53 3d d5 c6 e1 bd 64 7f 00 be
       0.00991926 0.051553078 -0.11024252 -0.12548596

_conditioner._linear.bias f4 [64]
000000 eb 78 ca bc d6 3c 18 ba ce 7a bb 3c e2 1a 25 3d
       -0.024715861 -0.0005807405 0.022885706 0.04030884
000010 ff 70 b9 bc c3 43 78 3d 23 5c 8a bd 01 36 ee bc
       -0.022636889 0.060611498 -0.06755855 -0.029078485
000020 96 31 08 bd 41 da f8 3c 1c be 3f bc be 29 2b 3d
       -0.033250414 0.03037751 -0.01170304 0.041787855
000030 61 90 ab bd bd 62 a4 bc 23 36 e3 3b 6d 24 21 bc
       -0.083771475 -0.020066613 0.006933944 -0.009835345
000040 58 63 80 3d 31 71 80 bc d5 82 85 bc 20 bc 6d 3c
       0.06268948 -0.015678974 -0.016297737 0.0145101845
000050 50 49 55 3c ed 69 8a 3a cd bc 83 3c 3d af 60 bc
       0.013017967 0.0010560133 0.016081238 -0.013713655
000060 16 35 c1 bb 7c 76 ae bc eb 41 31 3d 77 99 0f 3d
       -0.005896221 -0.021296732 0.043275755 0.035058465
000070 39 d3 1a bd 2b e3 8e bb d1 dc 93 bc 2c 38 81 3d
       -0.037799094 -0.0043605766 -0.01804963 0.06309542
000080 d6 4d 58 bd d9 ca 92 3d a0 4c b3 bc 06 c2 7c bd
       -0.052808605 0.07167596 -0.021887124 -0.061708473
000090 9c d1 52 3b 3a 18 01 bd 64 3f cd bc 63 91 4d bc
       0.0032168394 -0.031517245 -0.025054641 -0.01254687
0000a0 ba 43 5d bd 23 eb 26 bd 28 60 8d bc c9 58 8a 3d
       -0.054019667 -0.040751588 -0.017257765 0.06755216
0000b0 86 4d 10 bc 6b c9 e6 3b 9f 41 75 bc 74 c5 6d bc
       -0.0088075455 0.007043054 -0.014969259 -0.0145124085
0000c0 ac 72 33 3d 4f 19 7a 3d b7 b0 8f bd 46 67 5e bd
       0.04381053 0.061059292 -0.070161276 -0.054297708
0000d0 31 a3 8c bc ef ad 57 bc 32 50 23 3d a2 62 30 3d
       -0.01716766 -0.013164028 0.039871402 0.043062814
0000e0 5a 10 fa bc ad 89 6d bd 59 45 9a 3b 0d e0 90 3c
       -0.030525375 -0.057992626 0.004707974 0.01768496
0000f0 85 2d 43 bc 4b 11 85 bc 33 a4 44 bd 04 6e 58 bd
       -0.011912708 -0.016243597 -0.048008155 -0.052839294

_conditioned._func._drift._model.0.weight f4 [96, 120]
000000 26 bc 33 bd d4 1f 89 3d 98 f4 20 ba 67 86 7a 3c
       -0.043880604 0.06695524 -0.0006139963 0.015290833
000010 66 49 c6 3c 06 52 b3 3c fe 15 e0 3c 37 d7 4f bc
       0.024204921 0.021889698 0.027354237 -0.012685589
000020 3d 1a 8e 3c e4 e4 0c bd 69 42 54 bc 27 16 1e bc
       0.017346496 -0.034397975 -0.012955287 -0.009648836
000030 df 2a 74 bc 81 cb a5 3b b7 ba 3b 3d 2a b3 c9 3c
       -0.014902799 0.00505966 0.045832362 0.024621565
000040 bf a7 aa 3c 09 3a 46 bc b5 35 d1 bc a5 3e 6c bc
       0.02083194 -0.012098798 -0.025538305 -0.0144192325
000050 ff 02 05 bd 5b 7d 05 bc b3 c3 13 3d 09 d1 51 3c
       -0.03247356 -0.008147563 0.036075305 0.0128061855
000060 f3 43 db 3a 72 63 ba bc f5 dc 16 bd cf 9a 1d 3c
       0.0016728624 -0.022752497 -0.036831815 0.009619429
000070 36 cf 4b 3d 67 66 cb 3c cc 73 67 3c f6 e4 30 3d
       0.04975816 0.024829103 0.014126729 0.043187104
000080 bf b3 1c bd f7 0d bf 3c 7f df 2c bc 16 e3 72 bc
       -0.038257357 0.023322089 -0.0105513325 -0.014824649
000090 0e 26 2e bc cf 66 9b 3c dc 28 6d bc c6 b3 ac bc
       -0.01062919 0.018969921 -0.014475074 -0.021081816
0000a0 fa 18 37 bd 39 f0 d2 3c 45 47 c7 3c 5c 6d 05 bd
       -0.044701554 0.025749313 0.024325976 -0.032574996
0000b0 a3 86 d9 3c 4e 2d f2 bc 72 c6 52 bd c9 27 99 bc
       0.026553458 -0.029562619 -0.051458783 -0.018695729
0000c0 55 1a 0e bd 27 03 2c bd aa e8 13 3c 22 9e b6 bc
       -0.03469308 -0.041995194 0.009027639 -0.0222922
0000d0 e2 26 18 3d 9e 0f 96 3b 03 7c 1a 3d 84 d4 f8 3c
       0.037146457 0.0045794984 0.037715923 0.030374773
0000e0 d6 a9 f2 bc af b4 99 3c 3b ba 14 3d e0 19 ca 3b
       -0.029622 0.018762914 0.036310416 0.0061676353
0000f0 66 50 49 bb e3 1e 7f bc 4d db d2 bb 53 57 66 3c
       -0.0030718087 -0.015571329 -0.006434834 0.014058906
000100 2e 55 4a 3d d8 5d 96 bc 13 c6 98 bb 93 9c 59 3c
       0.04939764 -0.018355295 -0.004662284 0.013281959
000110 69 b0 82 bd 95 fd b9 3c a1 22 4f bd d6 19 03 3d
       -0.06381304 0.022703925 -0.050570134 0.03200706
000120 3e f7 47 bd 8e 55 e4 bb b3 83 1f bd 29 03 15 3d
       -0.048819773 -0.0069682067 -0.038943958 0.036379967
000130 aa 66 a6 3c 3a c8 22 bc d7 51 54 bc b2 51 8a bb
       0.020312626 -0.009935433 -0.012958965 -0.0042211646
000140 40 df 06 3b 3c 49 3e 3c fe 10 de 3c 5d 5c 3b 3d
       0.0020579845 0.01161414 0.027107712 0.04574238
000150 1c 53 7d ba 80 b4 43 bd 49 34 cf 3c de 12 61 3b
       -0.00096635683 -0.04777956 0.025293486 0.003434352
000160 8e 48 ac 3b 88 d8 17 bc 5c af 3c 3c 7c 5e 04 bc
       0.0052576726 -0.009267934 0.011516418 -0.008079167
000170 7a 50 cd 3c 23 f7 a0 bb 93 24 b4 bc 45 59 4c 3d
       0.025062788 -0.0049122735 -0.021990096 0.04988982
000180 b4 50 67 3c be f5 3a bd a6 72 eb 38 98 42 97 bc
       0.014118362 -0.045644514 0.00011227028 -0.018464372
000190 b1 97 dc 3c e8 79 08 bd 0c dd 10 3c be 9b e5 3a
       0.0269278 -0.033319384 0.008841764 0.0017517728
0001a0 ea 21 e5 3c ef 7b ea 3c 1a da d2 bc f4 77 f5 3b
       0.027970273 0.02862355 -0.025738765 0.007491106
0001b0 f2 7f e1 3c 46 0c 06 3d 5d 42 17 3d a3 3e 5f 3d
       0.02752683 0.03272655 0.036928523 0.054503094
0001c0 40 32 1f bc 60 46 44 3b 69 0a 14 3b 4e e8 99 bc
       -0.00971657 0.0029949173 0.0022589213 -0.01878753
0001d0 8a 75 d7 3c c4 42 5d bd 59 5e 98 3c f4 a3 84 3c
       0.026301164 -0.05401875 0.018599676 0.01619146
0001e0 26 ba 87 3c 06 e8 74 bd e4 b4 6d bb ff e0 2c bd
       0.016568255 -0.059791587 -0.003627115 -0.04220676
0001f0 5d e1 28 3c 5a 8f 1c 3d 54 c2 02 3d 27 c2 be bc
       0.010307637 0.03822265 0.031923607 -0.023285938
000200 4d bd 08 bd 2e 20 30 3c 5d 3d 40 3d fa 13 85 bc
       -0.033383656 0.01074986 0.04693352 -0.016244877
000210 62 3c 75 3c 95 83 46 3d 37 48 3f bc c7 97 e9 bc
       0.01496801 0.04846533 -0.011674932 -0.028514756
000220 74 64 94 bc cc e6 13 3c 97 12 6d 3c 9e 82 08 3d
       -0.018114306 0.009027194 0.014469764 0.03332769
000230 9b ce 1e 3d e9 c4 a6 bc b5 1b a5 3c 27 82 ad 3c
       0.038771253 -0.020357566 0.020154813 0.021180226
000240 c6 fe 68 3b 6b cd 35 bd c9 00 22 3c 3c 81 23 bc
       0.0035552247 -0.044385355 0.0098878825 -0.009979542
000250 99 a1 36 bd b0 2f cc 3c 10 79 86 3c 98 e7 73 ba
       -0.044587705 0.024925083 0.016415149 -0.00093042245
000260 1a d5 4b bd 00 67 8c 3c 41 f4 82 3c 51 32 d6 bc
       -0.049763776 0.017138958 0.01598561 -0.02614704
000270 95 7e da bc 68 11 6e bb a5 76 c6 bc 58 0a 1b 3d
       -0.026671687 -0.0036326293 -0.024226496 0.03785166
000280 e1 6e 82 3d 1e 93 2d 3a 9a e1 16 bd 9e 37 47 3d
       0.06368805 0.00066213484 -0.036836244 0.048637025
000290 57 c1 15 3d 1e fe 45 3c a3 e0 42 bb 4c f2 12 3d
       0.036561336 0.012084512 -0.0029735945 0.035875604
0002a0 f4 fe 19 bd d2 7f 8b 3b 5c 71 0f bd 27 12 3e 3d
       -0.037596658 0.0042571807 -0.035020217 0.04640403
0002b0 cf 97 b1 bc 80 6b 21 3b 8b 52 f2 bc d1 e3 7d 3c
       -0.021678833 0.0024630725 -0.029580375 0.01549621
0002c0 3d c1 4c 39 0d 76 8b 3b d0 6c 61 3c 73 be 2d ba
       0.00019526943 0.004256016 0.013758853 -0.00066278054
0002d0 f7 fa 8e bc 46 d5 33 3c 3f 24 d4 3c b8 9b cd 3c
       -0.017453654 0.010976141 0.02589619 0.025098667
0002e0 74 c9 7d bc e5 f7 9b bc 68 ac 4d bb eb 83 da 3c
       -0.015489925 -0.019039104 -0.003138328 0.026674232
0002f0 9a 36 00 bd c6 b5 60 bd 1d 0c e2 bc 7f 99 80 3b
       -0.031302072 -0.054860853 -0.027593667 0.003924548
000300 c0 a4 81 bc c1 8a 18 bd 97 de 09 3c 7f 20 84 3c
       -0.01582563 -0.0372417 0.008414886 0.016128777
000310 14 97 96 bb 5e 04 3c bd 61 20 c2 3c 11 97 7a bb
       -0.0045956466 -0.045902602 0.02369708 -0.0038237015
000320 71 15 03 bd a0 8a 24 3d c4 c4 63 3c 61 5f 16 3c
       -0.03200287 0.040171266 0.013901893 0.009178014
000330 72 31 ad 3c 9e fa 60 bc b9 44 7c 3b d3 d3 3d 3c
       0.021141741 -0.013731627 0.003849311 0.011586147
000340 3f e6 8b bc 5f ab c7 bb e5 d2 87 bc 7c d8 ca 3c
       -0.017077563 -0.006093427 -0.016580055 0.02476143
000350 23 79 74 bc b9 b6 11 bd 84 99 16 bd 4b 55 2f 3d
       -0.014921459 -0.03557465 -0.036767498 0.04280595
000360 a8 ea d5 bc 07 fb 6f 3d c2 ea 73 3c c2 84 4d bc
       -0.02611287 0.058589008 0.014887514 -0.012543859
000370 da a4 b8 bc 25 fd 28 bc 94 6e e2 3c 6f f8 01 3d
       -0.022539545 -0.010314261 0.027640618 0.031731065
000380 d6 29 5c 3a 00 7a 62 3c bf 02 db bb 78 75 4e 3c
       0.0008398568 0.013823032 -0.006683677 0.012601249
000390 ca d3 23 3c 9f f5 99 bc 11 d3 6b 3d 2a c6 ab bc
       0.009999225 -0.01879388 0.057574335 -0.020968515
0003a0 4f fc 6a b9 a7 91 1f 3b 23 af 0a 3d 20 63 15 3d
       -0.00022409971 0.002434829 0.03385843 0.036471486
0003b0 38 e8 9a bc a4 e2 94 39 d2 50 4e 3d 2e d8 55 bc
       -0.018909559 0.0002839762 0.050370045 -0.01305203
0003c0 6a ff 04 3d 1b 0a ea 3c 24 e2 5b bc 1c 01 7c 3b
       0.032470144 0.028569272 -0.013420615 0.003845281
0003d0 05 17 1d 3d df 58 64 bd ee 58 20 bb d9 f5 cd 3d
       0.03835203 -0.055748817 -0.0024467069 0.10056657
0003e0 1c 11 09 bd cd da f6 3c 73 35 00 3c 45 56 02 bc
       -0.033463582 0.03013363 0.007825243 -0.007955139
0003f0 a7 d1 e1 bc 99 c0 32 3d 9a 2b df 3b c9 5b 27 3c
       -0.02756579 0.043640707 0.0068106176 0.010214754

_conditioned._func._drift._model.0.bias f4 [96]
000000 9d a1 24 bc e8 27 0d 3d e5 0a 53 bd 8a 87 e9 3c
       -0.010048297 0.034461886 -0.05152406 0.028507013
000010 fc df 19 bd 6a 36 f0 bc 63 f6 fa bb 03 e6 9e 3c
       -0.037567124 -0.029322822 -0.007658766 0.019396788
000020 72 fc f0 3b 25 83 a7 bb c5 92 94 bc 02 17 4e 3b
       0.0073543126 -0.005112069 -0.018136391 0.003144682
000030 8a 2e 0a 3d ea 43 fc 3a bb 09 16 bd ae 93 32 3c
       0.03373579 0.0019246314 -0.036630373 0.010899467
000040 be e4 4d bc 54 42 f1 3c 7b 39 06 3c 98 bc c5 3c
       -0.012566743 0.029450573 0.008192415 0.02413778
000050 93 56 f7 3b 7d 51 2f 3c fa a0 11 3d 17 77 2c bc
       0.0075481622 0.010700581 0.03555391 -0.01052644
000060 62 5b 4b 3c 1f 04 0d bd 7d a2 43 bc 7f 05 8f 3c
       0.012411924 -0.03442776 -0.011940596 0.017458675
000070 e6 91 17 bc 29 24 01 bd 57 da 63 bc 42 60 de 3b
       -0.0092510935 -0.031528626 -0.013907037 0.006786377
000080 fb 91 f2 bb a8 6b 05 bd 49 5e e3 3b 06 24 1b bd
       -0.007402656 -0.032573372 0.00693873 -0.03787615
000090 c6 a1 e5 ba 00 55 c9 3c 5c 86 de bc 2d 0b 4c 3c
       -0.0017519526 0.024576664 -0.027163677 0.012453836
0000a0 51 94 d1 bc 1d d8 0b bc 2b 87 e4 bb 40 48 af 3c
       -0.025583418 -0.008535412 -0.006974121 0.021396756
0000b0 22 4d 9e 3c bd 58 50 3c f1 ca 19 bc 8d 7f f1 3c
       0.01932389 0.012716469 -0.009386764 0.029479766
0000c0 1f 21 f4 3c 0b d1 d6 3c 18 86 cc 3c 6c 1f e1 3b
       0.02980095 0.026222726 0.024966285 0.006870201
0000d0 69 13 d3 bc d3 c2 20 bd 52 21 73 3c a0 05 97 bc
       -0.025766091 -0.0392483 0.014839487 -0.0184353
0000e0 c6 4c 7b 3d c2 36 23 3d e2 7e 03 bc e0 3d e8 bc
       0.061352514 0.039847143 -0.008025857 -0.028349817
0000f0 18 06 a1 3c 16 f3 e4 3c 72 a8 be bc 8d 67 58 3c
       0.019656226 0.027947944 -0.02327368 0.013208282
000100 c1 b9 14 bd 3f 9a 31 3d b4 1c 0d 3d 16 d5 ec bc
       -0.03630996 0.04335999 0.0344512 -0.028910201
000110 d8 9d d5 3c 21 55 f0 3c ee 62 fe bc 90 56 22 bc
       0.026076242 0.029337468 -0.031053033 -0.009908333
000120 4f 05 81 3b 2a 89 8d 3c d1 e2 18 3c 59 12 01 3d
       0.0039374004 0.017277319 0.009331421 0.03151164
000130 ff 94 89 3b 07 79 f0 ba eb c6 ac 3c c6 5f 2f bb
       0.00419867 -0.0018346616 0.021090945 -0.0026759966
000140 8b df d7 ba 63 fa 19 3d 77 77 8d bc 94 0d 9c bc
       -0.0016469819 0.037592303 -0.01726888 -0.019049443
000150 58 b9 01 bc 17 1c 86 bc 75 ec 19 3d 52 c6 04 3c
       -0.007917725 -0.016370816 0.03757902 0.008103924
000160 4f 13 cf 3c bb 8e b7 bc 20 e1 a0 3c 7a ee ae bc
       0.025277762 -0.022406926 0.019638598 -0.021353949
000170 a8 f0 21 3c 4a 34 f3 3c 1a 55 e5 3c 03 b3 ee 3b
       0.009884037 0.02968802 0.027994681 0.0072845235

_conditioned._func._drift._model.2.weight f4 [120, 96]
000000 68 a0 ce 3c 2e 98 3f bd 8b 0f 15 3c 60 76 23 bd
       0.025222972 -0.04677599 0.009097944 -0.039907813
000010 92 a5 9b 3c 04 f1 2e 3d 12 7d 27 3c c1 d2 2c bc
       0.018999849 0.04271032 0.01022269 -0.0105482945
000020 8e 17 17 bd 39 e3 f2 3c ac a9 4b 3d 88 2b 51 3d
       -0.036887698 0.029649364 0.04972236 0.051066905
000030 b0 7c 8b 3c a0 08 1f bd de 92 79 3c 34 ea 87 3b
       0.01702723 -0.038826585 0.01523277 0.0041477922
000040 f8 f2 43 3d 73 78 db 3c 27 f6 3d 3d 69 d3 b6 3c
       0.047839135 0.026790833 0.046377327 0.022317605
000050 e5 b2 8b bc 9f bb 33 bd 2d de 39 3c 50 ca 6c 3c
       -0.017053077 -0.0438801 0.011344475 0.014452532
000060 6e d7 c4 3c 26 ba 40 3c eb 00 1b bd e7 ff 2c bb
       0.024028506 0.011763131 -0.037842672 -0.0026397647
000070 d1 41 ac ba 2f 90 09 bd 38 b9 43 bd d7 5d 50 3d
       -0.0013142173 -0.03358477 -0.04778406 0.050870743
000080 39 1b f2 3c b0 59 05 bc 7b 44 4a 3d bc 77 cf bc
       0.029553996 -0.008139059 0.049381714 -0.025325648
000090 e1 c4 61 bb f8 15 64 bd a1 55 92 bc d6 f8 11 bd
       -0.0034449624 -0.055685014 -0.017863097 -0.0356377
0000a0 33 d7 3f 3d 75 7f 54 3c 25 9f dc bc 39 22 52 bd
       0.04683609 0.012969841 -0.026931355 -0.05130217
0000b0 01 27 5a bd 0b 43 4d 3d d5 68 e8 bc 70 31 f0 bc
       -0.053259853 0.050112765 -0.0283703 -0.029320449
0000c0 47 4a 30 bc a4 19 89 3a 9f 56 55 bd 64 45 83 bc
       -0.010759897 0.0010459912 -0.05208456 -0.016024299
0000d0 49 0b 7f 3c 43 46 04 bd d4 10 36 3d 21 79 3a 3d
       0.015566655 -0.03229357 0.044449642 0.045525674
0000e0 98 25 9e 3b 84 c3 38 bd 0a ef b7 3b ec 00 5b 3d
       0.004826259 -0.045108333 0.0056132125 0.053467676
0000f0 bb 19 2e bc f9 ed 19 ba 3a ca 95 bc 29 ea b9 bc
       -0.010626252 -0.00058719475 -0.018284906 -0.022694664
000100 9d 9f 87 3d 5b c1 15 bd 45 9d d4 3c 5f e8 b8 3b
       0.06622241 -0.03656135 0.025953898 0.005642935
000110 40 da 8e bc 97 0b 22 3d 7f 92 58 3d 40 ae 2d 3d
       -0.017438054 0.039561834 0.052874085 0.042402506
000120 a6 26 84 bb 2a 0d e4 3c 1d 54 06 bd 97 ec a2 3c
       -0.0040329276 0.027838308 -0.03279506 0.019888205
000130 ce 61 dc bc 93 29 0d 3d 7e a6 5e 3c c4 0e 25 bd
       -0.026902106 0.034463476 0.0135894995 -0.040297285
000140 ca 42 4f 3d 60 05 77 bc c7 2d a0 bc 3d 61 18 3d
       0.050600804 -0.015076965 -0.019553078 0.03720211
000150 e6 73 23 bc 08 d3 35 3d 76 00 1e 3d f9 7c 94 3c
       -0.009976363 0.04439071 0.03857466 0.018125998
000160 09 21 11 3d 8c 0a ee bc 53 c0 a7 bc 80 68 cf bc
       0.035431895 -0.029057764 -0.02047745 -0.025318384
000170 5b 53 2d bd 65 05 ba 3c cf f5 1c 3d ef 38 66 bd
       -0.042315822 0.02270765 0.03832036 -0.05620664
000180 35 fa 1d bd 78 2f 82 3c b0 25 50 bd a2 90 82 bc
       -0.038568694 0.015891775 -0.05081719 -0.015938107
000190 00 61 81 3b a9 0b 59 bd 3b ff 8a bc 8f f9 46 bd
       0.003948331 -0.052989636 -0.016967406 -0.04857784
0001a0 18 1b 6c bc 9b e4 3b 3d 46 d1 9d 3b d3 f5 9e 3c
       -0.0144107565 0.045872312 0.004816207 0.019404327
0001b0 59 fa f0 3b da 40 2a 3d b6 30 f5 bc 78 4f 16 bc
       0.0073540625 0.041565754 -0.029930454 -0.00917422
0001c0 ee 6a 4e 3c bf 28 42 3c c7 2c 20 3c 68 cf f8 3c
       0.012598736 0.011850535 0.009776301 0.030372337
0001d0 c9 35 c8 3c 22 7c 52 3d 9f 43 00 3d 50 b7 5f bd
       0.02443971 0.051387914 0.03131449 -0.05461818
0001e0 92 ea 23 3b 04 46 7e 3c f3 bd 8a bc ec 1c 4a 3b
       0.002501164 0.015519623 -0.016936278 0.0030839993
0001f0 69 0b 49 bd 59 a2 d3 bc b9 10 3b bc b8 73 72 3d
       -0.049083147 -0.02583425 -0.011417561 0.05919239
000200 5f 98 f0 bc 6f bd 08 bd 15 1c 87 3c 39 29 37 3d
       -0.029369531 -0.033383783 0.016492883 0.044717047
000210 d6 c1 89 3c a0 17 2f 3d 56 35 e6 bc 0c e0 56 bd
       0.016816061 0.04274714 -0.028101604 -0.05245976
000220 2f a7 28 3d b2 31 3c bd e2 9e 57 3d 30 a3 11 bd
       0.041175064 -0.04594583 0.052641757 -0.03555602
000230 b5 31 79 bc da 2a 6d bc 4d 50 24 bd 8c 01 28 bd
       -0.015209605 -0.014475549 -0.040115643 -0.0410171
000240 94 09 eb bb 7e 4b 7d bc c2 fb 3c 3c a5 e2 b8 bc
       -0.0071727727 -0.015459893 0.011534633 -0.02256901
000250 4e c1 a2 bc 9e e9 0f 3d d9 e1 45 bd 7b b0 38 3c
       -0.019867565 0.035134904 -0.04831109 0.011272545
000260 56 5f 47 3b 59 b5 fd 3c 1d bc f9 3b 06 c0 59 3c
       0.0030421815 0.030970262 0.007621302 0.013290411
000270 a2 8d 7c bc 82 a9 5e 3d 2c 15 59 3d 49 f7 ce bc
       -0.015414627 0.054360874 0.052998707 -0.0252644
000280 5f e2 0a bd b4 5f 13 3d 23 8a 2c 3d 75 1b 1a 3d
       -0.03390729 0.03597994 0.042123925 0.03762384
000290 be eb f3 bc 55 d6 bb 3c b6 ec 79 3b 78 19 14 3d
       -0.029775497 0.02292935 0.0038135475 0.0361571
0002a0 81 d7 50 3d 38 07 50 3c f2 db 3c 3d 63 15 a6 bc
       0.05098677 0.012697034 0.046108194 -0.02027387
0002b0 7d 28 f6 3c 66 cb 43 bd 25 5f 2f bd 7d 84 da 3c
       0.030048603 -0.047801398 -0.042815346 0.026674503
0002c0 58 eb 51 3c 80 3f a1 3c d1 62 ba bc 77 fb 3e 3d
       0.012812458 0.0196836 -0.022752197 0.046626534
0002d0 8d 1a 4b 3c 4e 79 1a bd c8 e9 2a 3d 67 5e c0 bc
       0.012396467 -0.03771334 0.041726857 -0.023482515
0002e0 ba 42 78 3a ff 11 24 bd 52 39 ed 3c 36 e3 e0 3c
       0.0009470392 -0.040056225 0.028957997 0.027452093
0002f0 87 79 f4 bc 14 5a 08 3d 2c 3a 2e 3c 8b 4c 22 bd
       -0.029843105 0.03328903 0.010633986 -0.03962378
000300 e6 9f 36 bd 8a 19 48 bd 78 18 2c bd 09 a9 2e bb
       -0.044586085 -0.04885248 -0.042015523 -0.0026651046
000310 82 aa bd 3c 32 1a 6f 3d e4 3a e6 b9 3e 11 9a bc
       0.023152594 0.05837459 -0.00043912895 -0.01880705
000320 fb e3 43 3c 1e d2 ce bb f3 11 1b 3c ca 67 e2 3c
       0.01195621 -0.006311669 0.009464729 0.027637381
000330 e3 7a 2d 3d 01 7f 45 bd c8 37 eb 3c 9a 3b c3 bb
       0.042353522 -0.048216823 0.028713122 -0.005958033
000340 27 11 f2 3c 0b b9 9e bc 78 9c ba bb 16 b0 00 bd
       0.029549194 -0.019375345 -0.005694922 -0.03141793
000350 1b 02 71 bb 0d 94 8e 3c 31 85 3b bd 64 d0 2e bd
       -0.0036774937 0.01740458 -0.045781318 -0.042679206
000360 4c 64 af 3c 5a 0a ba bc e0 01 65 3d c0 cf 9e bc
       0.02141013 -0.022710014 0.05590999 -0.019386172
000370 4c 34 48 bc 03 7d 92 bb ab 95 e7 bc 73 26 c9 bc
       -0.0122195 -0.004470469 -0.02826961 -0.024554467
000380 02 ab a7 3c 21 4f 4b bd 60 0d fb bb ec c4 b5 bc
       0.020467285 -0.04963601 -0.0076615065 -0.022188626
000390 db 91 74 3d 25 fa 14 3c 3c 4e 33 bc 40 3c b5 bc
       0.05970941 0.009092842 -0.0109439455 -0.022123456
0003a0 52 9c 5a 3d d9 43 a7 ba 3d 15 30 bd e0 14 30 bd
       0.053371735 -0.0012761309 -0.042989004 -0.042988658
0003b0 16 0c c7 bc b2 60 62 bd 72 bb 3b 3d 3c 5b b7 3b
       -0.024297755 -0.055267997 0.04583306 0.005595593
0003c0 23 29 bd bc 2e 21 05 3d 2f c8 f5 3a b7 6f 2c bd
       -0.023090905 0.032502346 0.0018751676 -0.042098727
0003d0 ec bc 3b bd c2 84 4b bd 79 89 22 bd 4e 19 da 3c
       -0.045834467 -0.049687155 -0.039681885 0.026623394
0003e0 c2 27 0c bc cd 58 0b bb 9d c2 48 3b 85 90 56 3d
       -0.008554401 -0.0021262646 0.0030633577 0.05238392
0003f0 30 91 bb 3c f8 9c b8 3c 03 e8 09 3d 01 fe 22 bd
       0.02289638 0.022535786 0.03366853 -0.03979302

_conditioned._func._drift._model.2.bias f4 [120]
000000 4d a7 51 3b df 3e aa 3a f3 78 cc 3c 7d 74 05 3c
       0.0031990588 0.0012988708 0.024960017 0.008145449
000010 08 71 ab 3c 0e d6 05 3c fd 83 0b bd 10 ff fa bb
       0.020927921 0.00816871 -0.03406142 -0.0076598004
000020 6f bb 05 bc 13 47 ae ba 40 a2 ac 3b 89 ed 8a bc
       -0.008162363 -0.0013296328 0.005268365 -0.016958969
000030 31 12 be bc 2a 14 b7 3b ea c5 8d bc fa b5 8c 3a
       -0.023202034 0.0055871205 -0.017306287 0.0010735386
000040 23 92 d1 bc be c5 bb 3b 87 4d 74 bb 2e bf e3 bc
       -0.025582379 0.00573036 -0.0037277655 -0.027801123
000050 dd 47 e1 bc 78 2b 97 bc 26 87 16 bd 56 14 93 bc
       -0.027500087 -0.018453345 -0.03674998 -0.017954033
000060 52 24 2b 3c fb b8 20 3d 56 78 10 3c 0e 7c ed 3b
       0.010445671 0.03923891 0.008817753 0.0072474545
000070 17 e6 ca 3b 75 d9 79 3b c6 96 8b 3c 00 b8 91 3b
       0.0061919796 0.0038124 0.017039668 0.0044469833
000080 3d 37 ab 3b af 4a 42 3a 17 8a 7c bb 77 d6 a8 3c
       0.005225091 0.00074116414 -0.0038534456 0.020610077
000090 f4 76 43 bb cb 1a cb 3c 9e 6c fb 3a 80 92 bb bc
       -0.002982554 0.02479305 0.0019182151 -0.022897005
0000a0 1f 97 2d 3c ef c2 db bc dd 34 1d 3b 9e fc 9b 3a
       0.010595112 -0.02682635 0.0023987808 0.0011900847
0000b0 3f e7 98 3b b2 f0 20 bc 07 0c 09 bc b0 7a af 3c
       0.0046662386 -0.009823011 -0.008364684 0.021420807
0000c0 33 e5 3c 3b 0a 20 b9 bc 24 dd d3 3c 6e 53 b2 3c
       0.0028823137 -0.022598285 0.025862284 0.021768298
0000d0 52 13 9b ba fe 6b e4 bc 78 d7 eb 3b 26 b0 b5 bc
       -0.001183132 -0.027883526 0.0071973167 -0.02217872
0000e0 95 a5 a7 bb 49 8d 19 3d 48 3f ae bc 6f 38 66 3b
       -0.0051161745 0.037488256 -0.02127041 0.0035128852
0000f0 36 cf 6b 3c c0 22 b2 bc 88 e7 af 3a 08 dc 8a bb
       0.014392665 -0.021745086 0.0013420442 -0.0042376556
000100 88 89 6a 3c a7 7a 76 bc 06 8b 0e 3c ff 43 9c 3c
       0.014315017 -0.015043891 0.008700138 0.019075392
000110 3a 23 95 bb 96 1b a1 3c 0b c5 6e 3c a4 d6 81 3c
       -0.0045513185 0.019666474 0.014573346 0.015849419
000120 13 a4 9c bc e0 5c 91 bc 54 2b 84 3c b9 6c e4 3c
       -0.019121205 -0.017744482 0.016133942 0.027883874
000130 b1 16 a5 bb 3a 15 60 3c c0 0d 6b 3c 33 55 61 bc
       -0.0050381054 0.013676936 0.01434654 -0.013753223
000140 71 9b 01 3c bf 48 2e 3d 72 2e c9 3c af 5b a5 3c
       0.007910595 0.042549845 0.02455828 0.02018532
000150 07 67 10 3d 72 79 85 bb 56 5c a8 bc f5 3c 52 3c
       0.035254505 -0.0040733153 -0.020551842 0.012831916
000160 c1 3d 91 3c c0 d8 0b bd 1a 1b d1 bb 79 67 e3 3c
       0.017729642 -0.034142256 -0.0063814046 0.0277593
000170 c7 01 24 3b 7b 07 13 bc 0e b1 2e bb d6 b4 5f bc
       0.0025025473 -0.008973951 -0.0026655826 -0.0136539545
000180 2b 51 9e bc b1 6b bb 3c 91 95 0c 3d 32 56 16 bc
       -0.019325813 0.0228785 0.034322325 -0.009175824
000190 e5 52 73 3c 84 0e 71 3c 1e 4a ac bc 74 9a 17 3d
       0.014851307 0.014712933 -0.021031436 0.037012532
0001a0 c9 3b 2a bc 91 f8 2d 3b c5 f2 0c 3c e0 11 12 bc
       -0.01039023 0.0026545862 0.008602803 -0.008915395
0001b0 44 62 d4 bb 1f fd 13 3d b2 e1 8a bc 19 0d 68 3b
       -0.0064814407 0.036130067 -0.016953323 0.0035408197
0001c0 96 ce 81 3c 97 8d 6b bc e5 cd 0a 3c 06 e4 90 3c
       0.015845578 -0.014377019 0.008471941 0.017686855
0001d0 a1 d3 d6 3b c6 4b 52 bc ef 47 fb bc 81 c9 f0 bc
       0.00655599 -0.012835449 -0.030673949 -0.02939296

_conditioned._func._diffusion._model.0.weight f4 [96, 120]
000000 34 95 78 bd 85 c3 9e 3b 0e 09 09 3d 76 70 0d 3e
       -0.060689166 0.004845085 0.0334559 0.13812432
000010 2a 77 3d bd 5a 22 ce bc 77 9b 83 bd 0e 2b 22 3d
       -0.04625622 -0.025162864 -0.06426137 0.03959184
000020 44 1d 7f bc b2 7d a6 bc f5 76 5a bd 99 45 a2 3c
       -0.015570942 -0.020323608 -0.053336103 0.019808577
000030 9e 4b 5b bd 54 38 b0 bc 6e d5 30 bb db 9e dd 3b
       -0.05353891 -0.021511234 -0.0026982683 0.006763322
000040 30 e5 b0 3d 9a e2 00 3c 22 cd df bc 9d 50 a2 3c
       0.08637464 0.007866526 -0.027319495 0.01981383
000050 b0 26 42 3b 81 89 33 3c d2 6f d7 bc d2 98 60 bd
       0.002962511 0.010958076 -0.026298437 -0.05483324
000060 f4 cb 8c 3d cb 47 1f bc d9 3f ed bd 01 07 1a bd
       0.068748385 -0.009721707 -0.115844436 -0.037604336
000070 6d 21 ad bc 02 ba 93 3c f8 5e 48 3c 52 f6 2c 3d
       -0.021134103 0.018033031 0.012229674 0.042227097
000080 ca b1 e3 3c 4b dc d4 bb 7b 64 9d bd 1f 97 34 bd
       0.027794737 -0.0064959875 -0.07685181 -0.044089433
000090 5c f7 28 3c f1 68 83 3c 05 22 db 3b 82 ce 60 3c
       0.010312881 0.01604125 0.006687405 0.01372111
0000a0 33 b5 8e bc b1 f7 da 3c e6 0c 5b bc c5 11 e4 bb
       -0.017420387 0.026729437 -0.013369774 -0.006960126
0000b0 ab cd 2f bd 00 29 f8 bc f3 b5 96 3d bf a5 9a bc
       -0.04292075 -0.030292988 0.07358923 -0.018877862
0000c0 67 3f c3 3d 07 98 a9 bd 02 dc 8d 3c 4a 9b 4a 3d
       0.095335774 -0.0828095 0.017316822 0.0494645
0000d0 5d 2f b2 bc 0f c9 25 bd 0b 4f 37 bd 0e 72 3d bd
       -0.0217511 -0.040474948 -0.044753116 -0.04625135
0000e0 c0 33 ce bc 04 07 92 bc b4 09 ba bd 8e 68 6d bb
       -0.02517116 -0.017825611 -0.09083882 -0.003622565
0000f0 11 ce 4b bc b3 41 32 bd e2 b1 3d 3d 28 19 4e bc
       -0.012439267 -0.043519687 0.04631222 -0.01257924
000100 ae 0b 5b bc 4e 14 4f bd 4c f6 38 3c 56 94 51 3d
       -0.013369484 -0.050556473 0.0112891905 0.051166855
000110 7d 47 15 bd 23 de dc bc 46 dc 4d bd 76 ca 22 3d
       -0.03644513 -0.026961392 -0.050258897 0.039743863
000120 2f 81 1b bd 35 e4 fe 3c 1b a7 5b bb 05 8e a8 bd
       -0.037964996 0.031114677 -0.003351635 -0.08230213
000130 d5 6d 73 3c df 75 9e bd 08 46 7c bd a6 eb 46 bc
       0.014857729 -0.07737326 -0.061590225 -0.012141144
000140 82 28 c8 3c f7 19 fb 3b 11 fe 68 3d fc c1 b6 bd
       0.024433378 0.0076630074 0.05688292 -0.08923718
000150 d4 03 50 bc d3 5b 3e 3b 1a d9 09 3c c4 e1 26 3d
       -0.012696225 0.002904643 0.008413577 0.04074265
000160 c0 68 cd 3d ea af ab 3d 46 f6 75 3c ea 18 a3 3c
       0.10029745 0.08383162 0.015012329 0.01990934
000170 a9 dd 9a bd fb b0 b6 3c a5 39 3a 3d 7e 56 75 bc
       -0.075618096 0.022301188 0.04546513 -0.014974235
000180 06 38 07 be 71 2a 96 3d f6 91 8e bb b1 13 cd 3c
       -0.13204965 0.07332314 -0.004350896 0.025033804
000190 6a a2 86 bd d1 9f 02 3b 12 54 51 bd 3d 24 b7 bc
       -0.06573947 0.0019931684 -0.051105566 -0.022356147
0001a0 cd e0 45 3d 24 3e cd bb c1 86 be 3d 52 6b 91 3d
       0.04831009 -0.0062635113 0.09303046 0.07100548
0001b0 c3 57 5b 3c 47 8e b9 3c 9e 09 24 3d c7 b6 2e 3e
       0.013387623 0.022650851 0.040048234 0.17061912
0001c0 75 ad 0f b9 d9 40 02 bd ef 2c 71 bd 97 ce cd 3d
       -0.0001370216 -0.031800125 -0.058880743 0.100491695
0001d0 28 52 8d 3d 2f 91 12 3d b8 c2 97 bc 57 df 94 3d
       0.06900436 0.03578299 -0.018525466 0.07269161
0001e0 6a 2b f0 3b 1e ab 62 3b a1 bf 0c 3d cd e0 95 3d
       0.007329394 0.0034586857 0.03436244 0.07318268
0001f0 a9 4c 96 3d 5c 31 69 3c 3c 44 04 bb 49 2c 99 3c
       0.073388405 0.01423296 -0.0020182272 0.018697875
000200 be db 21 3b 0e 72 6c 3d f5 42 39 bd 8c 8a 4f bd
       0.0024697627 0.05772596 -0.04522987 -0.050669238
000210 d8 6a 9b bd fc eb 30 3a 4e 2c a5 3c a1 a8 55 3d
       -0.07588738 0.00067490316 0.020162728 0.05216277
000220 5f 3d 4b 3c 38 6e 79 3d 7e b3 bc 3d 1d cc c6 bb
       0.012404769 0.06089613 0.09213923 -0.0060668127
000230 57 4b ec bd c3 b8 bd 39 4f 2c e2 bb 27 12 6c bd
       -0.115378074 0.00036186547 -0.0069022547 -0.0576345
000240 78 96 ad 3d 3f 72 dc bc 7a 03 b8 3d 87 a0 e6 bc
       0.08475965 -0.026909946 0.08985038 -0.028152717
000250 d5 c2 99 bd d6 13 d1 bd 33 cb 12 3c 58 b6 95 3b
       -0.075078644 -0.102088615 0.008959579 0.004568856
000260 c2 74 d7 3b 06 e9 7a bd d2 2d ce 3c 96 8b 83 3d
       0.006575198 -0.061257385 0.025168333 0.06423108
000270 5f 63 e5 bc 16 cc 33 3d 57 44 5c bd a1 18 13 3c
       -0.028001485 0.043895803 -0.05377611 0.00897804
000280 91 23 23 bd 07 68 63 bc 5d 41 a6 3d 27 08 95 bd
       -0.03982884 -0.0138797825 0.08117936 -0.072769456
000290 e7 12 e0 3d 2c fa e4 3d fb e6 9d 3c 44 33 a1 bc
       0.10941105 0.11180529 0.01927518 -0.019677766
0002a0 4b d1 c0 bc 91 e5 5b 3d d4 d8 ab 3d f0 53 b4 bd
       -0.023537299 0.05368573 0.08390966 -0.08805072
0002b0 8d 60 18 bb 0e 50 ca 3b b7 fa 9c bd c9 bc e3 bb
       -0.0023250908 0.006174094 -0.076650076 -0.006949995
0002c0 98 b0 0d bc 0d 72 ce 3d d8 ba 59 3d 3d 5e 97 bc
       -0.00864806 0.10080347 0.053156704 -0.018477554
0002d0 40 09 1e 3d af 9e ec 3d 69 6d 73 3d 6c dc cf 3b
       0.03858304 0.11553704 0.059430514 0.006343415
0002e0 37 ba b9 bd 3a 97 64 3c 4d 01 11 3d 6f 39 77 3c
       -0.09068721 0.013952071 0.03540163 0.015089377
0002f0 e6 84 75 bd 01 d3 b5 3a b4 71 77 3d 18 98 d3 bd
       -0.059941195 0.0013872088 0.06041117 -0.10331744
000300 5b 83 8e bd 04 e2 e9 3c 43 4b 04 bc eb 0e bf 3d
       -0.06958648 0.028550155 -0.008074584 0.09329017
000310 c3 7f 06 bd 16 18 7d 3d 7f ca 3b bd 91 3f 60 bb
       -0.032836687 0.06179055 -0.045847412 -0.0034217576
000320 b0 c6 27 bd b0 db 83 3d 1f e3 1d bd e2 f5 28 bd
       -0.040960968 0.064383864 -0.038546678 -0.041250117
000330 b2 39 4c 3b 87 82 b9 bc f9 41 b0 bd 29 c3 12 3d
       0.0031162319 -0.022645248 -0.08606333 0.03583065
000340 f1 77 93 3c 3e e9 81 bd 4d 40 a6 3d 0c fc 5c 3d
       0.018001528 -0.063433155 0.08117733 0.053951308
000350 69 7f f8 3b e8 f5 82 3c 37 2b 08 3d 14 f4 e7 3b
       0.007583548 0.015986398 0.033244338 0.007078657
000360 be 4a 77 3d 9d 3d 80 3c 1c d4 b0 bb 07 8f f7 3c
       0.060374014 0.01565438 -0.005396379 0.030219568
000370 f4 47 22 bd 60 f8 64 bc c0 c3 79 3d ac 7f eb 3c
       -0.0396194 -0.013975233 0.060977697 0.028747402
000380 ea f3 3d bd 3c 2c 1a 3d 1d ca 23 3a 73 1e a0 3d
       -0.046375193 0.03763984 0.0006248074 0.07818308
000390 75 9f 19 bd 67 b1 86 3b a4 fd 33 3d 3b 20 a2 bc
       -0.037505586 0.0041105035 0.043943062 -0.01979076
0003a0 83 c4 52 3b 18 c8 8c bc bf 4b 53 bc 82 49 0e bd
       0.0032160587 -0.017185256 -0.012896477 -0.03473807
0003b0 3c 74 da bd ab 3e c2 bd 89 79 d4 3d 20 d3 d3 bc
       -0.10666701 -0.09484609 0.103747435 -0.025857508
0003c0 5c a2 ef bc 1c 6a 01 3d 26 f6 4e bd b2 13 b7 bb
       -0.029252224 0.031595334 -0.050527714 -0.0055870647
0003d0 00 11 89 3d d1 f4 d3 bc 0d 6e ab bc 57 d4 17 3d
       0.066926956 -0.025873573 -0.0209265 0.037067737
0003e0 0d 33 40 3b cf 3d cd bc ef fa 5a bd bd 33 80 3a
       0.0029327304 -0.025053887 -0.053461965 0.0009781044
0003f0 f0 e6 ab 3c be f2 b4 3c e5 bd b8 bc b8 47 71 bc
       0.020984143 0.022088405 -0.022551486 -0.014726572

_conditioned._func._diffusion._model.0.bias f4 [96]
000000 15 42 9e bd 92 91 8f bd ad 81 4f 3d 04 b8 05 3d
       -0.07727448 -0.07010187 0.050660778 0.032646194
000010 47 7e 94 3c ed 0f 1f 3d d9 2b 75 3d b5 5f 74 3c
       0.01812662 0.038833547 0.05985627 0.014915396
000020 00 0d 2b bc 5e 14 55 bd 81 bc 5c 3d de 3c 14 bc
       -0.010440111 -0.052021377 0.05389071 -0.009047715
000030 af 12 97 bd 68 a0 84 bb 1f 34 aa bb 66 13 1a 3b
       -0.073766105 -0.004047442 -0.0051942016 0.0023510098
000040 0d ed 10 3b 7d 49 00 3c 96 54 99 3d 21 9e b4 3d
       0.002211395 0.007830021 0.074868366 0.08819223
000050 da 95 0f 3b 00 3f 1b 3d 8e 84 55 3d 0b 96 92 bd
       0.0021909387 0.03790188 0.052128367 -0.07157525
000060 5f ff 83 bd fe 3f 6f 3d 87 69 84 3d 63 f9 da bc
       -0.064451925 0.058410637 0.0646544 -0.026730245
000070 d3 4a 60 bc df 81 d0 bc 05 0b 8e 3d c5 d0 57 3d
       -0.0136897145 -0.025452552 0.069356956 0.052689333
000080 d5 0a b8 bc 99 c5 9c 3d 5d 1f 81 3d fb 10 6e 3d
       -0.022466103 0.07654876 0.0630481 0.058121663
000090 ba 21 2c 3c eb d9 3f bd bc d9 b4 ba fb e9 de 3c
       0.010506088 -0.046838682 -0.00137978 0.02721118
0000a0 7e 9e 7f 3d 93 12 45 bc 5f 7d c4 3c 32 f5 1a 3c
       0.06240701 -0.012028354 0.023985563 0.009457873
0000b0 96 da a7 3d 8a 01 8f bc 8a 63 26 be f4 f4 f6 3c
       0.08195989 -0.017456789 -0.16248909 0.0301461
0000c0 db 24 bb bc 23 8e 14 bd 5d 18 29 3d bf 89 1b 3d
       -0.022844722 -0.036268365 0.041283 0.03797316
0000d0 96 b5 e1 bd a2 0b 9e bc 25 2c f8 3c 21 ce ea 3a
       -0.11020963 -0.019292656 0.030294487 0.0017914214
0000e0 3d d9 e3 bc 18 7a ad 3b 9e 7f 03 3d bc 54 a6 3d
       -0.027813548 0.0052940957 0.032104127 0.081216305
0000f0 90 84 62 3d 40 b6 76 bd 0d a3 c5 bb 22 78 1a bd
       0.055302203 -0.0602324 -0.0060314 -0.037712224
000100 63 49 b0 bc 24 31 ef 3c 4c 9a 67 bb 6b 7a 74 bd
       -0.021519369 0.029198237 -0.003533977 -0.05968706
000110 f9 04 d1 bd 03 eb 4f 3c 60 d4 89 bd ca 9a 77 3d
       -0.102060266 0.0126903085 -0.067299604 0.060450353
000120 3b f7 0c 3d 95 cb 8c bd 0a e2 62 bc 24 d6 79 bc
       0.034415465 -0.06874768 -0.013847837 -0.015248809
000130 31 9e e9 bc 51 9c c1 3d d3 95 2a bd 21 c2 55 bd
       -0.028517814 0.09453643 -0.04164679 -0.05218709
000140 c4 05 10 3d ee fa 84 3d 2d 52 91 bc 20 96 b9 3d
       0.03516175 0.064931735 -0.01773938 0.09061837
000150 a6 9c 37 3d fa fb 29 3c 86 fa ab 3c 50 64 8d 3d
       0.044827126 0.010375017 0.020993482 0.06903899
000160 8e d2 09 3e e3 af 8c 3d 9d a7 0f bd 95 ac 28 bb
       0.13459226 0.06869485 -0.035071958 -0.0025737633
000170 2f 78 82 3d 94 77 f7 3c 20 fc 98 3d ee 64 a6 3d
       0.063705795 0.030208386 0.07469964 0.081247196

_conditioned._func._diffusion._model.2.weight f4 [120, 96]
000000 f4 c7 0e bc 8b cd 1b 3d e9 91 7a 3c 4d 8a 25 bc
       -0.008714665 0.038037818 0.015293577 -0.010103774
000010 39 14 21 bd 27 ad 4e 3c 0b 99 72 3c 2c 55 3f 3d
       -0.039325926 0.012614525 0.014806996 0.046712086
000020 9b ca 02 3d 30 85 2b bd d1 e7 fb 3b c0 25 0d bc
       0.0319315 -0.041875064 0.007687547 -0.008614957
000030 bf 9a 8d bc f7 d6 f0 3b c4 7d 5f 3d 1e ea 4a bd
       -0.017285703 0.0073498446 0.0545633 -0.049539678
000040 e2 59 c2 3c 78 37 01 3d 03 4d bd bc 5e 9d f7 bc
       0.0237245 0.03154704 -0.023108011 -0.030226406
000050 33 bf b1 bc d2 e6 01 3a 23 72 b3 bc 6f 3a 93 3c
       -0.021697616 0.00049553544 -0.02190501 0.0179722
000060 f8 c1 b4 bc 3a 57 fa 3b a8 64 82 3c 9b 90 9d 3c
       -0.022065148 0.0076397927 0.015917137 0.019233992
000070 77 e5 52 bc 34 a0 5c bc ad ae c0 bc 4e 87 27 3b
       -0.0128720915 -0.01346593 -0.023520792 0.0025562826
000080 c2 05 a3 bc d9 89 3a 3d 84 56 3e 3c 92 d8 06 bd
       -0.019900206 0.045541618 0.011617307 -0.03292138
000090 ec 2d 64 bd c1 b9 8f bc 9d ca 62 bd fc 53 bc 3b
       -0.055707857 -0.017544629 -0.05536901 0.0057473164
0000a0 63 aa 1b 3b 6b 8d 2a bd 35 26 a9 3c 64 27 08 bd
       0.0023752681 -0.041638773 0.020648101 -0.03324069
0000b0 ed ce 4c 38 a3 48 90 bc 46 a9 49 3d b2 69 ac 3c
       4.8830105e-05 -0.01761276 0.049233697 0.021046493
0000c0 2a 22 0a 3d dd 3b 53 bd bb 0b da bb 98 1b f5 3c
       0.033723988 -0.051570762 -0.0066542304 0.029920384
0000d0 65 aa a4 3c 92 9e ab bc db 09 12 bd 82 c5 9c 3c
       0.020100782 -0.020949636 -0.03565393 0.019137148
0000e0 ff 34 00 bd 87 81 3c bd dc f7 21 3d 63 4d 92 3c
       -0.03130054 -0.046021964 0.039543018 0.017859166
0000f0 2e 12 3e 3c a9 df 07 bd 8d bc 8c 3c 1b 32 aa bb
       0.011601014 -0.033172283 0.017179752 -0.0051939613
000100 80 f3 06 bd 43 22 8d 3b d1 0b df 3c c7 5b 1e bd
       -0.032947063 0.004307063 0.027227314 -0.038661744
000110 85 f2 48 3d 8b e3 fa 3c 00 b4 f3 bc 97 9f 38 bd
       0.04905941 0.030626079 -0.029748917 -0.04507407
000120 c8 e2 da bb 12 ce b3 3c 64 3f 7d bc dd 0e 63 bc
       -0.0066798665 0.021948848 -0.015457008 -0.013858524
000130 ac 2c 9c bc cb c3 1d 3d f6 4c b7 bc d6 ce 29 3c
       -0.01906427 0.0385168 -0.022375565 0.010364255
000140 10 9f 2b bd 09 5e 2a bd f8 90 03 bb 8e e2 18 3c
       -0.04189974 -0.041593585 -0.0020075422 0.009331359
000150 86 9c d2 3c 55 15 2c bc ed f9 6f 3a 41 50 13 bc
       0.025709402 -0.010503133 0.00091543683 -0.008991302
000160 21 50 8f 3b 7d e7 4e bc 46 43 3f 3d 2c 6e 62 3c
       0.004373566 -0.012628433 0.046695016 0.013820212
000170 74 08 fa 3b 76 f3 35 bd c3 2e 55 bd fd f4 79 3d
       0.007630402 -0.044421636 -0.05204655 0.061024655
000180 dd 07 85 bc 63 bb 85 3b 76 f7 a4 3b a4 6d 96 3d
       -0.016239101 0.004081176 0.0050343825 0.07345131
000190 3f 96 fe 3d 7a ad e6 bd b4 e7 af 3d c0 05 04 bd
       0.12431001 -0.11263557 0.08589116 -0.032232046
0001a0 3d 51 5d bc 31 6f 94 3d 6a 9e 27 3c 39 85 16 bd
       -0.013508138 0.072477706 0.01023064 -0.036748145
0001b0 8f c8 bb bc dc 09 a5 bc f6 b2 17 39 73 35 f5 bd
       -0.022922782 -0.020146303 0.0001446715 -0.11973085
0001c0 e0 6c cb bc 68 65 dc 3c bc 44 96 bc 83 0a 7a 3c
       -0.02483219 0.026903823 -0.018343322 0.015261295
0001d0 53 79 bd bb 82 82 d6 3d 52 60 a0 bd f4 bd be 3c
       -0.0057822852 0.10474111 -0.07830872 0.023283936
0001e0 ae cc 9e bd 02 91 bd 3c 31 32 ab 3d 76 2e e4 3c
       -0.07753883 0.023140434 0.083591826 0.027854186
0001f0 7e fb 0f bd 10 41 f6 bd 6b 44 d6 bc 6c 44 cf bd
       -0.03515195 -0.120241284 -0.026155671 -0.10120472
000200 c1 c1 67 3d 7f 57 d7 bc 66 10 e9 3b 5c cc 55 bd
       0.056581262 -0.026286839 0.0071125505 -0.052196845
000210 b7 14 f5 bd e9 cf 4e 3c 41 21 f6 3d 08 5d 2f be
       -0.11966842 0.012622812 0.120180614 -0.17125332
000220 f5 ca d2 bc b1 26 21 be f9 40 5b 3d e3 91 59 bd
       -0.025731543 -0.15737416 0.05352876 -0.053117644
000230 c5 08 01 3d f1 4d 05 3c 73 56 83 3c 31 59 85 3d
       0.031502504 0.008136258 0.016032433 0.065111525
000240 42 67 ea 3c 35 f0 51 bd 41 06 95 bd ae 76 0b be
       0.02861369 -0.05125447 -0.072765835 -0.13619491
000250 e1 15 e5 3c b0 1c 0d 3e d5 5b 04 3d bd ba 4e bc
       0.027964534 0.13780475 0.03231414 -0.012617764
000260 dd ad a6 3d 36 8f 7a 3d f7 48 73 be 7b b5 18 3d
       0.081386305 0.061171733 -0.23758303 0.03728245
000270 6e e5 7e bd b0 3c b8 bd bd ea 6a 3d 7d d5 8d bc
       -0.06223052 -0.0899595 0.05735277 -0.017313713
000280 86 a5 02 bd e4 a3 28 bd a8 a4 d4 bd 31 0a 60 3d
       -0.031896137 -0.041171923 -0.10382968 0.05469722
000290 aa 78 de bc 29 3b 3a 3c fb 52 c8 3d 6b b4 69 3b
       -0.027157146 0.011366644 0.09781452 0.0035660516
0002a0 5c ac 48 3d 66 68 19 be 97 6c 04 bd 35 20 a8 bd
       0.0489925 -0.14981231 -0.03233012 -0.08209268
0002b0 a1 07 70 3d 7b a2 1d 3d 14 f7 0d 3b 39 45 54 3c
       0.058601025 0.03848503 0.0021662163 0.012955957
0002c0 7d d6 a5 bd 03 f5 18 3d 85 2e 00 bd 2b 2d 32 bd
       -0.08097551 0.037343036 -0.031294364 -0.043500107
0002d0 57 48 cd 3d ea 66 ad bc 5a 10 bf bd a2 3d 25 bd
       0.10023563 -0.021167237 -0.09329291 -0.04034198
0002e0 45 35 bc 3c a5 8e 17 3d 20 0d 10 bd 40 13 b2 3c
       0.02297462 0.03700127 -0.035168767 0.021737695
0002f0 19 c7 70 bd d7 fc 94 3d bb 64 e6 3b 30 0d 91 3d
       -0.058783624 0.07274788 0.007031051 0.070825934
000300 04 ba 5f bc 90 a5 2f 3d 2c e9 57 3d d8 11 d1 b9
       -0.013655189 0.042882502 0.052712604 -0.0003987688
000310 ab 9c 26 3c 02 7b 48 bd 85 e2 95 3c ae 91 e5 bc
       0.0101691885 -0.048945434 0.01829649 -0.028023567
000320 5d eb a4 3c b4 c1 c2 3b 5a fd 27 bd 84 9a 88 3c
       0.020131761 0.0059435014 -0.0410131 0.016675241
000330 e4 aa 4d bd 69 5d 90 bc 3e e6 ac 3c 6b 1e 08 bc
       -0.050211802 -0.017622666 0.021105882 -0.008308033
000340 36 02 b5 3c 03 d1 35 3d 3f e9 50 3c cf 83 26 3b
       0.02209578 0.044388782 0.012750923 0.0025408154
000350 c2 a0 33 3c 4b d4 60 bc d2 52 b3 3b d3 dc 01 3d
       0.010963621 -0.01372249 0.0054725194 0.031704735
000360 5a 63 68 bd 2a 39 39 bd c9 07 5d 3d ed c3 5d 3c
       -0.056735374 -0.04522053 0.053962503 0.013535482
000370 c4 cd 0b bc a6 22 a1 3c a9 7d d8 3c 36 93 10 3c
       -0.008532945 0.019669842 0.026427107 0.00882416
000380 70 69 0d bd 55 20 90 bd a6 42 0c bd a2 0e 7a bc
       -0.03452438 -0.07037417 -0.03424325 -0.015262278
000390 9e 90 5d 3c 7c 0a 9a 3c cf 56 02 bc 35 25 d5 ba
       0.013523249 0.018803827 -0.007955267 -0.0016261699
0003a0 83 88 dc bc c2 13 2f bd 4a 45 3a bb a4 cf 8c bc
       -0.026920563 -0.042743452 -0.0028422647 -0.017188855
0003b0 fc 0f c2 3c 6c ed b9 3c 79 a4 4d 3d 41 03 d6 bb
       0.023689263 0.02269622 0.05020568 -0.0065311496
0003c0 81 2f 13 bd de 51 6a 3d b0 9e 23 3d e3 71 2a bd
       -0.035933975 0.05720698 0.039946258 -0.041612517
0003d0 e5 c5 0a bd d2 4d ce bc 60 fa 76 3c ec a5 0f 3c
       -0.033880133 -0.025183592 0.0150743425 0.008767586
0003e0 fd 46 c1 3c f2 ab ff 3b da 4c e7 3c d1 e1 0e 3d
       0.02359342 0.00780248 0.028234888 0.034883324
0003f0 73 e9 71 bd 6e 0c 03 bd 65 4c 09 bc 2e 15 1a bd
       -0.059060525 -0.031994276 -0.00838003 -0.037617855

_conditioned._func._diffusion._model.2.bias f4 [120]
000000 8a c4 1d bb 10 13 eb bc 3e a8 8a bc 28 c3 b3 3c
       -0.0024073445 -0.028695613 -0.016925927 0.021943644
000010 62 46 bd bc 73 d9 e2 3c 27 25 bf bc d0 c2 7d bd
       -0.02310485 0.027691578 -0.023333145 -0.061953366
000020 23 25 ad ba 3e 3f 57 bb bb 75 d8 bc c7 8f 19 3c
       -0.001320992 -0.0032844092 -0.026423326 0.009372658
000030 97 f9 db bc e6 64 b0 bc 58 8a 58 bd 62 bc 54 3c
       -0.026852412 -0.021532487 -0.05286631 0.012984367
000040 7e c0 61 3a 6a 97 37 3b be cb b0 bc 74 31 a6 3c
       0.00086117524 0.0028013834 -0.021581527 0.020287253
000050 10 13 9b bc 50 90 f1 bb ed 7d 4b 3c 1b 27 cb bc
       -0.018929988 -0.0073719397 0.01242016 -0.02479892
000060 70 b3 5d bc 63 5f 4b bc b6 c1 95 39 d8 9c 3b 3b
       -0.013531551 -0.012412879 0.0002856382 0.0028627422
000070 6a d3 c3 bc 46 25 57 3d 80 3a 76 bc 01 ef f0 bc
       -0.023904521 0.05252578 -0.015028596 -0.029410841
000080 41 3f 6d 3c 26 c8 97 ba 3a 43 35 bd e5 28 3f 3d
       0.014480413 -0.0011580035 -0.044253565 0.04666986
000090 67 5e 30 bb 21 f2 bb 3c c9 21 08 3c a4 0a 7b bd
       -0.0026911737 0.022942604 0.008308836 -0.061289445
0000a0 77 c6 8d bd 69 01 13 3d 71 54 c9 bc dd 68 40 bd
       -0.0692262 0.035890017 -0.024576398 -0.046975005
0000b0 09 4a b6 3b 50 1e 86 ba 99 8d 31 bc 71 6f 3e bd
       0.005563025 -0.0010232423 -0.010836982 -0.046492998
0000c0 90 7d f8 3b 2b 42 c2 3c 63 22 b1 3c 94 4f d9 3d
       0.0075833276 0.023713192 0.021622842 0.106108814
0000d0 c2 e3 f2 bc 93 91 08 3d 15 9c 18 3c 6c bf 92 bc
       -0.029649619 0.033341955 0.009314557 -0.017913543
0000e0 69 c6 38 bc c4 d0 06 bd 16 e3 c1 3c 85 fd 16 3c
       -0.011277773 -0.03291394 0.023667853 0.009215717
0000f0 30 cd ee 3c 6c 62 65 bb 75 c6 d4 bc 93 1e 91 bc
       0.029150575 -0.003500129 -0.025973538 -0.017714774
000100 38 ba 10 3c 8f ef 94 bc b2 04 71 3a 0b dc c7 bc
       0.0088334605 -0.018180637 0.000919412 -0.024396917
000110 61 45 54 bc 74 8f 15 3c b7 05 77 bc fa aa ab bb
       -0.012955994 0.00912844 -0.015077046 -0.005238888
000120 57 84 a6 bc 09 c1 89 3b 18 ea 11 3c 74 14 64 bc
       -0.020326776 0.00420392 0.00890591 -0.013920892
000130 19 4c 97 bb 21 aa 55 3b 6a b5 c7 3c 72 28 29 bc
       -0.004617226 0.0032602625 0.024378497 -0.010324584
000140 1a 0f f5 3a 5f 2d 01 bc 49 00 51 b9 68 e6 5f 3c
       0.0018696517 -0.0078843525 -0.000199319 0.013665773
000150 54 1d 90 3a f1 c1 1c 3c 49 29 34 bc 7d b6 a1 3c
       0.0010995069 0.009567724 -0.010996171 0.019740338
000160 d7 c9 aa bc 6b c8 6f 3c b2 22 f6 bb 08 39 eb 3b
       -0.020848198 0.014635186 -0.00751146 0.0071784295
000170 8e 63 cb 3c a3 f1 e8 bc 66 b4 7c bc cd 5f 20 ba
       0.024827745 -0.028435534 -0.01542387 -0.0006117791
000180 39 8d 99 bc 1f 14 9f bd 2a 42 69 3d f0 a0 91 bc
       -0.018744098 -0.0776751 0.056947865 -0.017776936
000190 db 8f b1 3c 83 bd a3 bb d8 ae 3d 3d 60 f0 6a 3d
       0.021675041 -0.004996957 0.046309322 0.057358146
0001a0 f9 9a f4 3c 8c 67 57 bc 56 cb a7 3c 0a 46 22 bc
       0.029859053 -0.013147246 0.0204827 -0.009904394
0001b0 f0 c0 6d bc d5 d9 9f 3c 12 97 3a 3b 64 e2 0f 3c
       -0.014511332 0.01951305 0.0028471393 0.008782003
0001c0 9b e0 4a bb c7 36 59 3c 09 32 07 3c c6 9b 5f 3c
       -0.003095663 0.013257689 0.008251675 0.013647979
0001d0 42 00 94 3b ba 4c b4 bc e8 99 d0 bc 5c b4 f4 3b
       0.0045166323 -0.022009242 -0.025464013 0.0074677896
